张闻慧/Tutorial7/Output/fast_text.pth (torch, 112802 bytes, 3 tensors)

embedding.weight f4 [4623, 6]
00000000: 0000 0000 0000 0000 0000 0000 0000 0000
00000010: 0000 0000 0000 0000 cec9 9ebf 8120 34bf
00000020: 02d2 ad3f d5db 44be f0dc 513f a4bb c23e
00000030: ead2 efbe bf7b 00bf ec5f 1d3d f254 8e3f
00000040: a1c4 a2bf da63 5f3f 5331 c6be 4b6d a5bf
00000050: f42c f13e 2236 9cbd afa5 d23e fcef 97bd
00000060: d154 5bbf 9f8f 313e aed4 8bbe f4b6 a5be
00000070: 8506 4cbf 5175 aabf be03 763e da97 a7bf
00000080: 3c7d 073f b875 b1bf 3874 97bf 2680 92bf
00000090: 543f 8b3f ed6e 27be 75c6 883e 870d 4b3f
000000a0: bac7 3bbf 91a2 c13e 929d df3e bd41 5cbf
000000b0: fda5 10c0 b1dd 5d3f 57cc 543f 49f7 60bd
000000c0: 5180 23be 68b4 9ebd 39a6 36bf 1da0 1c3f
000000d0: cb8d 073e f4ad 21bf 6526 52be 6f94 0040
000000e0: 2275 89bf 4ef2 04bf fc4c d4bf 373c 503f
000000f0: 460c a4bc 8e1e 0c3f 133b f9be a643 b33f
00000100: 101c b2bd 7b7e a0be b00a 853e 5d71 48bf
00000110: bba0 18bf 61a1 25bf 7de8 513f 6762 013f
00000120: 62c1 73bf 2680 853f 4e59 8e3e f144 2b3f
00000130: b112 293f ce15 9ebf 3b94 c73e a222 0c3f
00000140: ce0c c63f c54e 1cbf 911e 32bf 6394 0bbc
00000150: 5100 bcbd 26c2 5b3e e77e d33f 5bf7 7e3f
00000160: 28ac a6bd a472 0e3f 0b79 fcbf 1159 4bbd
00000170: ab59 7fbf 7449 e2bf 3e89 15bf b2ae 7abe
00000180: d0c1 87be cd24 c6be 0aa7 793e 40e9 b73e
00000190: 2c15 dfbe 5a2c 8abf d13b ca3e c819 a43f
000001a0: e54e 083f e1e0 a6bd 94f3 4f3e c84c 3f40
000001b0: 8bbc 1dbf ab19 d03f cedd 853e b220 42bf
000001c0: b7bc 9fbf d2c1 d93d e506 eabf 5d2f 4dbf
000001d0: 7c0f 09bc 5de0 88bf 50ba aebf 1c79 84be
000001e0: 6007 11c0 1c8a 1d40 53ef 0cbf 9479 293e
000001f0: 0648 2c3f 77b6 98be 74b4 b23f b42d ef3e
00000200: c1f9 0b3f 151c 9d3e 3110 3abf f0eb f4be
00000210: ef4b 09bf f9e6 183f d517 91bf c619 3b3e
00000220: e5ff 70bf e04b fcbe e6c1 bbbd eb8f b73f
00000230: f0ba 6e3f 2dac 83be c753 b0be 44e8 183f
00000240: a97b 8c3f d842 26be 218f 1bbe 3e1d 07bc
00000250: bc74 0f3e b3c0 dc3f 714f 0740 815a a5bf
00000260: 2f37 0f3f d9d0 34c0 8ace bdbe 9647 78bf
00000270: 4cef ae3f 924a 07be b5b3 99bf fd7f 85bf
00000280: cbb4 a33f 382c 1e40 1e63 bcbf 027f 98bf
00000290: dd8b 6d3f 4800 e53e 9269 dc3e fc7b 4c3e
000002a0: b72f 81be e836 d53e d7a6 b93d cdc0 943f
000002b0: 81d2 663f 5bd6 773f fa0f 3d3d 5ab4 62bf
000002c0: 230d 9e3e 5e0f a73f 704e a8be c85c 0dc0
000002d0: 60be 83bf 0453 163d 809b 80be ea2d fe3f
000002e0: 38e1 a7bd cdd9 35be b5c2 a2bf 5408 b1be
000002f0: 2e2c efbe 2fff acbf 3312 4cbf ca34 a73f
00000300: f405 34c0 3d99 04c0 83b0 b73f 4a2f a6be
00000310: 5b8d aa3f 89b0 813f 4358 0a40 128d 06bf
00000320: 90b4 953f cebb 1d3e e71b d23f cc33 73bd
00000330: 11af b63f a82b e13f b4dc 04c0 8384 f63e
00000340: bed0 5c3f 75ca 1140 d914 c1bc f13b 833f
00000350: 0eaf 4a3f 2b78 aebe a0c0 a7bf ee9a e3be
00000360: adb4 80be f76d 473f b303 01c0 4563 4c3e
00000370: 7a34 f93e f455 0cbf 1199 27bf 9cb7 10be
00000380: 24d7 98bf b333 74bf b863 8abf 0da3 953e
00000390: ee88 83bf b6f5 6a3f 4eea d7be aa95 8d3e
000003a0: 0c2a c23e bc3f cc3f 8708 f43c 3021 453e
000003b0: fa56 493f 3ec5 23bd 81c0 3abf 5045 ab3f
000003c0: 0c4f 983e 3cb7 0d40 799d 113f 4a1d 40be
000003d0: 07dc 92be dfcd a33e 890b 8a3f 193f bebf
000003e0: 247b 3d3f 54cb 8abe fe1d 1c3f 3995 0940
000003f0: 4a32 b1be bd45 d13f 03a1 f1bf eaed 39be
0.0 0.0 0.0 0.0 0.0 0.0 -1.2405336 -0.703621
1.3579714 -0.19224484 0.8197775 0.38033783 -0.46840602 -0.5018882 0.038421556 1.1119673
-1.2716256 0.87261736 -0.38709506 -1.2923979 0.4710461 -0.076275125 0.41142032 -0.0741882
-0.85676295 0.17339943 -0.273107 -0.32366145 -0.7969745 -1.3317052 0.24024865 -1.3093216
0.5292547 -1.386405 -1.1832342 -1.1445358 1.0878701 -0.16350909 0.2671391 0.79317516
-0.73351634 0.3781934 0.43674904 -0.8603781 -2.2601311 0.866664 0.831243 -0.05492333
-0.15966918 -0.077492535 -0.71347386 0.61181813 0.13237683 -0.63156056 -0.20522459 2.0090597
-1.0738871 -0.5193223 -1.6585994 0.8134188 -0.020025384 0.5473412 -0.48677883 1.400502
-0.08696759 -0.31346497 0.25984716 -0.7829798 -0.59620255 -0.6469937 0.81995374 0.50540775
-0.95216954 1.0429733 0.2780251 0.6690207 0.66044146 -1.2350404 0.38980278 0.54740345
1.5472658 -0.6105769 -0.6957789 -0.008519265 -0.09179748 0.2146078 1.6523103 0.99596184
-0.08138305 0.5564368 -1.9724439 -0.049645487 -0.997462 -1.7678666 -0.5841254 -0.24480703
-0.26515055 -0.38699952 0.24380127 0.35920143 -0.4357084 -1.0794785 0.3949876 1.2820368
0.53245384 -0.08148361 0.20307761 2.9890614 -0.6161582 1.6257833 0.26145786 -0.7583114
-1.2479466 0.106326714 -1.8283354 -0.80150396 -0.008365508 -1.069347 -1.3650608 -0.2587365
-2.2660751 2.4615545 -0.5505268 0.16550285 0.672974 -0.2982671 1.396132 0.46714556
0.5467797 0.30685487 -0.72680956 -0.47836256 -0.5363149 0.59727436 -1.1335398 0.1827155
-0.94140464 -0.49276638 -0.091678426 1.4340795 0.93253994 -0.25717297 -0.34438917 0.5972941
1.0975238 -0.16236436 -0.15191318 -0.008246718 0.14009374 1.7246307 2.1142237 -1.2918245
0.5594358 -2.825247 -0.3707164 -0.9698423 1.3666778 -0.1321204 -1.2007967 -1.0429684
1.2789549 2.471449 -1.4717748 -1.191376 0.9279154 0.44726777 0.43049294 0.19969171
-0.25231716 0.41643453 0.09065025 1.1621338 0.90164953 0.96811455 0.046157815 -0.88556445
0.30869398 1.3051565 -0.32872343 -2.208788 -1.0292473 0.036700264 -0.25118637 1.9857762
-0.08197254 -0.17758866 -1.271567 -0.34576666 -0.46713394 -1.3515376 -0.7971527 1.3062985
-2.8128633 -2.071853 1.4350742 -0.32457954 1.3324388 1.0131999 2.161637 -0.52559006
1.1695728 0.15403673 1.6414765 -0.05937557 1.4272176 1.7591448 -2.0759706 0.48147973
0.86256015 2.277982 -0.023569511 1.0252668 0.7917336 -0.34076056 -1.310566 -0.4445414
-0.25137845 0.7790217 -2.0158508 0.19959743 0.4867285 -0.54818654 -0.65467936 -0.14132541
-1.1940656 -0.95391387 -1.0811682 0.2922596 -1.0276163 0.91781175 -0.42170948 0.27653247
0.37922704 1.595695 0.029789222 0.19250941 0.7864834 -0.039983027 -0.7294999 1.3380527
0.29747808 2.2143087 0.5688091 -0.18761173 -0.28683493 0.31993005 1.078477 -1.4863006
0.7401602 -0.27108252 0.60983264 2.1497328 -0.3460868 1.6349407 -1.8877262 -0.18157163

classify.weight f4 [2, 6]
00000000: 07a3 96bd 71a9 343f bbd2 06bf 1d36 363e
00000010: cb9b f8ba 1a30 ab3e d7d6 00bf 8c48 85bd
00000020: c994 993e 47b2 9cbe 7198 b83e b14e a5be
-0.07355314 0.7057105 -0.526653 0.1779408 -0.0018967328 0.33435136 -0.5032782 -0.06507978
0.29996327 -0.30604765 0.36053804 -0.322866

classify.bias f4 [2]
00000000: c8f8 74be e665 a93e
-0.23923028 0.33085555
