张闻慧/Tutorial7/Output/gated_cnn.pth (torch, 114270 bytes, 5 tensors)

embedding.weight f4 [4623, 6]
000000 00 00 00 00 00 00 00 00 00 00 00 00 00 00 00 00
       0.0 0.0 0.0 0.0
000010 00 00 00 00 00 00 00 00 f0 28 be bf c8 02 fc be
       0.0 0.0 -1.4856243 -0.49220872
000020 2b b4 e8 3f fb 75 4d be 46 29 23 3f 37 e7 91 3e
       1.8179983 -0.20064537 0.63734853 0.28496715
000030 ea d2 ef be bf 7b 00 bf ec 5f 1d 3d f2 54 8e 3f
       -0.46840602 -0.5018882 0.038421556 1.1119673
000040 a1 c4 a2 bf da 63 5f 3f 89 ba 97 bd 10 a0 b5 bf
       -1.2716256 0.87261736 -0.07408626 -1.4189472
000050 43 f0 36 3f 53 e8 31 bd 24 7c ee 3e e2 02 15 3e
       0.7146036 -0.043434452 0.46579087 0.14551881
000060 51 bf 82 bf f0 35 c0 3d 6b 23 dc bd 81 33 fb be
       -1.0214635 0.09385288 -0.10748943 -0.49062732
000070 15 21 76 bf 29 2c c1 bf d8 a3 18 3d 9d 33 90 bf
       -0.9614423 -1.5091602 0.03726563 -1.1265751
000080 24 11 38 3f 17 b0 cb bf 9a 85 b0 bf 5f 80 a9 bf
       0.71901155 -1.5913113 -1.3790772 -1.3242301
000090 54 3f 8b 3f ed 6e 27 be 75 c6 88 3e 87 0d 4b 3f
       1.0878701 -0.16350909 0.2671391 0.79317516
0000a0 ba c7 3b bf 91 a2 c1 3e ad 64 61 3e 29 17 43 bf
       -0.73351634 0.3781934 0.22011061 -0.76207215
0000b0 8c 32 1a c0 e0 3f 50 3f 7d dd 2f 3f a3 53 0e be
       -2.4093351 0.81347466 0.6869734 -0.13899092
0000c0 51 80 23 be 68 b4 9e bd 39 a6 36 bf 1d a0 1c 3f
       -0.15966918 -0.077492535 -0.71347386 0.61181813
0000d0 cb 8d 07 3e f4 ad 21 bf f7 e7 92 3d 85 2e 20 40
       0.13237683 -0.63156056 0.0717315 2.5028393
0000e0 0a bc aa bf 4f c3 90 be a8 69 b3 bf 3d f7 88 3f
       -1.3338635 -0.2827401 -1.4016619 1.0700451
0000f0 53 c3 9c 3e 33 a3 ed 3e 19 bf 05 bf e1 92 c4 3f
       0.3061777 0.46413574 -0.52244717 1.5357324
000100 57 3f ea 3c f7 92 a4 be b8 a4 6e 3e 15 e9 3f bf
       0.028594656 -0.32143375 0.23305023 -0.7496503
000110 c2 45 1b bf 91 c9 29 bf 8a d5 47 3f fc f0 fa 3e
       -0.60653317 -0.6632319 0.7806021 0.4901198
000120 fd 87 98 bf 94 3a 9b 3f 0c ae ff 3e 6e 65 43 3f
       -1.19165 1.2127252 0.49937475 0.76326644
000130 50 0c 29 3f 47 46 bd bf 58 e1 45 3f b2 08 b7 3f
       0.6603441 -1.4787072 0.7729697 1.4299529
000140 1c e1 ff 3f c1 9c 34 bf 25 c0 00 bf 04 83 21 3e
       1.9990573 -0.7055169 -0.5029319 0.15772635
000150 6f b4 68 be b2 d0 1f 3f 53 92 f1 3f 46 d8 92 3f
       -0.2272508 0.6242782 1.887278 1.1472251
000160 72 22 d9 3d 59 8a c4 3e 61 a3 00 c0 68 66 ec bc
       0.10602273 0.383868 -2.0099719 -0.028857425
000170 34 b4 69 bf 86 b4 c5 bf d0 cb 07 bf 94 50 b4 be
       -0.91290593 -1.5445716 -0.5304537 -0.35217726
000180 30 49 0d bf 27 a9 98 be b5 03 a3 3e f4 bc be 3e
       -0.551898 -0.29816553 0.31838766 0.37253535
000190 e0 e8 0b bf 42 01 a1 bf e8 e6 5a be 86 ce 9f 3f
       -0.54652214 -1.2578509 -0.21377146 1.2484901
0001a0 df a2 37 3f 58 f1 f6 bd bc fc ce 3e af 4e f2 3f
       0.71732897 -0.120577514 0.40427196 1.8930262
0001b0 9d e2 71 bf fd 0f 6c 3f bc 94 38 3f 26 d0 95 bf
       -0.9448641 0.92211896 0.7210195 -1.1704147
0001c0 49 b6 cc bf b4 63 73 be 0d ff 11 c0 ad a4 88 bf
       -1.5993129 -0.23768502 -2.281192 -1.0675255
0001d0 fd 4a 1b 3e bb 06 ab bf 78 df f2 bf 8c ca 26 bf
       0.15165325 -1.3361429 -1.8974447 -0.6515281
0001e0 25 c5 26 c0 a1 4a a3 3f f7 14 3e bf 31 df ad 3e
       -2.6057827 1.275715 -0.7425074 0.33959344
0001f0 1b 62 00 3e e9 ab 13 bf c8 e6 12 3f 2d c9 ff 3e
       0.12537424 -0.5768419 0.57383394 0.49958172
000200 39 24 15 3f 57 ee d2 3d 53 4d 81 bf 56 42 35 bf
       0.58258396 0.10299366 -1.0101722 -0.70804346
000210 7c 74 68 bf fc fc ad 3d ee 9b a1 bf 4b 31 3f 3e
       -0.9080274 0.084955186 -1.2625711 0.18671148
000220 cc 3d 92 bf 0c 0f 0c bf 21 9e cb be 74 0d bf 3f
       -1.1425109 -0.5471046 -0.3976908 1.492598
000230 73 b7 c8 3f 97 ca c7 bd a3 41 ef be 62 3e ec ba
       1.5680984 -0.09755438 -0.46729764 -0.0018023963
000240 e2 7a 1b 3f 3d 2d 11 3d be f7 85 b8 7b 74 b5 bd
       0.6073438 0.035443533 -6.38808e-05 -0.088601075
000250 f5 46 13 be 23 64 a1 3f 3a 0c 62 3f 3d ce 7b bf
       -0.14382537 1.2608684 0.88299906 -0.9836157
000260 23 88 5a 3f 70 fa 47 c0 8f 12 1c bf 2f 3f 94 bf
       0.8536398 -3.1246605 -0.6096582 -1.1581782
000270 c3 91 02 3f 30 bb fc 3b 4a 20 5f bf 30 65 85 bf
       0.51003665 0.007712744 -0.87158644 -1.0421505
000280 3f 42 9a 3f 22 7a 03 40 a6 d6 08 c0 02 ff 1d bf
       1.2051467 2.0543294 -2.138101 -0.61717236
000290 1b a6 f3 3f e0 1b 37 3f 6e 57 f7 3e 4c 22 f5 be
       1.9035066 0.7152691 0.4830889 -0.4787773
0002a0 41 25 84 be dd 42 d2 3e 59 d0 ad 3d 6a 03 94 3f
       -0.25809672 0.41066638 0.08487005 1.1563542
0002b0 af 57 65 3f ee 5b 76 3f 60 7d e2 bd 68 39 82 bf
       0.8958692 0.96234024 -0.1105907 -1.0173769
0002c0 88 22 33 3e 7a ae a5 3f bf 05 59 be d1 ef 16 c0
       0.17493641 1.2943871 -0.21193598 -2.3583872
0002d0 a8 a8 a7 bf 17 89 92 3e b1 0e 05 bd ad e9 00 40
       -1.3098345 0.28620216 -0.032484714 2.0142624
0002e0 c9 dd 15 3e 03 b1 f5 be 3b df b5 bf a5 32 8a be
       0.14635386 -0.47986612 -1.420875 -0.26991764
0002f0 ec 82 9f be e8 99 c2 bf 9a 14 2f bf 9a 12 b0 3f
       -0.31154573 -1.5203218 -0.6839081 1.3755677
000300 96 d9 40 c0 8a 17 eb bf 8c 0c a9 3f 81 a3 c9 bd
       -3.0132804 -1.8366559 1.3206954 -0.09845639
000310 1b 96 91 3f 39 87 44 3f 43 58 0a 40 12 8d 06 bf
       1.1373934 0.76768833 2.161637 -0.52559006
000320 90 b4 95 3f ce bb 1d 3e e7 1b d2 3f cc 33 73 bd
       1.1695728 0.15403673 1.6414765 -0.05937557
000330 e7 1e 95 3f 25 7f e9 3f d9 1c 03 c0 c0 83 02 3f
       1.1650056 1.8241926 -2.0486357 0.50982285
000340 1a 70 59 3f 69 90 01 40 1a c6 66 be 2d 92 31 3f
       0.8493668 2.024439 -0.22536507 0.6936367
000350 5f a8 7f 3f 9e 44 0c bf ec 4b c1 bf 28 15 27 bf
       0.9986629 -0.547922 -1.5101295 -0.65266657
000360 ad f2 94 be b0 66 29 3f bb 8a 04 c0 e9 95 8a 3e
       -0.29091397 0.66172314 -2.0709674 0.27067497
000370 36 9e d7 3e 5e cf 1d bf 41 82 37 bf fc be b0 bd
       0.42112893 -0.6164454 -0.71683127 -0.086301774
000380 54 2a 92 bf eb 4b 82 bf 07 12 92 bf a6 32 74 3e
       -1.1419168 -1.0179418 -1.1411752 0.23847446
000390 11 28 82 bf 43 df 92 3f 85 23 da be e2 92 96 3e
       -1.0168477 1.1474384 -0.42605224 0.29408938
0003a0 a8 36 c3 3e 71 b7 e6 3f d0 49 dc bc 6f 53 ad 3e
       0.38127637 1.8024732 -0.026890665 0.33852717
0003b0 54 e6 85 3f 5c 5e fb bd 0f ab 59 bf 8e 00 7a 3f
       1.0460916 -0.12273857 -0.8502664 0.97657096
0003c0 0c 4f 98 3e 3c b7 0d 40 79 9d 11 3f 4a 1d 40 be
       0.29747808 2.2143087 0.5688091 -0.18761173
0003d0 07 dc 92 be df cd a3 3e 68 80 95 3f 30 d9 cd bf
       -0.28683493 0.31993005 1.1679811 -1.6081905
0003e0 29 28 52 3f 41 91 b6 be cd 47 3d 3f be e8 0e 40
       0.8209253 -0.35657695 0.73937684 2.2329555
0003f0 ac 71 17 bf f8 07 cc 3f ea 52 e4 bf 34 9a 15 be
       -0.59157825 1.5939932 -1.7837803 -0.14609605

encoder.cnn.cnn.weight f4 [6, 6, 3]
000000 4f 81 10 bd 37 2f e9 3e cc fd 52 bd 6a 94 64 3e
       -0.03527957 0.45543835 -0.05151157 0.2232224
000010 54 96 e4 be c5 8a 7e bd fd 7d 04 3e d5 1e ed 3d
       -0.4464594 -0.06214406 0.12938686 0.11578146
000020 6c cf fc 3d 1c a4 81 be 43 1e 68 3e 9c e0 5d be
       0.1234425 -0.25320518 0.22667794 -0.21667713
000030 e4 77 c3 bd 60 fb 0e 3e f5 bf 11 3e 39 a4 a2 3d
       -0.09544352 0.1396308 0.14233382 0.07941479
000040 fe 5b 93 3c a0 a0 4b 3e 9a 4c 8a 3c 0b b1 96 bb
       0.017988201 0.19885492 0.01688223 -0.004598742
000050 21 5e 26 3f b4 e9 8a 3c 0f d0 ce bd 0f ac 46 be
       0.6498738 0.016957141 -0.10098278 -0.19401573
000060 df f9 bb 3c ab e1 a2 bd 10 40 64 be 3c b6 29 bd
       0.022946296 -0.07953199 -0.22290063 -0.041433558
000070 e2 5c 8b 3d 7d 19 92 3e 52 7d c7 3d 0e d1 9d 3d
       0.06804825 0.2853507 0.097407 0.0770589
000080 e9 9b 1c be 33 18 2c 3e ee 20 10 3c ca 65 6b be
       -0.1529385 0.16806106 0.008796914 -0.22988048
000090 1c 3b 14 be 78 e0 77 be 95 54 75 be f8 6c 89 38
       -0.14475673 -0.24206722 -0.23958047 6.552966e-05
0000a0 2c bf e4 3e 3e 80 f2 3d 3b cd c4 3d ff be 93 3e
       0.44677103 0.118408665 0.09609457 0.28856656
0000b0 2a d2 ff 3d 58 0f 92 be b3 a4 8d 3e 02 80 ef be
       0.124912575 -0.2852733 0.27664718 -0.4677735
0000c0 10 ab aa be fa 5a c4 3d 1f 33 dd be 74 e1 60 be
       -0.33333635 0.09587665 -0.43203065 -0.21961004
0000d0 ac 30 14 bf 6d fe 41 be 28 8f 47 3e 69 6f db bd
       -0.5788677 -0.18944712 0.19488204 -0.10714609
0000e0 e7 61 5f 3e 31 42 8c be f6 15 ec be 12 3a 24 be
       0.2181469 -0.2739425 -0.46110505 -0.16037777
0000f0 f9 95 4c bd d8 d3 a0 3e 09 89 3d be 61 80 cb bd
       -0.049947713 0.31411624 -0.18509306 -0.09936596
000100 ab d0 ff bd 50 10 9e bc 53 d0 6e 3e d3 c3 68 3e
       -0.12490972 -0.019294888 0.23321657 0.22730951
000110 2a 69 03 3e 6e 14 23 3d 8b df 61 3e 25 5a 15 be
       0.12833086 0.039814405 0.22057931 -0.14585169
000120 13 18 25 be 59 25 02 bf 73 b8 6f be 82 da 00 3e
       -0.16122465 -0.5083824 -0.23410206 0.12583354
000130 59 d3 dd be f5 76 a0 be 9b be 87 3e 0d 92 c5 be
       -0.43325308 -0.31340757 0.26512608 -0.3858799
000140 0f cd e6 be 20 e2 e0 be 7d c5 38 3d cc 33 c7 3e
       -0.45078322 -0.4392252 0.045110215 0.38906705
000150 b4 a3 4e 3e 7f 4c 7e be 27 a6 9c 3e 8c 4d e1 3d
       0.20179635 -0.24833868 0.30595514 0.11001119
000160 8f 89 8c 3d 86 41 35 be f1 b2 ac bd 84 8c ac 3e
       0.06862175 -0.17700776 -0.08432568 0.33700955
000170 d2 38 17 be 4e 8b 03 bf 3d f1 8c 3e cc 17 fe bc
       -0.14767769 -0.5138444 0.275278 -0.031017207
000180 2f bf 92 be 2f d7 05 be 0b 84 8b 3e 0a 73 6e be
       -0.28661487 -0.13070367 0.27249178 -0.23286071
000190 c4 3d db 3b 6c 8e ea bd 81 de c8 3e c4 41 3c 3e
       0.0066907126 -0.11452946 0.39232257 0.18384463
0001a0 ee 1f 5a be 7a 98 1b 3d 0b 11 54 bd da 7f 3a 3e
       -0.21301243 0.03798721 -0.051774066 0.18212834

encoder.gate.cnn.weight f4 [6, 6, 3]
000000 d3 0f ca 3d 81 13 06 3e e9 12 e0 3e c5 75 c3 3e
       0.098662995 0.13093378 0.43764427 0.3817579
000010 5d 17 83 be f3 30 07 3e fd 1c f2 3d 5f 1c a3 be
       -0.25603762 0.13202266 0.11821935 -0.31857583
000020 df 20 84 3e 2f d6 c1 3e 48 ce db 3c 97 37 ba bd
       0.2580633 0.37858722 0.026831761 -0.09092634
000030 9b f0 00 3e c0 eb 29 3e 0f d3 31 3e 9b 36 74 3e
       0.12591784 0.16593838 0.17365669 0.23848955
000040 e2 a7 86 be 8c 73 ee 3e 2f ed 8b be 58 92 fb 3b
       -0.2629996 0.4657253 -0.27329394 0.0076773576
000050 99 b3 a2 3e 4b 8f e2 bd db e4 d6 3e 8c 4c 6c be
       0.31777647 -0.11062487 0.41971478 -0.23076075
000060 75 7d 0d be 48 fb 3c 3f 20 ec a1 be 05 2c cd bd
       -0.1381739 0.73820925 -0.31625462 -0.10018162
000070 e6 e8 a5 be b2 bd e3 bd 2d ca 0d be 3e 9b 71 3e
       -0.3240425 -0.11120166 -0.13846655 0.23594376
000080 99 cd e6 3e 8c b2 3e 3e c5 94 8f 3e 71 c2 39 be
       0.45078734 0.18622798 0.2804319 -0.1814058
000090 fd 19 4b be 47 e0 ea be 55 ac 0c bf cd 3d 95 bb
       -0.19834132 -0.45874235 -0.5495046 -0.0045544864
0000a0 2a d8 6d 3e 7b 4f 78 3e 53 f2 a2 bd 4c fd e1 3d
       0.23226991 0.2424907 -0.07956376 0.11034641
0000b0 39 fd aa 3e f4 43 72 be 2f 84 96 3d 30 b3 0c bf
       0.3339632 -0.23658735 0.07349431 -0.5496092
0000c0 89 b8 a3 be 96 06 69 3e 83 3d 9b be 21 6b 02 be
       -0.31976727 0.22756419 -0.30320367 -0.12736179
0000d0 f7 96 56 be e5 f1 9d bc 17 62 29 bd 8e 31 73 bc
       -0.20956026 -0.019280383 -0.04135331 -0.014843358
0000e0 7e 6f 34 3f 9e 3f 94 bd 27 01 87 be 7b 0e 35 3e
       0.70482624 -0.072386965 -0.26368067 0.17681305
0000f0 61 50 fd bd 35 a4 01 3d ce 86 60 3e 8b 6a 0b bd
       -0.12368847 0.03165074 0.21926424 -0.034037154
000100 5d 80 9d be 89 3e ae bd 7e b3 3e 3d f1 5f 83 3e
       -0.30761996 -0.085080214 0.046557896 0.25659135
000110 54 65 f8 3d 55 8e 94 be c0 b5 56 3e f6 ee e7 bd
       0.12128702 -0.2901484 0.2096777 -0.11324875
000120 98 47 1f 3c 80 a3 c5 be c2 b6 d5 be d1 83 eb 3e
       0.009721659 -0.38601303 -0.41740996 0.45999005
000130 ae ff ce 3d 94 26 cf bd c0 c2 fc 3c f5 d1 9c be
       0.10107361 -0.1011478 0.030854583 -0.30628935
000140 7a 89 f9 bd e6 8a 87 be 4f 08 0b be d4 6f cc 3e
       -0.12184425 -0.2647316 -0.13577388 0.39929068
000150 cd 1f 11 bd 80 54 e2 be 46 af 26 be 3f ed 4b be
       -0.03543072 -0.44205093 -0.16277799 -0.19914721
000160 5e 45 2d be 30 60 30 be ba be 92 be dc 78 46 3b
       -0.16920993 -0.17224193 -0.28661138 0.003028444
000170 a7 a4 19 3e 66 63 0f be 92 2b 7d 3d 27 d1 74 3c
       0.15004216 -0.14002761 0.06180913 0.014942444
000180 32 bc 56 3e b3 7f 3e be 63 bd 93 be af b9 8f be
       0.20970228 -0.18603401 -0.28855428 -0.28071353
000190 48 f2 de be 61 71 a4 3e 60 ce c2 3e ec c7 d6 3e
       -0.4354422 0.3211775 0.38048077 0.41949403
0001a0 40 50 29 bd c9 31 d3 3e 91 45 d0 3d 27 6a c3 3e
       -0.041336298 0.4124892 0.10169519 0.38166925

classify.weight f4 [2, 6]
000000 94 6a e2 bd ef 06 5a be 16 ae 2e 3f 41 12 e5 be
       -0.110554844 -0.21291707 0.68234384 -0.4474049
000010 d2 69 c2 3e 7b 6f 97 3c e0 5d 03 3f d6 a7 bf 3e
       0.3797136 0.018485775 0.51315117 0.37432736
000020 1e e0 4a be 07 37 02 3f 79 d0 13 bf 3d c2 17 3f
       -0.19812056 0.50865215 -0.5773998 0.5928076

classify.bias f4 [2]
000000 96 ad 31 3e cd d1 1c be
       0.17351374 -0.15314408
