张闻慧/Tutorial7/Output/gru.pth (torch, 114712 bytes, 7 tensors)

embedding.weight f4 [4623, 6]
000000 00 00 00 00 00 00 00 00 00 00 00 00 00 00 00 00
       0.0 0.0 0.0 0.0
000010 00 00 00 00 00 00 00 00 34 ac 43 bf 33 58 9a be
       0.0 0.0 -0.76434636 -0.30145416
000020 3f 7a c9 3f 2e 7e 20 bf 09 dc fc 3e 1b df 75 3f
       1.5740432 -0.62692535 0.49386624 0.96043557
000030 ea d2 ef be bf 7b 00 bf ec 5f 1d 3d f2 54 8e 3f
       -0.46840602 -0.5018882 0.038421556 1.1119673
000040 a1 c4 a2 bf da 63 5f 3f 5d 89 fe be 16 1b 9a bf
       -1.2716256 0.87261736 -0.49714175 -1.2039516
000050 07 25 2e 3f 23 8b 62 3d 8a e2 95 3e c7 d3 15 bd
       0.6802525 0.055308472 0.29274398 -0.03657892
000060 6e 02 61 bf 6e 32 3b 3e ee 6b 83 be 37 d9 90 be
       -0.8789433 0.18280956 -0.2566828 -0.28290722
000070 25 de 41 bf dc cf a8 bf 93 0b 95 3e e6 9e b5 bf
       -0.7572959 -1.3188434 0.29110393 -1.4189117
000080 7d e5 1e 3f 64 14 c0 bf 32 d0 a4 bf 13 8a a1 bf
       0.6206892 -1.5006223 -1.2876036 -1.2620262
000090 54 3f 8b 3f ed 6e 27 be 75 c6 88 3e 87 0d 4b 3f
       1.0878701 -0.16350909 0.2671391 0.79317516
0000a0 ba c7 3b bf 91 a2 c1 3e 13 f8 33 3e 64 ee 8a bf
       -0.73351634 0.3781934 0.17575102 -1.0854001
0000b0 7d 0c 01 c0 df 5a 44 3f e1 73 85 3f 1c 90 1e 3e
       -2.0163872 0.7670116 1.0425988 0.15484661
0000c0 51 80 23 be 68 b4 9e bd 39 a6 36 bf 1d a0 1c 3f
       -0.15966918 -0.077492535 -0.71347386 0.61181813
0000d0 cb 8d 07 3e f4 ad 21 bf 11 00 22 3c 5e e0 10 40
       0.13237683 -0.63156056 0.009887711 2.2636943
0000e0 a0 9d 8c bf 3c 5a ab be 18 ee f4 bf 68 d3 0e 3f
       -1.0985603 -0.3346728 -1.913516 0.5579133
0000f0 4b fa 56 3c 96 d7 0c 3f 12 fc 02 bf 56 52 e5 3f
       0.013121198 0.5501646 -0.5116588 1.7915752
000100 74 5d 8f bd a7 e4 aa be 13 bf 6b 3e 91 bc 48 bf
       -0.07000247 -0.33377573 0.23022108 -0.7841273
000110 5f 91 22 bf e2 2b 1c bf df 01 59 3f f7 6a 09 3f
       -0.6350307 -0.6100446 0.8476848 0.5367884
000120 f5 b9 6d bf 14 2d 87 3f de fa 8f 3e f9 82 22 3f
       -0.9286187 1.0560632 0.28121084 0.634811
000130 fe b4 21 3f 22 d2 9f bf 37 15 27 3f 0c 86 d6 3f
       0.631668 -1.2486002 0.65266746 1.6759658
000140 f6 c7 f7 3f 73 3f f2 be 5c 6e 13 bf 68 c0 83 3e
       1.9357898 -0.47314033 -0.5759027 0.25732732
000150 90 a4 03 3c 4c 52 fd 3e 68 99 d6 3f ef 0e 61 3f
       0.00803484 0.4947685 1.6765566 0.8791341
000160 ec d5 24 be 66 3c 2a 3f 2e 04 e3 bf 71 9d e5 be
       -0.1609723 0.6649841 -1.773565 -0.4484668
000170 7a 1b 1c bf 5a f6 02 c0 44 2a 5f bf a9 c3 19 bf
       -0.60979426 -2.046286 -0.8717387 -0.6006418
000180 c0 52 73 bd a1 d6 03 bf 07 b0 a5 3e 6c a8 32 3e
       -0.05940509 -0.5149937 0.3236086 0.1744706
000190 93 dc 14 bf aa a0 98 bf 39 bd e0 3d 1e 4b 75 3f
       -0.5814907 -1.1924031 0.10973591 0.95817745
0001a0 b6 df 0f 3f 53 76 2f be 2a 4d 2b 3f 56 cd 20 40
       0.5620073 -0.17134981 0.6691462 2.5125327
0001b0 4e 47 28 bf 81 1c 27 3f 3b 24 0f 3f e5 03 5d bf
       -0.657338 0.6527787 0.5591466 -0.8633407
0001c0 37 55 ac bf e7 86 d7 bd 8e 99 a9 bf cc 0e b5 bf
       -1.3463506 -0.105237775 -1.3249986 -1.4145141
0001d0 33 49 1a 3f 74 35 d9 bf 2c c3 fc bf f4 9d 36 bf
       0.60267943 -1.6969438 -1.9747062 -0.7133477
0001e0 0c ca 1a c0 39 e0 db 3f c9 cf 3b bf de 29 59 3d
       -2.418582 1.7177802 -0.7336393 0.053018443
0001f0 a4 12 4f 3f 28 c6 15 bd db da 27 3f 1c 6a c5 3e
       0.8088782 -0.03656593 0.6556832 0.38557518
000200 45 83 2b 3f 56 5e 54 3e 21 da 26 bf d5 c2 dc be
       0.66997176 0.20739111 -0.6517659 -0.43117395
000210 5c a8 56 bf bc 29 80 3e 7a 37 5f bf e8 24 59 3e
       -0.83850646 0.2503184 -0.87194026 0.21205485
000220 43 89 4f bf 2f 40 ea be 42 38 e2 bd df 7d 9e 3f
       -0.8106882 -0.45752093 -0.110458866 1.2382163
000230 f4 6e a5 3f ac 0a 63 be 2b d2 a4 be 1d 04 22 3f
       1.2924485 -0.2217204 -0.32191595 0.63287526
000240 15 0e 51 3f 9f 56 56 be 18 d4 ce bc 58 65 b2 3d
       0.8166211 -0.20931481 -0.025247619 0.08710736
000250 18 65 75 3e c8 04 a6 3f f7 76 b6 3f bb fc dc bf
       0.23964345 1.2970209 1.4255055 -1.7264627
000260 e9 6a 80 3f 4f a2 4d c0 89 44 36 bf 37 73 9a bf
       1.0032626 -3.2130315 -0.71198326 -1.2066411
000270 4b 81 1e 3f 70 00 9b 3d 78 88 a9 bf aa 91 9f bf
       0.61916035 0.07568443 -1.3244772 -1.2466328
000280 84 32 f2 3f 81 a2 1c 40 96 e3 7a bf a5 22 31 bf
       1.8921666 2.4474185 -0.9800352 -0.6919349
000290 ed 94 75 3f 2c d0 53 bd 73 ba 33 3b 49 d5 25 3f
       0.9593037 -0.0517122 0.0027424365 0.6477857
0002a0 cc 4f 72 be cf 60 dc 3e 81 b7 04 3e ba 2b 93 3f
       -0.23663253 0.4304261 0.12960626 1.1497719
0002b0 a4 af 62 3f 40 c0 6b 3f ec d1 ec 3d 8e f3 4d bf
       0.88549256 0.92090225 0.11563477 -0.8044976
0002c0 03 85 6a 3e 0d 40 8d 3f 5c ec cd be 10 ab 08 c0
       0.22902302 1.1035172 -0.4021939 -2.1354408
0002d0 02 8d 7d bf db a1 c6 3d b6 af b6 be 8b ac e1 3f
       -0.99043286 0.0969884 -0.35680932 1.7630781
0002e0 29 6b c5 bd 73 b2 89 bd dd c0 a4 bf 03 9c c2 be
       -0.0963958 -0.067234896 -1.2871357 -0.38009652
0002f0 c8 e5 ed be 85 ad a9 bf f3 e1 49 bf e7 ef a7 3f
       -0.46464372 -1.3256079 -0.78860396 1.3120087
000300 1c 9a 25 c0 57 39 f0 bf 1b df a8 3f 06 c9 04 bf
       -2.587531 -1.8767499 1.3193086 -0.5186924
000310 67 08 92 3f 34 b9 a1 3f 43 58 0a 40 12 8d 06 bf
       1.1408814 1.2634645 2.161637 -0.52559006
000320 90 b4 95 3f ce bb 1d 3e e7 1b d2 3f cc 33 73 bd
       1.1695728 0.15403673 1.6414765 -0.05937557
000330 6e 34 9e 3f 92 a6 df 3f 05 59 0c c0 a3 ab 0e 3f
       1.235975 1.7472708 -2.1929333 0.55730647
000340 eb 8e 52 3f e5 b1 02 40 c2 7e 41 3e e3 69 0e 3f
       0.82249326 2.0421078 0.1889601 0.5563032
000350 5d 14 7a 3f ea 38 12 bf 3e f7 c3 bf ee 92 29 bf
       0.9768732 -0.57118094 -1.5309827 -0.6623982
000360 2c 43 dc be a5 d5 08 3f e6 b4 eb bf 90 3b e2 3d
       -0.43019998 0.53450996 -1.8414581 0.11046517
000370 9e 00 29 3f 70 18 d5 be ee 0d 24 bf 3d 31 0f be
       0.66016567 -0.41620207 -0.64083755 -0.13983627
000380 25 cd 9a bf 04 1f 81 bf 45 35 8c bf a2 34 97 3e
       -1.2093855 -1.008759 -1.0953757 0.29532343
000390 8e fc 52 bf 03 7e 76 3f 5d 06 4d be 07 31 e1 3e
       -0.8241662 0.9628603 -0.20021959 0.43982717
0003a0 7e 42 40 3e 38 b1 cc 3f f2 02 ac 3b d9 99 3f 3e
       0.18775365 1.5991583 0.0052493745 0.18711032
0003b0 72 ba 82 3f 95 65 33 bc e4 42 35 bf 7c 83 91 3f
       1.0213149 -0.010949512 -0.7080519 1.1368251
0003c0 0c 4f 98 3e 3c b7 0d 40 79 9d 11 3f 4a 1d 40 be
       0.29747808 2.2143087 0.5688091 -0.18761173
0003d0 07 dc 92 be df cd a3 3e 07 f0 92 3f 2d 40 b9 bf
       -0.28683493 0.31993005 1.14795 -1.447271
0003e0 fd a8 37 3f 0a 11 6c be 5b df 22 3f a8 98 09 40
       0.7174223 -0.23053375 0.63622063 2.1499424
0003f0 1c 75 e3 be a5 38 c9 3f 06 84 e4 bf 5d 6d 69 be
       -0.44425285 1.5720412 -1.785279 -0.22795625

encoder.weight_ih_l0 f4 [18, 6]
000000 1c 3a 8d be cc 10 b3 3e c9 ef 94 be 30 b4 92 3e
       -0.27583396 0.34973752 -0.29089192 0.28653097
000010 48 11 22 3e 24 f5 77 3e 08 23 7e be 51 b8 7c 3e
       0.15826905 0.24214607 -0.24818051 0.24679686
000020 ce 46 4c 3e 81 e8 95 be 71 be ed bd 3f 85 83 be
       0.19948885 -0.2927895 -0.116085894 -0.25687596
000030 0f b5 fb bd 9c 18 66 3e 43 45 56 be d5 e1 31 be
       -0.122903936 0.22470325 -0.20924859 -0.17371304
000040 67 d7 57 3b a6 56 f0 bd d1 4e d8 3e 4b 32 71 be
       0.0032934786 -0.11735277 0.42247632 -0.23554341
000050 1f ec cd 3e e6 28 79 3e 06 36 e4 bd 1b f2 5f bf
       0.4021921 0.24332008 -0.11143117 -0.874788
000060 41 0e a1 3d 41 cb 14 bd 11 f0 10 bf 93 3e bb bd
       0.07864047 -0.03632665 -0.5661631 -0.091427945
000070 65 10 98 be ae 32 9a 3e f7 a9 9c be 3a 31 04 bd
       -0.29700008 0.3011679 -0.30598423 -0.03227351
000080 f4 29 b4 3e 81 83 d5 bd 13 b2 9b 3d d4 b3 b6 39
       0.35188258 -0.10425473 0.07602324 0.00034847728
000090 94 82 bd bd f8 bf d8 3e fd 12 93 be bc e1 90 3e
       -0.092534214 0.4233396 -0.28725424 0.28297222
0000a0 49 06 5c 3e c3 aa bf 3d 80 83 f0 3e ba ba 8b 3e
       0.21486773 0.09358742 0.46975327 0.272909
0000b0 9a 01 b3 3e 1e b4 e0 be f1 62 b6 3c c3 60 f7 be
       0.3496216 -0.43887419 0.022263976 -0.4831601
0000c0 e0 21 8d be 79 eb 20 3e e7 f2 bf be 4d e5 09 be
       -0.27564907 0.15714826 -0.37490007 -0.13466378
0000d0 2f f8 ee be d3 7b 11 be 19 0f 89 3e 08 5b af be
       -0.46673724 -0.14207391 0.2676933 -0.3424914
0000e0 e5 7c 41 3e df 2d 16 bb 78 6a 9b be 8d 09 0f bf
       0.188953 -0.0022915525 -0.30354667 -0.5587395
0000f0 a1 a8 b9 3e 33 53 ab 3e 08 97 e3 be 42 10 cd be
       0.36261466 0.33461913 -0.44451165 -0.40051466
000100 51 91 e6 be 86 ce 95 bd 2b 95 f8 bd 9f 30 aa 3e
       -0.45032743 -0.07314782 -0.121378265 0.3324022
000110 11 82 ac 3e 66 2d 8e be d0 41 08 3e 78 40 9d 3e
       0.33692983 -0.2776901 0.13306355 0.30713248
000120 4d fc 93 3c ed b5 e3 be b4 b2 ec 3d 9a a6 cd be
       0.018064642 -0.44474736 0.115575224 -0.4016617
000130 95 39 f7 be a4 fd c2 be e0 17 2e be 90 5f 3e be
       -0.4828612 -0.38084137 -0.17001295 -0.18591142
000140 44 8d 13 be fd 37 02 3e 8d ec 58 3d 53 0b 87 3e
       -0.14409357 0.1271667 0.052959967 0.26375827
000150 c9 02 9a 3d 90 6e cd bd e3 63 39 3e 30 6e c1 bc
       0.075200625 -0.10030854 0.1810451 -0.023612112
000160 ae 64 3b 3e 4b 30 c1 bc 20 16 2b be 00 f5 d5 3e
       0.18300125 -0.023582598 -0.16707659 0.41788483
000170 0e 8b 89 be 33 5a 60 be b5 41 7e 3e e2 6f 9d 3e
       -0.26863903 -0.21909408 0.24829753 0.30749422
000180 b4 19 b8 be e7 ce 9e be 8b 44 fe 3e 09 fa 79 3e
       -0.3595711 -0.3101723 0.4966167 0.24411787
000190 38 a4 00 3e 21 d3 9a be 41 2d 07 3f 17 e1 2a 3e
       0.12562644 -0.30239204 0.52803427 0.16687427
0001a0 4b fb 0f bf 30 e2 6b 3d f4 a5 fd bd a7 1d 12 be
       -0.5624282 0.057588756 -0.12385169 -0.14269124

encoder.weight_hh_l0 f4 [18, 6]
000000 4f 1f 23 3e c7 ad 8c bd 4c 67 f3 3e fc 95 a4 3e
       0.15929912 -0.06869083 0.47539747 0.3214568
000010 11 4d 23 3e 81 03 1b bb 5a 73 6d be 23 40 fd bd
       0.15947367 -0.0023653212 -0.23188534 -0.12365749
000020 52 7a 1a 3e f3 b9 5b bd b8 32 87 be 99 b0 8e 3e
       0.15085724 -0.053644132 -0.26405883 0.27869108
000030 10 ff 93 be b2 37 28 3f 14 8e 53 3f f1 32 2f bd
       -0.28905535 0.65709984 0.8263867 -0.04277319
000040 90 36 2f bf 1d c0 89 3e f3 63 da bc 4f b7 0e 3f
       -0.6844263 0.26904383 -0.026658988 0.55748457
000050 0a a7 f5 3e df be b9 3d 82 c9 9d 3b bd d7 5b be
       0.47979003 0.09069609 0.0048152814 -0.21469016
000060 98 7e 53 be c0 bd 92 3e a9 a6 a3 bc 05 f2 18 3e
       -0.2065376 0.28660393 -0.01997693 0.14936073
000070 59 97 3c be e1 2f fe bc 26 ae a1 be 72 59 1d 3e
       -0.1841711 -0.03102869 -0.31578177 0.15366152
000080 d8 a9 18 3f cf ad 43 3d 01 42 0b 3e 01 13 9b bd
       0.5963416 0.04777318 0.13599397 -0.07571984
000090 f1 57 94 be d0 ab 3f bf 59 01 6f bf a1 46 a7 3e
       -0.28973344 -0.7487154 -0.9336143 0.32671073
0000a0 d0 60 f8 3e 3e 4b 2d 3e f5 5d 88 bd 21 f2 0b 3e
       0.48511362 0.16923234 -0.06658546 0.13666584
0000b0 59 d9 82 3e 76 bc 8a bd ce a2 b8 bd f6 73 05 bf
       0.25556448 -0.06774227 -0.090154275 -0.5213007
0000c0 ba f2 17 be 9d cd 35 3e c5 24 8e bd df 72 4e 3e
       -0.14838687 0.17754216 -0.06940607 0.20161007
0000d0 ed c9 b2 3e 47 86 18 be 8e ae 32 3f 95 9f 5d bf
       0.34919682 -0.14894973 0.697976 -0.8657163
0000e0 1d 8f 16 be 5f 56 c3 be df 9c dc 3e 62 33 10 3f
       -0.14703031 -0.38151833 0.43088433 0.56328404
0000f0 c2 f9 8a 3e 70 ce 24 bf 30 d5 12 be 23 41 07 3f
       0.27143675 -0.643775 -0.14339137 0.52833766
000100 e9 0c ae be a0 38 1d 3d 4a f2 0a 3f 1a 58 8e 3d
       -0.33994225 0.03838408 0.54275954 0.06950398
000110 af 4f f6 be 43 6e 43 3e 33 b3 19 3f c6 19 87 bd
       -0.4810767 0.1908503 0.6003906 -0.06596713
000120 c1 d5 2d 3e 85 8f b5 be 68 cc 2a bf 80 69 ed 3e
       0.16976072 -0.3546106 -0.6671815 0.46369553
000130 bc e2 d6 3e 59 17 7e bd 95 4e 9a bd a8 fd 94 bb
       0.4196986 -0.062033985 -0.075345196 -0.0045468397
000140 df 32 83 3e 22 24 97 be 7c 0f 0e bf c8 c8 b5 3e
       0.2562475 -0.29519755 -0.5549238 0.35504746
000150 16 df a8 be 26 bc 42 3e 2a a1 5f 3e 96 29 06 bf
       -0.329827 0.19017085 0.21838823 -0.52407205
000160 68 65 32 bf b4 28 b8 be 79 ef 33 3e ed 05 5c bf
       -0.69685984 -0.35968554 0.1757182 -0.8594654
000170 cc 3b ee be 09 3a 99 3e c1 02 32 3f 61 40 0f 3d
       -0.46529996 0.2992709 0.6953545 0.034973506
000180 79 81 57 3e c9 0f 81 be ec a2 29 bf e7 6d d1 3e
       0.21045484 -0.25207356 -0.66264224 0.4090416
000190 dc 41 10 be c7 8e 87 3e fc 5c 90 3e ee 6a f6 3c
       -0.14087623 0.26476118 0.2819594 0.030080285
0001a0 fe 77 04 bf 24 7c b0 3e ac 9e 14 3e f0 f5 5e bd
       -0.51745594 0.34469712 0.14513654 -0.054433763

encoder.bias_ih_l0 f4 [18]
000000 9b 4d 95 3e fb 08 86 3e 70 f1 7e 3f 39 8a 03 3e
       0.2916077 0.26178727 0.99587154 0.12845697
000010 96 4d a5 3e 1a 9a bb 3e 5a 0e 27 be 25 79 34 3e
       0.32285756 0.36641008 -0.16314068 0.17624338
000020 b7 07 bc be 9c 67 19 be a5 92 00 bf 77 f9 4d 3e
       -0.36724636 -0.1498093 -0.5022376 0.20114695
000030 66 48 77 be d4 91 cd 3e 1d 08 60 3f 51 93 50 be
       -0.24148712 0.4015032 0.8751238 -0.20368697
000040 c9 b0 09 bf f1 14 21 bd
       -0.5378538 -0.039326612

encoder.bias_hh_l0 f4 [18]
000000 bf 8c 09 be d4 44 db 3e 81 0f a0 3e cc 32 49 3e
       -0.13432597 0.4282595 0.3126183 0.19648284
000010 8e 13 b3 3e c8 cc a5 3e bf a9 0c bf 26 f6 06 be
       0.34975857 0.32382798 -0.5494651 -0.13179836
000020 55 78 88 be 3e 89 6b bf de 9f 15 3d b0 95 df be
       -0.26654306 -0.9200629 0.036529414 -0.4366889
000030 03 25 26 bf 7d 32 99 3e 64 dc 1d 3f 17 85 70 bf
       -0.64900225 0.29921332 0.61664414 -0.9395308
000040 15 d9 fe be 5c 18 1a be
       -0.49774995 -0.15048355

classify.weight f4 [2, 6]
000000 10 f6 2d 3f f7 bb a1 3e 79 54 33 3e e3 bf e6 3e
       0.67953587 0.31588718 0.17512693 0.45068273
000010 aa c9 51 bf 90 bc 38 bf 4b e3 7b bf 7c 83 b5 bd
       -0.8194834 -0.72162724 -0.98393697 -0.08862969
000020 11 a3 96 3d 36 db 53 bf 69 1e 1e 3f a0 96 16 3f
       0.07355321 -0.82756364 0.6176515 0.58823586

classify.bias f4 [2]
000000 22 62 d3 bd 53 7e b1 be
       -0.10321452 -0.3466669
