张闻慧/Tutorial7/Output/lstm.pth (torch, 114979 bytes, 7 tensors)

embedding.weight f4 [4623, 6]
00000000: 0000 0000 0000 0000 0000 0000 0000 0000
00000010: 0000 0000 0000 0000 e105 8fbf f989 08bf
00000020: 72d9 0940 99d4 47bd 78ca 5e3f b220 1d3f
00000030: ead2 efbe bf7b 00bf ec5f 1d3d f254 8e3f
00000040: a1c4 a2bf da63 5f3f 9c24 15bf 0664 c0bf
00000050: fdf6 293f 363d 85be b678 d83e 97f2 303e
00000060: 6b98 8bbf d0ae 173e e007 91be 449e ecbe
00000070: 7dac 4fbf abf2 c1bf 137f 793c 73de 89bf
00000080: e068 8e3e 1354 d5bf bbae b6bf 9492 7ebf
00000090: 543f 8b3f ed6e 27be 75c6 883e 870d 4b3f
000000a0: bac7 3bbf 91a2 c13e 4be4 ec3e da21 55bf
000000b0: d934 10c0 ee04 5f3f ebbc 523f 95c9 2abd
000000c0: 5180 23be 68b4 9ebd 39a6 36bf 1da0 1c3f
000000d0: cb8d 073e f4ad 21bf 2893 b33e 5173 ec3f
000000e0: 5c8e f0be 017c 193d 1f0d 98bf cdb5 9c3e
000000f0: c005 85bd 9c09 0b3f ea8f 01bf 1159 d33f
00000100: 3642 e4bd 5fb0 cbbe 8282 c03e 5aeb 29bf
00000110: 64a2 0ebf eb98 11bf 1e36 403f 9b31 f33e
00000120: e1f5 9fbf ff74 a63f ae99 083f 4775 f03e
00000130: e9f7 513f 62d6 c2bf f4d9 fe3e 5dec 913f
00000140: 6e91 e13f 6e1e 51bf c45a 54bf 2d41 7d3e
00000150: bfda 863e 3165 1e3f 40e0 0040 7b61 a23f
00000160: 6203 973c 52b9 393f dbe8 d5bf 66ba 5bbe
00000170: 1626 3bbf 6447 bebf 49b9 87be e0e1 4c3d
00000180: b92d 6abe 778e c3be b18e b33e 76dd b03e
00000190: c3ac a8be 5359 86bf 4934 9e3e 3a1a 6c3f
000001a0: 3701 493f 83eb fa3c e0db c43e cb1a 0d40
000001b0: 288b 8bbf 91a8 c73f 9354 4fbe b1e0 a2bf
000001c0: 8f42 d2bf 4a2f e93e e251 14c0 71a4 22bf
000001d0: 199b b6bd 0617 a5bf 423f cebf 49cd cebe
000001e0: 32e4 26c0 1e94 0340 38bb 0cbf 866f 32be
000001f0: e669 d23e 55b8 0cbf f961 323f 7624 833e
00000200: 566b 1b3f ed6c 8c3d 8140 f6be a34a 7fbe
00000210: 7d94 85bf 1fa6 863f fa81 d9bf 4573 b9be
00000220: 3994 b5bf b77d d2bc 9909 b03e 20a9 ad3f
00000230: 9ad3 e43f fa20 323e 4e06 a9bb 57ff 7c3f
00000240: d634 603f 45e7 b0bd c287 3fbe 4f32 7bbd
00000250: 78a2 b13d 79dc a83f ec63 8b3f b64e abbf
00000260: 56b2 e23e 4f7e 3dc0 c746 dcbe d647 a0bf
00000270: f7ba 773f 3e3a e93e 080b b9bf 92dc 9abf
00000280: f63c 7e3f db9f ec3f 40a5 8dbf d2da 2fbf
00000290: f261 fd3f 479a 583f c0f0 1d3f 326d 503e
000002a0: ae34 36be 2c3c eb3e 68c6 d13d 8dab 953f
000002b0: 0496 693f 49ca 793f 52f2 073e a96c 6bbf
000002c0: ea3b de3e 236f a03f 15fe 5bbe 640e 12c0
000002d0: da57 7bbf c3a6 0b3e 5612 57be b1c6 f33f
000002e0: ab5a 73bd 9b94 15be 8248 a4bf 7766 93be
000002f0: 1fff f4be 900c b0bf 55b3 52bf e5ed 9a3f
00000300: 4552 1cc0 7f0d d7bf 8272 c93f 9435 5f3d
00000310: acc0 743f 2dec 263f 4358 0a40 128d 06bf
00000320: 90b4 953f cebb 1d3e e71b d23f cc33 73bd
00000330: 8f5d 9d3f dfc9 e53f 5863 ffbf 5d27 0a3f
00000340: 8639 6a3f b207 f83f a922 38bd 7667 493f
00000350: a826 5f3f 22ce b6be 5dd7 a4bf c865 f6be
00000360: b4e1 2cbe c79b 2d3f c11c fabf bfef 703e
00000370: e936 073f 1214 0cbf 72ad 2bbf f3fe 19be
00000380: 21e3 9bbf 0dce 74bf 23f9 88bf 0569 8e3e
00000390: 9976 7bbf 3556 8b3f 03cc bdbe d76b a63e
000003a0: 584b d33e 9c3e de3f 4791 963d b103 7c3e
000003b0: 9a0d 873f b05b f63b 3660 2cbf c2a9 913f
000003c0: 0c4f 983e 3cb7 0d40 799d 113f 4a1d 40be
000003d0: 07dc 92be dfcd a33e 5cc3 8f3f af1d babf
000003e0: 1a1d 323f 77ba 86be e712 063f 45b9 0840
000003f0: c192 19bf 980f f53f 59a9 03c0 5f35 d8be
0.0 0.0 0.0 0.0 0.0 0.0 -1.1173669 -0.5333553
2.1538968 -0.048786733 0.8702769 0.61378014 -0.46840602 -0.5018882 0.038421556 1.1119673
-1.2716256 0.87261736 -0.58258986 -1.5030525 0.663925 -0.26023263 0.42279595 0.1728004
-1.0905889 0.1481278 -0.2832632 -0.46214497 -0.8112257 -1.5152181 0.015228051 -1.0771011
0.27814388 -1.6666282 -1.4272074 -0.9944241 1.0878701 -0.16350909 0.2671391 0.79317516
-0.73351634 0.3781934 0.46267924 -0.8325478 -2.2532256 0.871169 0.82319516 -0.04169615
-0.15966918 -0.077492535 -0.71347386 0.61181813 0.13237683 -0.63156056 0.3507321 1.8472692
-0.46983612 0.037471775 -1.1879004 0.30607453 -0.06495237 0.5431154 -0.5061022 1.6511556
-0.11145441 -0.39782998 0.3759957 -0.66374743 -0.5571654 -0.5687396 0.75082576 0.47498783
-1.2496911 1.3004454 0.53359497 0.46964476 0.82018906 -1.5221674 0.4977566 1.1400257
1.7622507 -0.81687057 -0.82951 0.24731894 0.26338765 0.61873156 2.0136871 1.2685999
0.01843423 0.725484 -1.6711687 -0.21457824 -0.7310499 -1.4865537 -0.2650855 0.0500201
-0.22869004 -0.3819463 0.35069802 0.3454396 -0.32944307 -1.049601 0.30899265 0.9222752
0.7851748 0.030629879 0.38449 2.2047603 -1.0901842 1.5598317 -0.20247106 -1.272482
-1.6426562 0.4554389 -2.3174977 -0.6353217 -0.08916301 -1.2897651 -1.6113055 -0.40390995
-2.607678 2.0559154 -0.54973173 -0.17425355 0.4109642 -0.5496877 0.69680744 0.25613755
0.60710657 0.068567134 -0.48096088 -0.24930815 -1.043594 1.0519446 -1.6992791 -0.36220756
-1.4185859 -0.025694711 0.34382322 1.3567238 1.7877076 0.17395392 -0.0051582223 0.9882712
0.8758062 -0.08637861 -0.18704131 -0.061327275 0.086735666 1.3192283 1.0889869 -1.3383396
0.44276685 -2.9608343 -0.4302275 -1.2521923 0.9676966 0.45552248 -1.4456491 -1.2098563
0.9931177 1.8486284 -1.1066055 -0.6869327 1.9795516 0.8461041 0.6169548 0.20354155
-0.17793533 0.45944345 0.10242921 1.1692978 0.9124453 0.9757429 0.13276032 -0.9196268
0.43405086 1.2533916 -0.21483643 -2.2821283 -0.98180926 0.13637833 -0.21003088 1.9045011
-0.05941264 -0.1460747 -1.2834628 -0.28789112 -0.47850892 -1.3753834 -0.8230489 1.210385
-2.4425213 -1.6800994 1.573807 0.054494455 0.95606494 0.65204126 2.161637 -0.52559006
1.1695728 0.15403673 1.6414765 -0.05937557 1.2294177 1.7952231 -1.9952192 0.53966314
0.91494024 1.9377348 -0.04495493 0.78673494 0.8716836 -0.35704142 -1.2878224 -0.48124528
-0.16882974 0.6781582 -1.9540025 0.23528956 0.5281816 -0.54718125 -0.6706153 -0.15038662
-1.2178689 -0.9562691 -1.070103 0.278145 -0.9822784 1.0885683 -0.3706971 0.3250415
0.4126842 1.7362857 0.07351928 0.24610783 1.0551026 0.007518254 -0.67334306 1.1379931
0.29747808 2.2143087 0.5688091 -0.18761173 -0.28683493 0.31993005 1.1231494 -1.4540309
0.69575655 -0.26314136 0.5237259 2.136308 -0.59989554 1.9145384 -2.0572112 -0.4222822

encoder.weight_ih_l0 f4 [24, 6]
00000000: 1989 7dbf 4c3b febe a00b cdbe 9201 24bd
00000010: 3706 a0bd fc2f 65be b09a 4bbf 56e0 82be
00000020: 230a c6bd e063 85bf a7e5 373f ebe5 9a3e
00000030: dbd5 11be 931f 0c3f 2332 223d 43d9 8a3e
00000040: efee 273f 6abc bd3e 9755 f9be 8ac1 363f
00000050: 4916 ff3e 347e 793d f4f3 d3be 948a 65bf
00000060: c96a f7bd 9680 abbd 495a 96be 0d5f 0abd
00000070: 2d51 283d 4b38 b33e 471d b4be 23a0 863e
00000080: 4342 a9be 18da 5dbe ff05 6a3d 7ec8 11be
00000090: 7307 2b3e 0ab0 d23e 1218 a03a 8beb c03d
000000a0: f6bb 5a3d b1c4 413d 1861 1a3e e404 c43e
000000b0: 3ffa fd3d 0cb4 a7bd 0bc5 ae3c 3a9e 6dbe
000000c0: 4e82 b8be 1aff af3c bf10 dbbe 6b43 a8be
000000d0: aec6 f4be dec1 bbbe ce51 7bbc f643 21bd
000000e0: 439d 193c f336 89bd 7e23 1ebf 1c3f e7be
000000f0: e7e6 523e 8583 ae3e 7b8c 67be ff58 c6be
00000100: 2180 723c 2d9f 143d 0826 1c3f 9771 983c
00000110: 86ac 233e 99ef eb3e 7cfa 8ebc 2125 2dbe
00000120: 6b1c 73be 1360 6fbe 9fc1 02be a0a3 2fbe
00000130: 5467 ffbe df9f f2be e5bf babd ba4f 02bf
00000140: 119d c23d ffc2 20be d9e4 da3e 8f18 663e
00000150: eff1 b13e 6f45 6fbc 74cf de3e 33b8 e13e
00000160: 5f39 893e 8f14 0e3e 6d36 a2be 94b8 7f3e
00000170: ee78 9f3d 4588 90be 0582 223f 6aa5 7ebe
00000180: 6343 eebd a4c5 033e 9340 d83d c631 53bd
00000190: c452 853d 972a f1bd 4639 53be b6c3 b43e
000001a0: 34c7 f9be d07b e3be fcb4 bcbe b8c4 063e
000001b0: 16b4 8bbf 9e79 45bf a251 70bc a3a4 d2bc
000001c0: 79f6 b33e 45ca ac3d 5736 29bf 1bed 63bf
000001d0: 3eda d6bc 60c6 b2be 10f0 c33e 2053 fe3e
000001e0: 9980 ba3e e4f7 bf3e cdd6 d43e 171e 223f
000001f0: cd7d e83c 7a7e 443f daab 40bf d2c8 3e3f
00000200: 4ac7 ef3e f8bf fd3a 8b40 4dbe c14e 54bf
00000210: 4298 14be eeb6 7f3e 80be 6dbe cd10 1abe
00000220: d1e2 f5bd cff5 8a3e 1d46 12bf bf98 a83e
00000230: d162 0b3e 25a2 a5be 6ef0 513e 3725 13bd
-0.9903732 -0.49654615 -0.40047932 -0.04004056 -0.078136854 -0.22381586 -0.7953291 -0.2556178
-0.09669902 -1.0421104 0.71834797 0.30253538 -0.14241736 0.5473568 0.039598595 0.27118883
0.6559896 0.3705781 -0.48698112 0.7138907 0.4982169 0.060911372 -0.4139706 -0.8966458
-0.120809145 -0.08374135 -0.29365757 -0.033782054 0.04109304 0.35003886 -0.35178587 0.2629405
-0.33058366 -0.21665227 0.057134625 -0.14236638 0.1670206 0.41149932 0.0012214205 0.09419926
0.05340191 0.04730672 0.15076101 0.3828498 0.12401246 -0.08188638 0.021334192 -0.2320489
-0.36036915 0.021483947 -0.42786214 -0.32863936 -0.4780783 -0.36671346 -0.015339328 -0.039371453
0.009375873 -0.06699934 -0.61772907 -0.45165336 0.20595895 0.34084716 -0.22612183 -0.38739774
0.014801056 0.036284614 0.6099553 0.018608851 0.15983781 0.46081236 -0.017453425 -0.16908695
-0.2374131 -0.23376493 -0.12769173 -0.17152262 -0.4988352 -0.47387597 -0.09118632 -0.50902903
0.09502614 -0.15699385 0.42752722 0.22470306 0.34754893 -0.014603957 0.4351765 0.44085845
0.26801583 0.1387503 -0.3168215 0.24972755 0.077867374 -0.28228965 0.63479644 -0.24867788
-0.11633947 0.12868363 0.105591916 -0.05156114 0.06509927 -0.117757015 -0.20627317 0.35305566
-0.48784792 -0.444304 -0.3685683 0.1316098 -1.0914333 -0.771387 -0.0146679 -0.02571327
0.3514898 0.08437017 -0.6609854 -0.8903367 -0.026227113 -0.34916973 0.3826909 0.49672794
0.36426237 0.37493813 0.4157013 0.63327163 0.028380299 0.7675549 -0.75262225 0.7452518
0.46831733 0.0019359579 -0.20044152 -0.8293267 -0.14511207 0.24972126 -0.23217201 -0.15045471
-0.120061524 0.27140662 -0.57138234 0.32929036 0.13611914 -0.3235027 0.20501873 -0.035924163

encoder.weight_hh_l0 f4 [24, 6]
00000000: 8d5c 91be 8d55 97be bb04 03bf f1b4 cb3d
00000010: be98 2dbd b41a 063e ad42 acbe 185a b83d
00000020: 8ae7 0abc 6273 3abd 1b27 b13c 5d6f 12bf
00000030: f461 82be ece0 143e 8706 3ebe ecbc 8c3c
00000040: 3ccd ed3e e2ff 8dbe edc7 373d cfe1 8fbe
00000050: ca27 8a3e 7369 93be f48a b7bd 44c8 d43d
00000060: 6919 80be e8aa 81be 9cc1 343e 5c9e 803e
00000070: 12fa 783d 3414 2abf 07ed 163e 13af 1c3e
00000080: 79e8 2abf 935e 093e c6fc aa3f 82a0 7fbd
00000090: 48d0 353e 51b7 adbd ff17 ca3d cbf2 693d
000000a0: b9e0 a9be 6bf6 823d 5eec db3e 2f1b 2bbf
000000b0: 1342 84bd 6b00 39be 56f9 0abf a936 6b3f
000000c0: a238 563e 82c4 3cbe a087 d2be 5d84 c5be
000000d0: 2e70 fabe e7b5 4c3e 53b3 9ebc 172f a8bd
000000e0: 4a34 b53e 76e5 2dbe 6ef0 043e a688 423e
000000f0: 3bd6 bf3e 5939 c1bd b0f5 a6be e5da ce3e
00000100: 7453 90bc 836a 21be b32f d73d fa0d 053f
00000110: f8d2 aa3e 0492 1f3e 8500 04bf 3b8e abbe
00000120: a172 bfbe bda0 9dbd cf71 463e 1c58 98be
00000130: 8ee8 f6bd bc0e 1c3e dd20 e93d 8690 e4bd
00000140: ff72 123e 5cba 2c3e 2acf 0abf f9dd ec3e
00000150: 8bb5 63bd a7ec 063c 498b 81bd ed47 c73d
00000160: 58c7 a4be 4b35 833e b347 a0be 099e 283e
00000170: 8c06 93be 3c99 0abf 0342 dd3d f623 5b3e
00000180: 146f afbd cd35 db3c 6a37 8f3e 23d6 81be
00000190: 9614 083f c6b2 e6be 2871 00be cde5 80bc
000001a0: 2833 103e a2e5 37be f7e6 f2be 54e7 84bd
000001b0: 7214 12be f5f8 5b3e 7b93 6ebc 3522 3fbe
000001c0: a853 a0be b0df e4be aa43 cebe 48e7 82be
000001d0: 8e3e 19be 3452 9d3d 46e5 b33e 22ee 5ebc
000001e0: 25d3 40be 73c8 debe 8a31 bfbe 9b08 67be
000001f0: 852b fc3e 406a 0d3c 3512 5e3e b4ea 663e
00000200: 8ea5 acbe 4d11 56be 43d6 cdbe 5c24 f4bd
00000210: c549 56be 1eb6 753e 54ff 02be e05e b93e
00000220: 14f5 353f 8c33 b5bd 3148 353e dfcd 4cbe
00000230: 9daa efbe 7d0d 633f bdd2 793f 88a2 b93d
-0.28390923 -0.29557458 -0.51179093 0.09946621 -0.042381994 0.13096124 -0.3364462 0.09001559
-0.008478055 -0.045520194 0.021625092 -0.57201177 -0.25465357 0.14538926 -0.18557177 0.017179929
0.46445644 -0.27734286 0.0448684 -0.28101966 0.26983482 -0.2879139 -0.0896205 0.1038976
-0.25019386 -0.25325704 0.17651981 0.2512082 0.06078536 -0.6643708 0.14738856 0.1530116
-0.66760975 0.13414983 1.335839 -0.06240893 0.17755234 -0.084822305 0.09867858 0.05711631
-0.33179262 0.06394657 0.4295377 -0.66838354 -0.06457915 -0.18066566 -0.54286706 0.9188028
0.20920041 -0.18434337 -0.411191 -0.38577548 -0.4891371 0.19991265 -0.019372618 -0.08212107
0.35391456 -0.16982064 0.12982342 0.1899744 0.37468132 -0.09434766 -0.3260932 0.40401378
-0.017617919 -0.15763287 0.10507145 0.5197445 0.3336408 0.15583044 -0.5156329 -0.3350695
-0.37392142 -0.07696674 0.19379352 -0.29754722 -0.12056075 0.15239996 0.11383221 -0.11160378
0.1430168 0.16867965 -0.5422236 0.46263102 -0.055593055 0.008235133 -0.06325395 0.09730516
-0.32183337 0.25626597 -0.31304702 0.16466536 -0.28715932 -0.5414007 0.10803606 0.21400437
-0.08566108 0.026759053 0.27971965 -0.25358686 0.5315641 -0.45058268 -0.12543166 -0.015734578
0.14082015 -0.17958692 -0.47441837 -0.06489435 -0.14265612 0.21481688 -0.014561529 -0.18665393
-0.31313825 -0.4470191 -0.40286 -0.2556708 -0.14965269 0.076816946 0.3513586 -0.01360658
-0.18830545 -0.43512306 -0.37342483 -0.22561876 0.49251953 0.008631289 0.21686633 0.2255047
-0.33720058 -0.20905037 -0.4020253 -0.119209975 -0.20926578 0.23995253 -0.12792712 0.36205196
0.71077085 -0.088477224 0.1770332 -0.20000409 -0.46809855 0.88692456 0.97587186 0.090642035

encoder.bias_ih_l0 f4 [24]
00000000: a895 f0be d11a 13be f822 533e e985 dbbe
00000010: 0730 6c3f 0eb9 003f 1a75 59bf a0e4 c5be
00000020: 1377 bdbe 2b93 04be d3cf d63e 475a dabe
00000030: a12c 2b3d 7899 873d 5f19 4e3d 967b da3c
00000040: 06d4 4a3f 949f 3dbf e1a6 5a3e 9a3d b23e
00000050: 43ce cc3d eec2 d3be fcc6 333f 8049 843f
-0.4698918 -0.14365698 0.20618808 -0.42875603 0.92260784 0.5028237 -0.8494431 -0.3865099
-0.3700491 -0.12946765 0.41955432 -0.42647 0.04179061 0.06621069 0.050317165 0.026670258
0.7922977 -0.7407162 0.21352722 0.34812623 0.10000279 -0.41359657 0.702255 1.033493

encoder.bias_hh_l0 f4 [24]
00000000: 82ba 59bd 2fc7 10bc bbc6 ef3e 5f99 c2be
00000010: 051d 5c3f 61c1 753f 1711 1abe 5700 053d
00000020: cadb 8ebe 349a d3bc a430 273f 024e 1dbf
00000030: 0102 e3be 7b7c ccbe 8e3c e2be 165e 3a3d
00000040: e41a 5e3f f449 09be 4eb8 843e 77c5 c73e
00000050: 80c6 dc3e 7790 19bf a958 463f 009c 273f
-0.053156383 -0.008836552 0.46831307 -0.38007638 0.8598178 0.959982 -0.15045582 0.032471027
-0.2790206 -0.025830366 0.65308595 -0.61447155 -0.44337466 -0.3993872 -0.44186825 0.045499884
0.8675978 -0.13407117 0.25921863 0.3901784 0.43120193 -0.5998606 0.77479035 0.6547241

classify.weight f4 [2, 6]
00000000: 8b73 563f 6214 90bf 79cb 813f e313 643f
00000010: 6755 50be 8ee6 ab3f e29b debe ad7e a83f
00000020: 2f4a 62bf b5e6 85bf 89d3 84be c5a0 45bf
0.83770055 -1.125622 1.014022 0.89092845 -0.20345078 1.3429735 -0.43478304 1.3163658
-0.88394445 -1.0461031 -0.2594264 -0.7719844

classify.bias f4 [2]
00000000: f56e 3fbe 3086 b7bd
-0.1869467 -0.08961141
