张闻慧/Tutorial7/Output/rcnn.pth (torch, 115605 bytes, 9 tensors)

embedding.weight f4 [4623, 6]
00000000: 0000 0000 0000 0000 0000 0000 0000 0000
00000010: 0000 0000 0000 0000 3977 b5bf 3506 13bf
00000020: f12d 0440 e54a c0be 6042 413f 4256 2f3f
00000030: ead2 efbe bf7b 00bf ec5f 1d3d f254 8e3f
00000040: a1c4 a2bf da63 5f3f b586 d6be 2e2f 8abf
00000050: 420c 643f ed9c 7ebe 2240 913e c9fb a0be
00000060: 7e43 87bf f718 c53e b5c7 dabe 0c35 65bd
00000070: 1fb0 7cbf 3250 c9bf 82bd 3d3e cb4d 9fbf
00000080: 4521 fe3e 650e b6bf 1cd3 a1bf 7b14 8ebf
00000090: 543f 8b3f ed6e 27be 75c6 883e 870d 4b3f
000000a0: bac7 3bbf 91a2 c13e 0931 133e d288 28bf
000000b0: dedb 23c0 6859 923f d288 fc3e b0a3 36be
000000c0: 5180 23be 68b4 9ebd 39a6 36bf 1da0 1c3f
000000d0: cb8d 073e f4ad 21bf 4119 933e 5b0c 1340
000000e0: f4bf 44bf cc70 77bd a9bd d1bf 4b5b c23e
000000f0: cde8 f53e fd3c 783c 30b9 80bd 2ca2 a33f
00000100: 1a99 e23e 37a7 e13d 7139 2b3d 4e7b 3dbf
00000110: dbce 46bf 8493 0cbf 1267 173f 6694 ee3e
00000120: 63e8 80bf 314a ae3f 802a 143f 7de6 d13e
00000130: 46a3 793f 80b6 bfbf dacc 653f 85b5 783f
00000140: 2cd1 d23f 3561 e6be 28b9 06bf c1fe 0d3f
00000150: 9a17 82be cec7 2a3f f81e fb3f e3eb 6f3f
00000160: c5c7 cc3d b43e c33e f474 e2bf 0a30 59be
00000170: 3af1 37bf 2df3 c1bf 6b56 30be 080c 09bf
00000180: be15 0abf 9ed8 00bf 80cc 563c 81c4 253e
00000190: e5e9 0abf 8b19 68bf d7bd 6f3e 9a46 653f
000001a0: 8124 373f 77cd f7bc 3cfe 0d3f f804 0f40
000001b0: 90b5 83bf 6b14 853f a3ea f73c c3d3 86bf
000001c0: 671d a2bf 78d6 d63e 16e4 f7bf 0c43 3bbf
000001d0: 8e82 f13d d9d8 8cbf 8faf 96bf e09d 5fbe
000001e0: 170d 27c0 9d74 f93f 46be 0abf 6fc0 673d
000001f0: 0cde 373f 9abb dabe 24fc 903f 1146 6d3f
00000200: e8aa 6c3f 702a 303f 1391 32bf 43f0 96bf
00000210: 00b2 33bf e547 843e be70 b5bf 4c75 cf3e
00000220: 8dc5 95bf 953e 0ebf 1501 cf3d 020f be3f
00000230: a705 e53f aa93 82be dbed 25be 1d90 993e
00000240: 244d 143f 09ab 653e d644 f1be dfc8 c1be
00000250: 1e44 edbd 4267 b93f f821 5b3f ee0f 32bf
00000260: 33df 703f 1267 55c0 b493 6b3d ecbf 90bf
00000270: 109e 513f a8c8 d53c b58b a6bf df5c 91bf
00000280: 9dcd c03f 796d 0a40 63fd e8bf 8dc5 10bf
00000290: c52e d73f 3ec4 043b 3e6b 383f 973f 0abe
000002a0: 7681 88be e5ff b53e b95f cd3d a243 913f
000002b0: e52d 6e3f 335c 813f 8c62 8c3e 8e8e 27bf
000002c0: bc98 0a3f 6830 ac3f 257d aabd 03b9 1bc0
000002d0: 2ccb adbf 5738 b63e 3cb0 1ebf 39fc 0940
000002e0: 1012 eabe aae2 fabe 317b a4bf 9b2f 99be
000002f0: 6ae9 00bf 717e b0bf 23cf 5abf 9a7a af3f
00000300: d722 45c0 f1ee e5bf a537 a83f 227d 17bf
00000310: 4d90 a53f c5d8 9e3f 4358 0a40 128d 06bf
00000320: 90b4 953f cebb 1d3e e71b d23f cc33 73bd
00000330: 300a 883f 88bb eb3f f181 0dc0 4efb d53e
00000340: 0213 283f 7721 0c40 b1b8 8d3e a13c 8b3f
00000350: 751b 893f 624a 5bbd 20f4 8ebf e220 44bf
00000360: 1b04 c3be 2e0f 6a3f 028f 0ac0 df81 053f
00000370: f7bb 733e dbec 59bf 7213 0abf 0718 84be
00000380: 7287 88bf 38d0 5abf b8c3 81bf d6a1 443e
00000390: 1bc8 64bf e6c2 7d3f bd18 8dbe 4a5f d83e
000003a0: aca0 073f 3861 cb3f e049 43bd b5dd 4c3e
000003b0: 5ddf 7b3f 39a4 c9bd fcd5 39bf 3b8f 983f
000003c0: 0c4f 983e 3cb7 0d40 799d 113f 4a1d 40be
000003d0: 07dc 92be dfcd a33e 7ce1 8d3f 1826 b9bf
000003e0: a53f 413f bae6 99be 3460 233f 3d90 0b40
000003f0: e24a b1be 04be ee3f 6ab8 efbf 394f d93c
0.0 0.0 0.0 0.0 0.0 0.0 -1.4177009 -0.57431346
2.065304 -0.3755714 0.75491905 0.68490994 -0.46840602 -0.5018882 0.038421556 1.1119673
-1.2716256 0.87261736 -0.41899648 -1.0795648 0.89081204 -0.2486455 0.28369242 -0.31442097
-1.0567472 0.3849561 -0.4273049 -0.055958793 -0.9870624 -1.5727599 0.18529323 -1.2445616
0.49634758 -1.4223143 -1.264255 -1.11 1.0878701 -0.16350909 0.2671391 0.79317516
-0.73351634 0.3781934 0.14374174 -0.6583377 -2.5602946 1.1433535 0.49323136 -0.1783588
-0.15966918 -0.077492535 -0.71347386 0.61181813 0.13237683 -0.63156056 0.28730205 2.297629
-0.768554 -0.060410306 -1.6386005 0.37960276 0.48029175 0.0151512595 -0.06285322 1.2783866
0.44257432 0.11018222 0.041802827 -0.74016273 -0.77659386 -0.5491259 0.5914165 0.46597594
-1.0070919 1.3616391 0.5787735 0.4099616 0.9751476 -1.497757 0.89765704 0.97151977
1.6470084 -0.44996038 -0.52626276 0.5546685 -0.25408632 0.6671113 1.9618826 0.9371931
0.099990405 0.38133776 -1.7691941 -0.21209732 -0.7185246 -1.5152336 -0.17220466 -0.53533983
-0.53939426 -0.5033053 0.01311028 0.16188242 -0.54263145 -0.90663975 0.23412262 0.89560854
0.71540076 -0.03024934 0.55466056 2.2346783 -1.0289783 1.0396856 0.03026325 -1.0533375
-1.2665223 0.41960502 -1.9366481 -0.7314918 0.117924795 -1.1003677 -1.1772326 -0.21837568
-2.610174 1.9488713 -0.54196584 0.056580003 0.7182319 -0.42721254 1.1326947 0.9268504
0.9244828 0.68814754 -0.69752616 -1.1792072 -0.7019348 0.258361 -1.4175031 0.40519178
-1.1700913 -0.5556424 0.10107628 1.484833 1.789235 -0.25503284 -0.16204016 0.29992762
0.5793021 0.22428526 -0.4712283 -0.37848565 -0.11585258 1.4484637 0.8559871 -0.69555557
0.94090575 -3.334416 0.057513908 -1.130857 0.8188181 0.026096657 -1.3011385 -1.1356467
1.5062748 2.1629317 -1.8202327 -0.5655144 1.6811148 0.002025857 0.7203864 -0.1350082
-0.2666127 0.35546795 0.10028023 1.1348765 0.9303878 1.0106262 0.27418935 -0.65451896
0.54139304 1.3452272 -0.08324651 -2.4331672 -1.3577628 0.3558986 -0.6198766 2.1560194
-0.45716906 -0.49001056 -1.2850095 -0.29919133 -0.5035616 -1.3788587 -0.85472316 1.370929
-3.0802515 -1.7963544 1.3141981 -0.5917531 1.2934662 1.2409903 2.161637 -0.52559006
1.1695728 0.15403673 1.6414765 -0.05937557 1.0628109 1.8416605 -2.211056 0.41793293
0.65654004 2.1895425 0.2767997 1.0877877 1.0711504 -0.053537734 -1.1168251 -0.76612675
-0.3808907 0.9142941 -2.1649785 0.5215129 0.23802172 -0.8512704 -0.5393592 -0.2579958
-1.0666335 -0.85473967 -1.0137854 0.1920236 -0.89367837 0.99125516 -0.27557936 0.422602
0.5297954 1.5889044 -0.047677875 0.2000645 0.983877 -0.09845776 -0.7259214 1.191871
0.29747808 2.2143087 0.5688091 -0.18761173 -0.28683493 0.31993005 1.1084437 -1.446475
0.7548774 -0.30058843 0.6381867 2.1806786 -0.34627444 1.8651738 -1.8728154 0.026527034

encoder.rnn.weight_ih_l0 f4 [6, 6]
00000000: aa9a e6be 386b 033e 5bc4 03bf eb7b bb3d
00000010: 18ec 09bf 7baf 103e 9f33 76be e2f5 1d3f
00000020: 85f8 183e b673 17bf 09d8 9b3e 1389 0f3e
00000030: f60e d8be a811 bc3e 67f4 cbbe 4ad0 a3bd
00000040: 3d0c a8bd 6cbc 0f3d 346b aa3d a91f 9f3e
00000050: 2764 213e a665 e73e 6245 0abe 72cb 2ebf
00000060: 22dc 6ebe f706 2ebf c032 24bf e951 1e3c
00000070: ed74 12be 0dca e23e 4769 9f3d de70 53be
00000080: b8bc 99bd b2a2 d23e 2b66 ec3e 08cc 12bf
-0.45039874 0.1283387 -0.5147149 0.09154495 -0.53875875 0.1412944 -0.2404313 0.6170331
0.14938553 -0.59160936 0.3043826 0.14017133 -0.42198914 0.3673222 -0.39834902 -0.07998712
-0.08205459 0.035091802 0.083212286 0.31078842 0.15760861 0.4519474 -0.1350303 -0.6827918
-0.23326162 -0.6797938 -0.6413994 0.009663084 -0.14302416 0.44294778 0.07783752 -0.20648524
-0.07506698 0.41139752 0.46171698 -0.57342577

encoder.rnn.weight_hh_l0 f4 [6, 6]
00000000: fa6d 88bc 1aca 4b3d 9966 a2bc 966f 1b3e
00000010: a52a a63d 0673 d6ba 7c32 263d e048 0f3e
00000020: d32c 1bbe dd7b 563d 8864 8b3d 848f 983c
00000030: 5a1f 19bc 697c 603d 1edf 6bbc 589a 25be
00000040: 00c9 ccbc 2a41 7b3d 92b9 233e fc5d 03be
00000050: ee45 13bd 2a47 19be 17de 86be 048a c6bc
00000060: 8bda 303e 3fb5 bc3b 0457 edbd 21c0 f5bd
00000070: 6d37 1cbe d255 3b3d 12e4 5a3e 4f64 f93d
00000080: 3019 63be 158b 993d 8438 383c da7f 5c3c
-0.016654003 0.049753286 -0.019824313 0.15179285 0.081136025 -0.0016361184 0.04057549 0.13992643
-0.15153818 0.05236422 0.06806284 0.018623121 -0.009345854 0.054806147 -0.014396457 -0.16172159
-0.024998188 0.061341442 0.15988758 -0.12828821 -0.035955362 -0.14968553 -0.26341316 -0.024235733
0.17270868 0.005758911 -0.115888625 -0.11999536 -0.15255518 0.04573614 0.21376064 0.121773355
-0.22177577 0.07497231 0.011243943 0.013458217

encoder.rnn.bias_ih_l0 f4 [6]
00000000: 675e f4bd b3d5 f6be c5ed 0f3e 6c1e 14bf
00000010: 78f1 00be fce2 23be
-0.11932068 -0.48209915 0.14055546 -0.5785892 -0.12592113 -0.16004556

encoder.rnn.bias_hh_l0 f4 [6]
00000000: c901 48be 0732 37be 2988 4dbe 8754 26be
00000010: 09ed fe3e 6d5b bf3e
-0.19531931 -0.17890178 -0.20071472 -0.16243182 0.49790218 0.3737444

encoder.cnn.cnn.cnn.weight f4 [6, 6, 3]
00000000: 2e50 da3e 9057 b2be 34ff 1b3f 1373 9c3d
00000010: ce66 c53e 6104 a0be ea3c 013e ac51 25be
00000020: 53c1 d33d e34b 3b3e 0deb 1a3f 1ef2 f9bc
00000030: ec3a 063d 7923 cdbe 6327 113f 4882 593d
00000040: 7dba cf3d 1bb3 cabd bb80 9f3e 40e8 b03c
00000050: 071a 34be 28b3 abbc 7d1e 44be f2a4 313e
00000060: 3f70 cf3c 5778 ab3c 8423 8cbd 3ec3 e03e
00000070: 6ba5 263f 88ca b83e 2e62 2abe a8b0 f5be
00000080: f190 bfbe 8f5d 273e bc33 f13d 9289 833e
00000090: 39a1 363e 1941 fd3e 512a b33e e2e5 153f
000000a0: 2e77 7cbd f7ef ef3e 1486 eabd 03e8 ed3e
000000b0: 0a2a ff3d 3d9b 033c 50b8 3c3e 3235 d9be
000000c0: 8078 6ebe a972 6c3e ca14 0c3b 4c25 003e
000000d0: e22a 393e 7b16 1abc 3dfb 74be 92a4 ca3d
000000e0: ab29 1d3f b857 233e 608f ec3e b6a0 1a3d
000000f0: 5dfd 0dbe 1ae8 14be c5ff ca3d d3ee a93e
00000100: 01cc 46be dfe6 173e 5cc9 a1be cf9c 833e
00000110: e5f8 803e 4141 b3bd a5fb 1fbe 3497 2fbe
00000120: d7f1 b73e 3f76 9b3d 86ab c73e 02ef 39be
00000130: 5879 973e 224f ae3e 28a4 b03e ba16 b6be
00000140: 40a0 a33e 1f69 b13e e8cb 6bbe 9e88 15be
00000150: 5649 2a3d 40de 933c 43c5 c13e 792f 413e
00000160: 6cba 84bd 8d27 39bf 795d 23bf 3436 72bd
00000170: dee5 cdbe 325a 1dbf 3b97 aa3d 9a25 95be
00000180: 3bfa bbbe eb31 9bbd 6e3f b7be d529 1bbe
00000190: b0a8 e4bd 3080 69be c211 363f 216a f93b
000001a0: 3373 ea3d bedf bf3e b5cd babd 42bd ed3e
0.42639297 -0.3483243 0.60936284 0.07639136 0.38554996 -0.3125334 0.12620893 -0.16144437
0.10339608 0.18290667 0.6051491 -0.030510958 0.032771036 -0.40066126 0.56700724 0.05310276
0.10142992 -0.09897443 0.311529 0.02159512 -0.17588054 -0.020959452 -0.19152255 0.17348078
0.025322078 0.020931406 -0.068427116 0.43898958 0.6509616 0.3609202 -0.16639015 -0.4798634
-0.3741527 0.16344284 0.11777446 0.25690895 0.17834939 0.49463728 0.34993222 0.585539
-0.061637096 0.46862766 -0.114513546 0.46466073 0.1245919 0.008032617 0.18429685 -0.42423397
-0.23288155 0.23090614 0.0021374696 0.12514228 0.18082765 -0.009404774 -0.23923965 0.098946705
0.61391705 0.15951431 0.46203136 0.037750922 -0.13866182 -0.14541665 0.099120654 0.3319002
-0.19413759 0.14834164 -0.31598938 0.25705573 0.2518989 -0.087526806 -0.15623339 -0.17147523
0.35926697 0.07590913 0.3899805 -0.1815758 0.29584765 0.3404475 0.3450024 -0.35564214
0.319582 0.34650514 -0.23027003 -0.14602897 0.041573845 0.018050313 0.3784581 0.18865766
-0.0648087 -0.72325975 -0.638145 -0.059133723 -0.40214437 -0.6146575 0.08329626 -0.2913025
-0.36714348 -0.075778805 -0.3579058 -0.15152676 -0.11164987 -0.22802806 0.71120846 0.0076115285
0.11447754 0.3747539 -0.09121267 0.46433455

encoder.cnn.gate.cnn.weight f4 [6, 6, 3]
00000000: 869f d03d 8c8f cebe fc9b 7e3e 3b41 09be
00000010: 6df6 813e 3d88 39bf a22c 063b 8c6b b7bc
00000020: 69c3 5d3e 885f b13d 5ee5 f93e 821f 50be
00000030: 93c9 d93e 5113 cdbe 7548 853e 9a9c 2f3e
00000040: cfb1 09be 0cf0 873e 0d01 ec3d cfc1 acbe
00000050: 96c0 aabe 9a25 733e 02ec b9bd 1099 0f3f
00000060: dcc5 b23d 4aec 90be aa61 d63e 943b 2cbe
00000070: cf18 c03e d433 113e c3e4 903e 722f b9be
00000080: 577e 04bf 1551 113f b6bb 263d 4183 dc3e
00000090: 0af7 7d3e 679f d33e 8743 d83e 27e0 1a3f
000000a0: e1f0 71bd 4609 0b3f a362 fcbd 10ca b13e
000000b0: a30c 023d 35c1 81be 57ca febc 841d 2dbe
000000c0: e29d b2bd d602 3e3e cb9d 1e3e f7c9 82be
000000d0: fb17 d63e fe38 69bd 8884 b7be 4932 0ebe
000000e0: 2e6b 043f f644 a5bd 46f0 3e3e af77 f6bd
000000f0: cf40 a2bd df89 153e f07d 5d3e 183e 06be
00000100: 0ca1 01bf e160 04bf cfa2 d9be 42ab 033e
00000110: 5bde fd3e f4fe 8abd 45ea 8c3e a8ab ad3e
00000120: efa5 9b3c 2fd2 aabd 7862 c13e 1335 14be
00000130: df8a 1b3f 23bd 233f bcdc 423e 8716 603c
00000140: 3d5b 9abd 9b26 833e 459e efbe 2c39 30bf
00000150: 206b 5fbd 0458 c93e 532f ad3e f9e4 ea3e
00000160: fb18 d53e 33e3 57be f092 10bf 6af5 ffbe
00000170: a996 9cbe 38bb 13bd 525d 01bd fd96 b13d
00000180: d5f3 3abf 9b53 9dbe eb70 98bd 6cf6 01bf
00000190: ba5f 933e d4f9 19be dcc7 603e ec7c 00bf
000001a0: d896 b23d 0384 9a3e b6bf b13e 97ae 40bc
0.10186677 -0.40343893 0.24864191 -0.1340379 0.2538332 -0.7247351 0.002047338 -0.02239015
0.21656574 0.08660799 0.48807806 -0.2032452 0.425366 -0.400538 0.26031843 0.17149583
-0.13446735 0.2655033 0.11523638 -0.33741614 -0.33350056 0.23744813 -0.09078218 0.5609293
0.08729145 -0.28305274 0.41871387 -0.16819602 0.37518927 0.14179927 0.2829953 -0.3616901
-0.5175528 0.56764346 0.04070636 0.4306889 0.24801269 0.41332552 0.4223902 0.6049828
-0.05906761 0.54311025 -0.12323501 0.34724474 0.031750333 -0.25342718 -0.031102343 -0.1690579
-0.0872152 0.1855577 0.1548988 -0.25544712 0.4181517 -0.056939118 -0.358433 -0.1388637
0.51726043 -0.08069794 0.18646345 -0.120345466 -0.079225175 0.14603375 0.21630073 -0.13109624
-0.50636363 -0.51710325 -0.42507026 0.12858298 0.49583706 -0.0678691 0.27522483 0.33920026
0.019000022 -0.083408706 0.37770438 -0.14473371 0.60758775 0.63960475 0.19029516 0.013677246
-0.075369336 0.2561539 -0.46800438 -0.6883724 -0.05454552 0.39324963 0.33825168 0.45877817
0.4162062 -0.21082763 -0.5647421 -0.49991924 -0.30583695 -0.036067218 -0.031583138 0.08671377
-0.7302831 -0.30727848 -0.074434124 -0.50766635 0.2878397 -0.15036708 0.2195124 -0.50190616
0.087201774 0.30178842 0.34716576 -0.011760375

classify.weight f4 [2, 6]
00000000: 31d0 453f c18a 3f3f 3bb4 183f 8f6c e53e
00000010: 3d55 553f ce87 3ebf 27a2 5dbd 7c3c 8bbe
00000020: 7d65 a1be 42c3 ffbe 2a9e d9be bdda 413f
0.772708 0.74821097 0.5965001 0.44809386 0.8333319 -0.7442597 -0.05410972 -0.27194583
-0.31522742 -0.49953657 -0.42503482 0.75724393

classify.bias f4 [2]
00000000: 628e 4a3d 5b1d 82be
0.049452193 -0.2541302
