张闻慧/Tutorial7/Output/rnn.pth (torch, 114072 bytes, 7 tensors)

embedding.weight f4 [4623, 6]
0.0 0.0 0.0 0.0 0.0 0.0 -1.2476047 -0.8863741
1.909074 -0.030696549 0.75505924 0.5657639 -0.46840602 -0.5018882 0.038421556 1.1119673
-1.2716256 0.87261736 -0.3650702 -1.3177464 0.6518319 -0.13827153 0.17693612 -0.021752497
-0.89120823 0.2363531 -0.33371052 -0.26403782 -0.8827976 -1.4279981 0.23411031 -1.3658767
0.47257262 -1.333624 -1.2459116 -1.1436981 1.0878701 -0.16350909 0.2671391 0.79317516
-0.73351634 0.3781934 0.41990376 -0.8117491 -2.214302 0.87097955 0.8437747 -0.1285391
-0.15966918 -0.077492535 -0.71347386 0.61181813 0.13237683 -0.63156056 0.125104 2.169378
-0.7410794 -0.73339933 -1.4009244 1.1355792 -0.04536217 0.3877134 -0.5382345 1.5013026
0.094619 -0.12914377 0.27397466 -0.7520087 -0.54877603 -0.63588345 0.812284 0.4913096
-0.9573267 1.1990076 0.3079388 0.83762854 0.48894393 -1.4166929 0.22886488 1.0958729
1.4286507 -0.9305815 -0.34326318 0.5857831 -0.18334597 0.29745895 1.696108 0.89242435
-0.002487541 0.65564835 -1.9640527 -0.07933284 -0.9975439 -1.6870773 -0.5738511 -0.2555296
-0.20430079 -0.3661421 0.29683632 0.37936103 -0.46623904 -1.1337849 0.32951346 0.752052
0.5954341 0.08190148 0.29996073 2.2368464 -0.503062 0.9468087 0.41595265 -0.70079744
-1.2952685 0.07133364 -2.5161204 -0.10712439 -0.5442848 -0.60317606 -1.9608997 -0.94070274
-2.6594188 1.8834208 -0.9903879 0.59850085 0.18673648 -0.5292453 1.3922219 0.86438775
1.0490792 0.6193402 -1.2101011 -0.9521549 -1.0335706 0.7909362 -1.6534837 0.4046474
-1.2996321 -0.7529976 0.31714454 1.5459113 1.7177906 0.035763435 -0.7145909 0.26012033
1.0133913 -0.016968716 -0.053931914 0.0070816046 0.11547474 1.1375581 1.3642049 -1.2881881
0.5894759 -2.7311432 -0.4791249 -1.044848 1.0643969 0.19995648 -0.8892631 -0.91717726
1.4189047 1.63614 -1.4389637 -1.1282915 1.5838464 0.3405645 0.42234126 0.15771511
-0.2721488 0.42345053 0.1272724 1.1316736 0.9451679 1.0170579 0.20383458 -0.7621037
0.46704528 1.2989668 -0.47109035 -2.3433418 -1.2686448 0.17235634 -0.46208233 1.9870019
-0.25532338 -0.4093747 -1.2800932 -0.28182718 -0.4639122 -1.3980005 -0.79539186 1.2461927
-2.78796 -2.0266304 1.599362 -0.32752606 1.3298231 0.9433976 2.161637 -0.52559006
1.1695728 0.15403673 1.6414765 -0.05937557 1.2242922 1.8166687 -2.0331705 0.44016406
0.8858827 2.063118 0.20645493 0.96741784 1.0248796 -0.17934304 -1.4961252 -0.6431139
-0.43495506 0.87655294 -2.2029054 0.29921785 0.3272321 -0.6793528 -0.5722898 -0.22681546
-1.099369 -0.89992476 -1.0640798 0.2705155 -0.91709626 1.0286075 -0.30787933 0.19170138
0.45327246 1.8725495 0.10287668 0.25523943 1.0690291 -0.058498148 -0.6989708 1.1893146
0.29747808 2.2143087 0.5688091 -0.18761173 -0.28683493 0.31993005 1.1347469 -1.527159
0.7037864 -0.24532422 0.58942544 2.1958065 -0.5104233 1.7970597 -2.054695 -0.074155964
00000000: 0000 0000 0000 0000 0000 0000 0000 0000
00000010: 0000 0000 0000 0000 83b1 9fbf 6ae9 62bf
00000020: 895c f43f 5477 fbbc 904b 413f e7d5 103f
00000030: ead2 efbe bf7b 00bf ec5f 1d3d f254 8e3f
00000040: a1c4 a2bf da63 5f3f 7bea babe eaab a8bf
00000050: 75de 263f 0d97 0dbe be2e 353e 4b32 b2bc
00000060: 3926 64bf 8c06 723e 1bdc aabe f72f 87be
00000070: 06ff 61bf a4c8 b6bf 9dba 6f3e 0cd5 aebf
00000080: 0af5 f13e 31b4 aabf 087a 9fbf b364 92bf
00000090: 543f 8b3f ed6e 27be 75c6 883e 870d 4b3f
000000a0: bac7 3bbf 91a2 c13e a0fd d63e cace 4fbf
000000b0: 20b7 0dc0 84f8 5e3f 9e01 583f c19f 03be
000000c0: 5180 23be 68b4 9ebd 39a6 36bf 1da0 1c3f
000000d0: cb8d 073e f4ad 21bf 431b 003e 17d7 0a40
000000e0: 61b7 3dbf 0fc0 3bbf 7e51 b3bf a95a 913f
000000f0: afcd 39bd 5f82 c63e bcc9 09bf af2a c03f
00000100: 9bc7 c13d 443e 04be 6846 8c3e a483 40bf
00000110: 967c 0cbf 42c9 22bf d8f1 4f3f ef8c fb3e
00000120: 5d13 75bf 1579 993f 28aa 9d3e d36e 563f
00000130: dc56 fa3e 3156 b5bf 8e5b 6a3e 9045 8c3f
00000140: 07de b63f 973a 6ebf 31c0 afbe e2f5 153f
00000150: 0cbf 3bbe 8a4c 983e 111a d93f ec75 643f
00000160: 0306 23bb 92d8 273f 1466 fbbf 4279 a2bd
00000170: 095f 7fbf 26f2 d7bf e8e7 12bf c7d4 82be
00000180: 3a34 51be fa76 bbbe eefa 973e 9c3b c23e
00000190: e2b6 eebe dd1f 91bf fdb5 a83e 7b86 403f
000001a0: 5f6e 183f f7bb a73d 7494 993e 7e28 0f40
000001b0: acc8 00bf 0e62 723f bff7 d43e 7667 33bf
000001c0: 5ccb a5bf 5f17 923d 1e08 21c0 0864 dbbd
000001d0: 4056 0bbf bf69 1abf c3fe fabf e5d1 70bf
000001e0: eb33 2ac0 ef13 f13f 108a 7dbf 5a37 193f
000001f0: d937 3f3e 9f7c 07bf 5434 b23f 8448 5d3f
00000200: 3a48 863f 148d 1e3f 98e4 9abf 6cc0 73bf
00000210: 0b4c 84bf cb7a 4a3f 5ba5 d3bf f22d cf3e
00000220: 585a a6bf 73c4 40bf c560 a23e 6ce0 c53f
00000230: 90e0 db3f ae7c 123d 6eef 36bf 7e2e 853e
00000240: ceb6 813f fa01 8bbc b6e7 5cbd ce0c e83b
00000250: 057e ec3d 819b 913f 449e ae3f 59e3 a4bf
00000260: e5e7 163f 0dcb 2ec0 dc4f f5be 94bd 85bf
00000270: 283e 883f 64c1 4c3e bfa6 63bf 21cc 6abf
00000280: ab9e b53f 096d d13f f62f b8bf db6b 90bf
00000290: 7bbb ca3f 785e ae3e 1d3d d83e 1280 213e
000002a0: 1657 8bbe 82ce d83e b253 023e aeda 903f
000002b0: 86f6 713f f42e 823f 03ba 503e 3a19 43bf
000002c0: 8f20 ef3e 8b44 a63f c132 f1be 50f9 15c0
000002d0: f462 a2bf 2e7e 303e 0e96 ecbe 1456 fe3f
000002e0: bfb9 82be 9099 d1be 18da a3bf a74b 90be
000002f0: e685 edbe aef1 b2bf cd9e 4bbf 3e83 9f3f
00000300: f06d 32c0 50b4 01c0 e5b7 cc3f 7fb1 a7be
00000310: a537 aa3f 8182 713f 4358 0a40 128d 06bf
00000320: 90b4 953f cebb 1d3e e71b d23f cc33 73bd
00000330: 9bb5 9c3f 9a88 e83f 771f 02c0 2f5d e13e
00000340: 35c9 623f 200a 0440 ec68 533e b2a8 773f
00000350: 412f 833f b4a5 37be 0881 bfbf 1da3 24bf
00000360: 6eb2 debe c665 603f 67fc 0cc0 1533 993e
00000370: f78a a73e 11ea 2dbf 9681 12bf 5042 68be
00000380: 20b8 8cbf 7861 66bf c433 88bf 0281 8a3e
00000390: d2c6 6abf 69a9 833f 5ca2 9dbe 5e4d 443e
000003a0: 5413 e83e b4af ef3f 02b1 d23d beae 823e
000003b0: f2d5 883f c19b 6fbd c0ef 32bf 763b 983f
000003c0: 0c4f 983e 3cb7 0d40 799d 113f 4a1d 40be
000003d0: 07dc 92be dfcd a33e 633f 913f f279 c3bf
000003e0: 582b 343f 4636 7bbe 96e4 163f 1888 0c40
000003f0: 1aab 02bf 0d06 e63f 1f80 03c0 15df 97bd

encoder.weight_ih_l0 f4 [6, 6]
-0.4660985 0.20353532 -0.4913321 -0.029815603 -0.11907791 -0.07060588 -0.17576313 0.3974766
0.24895416 -0.35260388 0.29418314 -0.015251921 -0.28509334 0.41315487 -0.2937515 0.15612845
-0.07038373 -0.24672665 0.3586996 0.2163882 0.35705197 0.17571332 -0.21111035 -0.45132583
0.014176166 -0.29355338 -0.20338114 -0.07950135 0.041608144 0.2070966 -0.29742813 0.08318539
-0.12310773 0.115214 -0.15364406 -0.35415646
00000000: 76a4 eebe 906b 503e e28f fbbe da3f f4bc
00000010: 1fdf f3bd d199 90bd 40fb 33be 0e82 cb3e
00000020: d7ed 7e3e 7f88 b4be 2c9f 963e 31e3 79bc
00000030: c1f7 91be 0989 d33e 9966 96be 23e0 1f3e
00000040: 5825 90bd e9a5 7cbe 79a7 b73e de94 5d3e
00000050: 84cf b63e 31ee 333e 502d 58be 2e14 e7be
00000060: 2643 683c a14c 96be 2543 50be 9bd1 a2bd
00000070: 4d6d 2a3d 2211 543e 8048 98be 1a5d aa3d
00000080: e81f fcbd 51f5 eb3d de54 1dbe ff53 b5be

encoder.weight_hh_l0 f4 [6, 6]
0.17809238 0.065692365 0.0639715 0.16840698 0.1605984 -0.14937922 0.18224795 0.19574957
0.12478791 0.14720486 0.058558103 -0.08268024 0.107696675 0.07268808 -0.01282885 -0.049252134
-0.14457268 -0.02300885 0.3442337 -0.16697225 -0.00877941 -0.097992904 -0.3106705 -0.3487745
0.12860397 0.15627114 -0.1225769 -0.13263096 -0.16079935 0.106695004 0.22932269 0.03702678
-0.1282155 0.14406177 0.08854326 -0.06530092
00000000: d95d 363e b889 863d 7d03 833d e172 2c3e
00000010: e873 243e def6 18be 359f 3a3e 9372 483e
00000020: ce90 ff3d dfbc 163e 9fda 6f3d 4254 a9bd
00000030: 1390 dc3d 7ddd 943d 1930 52bc 9bbc 49bd
00000040: dc0a 14be 0e7d bcbc 663f b03e c6fa 2abe
00000050: 84d7 0fbc 81b0 c8bd 3410 9fbe 9292 b2be
00000060: c2b0 033e 8b05 203e 9909 fbbd 69d0 07be
00000070: 96a8 24be e982 da3d 91d3 6a3e 65a9 173d
00000080: ed4a 03be ee84 133e 2b56 b53d 7dbc 85bd

encoder.bias_ih_l0 f4 [6]
-0.41904685 -0.5479184 -0.15950355 -0.59504765 -0.30293766 -0.2792355
00000000: 4f8d d6be 6144 0cbf e654 23be 0b55 18bf
00000010: a51a 9bbe f5f7 8ebe

encoder.bias_hh_l0 f4 [6]
-0.4950452 -0.24472114 -0.5007742 -0.17888868 0.32088557 0.25455216
00000000: 9176 fdbe 2e98 7abe bd32 00bf 982e 37be
00000010: 1d4b a43e a954 823e

classify.weight f4 [2, 6]
0.7764561 -0.47084463 0.69273776 0.76665145 -0.004116228 0.39238122 -0.6331243 0.3507408
-0.41247952 -0.76056087 0.49436563 -0.35879576
00000000: d4c5 463f 8c12 f1be 4357 313f 4543 443f
00000010: 6ce1 86bb 31e6 c83e 6f14 22bf 4c94 b33e
00000020: 8430 d3be 1eb4 42bf 7e1d fd3e 14b4 b7be

classify.bias f4 [2]
-0.19818737 -0.24559638
00000000: a1f1 4abe 9e7d 7bbe
