张闻慧/Tutorial7/Output/stack_gated_cnn.pth (torch, 121577 bytes, 23 tensors)

embedding.weight f4 [4623, 6]
000000 00 00 00 00 00 00 00 00 00 00 00 00 00 00 00 00
       0.0 0.0 0.0 0.0
000010 00 00 00 00 00 00 00 00 7f 48 b6 bf 32 ed 21 bf
       0.0 0.0 -1.4240874 -0.63252556
000020 94 a6 ef 3f 28 52 b2 be 96 da 4e 3f 92 ef b7 3e
       1.8722711 -0.34828305 0.80802286 0.35924965
000030 ea d2 ef be bf 7b 00 bf ec 5f 1d 3d f2 54 8e 3f
       -0.46840602 -0.5018882 0.038421556 1.1119673
000040 a1 c4 a2 bf da 63 5f 3f ef 9b f7 bd d3 56 9b bf
       -1.2716256 0.87261736 -0.12090289 -1.2135872
000050 97 3f 60 3f e2 9d 97 bd cf 45 78 3e e2 96 81 3d
       0.8759703 -0.07403161 0.2424538 0.06327607
000060 48 5e 6d bf a2 e5 99 3e 77 67 b7 be 08 2f f2 be
       -0.92721987 0.30058008 -0.35821125 -0.47301507
000070 25 04 48 bf f1 fa 96 bf 6b d8 9f 3d 3e d8 8c bf
       -0.78131324 -1.1795331 0.0780495 -1.1003492
000080 b9 83 d5 3e 6c ed cb bf 77 46 98 bf 7f 3b 72 bf
       0.4170206 -1.593183 -1.1896504 -0.94622034
000090 54 3f 8b 3f ed 6e 27 be 75 c6 88 3e 87 0d 4b 3f
       1.0878701 -0.16350909 0.2671391 0.79317516
0000a0 ba c7 3b bf 91 a2 c1 3e 56 1d 63 3e 26 6a 6e bf
       -0.73351634 0.3781934 0.2217916 -0.9313072
0000b0 23 97 1e c0 53 73 66 3f 44 58 47 3f 33 f0 4c be
       -2.4779747 0.9001972 0.7786906 -0.20013504
0000c0 51 80 23 be 68 b4 9e bd 39 a6 36 bf 1d a0 1c 3f
       -0.15966918 -0.077492535 -0.71347386 0.61181813
0000d0 cb 8d 07 3e f4 ad 21 bf fe 7a ca be 1f 19 ff 3f
       0.13237683 -0.63156056 -0.3954696 1.9929541
0000e0 ea b6 2e bf ae ce 40 3d 01 a6 05 c0 d2 9c 84 3f
       -0.68247855 0.047072105 -2.088257 1.0360358
0000f0 32 99 2b 3c 88 2b 19 3f 8c e3 23 bf ff 23 e7 3f
       0.010473536 0.5983205 -0.64019084 1.805786
000100 18 5e 50 bd 2f bc 70 be bc b2 dc 3d 12 b7 22 bf
       -0.050870985 -0.23509286 0.107762784 -0.63560593
000110 af c8 12 bf b5 8d 51 bf d1 69 30 3f ae f4 03 3f
       -0.5733747 -0.8185685 0.68911463 0.51545227
000120 75 a9 82 bf bf a5 81 3f c3 f1 b2 3e 15 6d 07 3f
       -1.0207964 1.0128707 0.34950075 0.5290082
000130 66 a6 f4 3e 54 52 82 bf 63 cc 72 3f 57 c6 a1 3f
       0.47783202 -1.0181375 0.9484312 1.2638654
000140 58 f0 f4 3f 7b 00 2b bd 71 c2 53 bf 1e 1b 9e be
       1.9135847 -0.041748505 -0.8271857 -0.30880064
000150 a0 63 96 bc c1 bc 0c 3f de 66 ce 3f 72 a7 66 3f
       -0.018358052 0.54975516 1.6125143 0.9009925
000160 56 b7 66 be 4a 56 f1 3e cf cc 06 c0 e3 c1 f9 bd
       -0.22530875 0.47136146 -2.1062505 -0.12195184
000170 65 5f 53 bf b9 33 d3 bf 5f e4 d0 be ab b9 bd be
       -0.82567436 -1.650016 -0.40799233 -0.37055716
000180 5b 5f e4 be 17 46 0c be 79 fe 93 3e 2d 63 0c 3e
       -0.44604 -0.13698612 0.28905085 0.13709708
000190 e7 26 11 bf 37 3f 99 bf e8 71 5f 3e 07 a4 75 3f
       -0.56699985 -1.1972417 0.21820796 0.9595341
0001a0 3b b0 43 3f 8f 24 94 bd f3 69 ff 3e ba eb 1a 40
       0.7644078 -0.072335355 0.4988552 2.4206376
0001b0 40 98 1b bf 99 34 75 3f 2e eb 92 3e f5 85 46 bf
       -0.6077919 0.9578338 0.28695053 -0.7754815
0001c0 73 86 88 bf 28 53 d3 3d b2 0d a2 bf ea 9c 17 bf
       -1.0666031 0.10318595 -1.266043 -0.59223807
0001d0 fb fa a8 3e 97 74 d1 bf e7 f3 c0 bf 6c 83 2c bf
       0.33003983 -1.6363705 -1.5074433 -0.67388034
0001e0 cd 9a 03 c0 1d bf eb 3f 2c bf 17 bf 5e 1b 1b 3d
       -2.0563233 1.8417698 -0.5927608 0.037867896
0001f0 e2 11 ec 3e f1 c6 b0 be 66 06 18 3f f0 50 9e 3e
       0.46107394 -0.3452678 0.59384763 0.30921125
000200 74 51 36 3f 60 36 f1 3d 37 1b 57 bf 8d 1d 0b bf
       0.7121804 0.11777949 -0.840259 -0.54341966
000210 df ca d5 be c0 94 2e 3f 97 ac 93 bf 4a dd 1d be
       -0.4175634 0.68195724 -1.1537045 -0.15416446
000220 ac 88 4c bf d8 e4 fb be 0d a7 bc 3c 07 12 94 3f
       -0.79896045 -0.4919803 0.023028875 1.1568002
000230 28 3d c0 3f ed 02 32 bf d0 44 8b be 4a 72 96 3e
       1.5018663 -0.69535714 -0.27200937 0.2938407
000240 98 ad 66 3f 6d 9d 0f be 43 7e a2 be db 55 b4 3d
       0.90108633 -0.14024897 -0.31736955 0.08805438
000250 79 21 47 3d 52 03 b7 3f 2c 90 18 3f cc d8 89 bf
       0.048615906 1.4297888 0.5959499 -1.0769286
000260 26 04 84 3f 80 29 4c c0 23 a5 f4 be 0e 4c 6e bf
       1.0313766 -3.190033 -0.4778224 -0.930848
000270 4b 20 4f 3f f4 08 90 bd 13 43 95 bf 9e db ad bf
       0.8090865 -0.07032958 -1.1661094 -1.3582647
000280 58 3b 92 3f ce f7 18 40 d1 d0 a7 bf a5 6b 98 bf
       1.142436 2.3901248 -1.3110601 -1.190785
000290 53 8d c5 3f a4 1a a9 3e 47 f3 e7 3e 4f f1 bf 3e
       1.5433754 0.33028138 0.45302793 0.3748879
0002a0 26 0b 78 be 71 95 d2 3e bb e5 8f 3d 36 6d 95 3f
       -0.24223003 0.4112964 0.070262395 1.1673954
0002b0 14 7b 67 3f e3 2b 79 3f 4f fc 61 3e 40 0c 8b bf
       0.9042218 0.9733259 0.22068904 -1.0863113
0002c0 2e e8 1c 3e fa cd ad 3f 9e 99 4a be ea 83 15 c0
       0.15322945 1.3578484 -0.19785163 -2.3361764
0002d0 62 1c 99 bf 06 b7 af 3d 78 32 95 bd 95 1b cd 3f
       -1.1961787 0.08579831 -0.07285017 1.6024042
0002e0 6b 71 49 3c d6 88 af be 97 b4 8b bf 20 83 03 bf
       0.012295107 -0.34284085 -1.0914487 -0.51371956
0002f0 57 14 eb be 09 fd b8 bf f3 2f 78 bf 26 4b a6 3f
       -0.45913956 -1.445222 -0.96948165 1.2991683
000300 49 de 37 c0 35 52 f8 bf c1 18 c2 3f 0f 99 b9 be
       -2.8729422 -1.9400088 1.5163804 -0.36249587
000310 86 e5 a3 3f 55 42 6e 3f 43 58 0a 40 12 8d 06 bf
       1.280442 0.93069965 2.161637 -0.52559006
000320 90 b4 95 3f ce bb 1d 3e e7 1b d2 3f cc 33 73 bd
       1.1695728 0.15403673 1.6414765 -0.05937557
000330 50 1d 94 3f cf 2d dc 3f 44 3a 0a c0 41 a7 21 3f
       1.1571445 1.720148 -2.1598063 0.63145834
000340 cf 2a 66 3f f5 37 0a 40 f6 6b 3d be b3 e1 60 3f
       0.8990907 2.1596653 -0.18498215 0.8784439
000350 a8 cd 81 3f 79 1f 38 bf 28 77 6c bf a7 5e ad be
       1.0140886 -0.71923023 -0.9236932 -0.33861277
000360 9b 01 bf 3b 12 9d 0b 3f 18 84 eb bf 30 48 b7 3e
       0.005829049 0.54536545 -1.8399687 0.35797262
000370 e5 4d f5 3e e8 4e 02 bf c7 f8 fa be 31 9d b6 3d
       0.4791099 -0.5090165 -0.49017927 0.08916701
000380 12 ca 91 bf 97 92 6b bf 79 26 98 bf 0d d6 22 3d
       -1.1389792 -0.92020553 -1.1886741 0.039754916
000390 b3 e7 79 bf 11 4e 8a 3f 2f 3c 9b be 9d dd b2 3e
       -0.9761917 1.0805074 -0.30319354 0.34934703
0003a0 a4 ee fd 3e be b8 d7 3f 4c e9 e7 3d c7 65 53 3e
       0.4959613 1.6853254 0.11323795 0.20644294
0003b0 a7 9d 52 3f d7 23 79 be 50 eb 21 bf 8d 76 a9 3f
       0.8227181 -0.24330078 -0.63249683 1.3239304
0003c0 0c 4f 98 3e 3c b7 0d 40 79 9d 11 3f 4a 1d 40 be
       0.29747808 2.2143087 0.5688091 -0.18761173
0003d0 07 dc 92 be df cd a3 3e 80 55 95 3f 6d 85 a9 bf
       -0.28683493 0.31993005 1.1666718 -1.3243843
0003e0 6c f8 1f 3f f3 a6 92 be 98 86 1a 3f 44 44 09 40
       0.62488437 -0.28642997 0.60361624 2.1447916
0003f0 cf 7a be be 72 93 d3 3f b0 bc f0 bf 10 0d 72 be
       -0.3720307 1.6529372 -1.8807583 -0.23637795

encoder.gcnn_layers.0.cnn.cnn.weight f4 [6, 6, 3]
000000 14 5d 06 be 0f bf 4d 3d 4f 9f 28 be 4a a0 5b 3e
       -0.13121444 0.050231036 -0.16467021 0.21447864
000010 36 d1 b2 3c 54 b0 a9 bd 56 50 32 be 4e f9 dc 3d
       0.021828275 -0.08285585 -0.17413458 0.107897386
000020 33 d1 e8 bd c3 7a 5a be ae 69 67 3e 6f ce 19 bd
       -0.113680266 -0.21335892 0.22598907 -0.037550386
000030 70 62 3f be 82 a9 73 3e b2 15 9b bd 88 16 b4 3d
       -0.18689895 0.23795131 -0.075724974 0.0879336
000040 8e 2a 67 be 7e 28 2d bd 75 16 86 bd b6 1d db 3d
       -0.22574827 -0.042274944 -0.06547252 0.10699026
000050 c1 b2 71 bd da dc 2c be 84 1a 76 be fe cc 56 be
       -0.059008364 -0.16881123 -0.24033552 -0.20976636
000060 5b a4 5d be 28 e2 75 be 6a 31 a1 be 5a 28 0f 3e
       -0.21644728 -0.24012053 -0.31483012 0.13980237
000070 b4 4b aa bd 2f 08 a5 3e e7 6c c8 bd 46 76 48 bd
       -0.083152205 0.32232806 -0.097863965 -0.04894092
000080 1a 5c 0e be da 76 09 3e 1a b5 57 3e c6 d2 bf be
       -0.13902321 0.13424245 0.21065179 -0.37465495
000090 b5 5e 93 be c5 15 82 3d 6e 11 d3 bd 14 7e 6d bb
       -0.28783193 0.063518085 -0.10306059 -0.0036238478
0000a0 0d 58 18 3d fa f3 cc bd 00 58 03 bd ec a5 27 3e
       0.037193347 -0.10007472 -0.032066345 0.16371888
0000b0 1d 8a 4f 3c 85 1f 80 be 8c 17 3b 3e ed 08 7d bd
       0.012667206 -0.25024047 0.18270701 -0.06177609
0000c0 7d a5 a1 bd 67 2e 68 3e 88 2e 29 be cd ec 1c be
       -0.078928925 0.22673951 -0.16521657 -0.15324707
0000d0 16 99 66 be 91 c6 cf bd 17 aa 96 3d a5 38 47 be
       -0.22519335 -0.101452954 0.07356661 -0.19455202
0000e0 fb 25 30 3e 82 d9 34 b9 4d 99 27 be 3b a1 37 be
       0.17201988 -0.00017247166 -0.16367073 -0.17932598
0000f0 e4 1c 20 3e f3 02 ba 3e ec 21 80 bd 1e 33 87 be
       0.15636021 0.36330375 -0.0625647 -0.26406187
000100 5b 2d 03 be 92 a5 57 3e 29 85 72 3e 40 fe 9d bc
       -0.1281027 0.21059254 0.23683609 -0.019286275
000110 a0 0f dd 3c d9 9f 05 3d 8d b5 9d 3e ae 18 06 3e
       0.02698499 0.032623146 0.30802575 0.13095352
000120 0a aa 88 3e b6 0f e3 bd 27 f2 00 3e df b7 0e bd
       0.2669223 -0.11086981 0.12592374 -0.034843322
000130 87 2f a3 bd 86 1b 25 be 6d 2f 7a 3d 19 96 30 3e
       -0.079680495 -0.1612378 0.061080385 0.17244758
000140 bd c1 2e 3e 5a 4e 74 bc a4 c2 e4 3d c2 fc 6c 3e
       0.17066093 -0.014911259 0.11169937 0.23143294
000150 63 45 40 3e b3 37 f5 bd 13 94 c0 3d b6 89 88 3e
       0.18776469 -0.119735144 0.09403243 0.26667565
000160 b7 39 00 3f 8c 09 d5 3c a8 46 58 bd 13 c4 17 3e
       0.50088066 0.026005529 -0.052801758 0.1482089
000170 dc 1b 5c be 44 d7 59 be 16 19 23 3e 58 8d c8 3d
       -0.21495003 -0.21273524 0.15927538 0.09792584
000180 72 58 ba bc 3f 50 eb 3d 66 bb 59 3c db 4b c6 3c
       -0.022747252 0.11489915 0.013289308 0.024206093
000190 17 3d ff bb ee c3 60 be a9 47 59 3e 66 e2 17 3e
       -0.007789265 -0.21949741 0.21218742 0.14832458
0001a0 b2 50 28 be f8 9d 85 bd ae ee b4 be 96 8f e2 3c
       -0.16437033 -0.06524271 -0.35338348 0.027656358

encoder.gcnn_layers.0.gate.cnn.weight f4 [6, 6, 3]
000000 b4 b0 41 3e ca 10 ae be 67 30 75 bd be a2 15 3d
       0.18915063 -0.33997184 -0.059860613 0.036532156
000010 a2 dc d2 bd bc ca 28 3b 1a ae 81 be b9 45 a5 bd
       -0.102959886 0.0025755605 -0.2532814 -0.08069939
000020 d6 50 39 be d0 fe c0 3e 1d 6c 12 be 43 e2 1c 3e
       -0.18097243 0.37694407 -0.14299054 0.15320687
000030 19 2a 4b 3d 92 78 61 be f4 d7 98 3e b1 1a 52 bc
       0.049600694 -0.2201865 0.2985226 -0.012823747
000040 f9 78 46 3e f1 d5 b3 3e f2 a5 5e bd dc 6c 08 3e
       0.19382085 0.35124162 -0.054357477 0.13322777
000050 6d 7d 6a be 27 a6 b1 bd b5 1c ab 3e 47 cc 9e be
       -0.22899409 -0.08674269 0.3342034 -0.31015226
000060 b7 b2 09 bd 5e 45 86 3e 41 72 0b be 99 2d 32 3e
       -0.0336177 0.26224798 -0.13617803 0.17400207
000070 73 91 6c be 64 f2 a5 3e 16 04 82 3d 17 29 bf bd
       -0.2310236 0.32411492 0.063484356 -0.09334009
000080 07 e6 90 3d 56 96 e3 3d d2 3d 18 3f 31 49 c3 bd
       0.07075124 0.11112659 0.5946933 -0.095354445
000090 a4 ae 4d 3d e2 93 8e 3d d6 b4 86 be 68 6c 92 3e
       0.05021538 0.069618 -0.26309842 0.28598332
0000a0 83 d3 5c 3d 58 fe d8 3e 67 74 95 be 26 45 0d bd
       0.05391265 0.4238155 -0.2919037 -0.034489773
0000b0 57 ee 74 3d 26 f4 02 be dd 0b 1a 3d 08 40 bd 3c
       0.05979761 -0.12788448 0.03760897 0.023101822
0000c0 26 e9 cd 3d bf f4 d2 3e 22 39 84 be 48 03 75 3e
       0.10054235 0.4120235 -0.2582484 0.23927033
0000d0 a7 fd 14 be a9 7b 65 be 9f 72 07 3e c1 cf 93 be
       -0.14549886 -0.22410454 0.13227318 -0.2886944
0000e0 b1 92 1e 3e 41 23 5b be 22 3f 54 be e5 70 22 3e
       0.15485646 -0.21400167 -0.20727208 0.15863378
0000f0 06 32 4a be 6b d8 e0 3c 38 77 e4 3c 6a 25 5b 3e
       -0.19745645 0.027446946 0.02788888 0.21400991
000100 58 f6 01 be 7f 22 00 bf cb b4 88 3e 5c 4e 0d 3f
       -0.12691629 -0.50052637 0.26700434 0.5519769
000110 54 62 85 be 23 99 da be d5 36 c7 3d 86 8a 81 3d
       -0.2605158 -0.4269496 0.09727255 0.063252494
000120 9d a3 04 3e bf 3f 05 bf f7 09 f0 bd 3b a6 da 3e
       0.12953039 -0.52050394 -0.11720651 0.4270495
000130 2e 99 a6 be 4d c9 87 be d6 a1 a0 3d 12 2f a7 3d
       -0.32538742 -0.26520768 0.07843368 0.08163275
000140 11 01 22 be c0 a2 bb 3d 04 e3 9f be a2 82 86 3d
       -0.1582072 0.091619015 -0.31227887 0.06567885
000150 58 65 dd 3e 36 77 ac be ae 6b 11 3e d5 7c 0c be
       0.43241382 -0.336847 0.14201233 -0.13719495
000160 5f 0b 01 be dd c5 06 be 22 b7 c9 3d 86 32 91 be
       -0.12601994 -0.13161416 0.09849383 -0.2835886
000170 ba 45 be 3d c5 ed 5f bd 5e bf 6c 3e dc 45 cd bd
       0.09290643 -0.054670114 0.23119876 -0.1002309
000180 78 00 16 3e 09 5e 7a 3e ed 99 9f be c8 db fa 3e
       0.14648616 0.24449934 -0.31172124 0.48995805
000190 41 9b 11 be 75 27 20 be ea b4 a8 bb 8e 25 d6 3e
       -0.14219381 -0.15640052 -0.0051485198 0.41825527
0001a0 eb 50 1e be fc e4 79 3e f7 62 29 be 07 96 c5 3d
       -0.15460555 0.24403757 -0.16541658 0.09647756

encoder.gcnn_layers.1.cnn.cnn.weight f4 [6, 6, 3]
000000 73 79 59 bc 38 3b 91 bd f6 67 39 3e c9 e8 52 be
       -0.013273585 -0.07091373 0.18106064 -0.20596613
000010 76 ab 37 bd 86 15 32 bd 09 38 b1 3e 6f 69 26 3e
       -0.044841252 -0.043477558 0.34613064 0.16251157
000020 39 94 eb 3c a4 be 30 3d af f3 8a 3d 83 24 af 3e
       0.028757202 0.04315056 0.0678476 0.34207544
000030 c6 ab 09 3e 7a 63 01 be 84 3f a4 3e a9 53 06 3e
       0.13444433 -0.12635604 0.3207971 0.13117851
000040 f8 e0 eb bd e5 26 bb 3d c4 ee 31 be 45 9e 87 bc
       -0.11517519 0.09138278 -0.17376238 -0.016554961
000050 99 fd 79 be 29 58 35 be 87 41 ed bc 67 64 3b 3e
       -0.24413146 -0.17709412 -0.02896191 0.18300019
000060 98 a9 2c bd 64 8c 7a bd 93 ee 62 3e df 50 81 be
       -0.042153925 -0.061169043 0.22161321 -0.25257012
000070 e2 df a1 3d 98 3f 5b be d8 ec 43 be 17 e6 7c 3d
       0.079040304 -0.21410978 -0.19133317 0.06174287
000080 9f 10 42 3d 5d 58 a4 bd e3 22 14 3d 7a 54 cb 3d
       0.047379132 -0.080246665 0.036166083 0.09928222
000090 d9 ba 93 3d 2c af 72 3e 33 9b f6 bc 65 c2 63 3d
       0.07213373 0.23699635 -0.030103302 0.05560531
0000a0 9f 61 ac bd ae bd 5e be 2c f8 82 be b8 44 f9 bd
       -0.08417057 -0.21752045 -0.25579965 -0.1217131
0000b0 05 61 2f 3e cf a6 8d bd bf 3a f7 bc e1 32 fe 3d
       0.17126854 -0.06916582 -0.03017938 0.12412048
0000c0 3f c0 84 be 36 7b 39 bd 83 5f 9b bd 42 a0 1a be
       -0.25927922 -0.04528352 -0.07586577 -0.15100196
0000d0 5f 57 09 3e ba a9 7f 3e 1d 63 fa 3d 32 0f 38 bc
       0.13412236 0.2496709 0.122259356 -0.011234092
0000e0 bb 4c f8 bd 2f 3d cd 3c 80 41 29 be 16 e5 bd bd
       -0.1212401 0.025053589 -0.16528893 -0.0927221
0000f0 a6 51 16 be 98 6e c2 3e b7 dc 18 be 72 6a 6e 3e
       -0.14679584 0.37975 -0.14927946 0.23282793
000100 21 65 92 3e 1c b1 36 3e 1b 47 c6 3c fc 49 40 be
       0.2859278 0.17841 0.024203828 -0.18778223
000110 c3 5c f1 bd f8 f7 90 3e 12 0b ba bd cb 84 c9 3d
       -0.11785271 0.28314185 -0.09084143 0.098397814
000120 7c 98 15 be b3 d2 44 be 14 b6 10 3e 5a 7f 9a be
       -0.1460895 -0.19221 0.14131957 -0.30175287
000130 fb 89 72 3e b2 12 c1 bd 9a b4 76 be 21 93 e3 bd
       0.23685448 -0.09427394 -0.24092332 -0.11112047
000140 01 8c dc bd 5c c4 51 3e 33 46 8d bd 65 35 08 be
       -0.10768891 0.20485061 -0.06898155 -0.13301618
000150 10 e0 f0 3d 31 07 5f 3e 20 d6 4a 3e ca c8 d7 bd
       0.117614865 0.21780087 0.19808245 -0.10536344
000160 48 39 88 3e 0a ff 91 be a1 04 a4 3d ba b3 32 3e
       0.26606202 -0.28514892 0.080086954 0.17451373
000170 6f 42 39 3e 48 80 1e 3d 11 92 f4 3d 9f dc cd 3d
       0.18091749 0.038696557 0.119419225 0.10051846
000180 2a 3a f6 3d 10 9c 45 be 87 1c 42 be 1f 0f 52 be
       0.12022813 -0.19297814 -0.18956195 -0.2051358
000190 20 71 2c 3d f4 39 0e 3e 7b 50 1c 3e b3 b0 3d 3e
       0.042100072 0.13889295 0.15265076 0.18524437
0001a0 4e 90 5e 3c e8 72 ab 3c 0f 00 1f 3e 8c 51 9c bd
       0.01358421 0.020928815 0.15527366 -0.07632741

encoder.gcnn_layers.1.gate.cnn.weight f4 [6, 6, 3]
000000 5e d6 07 bd 88 4c 2e 3d c3 a4 6b be 0b 70 2c be
       -0.03316342 0.042553455 -0.2301207 -0.16839616
000010 11 88 8a 3d 1e 53 3b 3e 87 6d 96 3e d0 df 1b bd
       0.06764234 0.18293425 0.29380438 -0.03805524
000020 b9 2b 3e 3d c1 56 ab 3d aa 68 49 3e f8 d8 33 be
       0.046428416 0.08366156 0.19668832 -0.17563236
000030 4e 21 d8 3d 71 30 52 bd 71 53 b8 3e 94 c1 10 be
       0.10553227 -0.05131573 0.3600116 -0.14136344
000040 44 8f da bd 17 37 c5 3e 09 f3 2a 3e e8 bc 89 3e
       -0.10671857 0.38518593 0.16694273 0.26901937
000050 a9 9e 74 3e 62 93 54 be 99 29 93 bd 3a 74 32 be
       0.23888649 -0.20759347 -0.071856685 -0.1742715
000060 0d c9 21 be b8 9f 7f bc d4 fa fe 3d bd 9a 9d 3e
       -0.15799351 -0.015602045 0.124501854 0.30782118
000070 ef f9 fb 3c e0 c3 d9 3d 9f 05 0f 3d fa 27 14 3e
       0.030758826 0.10633063 0.03491747 0.14468375
000080 dd 02 10 bd d7 4a 45 bd 6e e1 79 be c5 2e e6 3c
       -0.03515898 -0.048167076 -0.24402401 0.028098473
000090 dc 73 5d be c8 7e 30 be 60 bc 4d 3e 98 00 5e be
       -0.21626228 -0.17235863 0.2009139 -0.21679914
0000a0 95 9d 9b 3d 0a 78 2e bd 4d b8 82 3e a7 b8 b5 3d
       0.07598416 -0.042594947 0.25531235 0.0887311
0000b0 6f df c0 3d 07 33 b7 bc 18 04 37 3e 2f 0a f2 3d
       0.094176166 -0.022363199 0.17872655 0.118183486
0000c0 e9 17 09 3e 5c 1d 9a be 9e ee 78 3d 43 64 90 3e
       0.13388027 -0.30100524 0.060774438 0.28201494
0000d0 53 e9 ce 3c 5d 94 3a be 8c a3 0b be f6 99 43 3e
       0.025257742 -0.18220659 -0.13636607 0.191017
0000e0 b0 c2 bb 3d 4d f7 07 bf ac 6c 3a 3d 3c 7a da ba
       0.09167993 -0.53111726 0.045513794 -0.0016668509
0000f0 7e 25 7a be e9 85 1e 3d 12 26 ff bd cc f1 01 3e
       -0.24428365 0.038701925 -0.12458433 0.12689894
000100 4f 1f 39 3e 01 dc 5c 3e 60 e4 6f 3d d8 45 61 be
       0.1807835 0.215683 0.058567405 -0.219993
000110 93 8e a3 be 1f e5 81 be 63 59 8b be fb 0c 52 3d
       -0.31944713 -0.25370118 -0.27216634 0.05128191
000120 4e 9f 7c 3e fb b8 76 3c a7 60 d5 3c e7 a1 60 be
       0.24670145 0.015058751 0.026047064 -0.21936761
000130 65 51 c1 3d b1 db 85 be 77 2c 33 be 82 da b7 3d
       0.09439353 -0.26144174 -0.1749743 0.08977224
000140 ee fe 08 3e f3 c6 28 3e e8 28 53 3e 0c 31 c2 3d
       0.13378498 0.16482143 0.20621073 0.09482011
000150 d5 76 88 3d 05 fe 3a be 64 e1 19 be 19 c5 e1 bd
       0.066632904 -0.18260963 -0.15027386 -0.110239215
000160 99 d8 a1 be bd 33 e1 bd b4 aa 77 be 43 33 5a 3e
       -0.31610563 -0.109961964 -0.24186212 0.21308617
000170 73 5c 36 3c 95 66 9c bd 46 c6 49 be b3 a1 01 3e
       0.01113044 -0.076367535 -0.19704542 0.1265934
000180 6c c2 e7 3d b6 92 6d 3e 13 c4 4e be 62 c2 85 3c
       0.1131638 0.23200497 -0.20191984 0.01632804
000190 df ab 84 bd 00 02 97 be 41 b6 54 bd 10 b2 91 be
       -0.06478094 -0.29493713 -0.051931623 -0.28456163
0001a0 f9 45 73 3d a2 ec b6 3e 1d cd 0d 3e 71 64 29 bc
       0.059392903 0.35727412 0.13847776 -0.0103388885

encoder.ff_liner_layers1.0.weight f4 [6, 6]
000000 31 97 2d 3e 3a b6 19 3e 00 12 a3 3d 8b 67 c7 3e
       0.16952206 0.1501092 0.079624176 0.38946185
000010 7f 81 07 bf 5b 48 8c be 00 f2 0c be 7b e8 09 be
       -0.5293197 -0.27398953 -0.1376419 -0.1346759
000020 e6 e3 b9 be ed 35 56 3e b0 f6 a9 be 8f 57 71 3d
       -0.36306685 0.20919009 -0.3319602 0.058921393
000030 ce 75 a9 3e a3 63 c0 be 90 6a 81 3e 37 2b 39 3e
       0.3309769 -0.37576017 0.25276613 0.18082891
000040 b0 1d 25 be ec 4e 62 be 0f 33 12 be 17 0a 0b 3d
       -0.16124606 -0.22100419 -0.1427729 0.03394517
000050 df 89 97 be 09 8d 64 3e 49 32 ce 3d 77 5f 85 be
       -0.29597375 0.22319426 0.10068185 -0.26049396
000060 f6 c5 c0 bd 49 27 33 be 7f a0 1d 3e ca a0 5d be
       -0.09412758 -0.17495455 0.15393256 -0.21643367
000070 44 48 93 be 8c 0b 4c be d7 69 10 3e 4f 14 ff be
       -0.28766072 -0.1992628 0.14102875 -0.49820182
000080 16 a0 a0 3d 5b 35 6a be d5 85 ff 3e 04 72 3d bc
       0.07843034 -0.22871916 0.49906793 -0.011562828

encoder.ff_liner_layers1.0.bias f4 [6]
000000 1e 08 8e be fe 32 b5 3c 80 1a de 3d b6 e3 db 3e
       -0.27740568 0.022119042 0.10844898 0.42947167
000010 0d 5f 5c 3e 55 8c 8e be
       0.21520634 -0.2784144

encoder.ff_liner_layers1.1.weight f4 [6, 6]
000000 d0 f4 99 be 66 47 b1 be e1 7e 11 3e c8 87 9c 3d
       -0.3006959 -0.34624785 0.14208557 0.07643086
000010 05 e7 d6 3e a1 30 57 3e 4f eb b6 be bc f7 c0 bc
       0.4197313 0.21014644 -0.357264 -0.023555629
000020 16 e6 3e 3e 17 2b b1 3e 20 34 1d b7 31 d5 45 3e
       0.18642458 0.34603187 -9.3700655e-06 0.19319607
000030 e4 27 16 bf 39 2a e4 3d 37 4e 41 be 45 fb b3 bd
       -0.5865462 0.11140866 -0.18877493 -0.0878816
000040 c5 76 f6 3d 2c 38 96 3e ef ee 65 bd 94 55 9e bd
       0.12034372 0.2933973 -0.056136068 -0.077311665
000050 1e 7f 04 3f 3f be af be 09 af f0 bc 11 c0 0b bf
       0.51756465 -0.34324834 -0.029380338 -0.54589945
000060 93 8b 8e bd 02 d0 b8 be b4 78 67 bc b1 20 16 3e
       -0.069602154 -0.36096197 -0.014127899 0.14660908
000070 d3 e6 0c bf 36 a5 03 bf 30 b3 d2 3e 65 c1 82 3d
       -0.5503971 -0.51423967 0.41152334 0.06384543
000080 13 21 e2 be a8 ba a0 3e f3 b9 44 be 15 f0 27 bd
       -0.4416586 0.31392407 -0.19211559 -0.041000444

encoder.ff_liner_layers1.1.bias f4 [6]
000000 27 59 c8 bc 4e fd 85 3d e6 d5 2d 3d 5d aa 7b 3e
       -0.024456574 0.06542455 0.042440318 0.24576707
000010 cd 89 b5 be 02 44 35 be
       -0.35456696 -0.17701724

encoder.ff_liner_layers2.0.weight f4 [6, 6]
000000 5b 29 fe be 3f bf 0d be 60 fc 11 3e de 50 fc 3e
       -0.49640927 -0.13842486 0.1425643 0.49280447
000010 17 62 aa be e4 c3 c3 bd 63 81 e1 be 39 41 fd be
       -0.33277962 -0.095588475 -0.44044027 -0.49463823
000020 81 a1 9a 3d c0 e3 1b be e0 04 8b be e4 fe 86 bd
       0.07550336 -0.15223598 -0.27152157 -0.06591585
000030 dc 74 a5 3e 01 3a 56 3e d6 e0 17 be e5 69 45 3d
       0.3231572 0.20920564 -0.14831862 0.048196692
000040 0b c1 50 be 59 71 e9 bc 26 5b f6 3e 32 2e 76 be
       -0.2038614 -0.028496431 0.48116416 -0.2404106
000050 74 46 54 bc 7b 8d 34 3e 34 f4 c9 3d f5 b5 13 3f
       -0.01295625 0.17632096 0.09861031 0.5769952
000060 88 14 6f bd 3e 40 03 be 3b c1 4a bf eb 64 ae 3e
       -0.05836919 -0.12817475 -0.79201096 0.3406137
000070 a2 c6 0b 3e 62 a0 96 3e 5f 50 b4 be 54 9b 1b 3e
       0.13649991 0.29419237 -0.35217568 0.15195972
000080 28 fe b8 be b9 32 8b 3d 4e f1 3d be 38 a6 bb bd
       -0.36131406 0.06796784 -0.18549082 -0.09162563

encoder.ff_liner_layers2.0.bias f4 [6]
000000 41 58 cc be ef 8b 0b 3d 49 1f cf be 77 50 95 3e
       -0.39911082 0.034068998 -0.40453556 0.29162952
000010 5e 82 66 ba 0d 37 e1 be
       -0.000879323 -0.43987313

encoder.ff_liner_layers2.1.weight f4 [6, 6]
000000 c7 ee 83 3e 73 30 08 3e 27 c6 c8 bd fd 34 02 3e
       0.2576811 0.13299732 -0.098034196 0.12715526
000010 9c 4e 0c bf 9c 90 ac 3e f5 f1 cd be f3 15 b1 be
       -0.5480745 0.33704078 -0.4022366 -0.34587058
000020 17 5c 02 be df 6f 2c bf 70 ee 80 3d 7b eb 79 be
       -0.12730442 -0.673582 0.06295478 -0.24406235
000030 47 ab c3 bc a5 44 55 be f1 8d b2 3d 7d e3 e6 3d
       -0.023885382 -0.20826967 0.087184794 0.11273859
000040 b4 31 f5 bd 29 66 10 3e 9a cc 0a 3f f7 47 22 3e
       -0.11972371 0.14101471 0.5421845 0.15847765
000050 d1 eb d1 3e cb dc db 3d ef c5 d6 3e c7 38 d6 bd
       0.41000226 0.10735472 0.41947886 -0.10460048
000060 47 42 01 be e6 94 c1 3e ae cd 79 be 97 48 58 3e
       -0.12622939 0.37808913 -0.24394867 0.21121441
000070 d3 59 b1 3e 3f 62 af be 3e 76 50 bd c8 d8 7e 3e
       0.34638843 -0.34254643 -0.050894015 0.24887383
000080 45 77 9b be 97 64 16 3f d4 b1 33 3e 2e 23 9e 3d
       -0.30364433 0.5874724 0.17548305 0.07721554

encoder.ff_liner_layers2.1.bias f4 [6]
000000 4c 06 98 be 9f 74 f2 3d 04 d9 ba 3e 5e 84 62 be
       -0.29692304 0.1183865 0.36493695 -0.22120807
000010 00 f5 95 bd f0 ba a8 bd
       -0.07322121 -0.082387805

encoder.bn_after_gcnn.0.weight f4 [6]
000000 c0 6f 68 3f 63 d7 70 3f 0f cb 83 3f d4 05 91 3f
       0.90795517 0.94078654 1.0296344 1.1329904
000010 93 e4 91 3f 5e 9c 6f 3f
       1.139788 0.9359797

encoder.bn_after_gcnn.0.bias f4 [6]
000000 b2 9e d5 3a c0 25 83 bd 60 fd 33 bd 37 35 19 3d
       0.0016297905 -0.064036846 -0.04394281 0.037404265
000010 90 70 e4 3d 4c 7e 93 bd
       0.11154282 -0.072018236

encoder.bn_after_gcnn.1.weight f4 [6]
000000 ee 42 76 3f 3c 26 77 3f 5f 71 5f 3f 36 16 91 3f
       0.96195877 0.96542716 0.87282366 1.1334903
000010 5a e2 8d 3f bf 73 81 3f
       1.1084702 1.0113448

encoder.bn_after_gcnn.1.bias f4 [6]
000000 2d 86 ae bd f1 f7 c1 bc c6 93 d8 3c 2f dc 01 3d
       -0.08521686 -0.023677798 0.026437651 0.031704124
000010 66 ee a2 3d 10 bd 71 bd
       0.07955627 -0.059018195

encoder.bn_after_ff.0.weight f4 [6]
000000 08 7f 6e 3f 49 6c 77 3f 7b f6 78 3f a4 85 8e 3f
       0.93162584 0.96649605 0.972511 1.1134534
000010 1b bb 8e 3f 57 bd 80 3f
       1.115085 1.0057782

encoder.bn_after_ff.0.bias f4 [6]
000000 ef 03 b2 bc 90 4a 84 bd fd 65 b3 bd f5 a7 0e 3d
       -0.021730391 -0.06459534 -0.08759687 0.034828145
000010 97 74 04 3e 7f 62 2b bd
       0.129351 -0.04184198

encoder.bn_after_ff.1.weight f4 [6]
000000 f6 bb bb 3f 76 ff a4 3f d2 95 88 3f 5c b2 80 3f
       1.4666736 1.289046 1.0670722 1.0054431
000010 87 68 66 3f 4a c8 9a 3f
       0.90003246 1.2092373

encoder.bn_after_ff.1.bias f4 [6]
000000 91 f3 17 3e 3e cf 08 be 1f 7b f5 bd 60 b3 f9 3b
       0.14839007 -0.13360307 -0.11986374 0.00762026
000010 6c 12 bf bd 2a 1f 09 be
       -0.093296856 -0.13390794

classify.weight f4 [2, 6]
000000 99 db 83 be c9 c4 e9 3e 82 7c eb 3e 0c 66 8f be
       -0.25753477 0.45657948 0.4599343 -0.28007543
000010 d2 69 71 be 99 3d 3b 3e e7 b7 40 3f 74 0b 2a bf
       -0.23575523 0.18285216 0.7528061 -0.66423726
000020 df 1b b3 be cb 42 1b be a0 dc 79 be 6c fb 0d bf
       -0.349822 -0.15162198 -0.24400568 -0.55461764

classify.bias f4 [2]
000000 53 8f 3c 3e c4 56 57 be
       0.18414049 -0.21029192
