敖宏柱/week3/model.pth (torch, 2566 bytes, 3 tensors)

embedding.weight f4 [33, 5]
0	0x409bf1e4	4.8732777
1	0x4083e560	4.12175
2	0xc016ae3c	-2.3543844
3	0x40556f81	3.3349307
4	0xc0dbdfa6	-6.871051
5	0x4080a04e	4.0195684
6	0x40a0da8c	5.026678
7	0xbfc157f4	-1.5104966
8	0x404999a1	3.1500018
9	0xc0cd947f	-6.424377
10	0x40a614fa	5.1900606
11	0x40ad9b07	5.425174
12	0xbe4d4bc0	-0.20048428
13	0x40accbf7	5.399898
14	0xc0ac1f72	-5.3788385
15	0x3e53eed4	0.20696574
16	0xbfbd945f	-1.4810904
17	0x3d5d2b47	0.05399635
18	0x3c885374	0.016641356
19	0xbe2b1036	-0.16705403
20	0xbf118e39	-0.5685764
21	0xbf2b35c7	-0.6687893
22	0x3db2ba82	0.0872698
23	0xbf9b2e19	-1.2123443
24	0xbf347d5f	-0.705038
25	0xbf80fb19	-1.0076629
26	0xbf6c8131	-0.9238463
27	0xbdc51cde	-0.096246466
28	0xbfbde271	-1.483473
29	0xbfa3f738	-1.280982
30	0xbfe86f49	-1.8158962
31	0xbfa16250	-1.2608128
32	0xbdf2a5d7	-0.11848038
33	0xbfaf5958	-1.369914
34	0xc00e59d5	-2.224233
35	0x3ed420b6	0.41431206
36	0xbb1de4ae	-0.0024092603
37	0x3e3873e8	0.18012965
38	0xbfaadbd5	-1.3348337
39	0x3ecf7488	0.40518594
40	0x3ed002ef	0.40627238
41	0xbeaec108	-0.34131646
42	0x3f348b8e	0.70525444
43	0xbe8dcab7	-0.27693722
44	0x3f3aca8e	0.72965324
45	0x3f87962a	1.0592701
46	0xbfa2c69f	-1.2716864
47	0xbf11457e	-0.5674666
48	0xbf66b2e8	-0.9011674
49	0x3e9d0690	0.3066907
50	0x3f088e91	0.5334254
51	0xbf0646a0	-0.52451515
52	0xbe9cc00a	-0.30615264
53	0xbfad57c3	-1.3542408
54	0x3d560313	0.052249026
55	0x3ece0c6d	0.40243855
56	0xbee7fd38	-0.45310378
57	0x3ef5e46d	0.48025838
58	0xbf09cddd	-0.5382975
59	0x3ef5c894	0.4800459
60	0x3f8a3a75	1.079909
61	0xbf01d78e	-0.50719535
62	0xbe91810a	-0.28418761
63	0xbfab32c8	-1.3374872
64	0x3f315bb5	0.6928056
65	0xbe89df18	-0.2692802
66	0xbe2341d5	-0.15943082
67	0x3f61b362	0.8816434
68	0xbf0ecf3c	-0.55784965
69	0x3e0bfb8f	0.1367018
70	0xbe22cad7	-0.1589769
71	0xbf47ba31	-0.7801848
72	0x3fbbabd8	1.4661818
73	0x3fa7bde5	1.3104826
74	0x3ef8428a	0.48488265
75	0x3e41c259	0.18921794
76	0xbf10a2b5	-0.5649827
77	0x3f0341a1	0.51272017
78	0xbf079e83	-0.52976245
79	0x3e88f142	0.26746565
80	0x3f0947fb	0.5362546
81	0xbf582a57	-0.84439605
82	0xbe99dd9a	-0.3005188
83	0xbf920504	-1.1407781
84	0xbc640623	-0.013917479
85	0x3fcb7866	1.5896118
86	0xbf38d501	-0.7220002
87	0xbf1aca20	-0.6046467
88	0xbf9f354a	-1.2438138
89	0x3f4b2ded	0.7936695
90	0xbe5bf25a	-0.21479169
91	0x3f05f432	0.5232574
92	0x3fb7cb7d	1.4358975
93	0xbf12b4ca	-0.5730711
94	0x3f2e769d	0.6814974
95	0xbe46eacb	-0.19425504
96	0x3ef1bf25	0.47216144
97	0x3f6896ad	0.90854913
98	0xbf95d3f6	-1.170531
99	0x3eb85436	0.36001748
100	0x3f2108be	0.62903965
101	0x3f07f669	0.5311037
102	0x3f39f5e0	0.726408
103	0xbfa09cd6	-1.2547863
104	0x3f784216	0.9697584
105	0x3e884f61	0.2662306
106	0x3db6e1f5	0.08929817
107	0x3f8501ad	1.0391136
108	0xbe90b5f1	-0.2826381
109	0x3f4ca6aa	0.7994181
110	0x3e812b31	0.25228265
111	0xbf6bdd21	-0.9213429
112	0x3e2e84fe	0.1704292
113	0xbec6c813	-0.3882452
114	0x3b9286cc	0.0044716354
115	0xbfb415df	-1.4069175
116	0xbe354ff0	-0.17706275
117	0x3f3eecd8	0.74580145
118	0xbf8fd125	-1.1235701
119	0xbf820331	-1.0157224
120	0x3f4a8c8c	0.7912071
121	0xbf18bd49	-0.59663826
122	0xbec6b7b5	-0.38812032
123	0xbfc53367	-1.5406312
124	0x3e89075c	0.26763427
125	0xbf1345fb	-0.57528657
126	0x3fbf7c47	1.4959801
127	0x3fe13785	1.7595068
128	0xbfa3c542	-1.2794573
129	0x3f2e1a87	0.6800923
130	0x3f401f06	0.7504734
131	0xbee95200	-0.45570374
132	0xbf02dc70	-0.5111761
133	0xbff89535	-1.9420534
134	0x3df9ce5c	0.12197563
135	0x3eb80d39	0.35947588
136	0x3f274b72	0.65349495
137	0x3f547f95	0.83007175
138	0xbfb34aac	-1.4007163
139	0x3f61ce11	0.8820506
140	0xc00e1850	-2.220234
141	0xbe832352	-0.25612885
142	0x3f5d8b65	0.86540824
143	0xbf95a410	-1.1690693
144	0xbfd95a1d	-1.6980625
145	0xc0b96ed3	-5.7947783
146	0x4069ecd3	3.6550796
147	0xc0b4e388	-5.652775
148	0x403596ff	2.837341
149	0x40546a63	3.3189933
150	0xc084ed62	-4.1539774
151	0x4053b06a	3.3076425
152	0xc09d86be	-4.922698
153	0x4081e07d	4.0586534
154	0x409284a3	4.578691
155	0xc0a577d7	-5.170879
156	0x4048a1b7	3.1348703
157	0xc0a9c274	-5.304987
158	0x406ccb1d	3.699897
159	0x406831af	3.6280324
160	0xbf936d2c	-1.1517692
161	0xbed138ea	-0.40863734
162	0x3f8af554	1.0856118
163	0xbe1e5f60	-0.1546607
164	0xbf18397d	-0.5946272

classify.weight f4 [4, 5]
0	0x4043f3bb	3.0617511
1	0x3f053027	0.520266
2	0x400dfd65	2.218591
3	0xbe05ccec	-0.13066453
4	0xc055ada0	-3.3387222
5	0xc057f8b4	-3.3745546
6	0xbf847f98	-1.0351439
7	0xbfeafa20	-1.8357582
8	0xbed233e9	-0.4105523
9	0x4066c57e	3.605804
10	0xbea83317	-0.32851478
11	0x403fc497	2.996374
12	0xc04bd4aa	-3.184855
13	0x4018b071	2.3857691
14	0xbf56ef5c	-0.83958983
15	0x3dc7ee9c	0.09762308
16	0xc06f046e	-3.7346454
17	0x405a7cbb	3.413863
18	0xc01b371d	-2.4252388
19	0x3f91bd11	1.1385823

classify.bias f4 [4]
0	0xbea46c6e	-0.32113975
1	0x3e467896	0.19381937
2	0x3ef0c19b	0.4702271
3	0xbf4ed665	-0.8079589
