杨皓予/week13/ner/model_output/epoch_8.pth (torch, 926500 bytes, 38 tensors)

base_model.model.encoder.encoder.layer.0.attention.self.query.lora_A.default.weight f4 [8, 768]
0	0xbc61cfc4	-0.013782445
1	0x3d7191f1	0.05897707
2	0x3b1b76c0	0.0023721904
3	0x396eceb4	0.00022774452
4	0x3d6265aa	0.055272736
5	0x3c278096	0.010223528
6	0xbcb59e1d	-0.02217012
7	0x3c95f08a	0.018303175
8	0x3dc66920	0.0968802
9	0xbb7ff32b	-0.0039054852
10	0xbc2991e0	-0.010349721
11	0x3d35a086	0.04434254
12	0xbd606c63	-0.054790866
13	0x3cd66fcb	0.026176354
14	0xbc470ae0	-0.012148589
15	0xbbcad4ac	-0.0061899032
16	0x3c1f5fa4	0.009727392
17	0x3d369f7c	0.04458569
18	0xbc280a40	-0.01025635
19	0x3cf4cdf4	0.029883362
20	0xbca726c1	-0.020404221
21	0x3db22a33	0.08699455
22	0x3c7f84cd	0.015595627
23	0xbd823c4f	-0.06359159
24	0x3d010502	0.031498916
25	0xbc6166a4	-0.013757382
26	0x3b3d2ce2	0.0028865864
27	0x3c203a92	0.009779589
28	0xbb151d12	-0.0022752923
29	0xbd2ec4d6	-0.042668186
30	0xbd64a7ca	-0.05582408
31	0xbd54f7ad	-0.051994015
32	0x3c9b8204	0.018982895
33	0x3bd4161c	0.006472362
34	0xbcd38489	-0.025820034
35	0x3c881bbe	0.016614791
36	0x3d8d041d	0.0688555
37	0x3da9891b	0.08278104
38	0xbadae4fc	-0.0016700323
39	0x3dc013a6	0.09378748
40	0xbd5101f7	-0.051027264
41	0x3daf835b	0.08569976
42	0xbbc79448	-0.0060906745
43	0x3d18b717	0.037283983
44	0xbce64d65	-0.028113076
45	0x3d0a80ee	0.033814363
46	0x3c8fdf21	0.01756245
47	0x3bdbd5d2	0.006708839
48	0x3c2d5496	0.010579249
49	0xbd00a711	-0.031409327
50	0x3d63e48c	0.05563788
51	0x3d105777	0.035239663
52	0xba96db85	-0.0011509514
53	0xbd85ad96	-0.065272495
54	0x3b7c6f0c	0.0038518338
55	0xbc199a97	-0.009375236
56	0x3cb2f688	0.02184607
57	0xbc8e6a10	-0.017384559
58	0xbcb408af	-0.021976797
59	0x3d1674f5	0.036732633
60	0xbc32090b	-0.010866414
61	0xbd056070	-0.032562673
62	0xbbae9784	-0.0053281207
63	0x3c5bb2d9	0.01340934
64	0x3d16012b	0.036622208
65	0x3b63795b	0.0034709785
66	0x3bc69007	0.00605965
67	0x3d255702	0.04036618
68	0x3d23cfcc	0.039993092
69	0x3b13d24c	0.0022555767
70	0xbcc920f1	-0.02455184
71	0xbcacbe83	-0.021086937
72	0x3ccabea6	0.024749111
73	0xbca3f92c	-0.020016275
74	0xbc87f746	-0.016597401
75	0x3d4ed730	0.050498188
76	0xbd59272b	-0.05301587
77	0xbc54799a	-0.012968445
78	0x3cfe412f	0.031036941
79	0x3d90332f	0.070410125
80	0x3bcabd54	0.0061871205
81	0xbd1efbe2	-0.038814433
82	0x3c3164b8	0.010827236
83	0x3c590a6c	0.013247114
84	0x3c16fd31	0.009215639
85	0x3d04a655	0.03238519
86	0xbb7171df	-0.0036841554
87	0x3b50b0c5	0.0031843644
88	0x3cd3b37f	0.025842426
89	0xbcf3711c	-0.02971702
90	0xbc996681	-0.018725635
91	0xbc80490a	-0.015659828
92	0x3d71a767	0.058997538
93	0x3b9ac0ff	0.004722714
94	0xbce24b77	-0.027623875
95	0xbd81fbdd	-0.06346867
96	0x3c8c28a2	0.017109219
97	0xbc8a2411	-0.0168629
98	0xbcd98fee	-0.026557889
99	0x3b28a9b7	0.0025735924
100	0x3c3bb589	0.011456856
101	0x3c63212f	0.013862892
102	0xbcd342a1	-0.025788607
103	0xbbe7b0b6	-0.007070626
104	0x3d36b79a	0.04460869
105	0xbd102269	-0.035189066
106	0xbc105a4b	-0.00881059
107	0xbd027c18	-0.031856626
108	0xbc68a46a	-0.014199356
109	0xbd0be408	-0.034153014
110	0xbcb5f67a	-0.022212256
111	0x3d47a079	0.048737023
112	0x3d0a7f89	0.033813033
113	0x3d2de00e	0.042450003
114	0xbce2b395	-0.027673522
115	0x3d1413df	0.036151763
116	0x3d544a5a	0.05182872
117	0xbcbc31e6	-0.022973012
118	0x3d4c3201	0.049852375
119	0x3cc2f17e	0.023796793
120	0x3cc1fe4b	0.023680827
121	0x3b0cb8ad	0.002147238
122	0xbb9ab6b1	-0.0047214855
123	0xbce6982c	-0.028148733
124	0x3ca836fb	0.02053403
125	0x3d162d76	0.03666445
126	0xbd8df93a	-0.06932302
127	0xbcce519f	-0.025185404
128	0x3ccbcb91	0.024877341
129	0x3c1ca214	0.009560127
130	0xbcdd15cf	-0.026987938
131	0xbcc7a684	-0.024371393
132	0x3cfd401e	0.030914363
133	0x3b8b7128	0.0042554326
134	0xbc70f026	-0.014705693
135	0x3c62034a	0.0137947295
136	0x3c8d6222	0.017258707
137	0xbc1d02b7	-0.009583167
138	0x3d178d4b	0.03699998
139	0xbd54d78d	-0.051963378
140	0xbd48ff38	-0.04907152
141	0x3d12238a	0.035678424
142	0xbcd940ba	-0.026520122
143	0xbc8feae8	-0.017568067
144	0x3d6d524d	0.057939816
145	0x3cfe766c	0.031062327
146	0x3d157a29	0.036493454
147	0x3cbdde37	0.02317725
148	0x3d045cfd	0.032315243
149	0xbd0810eb	-0.03321926
150	0xbbbda5bf	-0.0057875807
151	0x3dd70d06	0.10500531
152	0x3bf3f23d	0.0074446485
153	0xba757ef1	-0.0009364924
154	0xbd17adab	-0.037030857
155	0xbd054fdd	-0.032546867
156	0xbc26fd3b	-0.010192211
157	0xbc766752	-0.015039282
158	0xbc66bb4c	-0.014082741
159	0xbb8198fe	-0.0039550057
160	0xbd301038	-0.042984217
161	0x3cae4451	0.02127281
162	0x3cdf9f63	0.027297681
163	0xbd8505bd	-0.06495235
164	0x3d05afdf	0.032638427
165	0x3c3cd067	0.011524296
166	0xbb3e64bf	-0.0029051749
167	0x3c20ecfe	0.009822128
168	0xbb8e4135	-0.0043412694
169	0xbcd06af7	-0.02544163
170	0xbd65cdb2	-0.05610437
171	0xbcecf39d	-0.028924758
172	0x3c8bafd0	0.017051607
173	0xbd8b9576	-0.06815617
174	0xbc906be3	-0.01762957
175	0xbc51724a	-0.012783596
176	0xbc197cd3	-0.009368139
177	0x3c502848	0.012704916
178	0x3ccee3e6	0.025255155
179	0xbcee0c15	-0.029058496
180	0x3daac3b7	0.08338111
181	0xbc1fd422	-0.009755166
182	0xbc59257e	-0.013253568
183	0x3c7a7bec	0.015288334
184	0x3b19869b	0.0023426178
185	0xbc829f2f	-0.015945045
186	0xbce23376	-0.02761243
187	0x3cfa5ccf	0.030561833
188	0xbc777d4d	-0.015105558
189	0xbcc734e0	-0.024317205
190	0xbc7ccf80	-0.015430331
191	0x3cd3059c	0.02575951
192	0xbd0ef9c8	-0.03490618
193	0xbc77b637	-0.015119127
194	0x3d89bddb	0.06725665
195	0xbd12331a	-0.035693265
196	0x3c038717	0.008027813
197	0xbcc8bdae	-0.024504509
198	0x3d1b04a4	0.037846223
199	0xbd7c4b34	-0.061595157
200	0xbd786f73	-0.06065316
201	0xbd390ddb	-0.04517923
202	0x3c09d922	0.008413585
203	0xbd1c541e	-0.038166158
204	0x3b83dfd6	0.004024486
205	0xbd37c12a	-0.04486195
206	0x3a5edebb	0.00085018174
207	0x3c9308f3	0.017948603
208	0xbc9e9dc7	-0.019362343
209	0x3accef5d	0.0015635301
210	0x3d5d0fb9	0.053970072
211	0x3b3943f6	0.0028269268
212	0x3c9360db	0.01799052
213	0x3ce9d807	0.028545393
214	0xbc2caa72	-0.010538684
215	0xbd251b18	-0.04030904
216	0x3dbd3727	0.09239035
217	0xbd29ad65	-0.041425128
218	0xbbd5fade	-0.00653015
219	0x3c2101e3	0.00982711
220	0x3d8e3258	0.06943196
221	0xbc97d64d	-0.018534804
222	0xbc5a5980	-0.0133270025
223	0x39b94202	0.0003533513
224	0x3d8d60c7	0.069032244
225	0x3be9f79c	0.007140113
226	0xbd57cf1c	-0.05268775
227	0x3c97c036	0.01852427
228	0x3d7c79b7	0.061639514
229	0xbd32c97b	-0.043649178
230	0xbd8d841e	-0.06909965
231	0x3bc9877e	0.006150185
232	0x3d12c026	0.03582778
233	0x3d678a0c	0.056528136
234	0xbc8aac9b	-0.016928008
235	0x3d9a1d7f	0.07525157
236	0x3b8d3979	0.00430983
237	0x3cbb0cfd	0.022833342
238	0xbce67495	-0.028131763
239	0xbd914eef	-0.070951335
240	0xbd03d3af	-0.0321843
241	0xbd29a00e	-0.041412406
242	0xbd268f1e	-0.04066383
243	0xbce18595	-0.027529517
244	0x3b741d1c	0.0037248796
245	0xbdcecc0a	-0.10097511
246	0xbd67faf1	-0.0566358
247	0xbd579a14	-0.052637175
248	0x3d0e731b	0.034777742
249	0x3c8702de	0.01648086
250	0xbc270ad6	-0.010195455
251	0x3ab471f1	0.0013766867
252	0x3d8a7d5f	0.06762194
253	0x3c5c2906	0.013437515
254	0xbbea202f	-0.00714495
255	0x3bb5c7b3	0.0055474876

base_model.model.encoder.encoder.layer.0.attention.self.query.lora_B.default.weight f4 [768, 8]
0	0xbd74065c	-0.059576377
1	0xbd20b42e	-0.039234333
2	0xbd19fc17	-0.037593927
3	0xbc803575	-0.01565049
4	0xbd196e2c	-0.037458584
5	0xbd1c1066	-0.038101576
6	0x3b84ac9a	0.004048896
7	0x3c7d7031	0.015468643
8	0xbd24d4fe	-0.040242188
9	0xba85a2bd	-0.0010195595
10	0xbc08c207	-0.008347041
11	0xbb8dcbc7	-0.0043272707
12	0xbd966332	-0.07343139
13	0xbc39f80f	-0.011350646
14	0xbd4ea706	-0.050452255
15	0x3cb7ca96	0.022435468
16	0xbce58daa	-0.028021652
17	0xbc4d6869	-0.0125371
18	0xbbf57db4	-0.0074917916
19	0x3b06d4b2	0.0020573554
20	0xbc6884cc	-0.0141918175
21	0xbbd7c7c7	-0.0065850946
22	0xbc128c38	-0.008944564
23	0xbb94af8d	-0.004537529
24	0x3b33a246	0.0027409955
25	0xbd0623b2	-0.032748885
26	0x3ca2bfdb	0.019866874
27	0xbd0b7616	-0.034048162
28	0xbcbf2e8d	-0.023337627
29	0xbac7009c	-0.0015182677
30	0x3ba21381	0.0049461727
31	0x3c78b69e	0.015180258
32	0xba9e6801	-0.0012085439
33	0x3d3e7616	0.046499334
34	0xbbf250c7	-0.0073948833
35	0x3c3afb6f	0.0114124855
36	0x3ce4f288	0.02794768
37	0xbaefb0c5	-0.0018286934
38	0xbc3230a1	-0.010875852
39	0xbd4077d7	-0.04698929
40	0x3cd80daf	0.026373712
41	0x3c529604	0.012853149
42	0x3ccc0d54	0.0249087
43	0xbd803e1f	-0.06261849
44	0xbbc92979	-0.006138977
45	0x3c9a2f58	0.018821403
46	0xbd44c709	-0.048041377
47	0x3ca9331d	0.020654256
48	0x3c8e080a	0.017337818
49	0x3d4615cb	0.048360627
50	0x3d031d8b	0.032010596
51	0x3cb7e8b4	0.022449829
52	0x3cba9933	0.02277813
53	0x3c1991c1	0.009373129
54	0x3a481bc7	0.00076335337
55	0xbcb4bb92	-0.022062097
56	0xbd60fa31	-0.0549261
57	0x3a885054	0.0010399916
58	0xbc2c5997	-0.010519407
59	0xbb1cf12a	-0.0023947456
60	0xbd3287fd	-0.04358672
61	0xbd1aee7a	-0.037825085
62	0xbd9b96b2	-0.07597102
63	0x3d3e83d0	0.046512425
64	0x3ca0157b	0.019541493
65	0x3d3823bf	0.044955965
66	0x3c3a0f45	0.01135618
67	0x3d863039	0.065521665
68	0x3d750a40	0.05982423
69	0x3d5666c5	0.052344102
70	0x3d3f22e3	0.04666413
71	0xbca2c9b4	-0.01987157
72	0xbcfe217b	-0.031021824
73	0x3d434733	0.047675323
74	0x3d8365b0	0.0641588
75	0x3d0abac4	0.03386952
76	0x3c81155e	0.015757259
77	0xbd1e545f	-0.03865468
78	0x3b9c1ba4	0.004764037
79	0xbd072e9b	-0.03300343
80	0x3d00f082	0.031479366
81	0xbd28060f	-0.041021403
82	0xbcdb8848	-0.026798382
83	0x3c59679c	0.013269331
84	0x3cdfad84	0.027304418
85	0xbc431321	-0.011906416
86	0xbceb7a0f	-0.028744726
87	0x3d08cd56	0.03339895
88	0xbcb0c5e8	-0.021578744
89	0x3cf409c9	0.029789822
90	0x3d34d77b	0.04415081
91	0x3d0db62f	0.034597572
92	0xbc2b6050	-0.010459974
93	0x3cf31bd5	0.029676357
94	0x3d603dc2	0.054746397
95	0x3bb27535	0.005446101
96	0x3bea9a63	0.0071595176
97	0xbd0fef5d	-0.035140384
98	0xbcd5473d	-0.026034946
99	0xbbbea805	-0.0058183693
100	0x3c0054a3	0.007832679
101	0x3d39fe50	0.045408547
102	0xbc8bd717	-0.017070336
103	0x3d38799b	0.045037847
104	0x3c80ab17	0.015706582
105	0x3cbdd33b	0.023172012
106	0xbc65899e	-0.014009861
107	0x3c811545	0.015757212
108	0xbb0a18df	-0.0021071953
109	0x3b6876ef	0.003547128
110	0xbc75ad70	-0.014994964
111	0xbc06577e	-0.008199571
112	0xbc063c69	-0.008193114
113	0xbbb5a151	-0.005542912
114	0x3d32924a	0.043596543
115	0xbd794d9d	-0.060865033
116	0xbce78784	-0.028262861
117	0xbc08e058	-0.008354269
118	0x3aec7bda	0.0018042282
119	0x3ca05712	0.019572768
120	0x3d34c0ed	0.0441293
121	0xbb1243f4	-0.0022318335
122	0xbafedcc7	-0.0019444459
123	0x3b001417	0.0019543224
124	0x3d1c442f	0.038150962
125	0x3acbca74	0.0015548007
126	0x3caa29d8	0.020771906
127	0xbd192062	-0.0373844
128	0xbaae63be	-0.0013304872
129	0x3c3d3d69	0.011550286
130	0x3c383c7d	0.01124489
131	0xbb9fde23	-0.0048787757
132	0xbb911884	-0.0044279713
133	0xbc7c505c	-0.015400019
134	0x3ae8dc6f	0.001776589
135	0xbc4c9dc4	-0.012488786
136	0xbc1c3ff9	-0.009536737
137	0xbca68cc9	-0.020330803
138	0xbbf9afb9	-0.0076198247
139	0xbc998352	-0.018739376
140	0xbc75a9c1	-0.014994086
141	0x3c423658	0.011853777
142	0x3b584630	0.003300082
143	0xbbc27ef9	-0.0059355465
144	0x3ca49abc	0.020093314
145	0x3c4c74dd	0.012479034
146	0x3c2f7d49	0.010711023
147	0x3c3628ab	0.011118094
148	0xbc63a894	-0.013895173
149	0x3cbc442f	0.022981731
150	0xbcc344d8	-0.023836538
151	0xbb526fc6	-0.003211008
152	0xbc7e221d	-0.015511063
153	0xbd5a09f5	-0.053232152
154	0xbca78038	-0.020446882
155	0x3b84941f	0.0040459777
156	0xbd71207e	-0.058868878
157	0x3b98d2e5	0.0046638125
158	0x3d0c35b5	0.034230907
159	0x3d35ad1b	0.04435454
160	0xbca1d245	-0.019753585
161	0xbcdfd0b3	-0.027321195
162	0x3d531aae	0.051539116
163	0x3c52a1f8	0.012855999
164	0xbba52a10	-0.0050404146
165	0x3c2321b4	0.009956766
166	0x3d61c6a1	0.055121068
167	0x3d0327d5	0.03202041
168	0xbc8fee78	-0.017569765
169	0x3d08b0fd	0.033371914
170	0x3c1ef461	0.009701819
171	0x3d10b9ef	0.03533357
172	0x3d0c0d56	0.034192406
173	0xbc94d40b	-0.018167516
174	0x3cce8f90	0.02521494
175	0xbc7f7dc1	-0.015593947
176	0x3bbeb48e	0.0058198636
177	0x3ad8a0fd	0.001652747
178	0xba95fd2e	-0.0011443251
179	0xbce66b51	-0.028127344
180	0x3cac1339	0.02100526
181	0x3c92c10b	0.017914316
182	0xbbcddc22	-0.0062823454
183	0xbc35d03c	-0.01109701
184	0x3c6666f2	0.01406263
185	0xbc9138af	-0.017727224
186	0xbd220a60	-0.039560676
187	0xbc73fdcf	-0.014892056
188	0x3ca03eba	0.01956116
189	0x3cb55652	0.022135887
190	0xbb977f1f	-0.0046233083
191	0xbc4c5c6b	-0.012473206
192	0xbd1f9aff	-0.038966175
193	0x3c2a0dce	0.010379268
194	0x3cc6a548	0.024248734
195	0xbc8d15ae	-0.017222252
196	0xbca11120	-0.019661486
197	0x3cd2c9fd	0.025731081
198	0x3d06f104	0.032944694
199	0x3c137532	0.0090001095
200	0x3bdbad6f	0.0067040245
201	0xbbecfc1b	-0.0072322018
202	0xbc6849f8	-0.014177792
203	0xbb1f6609	-0.0024322292
204	0x3cb5aa30	0.022175878
205	0xbd851b59	-0.06499357
206	0xbdb03fb8	-0.086059034
207	0xbba8fc00	-0.005156994
208	0x3ca42ac3	0.020039922
209	0xbb8ac309	-0.004234676
210	0xbbe63b4e	-0.0070261126
211	0x3bd9c9df	0.0066463794
212	0x3c946b4a	0.018117566
213	0x3bf7401b	0.0075454838
214	0x3bb76488	0.005596701
215	0xbced5704	-0.028972156
216	0x3c351e1d	0.011054543
217	0xbc1eb4ac	-0.00968663
218	0x3c26d761	0.010183186
219	0xbbf85aec	-0.007579198
220	0x3c158c97	0.0091277575
221	0xbc7e5505	-0.0155232
222	0xbc967d90	-0.01837042
223	0x3b31f479	0.0027153774
224	0x3ccbbdad	0.024870718
225	0x3d18e46e	0.037327223
226	0x3a83c34d	0.0010052711
227	0x3ba0a3e4	0.00490235
228	0x3ce25935	0.027630428
229	0x3b4b39ef	0.0031009873
230	0xbcb326fd	-0.021869177
231	0xbd375dc8	-0.04476717
232	0x3d3e7d26	0.04650607
233	0xbc863050	-0.01638046
234	0xbccdc751	-0.025119456
235	0x3ac5dc26	0.0015095517
236	0x3b73ec06	0.0037219538
237	0xbb6a356d	-0.003573741
238	0xbcf1f926	-0.029537749
239	0x3bd58e02	0.006517173
240	0xbc7e1b59	-0.01550945
241	0x3d2abc6a	0.041683592
242	0x3c0c4d01	0.008563281
243	0x3bdd821c	0.006759895
244	0xbcb955c4	-0.022623904
245	0xbcf5e512	-0.030016456
246	0xbcf9dba4	-0.03050024
247	0xbbe1c1a3	-0.0068895384
248	0x3c96e674	0.018420435
249	0x3c83ce79	0.016089665
250	0x3d3b9e12	0.045805044
251	0x3cc4dd44	0.024031289
252	0xbbd84bef	-0.006600849
253	0xbc832d80	-0.016012907
254	0xbacd4ae4	-0.0015662578
255	0x3b216d83	0.0024631924

base_model.model.encoder.encoder.layer.0.attention.self.key.lora_A.default.weight f4 [8, 768]
0	0x3a6e47d0	0.00090896804
1	0xbc10cfe4	-0.0088386275
2	0xbcfabdbe	-0.030608054
3	0x3d6441e3	0.055726897
4	0x3b975c94	0.0046191905
5	0x3de0abe3	0.10970285
6	0x3d8f2e6f	0.069912784
7	0x3c6805ed	0.014161569
8	0x3d2b85aa	0.04187552
9	0x3c1c58b9	0.0095426375
10	0xbbcdf811	-0.0062856753
11	0xbce6692c	-0.028126322
12	0xbc16fef7	-0.009216062
13	0x3b6910ae	0.003556292
14	0xbc5ea57a	-0.013589257
15	0xbd334a19	-0.043771837
16	0xbd74b13b	-0.059739333
17	0xbc345018	-0.011005424
18	0xbcd998e3	-0.02656216
19	0x3ca2d47b	0.01987671
20	0xbd45d284	-0.048296466
21	0x3d0fc9ff	0.035104748
22	0x3aeda98d	0.0018132195
23	0xbc5feff3	-0.013668048
24	0x3bff6c45	0.007794889
25	0xbc862abd	-0.016377801
26	0xbcf6fb67	-0.030149175
27	0x3d3c0b9b	0.045909505
28	0xbc9eaa89	-0.019368427
29	0x3cb4e0a5	0.022079775
30	0x3980d27e	0.0002457089
31	0xbd7dc868	-0.0619587
32	0x3cc4491f	0.023960648
33	0xbbf6acca	-0.0075279223
34	0x3bbf99b8	0.005847182
35	0x3d07d48a	0.033161677
36	0xb927a8cc	-0.00015989243
37	0xb9bd8870	-0.00036150543
38	0x3c9801b6	0.018555503
39	0xbce3b1f9	-0.027794825
40	0xbab4dbd4	-0.0013798424
41	0x3d081102	0.033219345
42	0x3ba9339e	0.005163624
43	0x3da4ed73	0.08053102
44	0x3d801c2f	0.062553756
45	0xbc167378	-0.009182803
46	0x3d622cb5	0.055218417
47	0x3bf39be2	0.007434354
48	0x3bc9bafb	0.006156323
49	0xbcab6fc3	-0.020927316
50	0x3c8f3e9b	0.017485907
51	0xbd19275a	-0.037391044
52	0x3cde8d7f	0.02716708
53	0xbd0f95d7	-0.035055008
54	0xbc6360d6	-0.013878068
55	0xba130aec	-0.00056092325
56	0xbab9b2da	-0.0014167682
57	0x3c97fca4	0.018553086
58	0xbc2e5c58	-0.010642134
59	0xbc665b31	-0.014059828
60	0xbc69a89c	-0.014261391
61	0xbd4fe2b4	-0.05075331
62	0x3c5181c9	0.012787291
63	0x3ca88189	0.02056958
64	0x3d1a800b	0.037719768
65	0x3c0ea6f8	0.008706801
66	0x3c8de771	0.017322274
67	0x3d7bb71f	0.061453935
68	0x3b4b3c26	0.0031011193
69	0xbc13e9bc	-0.009027895
70	0xbd3d0fb0	-0.04615754
71	0x3c4f0485	0.012635355
72	0xbb1ed10c	-0.0024233488
73	0x3c68020c	0.014160644
74	0xbc983fa6	-0.018585037
75	0xbc8bce0a	-0.01706602
76	0xbb5d470f	-0.0033764278
77	0x3c6286bc	0.0138260685
78	0x3b015102	0.0019732122
79	0x3cf7d598	0.030253217
80	0xbd22d32f	-0.03975218
81	0xbd1ed8b8	-0.038780898
82	0x39ccea33	0.00039084404
83	0xbbe2c933	-0.0069209575
84	0xbbdd330f	-0.0067504714
85	0xbd86f3d6	-0.06589477
86	0x3ccb0700	0.024783611
87	0x3bfb7a74	0.0076745097
88	0xbbabbe9e	-0.005241229
89	0xbb676194	-0.0035305964
90	0xbd71486f	-0.05890697
91	0xbd8be0dc	-0.06829998
92	0xbc9f6d54	-0.019461311
93	0x3cb4ab7d	0.022054428
94	0x3d8c0bf0	0.068382144
95	0xbcba33d3	-0.02272979
96	0xbd113336	-0.03544923
97	0xbd8085de	-0.06275533
98	0x3c9b4af9	0.018956648
99	0x3b6c03ba	0.0036012963
100	0x3cb7b028	0.022422865
101	0x3cc9112d	0.024544323
102	0xbd08927c	-0.033342823
103	0x3ccd85ab	0.025088152
104	0x3d728dfb	0.059217434
105	0xbbcb7d77	-0.006210025
106	0x3c139bda	0.009009326
107	0xbd2834d4	-0.041066006
108	0xbca4907a	-0.020088423
109	0xbc89eb39	-0.016835796
110	0xbd169a38	-0.03676817
111	0xbd14b7e1	-0.036308173
112	0x3cb0ab5f	0.021566091
113	0xbb93ab68	-0.004506517
114	0xbb1185b8	-0.0022204947
115	0xbc903290	-0.017602235
116	0xbd9c6e8d	-0.076382734
117	0x3b5f92fb	0.0034114707
118	0xbc3e0fb6	-0.0116004255
119	0x3ca5c80c	0.020236991
120	0xbc227aa2	-0.009916933
121	0x3b98b390	0.0046600774
122	0xbcab03a4	-0.02087576
123	0xbce7f0c9	-0.028313057
124	0x3ca7f830	0.020504087
125	0x3d36e641	0.04465318
126	0x3d0c4038	0.03424093
127	0x3d207f37	0.03918382
128	0xbdde3e49	-0.10851724
129	0xbc5a77b3	-0.013334203
130	0x3c11092e	0.008852286
131	0x3d0374ca	0.0320938
132	0x3d60190e	0.054711394
133	0xbcca01d5	-0.024659077
134	0x39c4bec8	0.00037526176
135	0x3ae107ae	0.0017168426
136	0x3d47ef75	0.04881235
137	0xbd8e0d45	-0.06936125
138	0x3d7725ad	0.060338665
139	0x3d79dda8	0.061002403
140	0xbd2b68ca	-0.04184798
141	0xbd653c24	-0.055965558
142	0x3ce4f0be	0.027946826
143	0xbc8d1237	-0.0172206
144	0xbdaa9b4b	-0.08330401
145	0xbc07e7b6	-0.00829499
146	0xbc45bb16	-0.012068531
147	0xbca1aad8	-0.019734785
148	0x3db346e3	0.08753755
149	0x3caeead8	0.021352217
150	0x3c9cdd5a	0.019148517
151	0x3c4c001d	0.012451199
152	0xbd256cfa	-0.04038713
153	0xbd1b31ce	-0.037889294
154	0x3bf023c3	0.007328482
155	0x3d6d34a0	0.057911515
156	0xbc1c7e54	-0.009551603
157	0x3d11d7e3	0.035606276
158	0x3d73890a	0.059456863
159	0x3c075456	0.008259853
160	0xbd3c8c90	-0.04603249
161	0x3cb26fd2	0.021781836
162	0x3d2ef604	0.042715088
163	0xbd21cbaf	-0.03950089
164	0xba402c1d	-0.0007330792
165	0xbd2bb32f	-0.04191893
166	0x3d24fdbf	0.040281054
167	0xba87090f	-0.0010302382
168	0xbd091a8f	-0.033472594
169	0xbcf6774f	-0.030086188
170	0xbcf70da3	-0.03015787
171	0x3db51f78	0.08843893
172	0x3ce98079	0.028503643
173	0x3c8c06bc	0.017093055
174	0x3d56a210	0.05240065
175	0xbc0ea80e	-0.00870706
176	0x3c865f68	0.016402915
177	0x3ca4e724	0.020129748
178	0x3d32fe94	0.043699816
179	0x3cd065ab	0.025439104
180	0xbcb92638	-0.022601232
181	0xbc96921a	-0.018380214
182	0x3cd30cfd	0.02576303
183	0xbd2a5289	-0.041582618
184	0xbd4be235	-0.049776275
185	0x3d1f8800	0.03894806
186	0xbc2575b7	-0.010098866
187	0x3d3c4c36	0.045971118
188	0xbcfc8bee	-0.030828442
189	0xbd3bc0a3	-0.04583801
190	0x3c6dfdfc	0.014525887
191	0x3c1bac29	0.009501495
192	0x3d1a73b5	0.037708003
193	0xbc8d72b4	-0.017266609
194	0xbc82c1f4	-0.015961625
195	0xbd314862	-0.04328192
196	0xbb8e9623	-0.004351394
197	0x3d0c4966	0.034249686
198	0x3c5a48d5	0.013323029
199	0x3c25a046	0.010109013
200	0xbd784a4d	-0.060617734
201	0x3cf6f7e7	0.030147506
202	0xbbb13fa8	-0.0054091997
203	0xbcfbed70	-0.030752867
204	0x3cca9941	0.02473128
205	0xbd4a479e	-0.049384706
206	0xbd6dec33	-0.058086585
207	0xbd7bf5ef	-0.061513837
208	0xbac33da4	-0.001489569
209	0x3c184179	0.009292954
210	0x3d1f3f49	0.038878713
211	0x3d222212	0.039583273
212	0x3d560690	0.052252352
213	0x3b9d55ee	0.0048015034
214	0xbbc2e0f1	-0.0059472253
215	0xbcf96636	-0.030444246
216	0x3b092e37	0.0020932087
217	0xbcdb87e8	-0.026798204
218	0x3b34db56	0.0027596555
219	0xbc2d7d98	-0.010589026
220	0xbcdc85cb	-0.026919266
221	0xbccdef64	-0.025138564
222	0xbda1f9fd	-0.079090096
223	0xbc41d936	-0.011831572
224	0xbd35050a	-0.04419426
225	0xbd0ff1d1	-0.035142723
226	0x3ce4a8fb	0.027912607
227	0xbcaebd85	-0.021330604
228	0xbd3c2ce7	-0.04594126
229	0x3d3c146b	0.04591791
230	0xbd26795b	-0.040643077
231	0xbb3c45ed	-0.0028728202
232	0xbc2af019	-0.01043322
233	0xbd5ece91	-0.054396216
234	0x3b1a6844	0.0023560682
235	0xbc270ca1	-0.010195882
236	0xbc99a2a5	-0.018754313
237	0xbb8cf139	-0.004301217
238	0x3c219594	0.009862322
239	0xbb07cd9a	-0.0020721913
240	0x3d2c8572	0.04211945
241	0xbc8cb251	-0.017174872
242	0x3c1c50b5	0.009540726
243	0x3bdb4bb2	0.006692373
244	0x3c7b1efd	0.015327212
245	0xbd772140	-0.060334444
246	0x3ce07ec4	0.027404197
247	0x3d208452	0.03918869
248	0x3bc32225	0.005954998
249	0xbc04c164	-0.008102749
250	0xbc9ad3d1	-0.01889983
251	0xbd3030a0	-0.043015122
252	0xbbfc7bee	-0.0077052033
253	0x3c939c99	0.018019008
254	0x3d2b79d1	0.04186422
255	0x3d002493	0.03128488

base_model.model.encoder.encoder.layer.0.attention.self.key.lora_B.default.weight f4 [768, 8]
0	0xbbf9977c	-0.0076169353
1	0x3a7c4b76	0.00096242817
2	0x3ac3c541	0.0014936106
3	0x3a8d162a	0.0010764052
4	0xbc55571c	-0.013021257
5	0xba8c59b7	-0.001070789
6	0xbc05c4ce	-0.008164598
7	0xb9059687	-0.00012739944
8	0xbbb325d4	-0.005467156
9	0x3c0a8c90	0.008456364
10	0x3bc56d7a	0.0060250135
11	0x3b93b304	0.0045074243
12	0x3bb48e2f	0.0055101137
13	0xbc0e1e47	-0.008674211
14	0x3b9300ac	0.004486164
15	0xba87ee8c	-0.0010370775
16	0xbcce8a62	-0.02521247
17	0xbd02a011	-0.031890932
18	0x3c8fd82c	0.017559133
19	0x3c94ecfd	0.018179411
20	0xbc926dc6	-0.01787461
21	0xbcc22d5a	-0.023703266
22	0x3c3aa51c	0.011391904
23	0x3bb5443b	0.0055318153
24	0x3c905ffc	0.017623894
25	0xbcc6d7e2	-0.024272863
26	0xbc2f9482	-0.010716559
27	0xbc8298d0	-0.015942007
28	0xbd30232e	-0.0430023
29	0x3c3e25ac	0.011605661
30	0xbba13bc3	-0.004920454
31	0x3c058c6a	0.008151153
32	0xbc20575f	-0.009786456
33	0x3cbd7751	0.023128184
34	0xbc197681	-0.009366632
35	0xbc925d23	-0.017866677
36	0x3d03daec	0.032191202
37	0x3c686d27	0.01418618
38	0xbc62c045	-0.013839786
39	0xbb6bef6a	-0.0036000856
40	0x3cd88848	0.026432171
41	0x3cd89043	0.026435977
42	0xbc8deead	-0.017325724
43	0xbceb237a	-0.02870344
44	0xbbb7aff9	-0.0056056944
45	0x3d01a6ca	0.031653203
46	0xbc71a35c	-0.014748421
47	0x3cb4d4ae	0.02207407
48	0x3cc84d07	0.024450792
49	0x3d89a5ff	0.06721114
50	0xbd2b9e28	-0.041898876
51	0xbd0e018e	-0.03466945
52	0xbcc10118	-0.023560092
53	0x3d334ee5	0.04377641
54	0xbd175086	-0.036942028
55	0x3d0322d0	0.03201562
56	0x3c96c477	0.018404229
57	0x3cc31cbd	0.023817414
58	0xbc72fa30	-0.014830157
59	0xbc323655	-0.010877212
60	0xbbeb925f	-0.0071890797
61	0x3c35cb29	0.0110958
62	0xbc3bce1c	-0.0114627145
63	0x3ca1cf4a	0.019752163
64	0x3bcace81	0.006189168
65	0xbc354370	-0.011063442
66	0x3caf62f5	0.021409491
67	0x3ce8882e	0.028385248
68	0xbadc2e97	-0.0016798553
69	0xbc9a0067	-0.01879902
70	0x3c6cf2b6	0.014462164
71	0xbcc88136	-0.024475675
72	0xba89bfdb	-0.0010509448
73	0xbc0ca431	-0.008584068
74	0x3c0f18ef	0.008733972
75	0xbb8f93d3	-0.0043816357
76	0xbaad4c9c	-0.0013221684
77	0x3bbcb505	0.005758884
78	0xbc439da3	-0.011939439
79	0xbc0e98c8	-0.008703418
80	0x3c3144c8	0.010819621
81	0xbd377311	-0.04478747
82	0x3cc535fb	0.024073591
83	0x3d320e26	0.043470524
84	0x3bce2f03	0.0062922253
85	0xbcfc07f9	-0.03076552
86	0x3d2e179c	0.042502984
87	0xbcb77f40	-0.022399545
88	0xbb844ad1	-0.004037239
89	0x3bb058de	0.0053816875
90	0x3aa28413	0.001239898
91	0xbbd12b77	-0.0063833552
92	0x3cbb32ff	0.022851465
93	0xbb35d514	-0.0027745413
94	0xbbded38f	-0.006800122
95	0x39d0e6c2	0.0003984478
96	0x3b487a70	0.0030590557
97	0x3bd03ea3	0.006355123
98	0xbb42459c	-0.0029643541
99	0xba5cb02e	-0.0008418587
100	0xbb8d93a6	-0.0043205796
101	0xbbbc591c	-0.0057479274
102	0xbc8b1bc5	-0.016981015
103	0x3bfbc840	0.007683784
104	0xbc242e17	-0.010020754
105	0x3c504fe6	0.012714362
106	0xbc35fdd6	-0.0111078825
107	0xbaf57c6f	-0.0018729101
108	0x3cf1915d	0.02948826
109	0xbbd38dc9	-0.006456111
110	0xb8adb950	-8.2838e-05
111	0xbcbc1874	-0.022960879
112	0x3c2831e8	0.010265805
113	0x3cc1c5e0	0.023653924
114	0xbca87b88	-0.020566717
115	0xbca39248	-0.019967213
116	0xbcff3700	-0.031154156
117	0x3d01f956	0.031731926
118	0xbcfc3da6	-0.030791115
119	0x3cd34411	0.025789293
120	0xbd371429	-0.04469696
121	0xbd1fff4f	-0.03906184
122	0x3d1518cd	0.036400605
123	0x3d30f2b7	0.04320022
124	0x3d33d3f7	0.043903317
125	0xbd1bbf9d	-0.038024534
126	0x3d27711c	0.040879354
127	0xbd200816	-0.03907021
128	0x3c8d5600	0.017252922
129	0x3d3d7d64	0.04626216
130	0xbc9d90fc	-0.019234173
131	0xbc76bcf9	-0.015059703
132	0xbc7c120e	-0.015385164
133	0x3c272e95	0.010203977
134	0x3b6bd474	0.0035984786
135	0x3c5ef196	0.013607403
136	0x3cc91656	0.024546783
137	0x3d16abf9	0.0367851
138	0xbd054424	-0.032535687
139	0xbc66b8a8	-0.014082111
140	0xbcb292a4	-0.02179844
141	0x3d00565e	0.031332366
142	0xbc97ef41	-0.018546702
143	0x3cff37dd	0.031154567
144	0x3ba3a01f	0.004993453
145	0xb7c03570	-2.2913067e-05
146	0x3c403afb	0.011732812
147	0x3c036eca	0.00802202
148	0x3c0da471	0.008645163
149	0xbbc5b76c	-0.0060338285
150	0x3c4344d8	0.011918269
151	0x3b8b63b3	0.0042538284
152	0xbcbe93fe	-0.023263928
153	0xbcac4c4a	-0.021032471
154	0x3ce70c73	0.028204178
155	0x3d0735ac	0.03301017
156	0x3cbf917a	0.023384798
157	0xbcf42797	-0.029804034
158	0x3cd941ec	0.026520692
159	0xbcc0ffbd	-0.023559446
160	0xbbb2d89b	-0.0054579503
161	0xbcf7d278	-0.030251727
162	0x3b8a1765	0.0042142146
163	0xbbc75a09	-0.006083731
164	0xbcbadac9	-0.022809403
165	0xba7fbbc6	-0.00097554584
166	0x3c4eab1f	0.012614041
167	0xbbc8ba33	-0.0061257123
168	0x3b93f564	0.004515337
169	0x3cc70847	0.02429594
170	0xbcba9e5d	-0.022780592
171	0xbb9c80ca	-0.004776095
172	0xbca40e94	-0.020026483
173	0x3c6e99bd	0.014563021
174	0xbd180916	-0.03711804
175	0x3c3fd473	0.011708367
176	0xbc0f497d	-0.008745548
177	0xbc98f49d	-0.018671328
178	0x3beffce9	0.0073238504
179	0xbbdadb29	-0.006678958
180	0xbcb43999	-0.022000121
181	0x3ba6536f	0.005075864
182	0x3c9809d6	0.018559378
183	0xbcfc730c	-0.030816577
184	0xbd0500e2	-0.032471545
185	0xbca402df	-0.0200209
186	0x3c9619fa	0.018322933
187	0x3c52ff27	0.012878216
188	0x3c13afe0	0.0090141
189	0xbc192d5b	-0.0093491925
190	0x3ceeb617	0.029139562
191	0xbc26e73f	-0.010186969
192	0x3c37d4f5	0.0112202065
193	0x3c83bb9c	0.01608067
194	0xbc69a5f9	-0.014260762
195	0xbac505a6	-0.0015031591
196	0xbc4554d1	-0.012044148
197	0x3c879cd9	0.016554283
198	0xbc85c6b6	-0.016330104
199	0x3a195046	0.00058484485
200	0x3c2e40ac	0.010635536
201	0x3c87b4cc	0.016565703
202	0xbad55621	-0.0016276279
203	0xbc2ce84a	-0.010553429
204	0x3c88c221	0.01669413
205	0xbb8f59af	-0.004374705
206	0x3c6bcfee	0.014392836
207	0xbc142ce9	-0.009043911
208	0xbc494864	-0.012285326
209	0x3d02d124	0.031937733
210	0xbcac88b8	-0.021061286
211	0xbcadb280	-0.02120328
212	0x3cc08a0c	0.023503326
213	0x3cceff7e	0.025268313
214	0xbc83e808	-0.016101852
215	0xbc58dcc6	-0.01323623
216	0xbaa8e886	-0.001288668
217	0xbbc19381	-0.0059074764
218	0x3aeb83bf	0.001796834
219	0xbbe36203	-0.006939174
220	0x3bab3059	0.0052242693
221	0x3ba11f4a	0.00491706
222	0xbb9bd68a	-0.0047557997
223	0xbca769c0	-0.020436168
224	0x3bcd05e8	0.0062568076
225	0x3cc0145d	0.02344721
226	0xbc24b145	-0.01005203
227	0xbcaf7864	-0.021419711
228	0x3c31b116	0.010845443
229	0x3c7e23b5	0.015511443
230	0x3bbc620f	0.005748994
231	0x3c819cf4	0.015821911
232	0xbc68937f	-0.014195322
233	0xbb263db4	-0.0025366368
234	0xb9da2bd6	-0.0004161286
235	0x3c89a157	0.016800566
236	0x3c4a1598	0.01233425
237	0xbcae62eb	-0.021287402
238	0x3b03406f	0.002002742
239	0xbb5b3e8c	-0.003345403
240	0x3ca359b8	0.019940242
241	0x3b260501	0.0025332572
242	0xbcbe1b3b	-0.023206344
243	0xbd11924e	-0.035539918
244	0x3c7e4df6	0.015521517
245	0x3c8b54a6	0.017008137
246	0xbbb6c217	-0.0055773365
247	0xba398e8e	-0.0007078432
248	0x3d1e778e	0.038688235
249	0xbc63e20f	-0.013908877
250	0xbc997c2f	-0.018735973
251	0xbc5f9655	-0.013646682
252	0x3bb7762c	0.005598804
253	0x3caaf02d	0.020866478
254	0xbc3707ba	-0.011171276
255	0xbc60f342	-0.013729872

base_model.model.encoder.encoder.layer.0.attention.self.value.lora_A.default.weight f4 [8, 768]
0	0x3bb86062	0.005626724
1	0x3c1d5163	0.009601924
2	0xbd962ad9	-0.07332391
3	0xbd23f0c7	-0.040024545
4	0xbd0ad6cf	-0.033896264
5	0xbd47497d	-0.04865407
6	0x3c9a40b7	0.018829687
7	0x3d18833c	0.03723453
8	0xbc371ee2	-0.011176797
9	0xbd00c98b	-0.031442206
10	0x3c6428c7	0.013925738
11	0xbb92f73a	-0.004485038
12	0xbc12955f	-0.008946746
13	0xbc0f8616	-0.008759996
14	0xbd1a2a28	-0.03763786
15	0xbd63cf58	-0.05561766
16	0xbce2a068	-0.027664378
17	0x3cfd15c7	0.030894173
18	0xbceddd3f	-0.029036162
19	0x3bef62e6	0.007305491
20	0xbd07aa5c	-0.03312145
21	0xbd21c3cf	-0.03949338
22	0xbd9d7778	-0.076888025
23	0x385e4af3	5.2998726e-05
24	0x3c460669	0.012086489
25	0x3cc2bfd9	0.02377312
26	0xbb6ab195	-0.0035811414
27	0x3c7f3e18	0.015578769
28	0x3d7915b9	0.060811732
29	0xbb45e81c	-0.0030198162
30	0xbb1160da	-0.0022182972
31	0xbcaf9e38	-0.02143775
32	0x3d48f497	0.049061384
33	0xbc8b8883	-0.017032867
34	0xbcb4c6b4	-0.022067405
35	0xbda4e442	-0.08051349
36	0x3b1199de	0.0022216956
37	0xbcb0d915	-0.021587888
38	0x3cfb63d3	0.030687248
39	0xbd440f3e	-0.0478661
40	0x3d661cdc	0.056179866
41	0x3bb79b20	0.005603209
42	0xbd92d452	-0.07169403
43	0xbc95b09a	-0.018272687
44	0x3d3459b5	0.044030864
45	0x3bd6426a	0.006538679
46	0xbd2621a2	-0.04055942
47	0x3c82114e	0.015877392
48	0xbb94e2dc	-0.0045436453
49	0x3c43efa2	0.011958988
50	0x3c9c4714	0.019076861
51	0xbcade437	-0.021226985
52	0xbc93fa52	-0.018063698
53	0xbd57a5d4	-0.05264838
54	0x3b350188	0.002761932
55	0xbca00456	-0.019533318
56	0x3ba2f3c5	0.0049729072
57	0x3ba8f530	0.0051561818
58	0xbcd0867b	-0.02545475
59	0xbd0e0512	-0.034672804
60	0xbd40488e	-0.046944194
61	0xbc1b82b9	-0.009491616
62	0x3cb5823c	0.022156827
63	0x3d1d8d6a	0.03846494
64	0x3d1a66d5	0.037695725
65	0xbc04aa69	-0.00809727
66	0x3d3dab87	0.04630616
67	0x3c165c34	0.009177256
68	0xbb851f1d	-0.004062547
69	0x3d312a98	0.04325351
70	0xbd1f6d81	-0.03892279
71	0x3ce9a451	0.028520735
72	0xbd7fc107	-0.062439945
73	0x3d40cf3c	0.047072634
74	0x3ce39a81	0.027783634
75	0x3d020bee	0.03174966
76	0x3cac154a	0.021006245
77	0x3cffd94d	0.031231547
78	0x3cc48736	0.023990255
79	0xbd1016f8	-0.035178155
80	0xbcc1e7d7	-0.02367012
81	0x3d36f040	0.044662714
82	0xbcca9014	-0.024726905
83	0x3d17f59c	0.037099466
84	0xbd1131d0	-0.035447896
85	0xbb7687ba	-0.003761752
86	0xbcdfbaea	-0.027310807
87	0xbc9d7449	-0.019220488
88	0xbd26e569	-0.040746126
89	0xbcaf9986	-0.02143551
90	0xbacb81a7	-0.001552631
91	0xbcb429c5	-0.021992574
92	0x3cb0b6a6	0.021571469
93	0x3cc08dbe	0.023505088
94	0x3d883ff8	0.06652826
95	0xbc561622	-0.0130668
96	0xbc4141a1	-0.011795432
97	0xbcb4c02e	-0.022064295
98	0x3bd47843	0.006484063
99	0xbd4ce752	-0.05002529
100	0xbd2d42e6	-0.042300127
101	0x3da7de3f	0.08196687
102	0xbcda516c	-0.026650153
103	0x3c0c76e1	0.008573265
104	0xbc2c3f6e	-0.01051317
105	0xbcb9c4b9	-0.022676812
106	0xbbc340d5	-0.0059586563
107	0xbb4c25f7	-0.0031150558
108	0xbb552834	-0.0032525184
109	0xbd16700d	-0.036727954
110	0x3c9d4449	0.0191976
111	0xbc9acd0b	-0.0188966
112	0xbb494502	-0.0030711298
113	0xbca37188	-0.019951597
114	0xbb5d65be	-0.0033782567
115	0x3c93c00b	0.01803591
116	0xbd047507	-0.03233817
117	0x3d0deeab	0.03465144
118	0x3c9e8074	0.01934836
119	0xbca9b9c9	-0.020718472
120	0xbc194d8a	-0.009356866
121	0x3d3c116b	0.04591505
122	0x3d85ad83	0.06527235
123	0x3d0512bd	0.032488573
124	0xbcd716e4	-0.026256032
125	0x3c1a7834	0.009428073
126	0x3d2639e1	0.04058254
127	0xbd3400e3	-0.04394616
128	0x3ab74c09	0.0013984452
129	0xbc57f7d0	-0.013181642
130	0x3cb9d324	0.022683688
131	0x3cdb45d0	0.026766688
132	0xbbf1ba0c	-0.007376915
133	0x3d43ff0d	0.047850657
134	0xbc226b48	-0.009913273
135	0xbca8a610	-0.020586997
136	0x3b42fd60	0.0029753074
137	0x3a972294	0.0011530691
138	0x39dc2c0c	0.00041994487
139	0xbb673ac3	-0.0035282827
140	0x3ce34c37	0.027746303
141	0xbd927177	-0.07150548
142	0x3d5d777a	0.05406902
143	0xbcce86c4	-0.025210746
144	0xbc165c8f	-0.009177341
145	0xbc408910	-0.011751428
146	0xbb1e61bf	-0.0024167148
147	0x3b9ed188	0.0048467554
148	0xbcef41c9	-0.029206173
149	0x3d8f1d3d	0.06987999
150	0x3cf77f11	0.030211957
151	0xbd369508	-0.04457572
152	0x3d336fc9	0.04380778
153	0xbc81ae23	-0.015830105
154	0xbc5472b4	-0.0129668005
155	0xbd4a5ca9	-0.049404774
156	0xbce8cb70	-0.028417319
157	0x3d687385	0.056750793
158	0x3c967d03	0.018370157
159	0x3c9a5076	0.018837195
160	0xbce6d6dd	-0.028178627
161	0xbc43ff33	-0.0119627
162	0x3ce00bd8	0.027349398
163	0xbd115695	-0.03548296
164	0xbd08b3ef	-0.033374723
165	0x3b939b39	0.004504588
166	0xbd1e73f8	-0.038684815
167	0xbc963fd8	-0.01834099
168	0xbccf96bf	-0.025340436
169	0x3d26cf37	0.04072496
170	0xbc3044b0	-0.010758564
171	0xbd30c9c7	-0.04316118
172	0x3d080267	0.033205416
173	0xbc6922d8	-0.014229499
174	0xbcbbf0ae	-0.022941913
175	0x3b0e1422	0.002167948
176	0x3b7bf805	0.0038447392
177	0xbd224421	-0.039615754
178	0xbcf7ac1d	-0.030233437
179	0x3d6230fc	0.055222496
180	0x3b27b1de	0.0025588195
181	0xbbec2f02	-0.007207752
182	0x3befc5b0	0.0073172674
183	0x3d54bd5b	0.051938396
184	0x3be847d3	0.0070886402
185	0xbcec84f8	-0.028871998
186	0xbc756e5f	-0.014979928
187	0xbc05fe9a	-0.0081783775
188	0x3c71b169	0.0147517705
189	0x3ccf34fc	0.02529382
190	0x3b6a064d	0.0035709322
191	0x3cf13b4c	0.02944722
192	0xbcab3d90	-0.020903379
193	0xbb8a11a8	-0.0042135306
194	0xbcd4b912	-0.025967155
195	0x3cff5233	0.031167125
196	0xbc8b538a	-0.017007608
197	0x3d1190b6	0.035538398
198	0x3d669b33	0.056300353
199	0x3c2ba1c4	0.01047558
200	0x3c679181	0.014133812
201	0x3d160320	0.036624074
202	0x3dc2b827	0.095077805
203	0x3cf58446	0.0299703
204	0x3d5644a6	0.052311562
205	0x3ca40751	0.02002302
206	0x3c80b50f	0.015711335
207	0xbd31cfc0	-0.043411016
208	0x3d0b8236	0.034059726
209	0x3a4b72d2	0.0007760945
210	0xbd1291f8	-0.035783738
211	0x3cda5523	0.026651924
212	0xbbbac175	-0.0056993314
213	0x3c4cef52	0.01250823
214	0x3c56b2b3	0.013104129
215	0x3bd6a3b3	0.006550276
216	0xbca12a30	-0.019673437
217	0xbb8d2af0	-0.004308097
218	0x3c2f1c68	0.010687925
219	0xbd0d05e0	-0.03442943
220	0x3cc89dc1	0.024489285
221	0xbc910fd8	-0.01770775
222	0x3d023cb0	0.031796157
223	0x3be5436f	0.006996564
224	0xbbb94d91	-0.0056549986
225	0xbc78bc04	-0.015181545
226	0x3d332ac5	0.04374196
227	0x3c73a8c8	0.014871784
228	0x3c70b2a3	0.014691028
229	0xbccdad11	-0.025106939
230	0xbc8d724f	-0.01726642
231	0xbced2e3f	-0.028952716
232	0xbc1d9b45	-0.009619539
233	0xbc4df444	-0.0125704445
234	0x3c238fb2	0.00998299
235	0x3c3868cd	0.011255455
236	0xbd4a4ad6	-0.049387775
237	0x3bb8ac6c	0.0056357887
238	0x3b088dbc	0.0020836433
239	0xbca82f05	-0.020530233
240	0x3c9564f7	0.01823662
241	0x3c088089	0.008331426
242	0x3cf5b05f	0.029991327
243	0x3c83849b	0.016054442
244	0xbc1ca864	-0.009561632
245	0x3a87f6d6	0.0010373245
246	0x3b86d204	0.0041143913
247	0xbce2a682	-0.027667288
248	0xbcabfcc3	-0.02099455
249	0xbcba0a9c	-0.022710137
250	0x3ab0939a	0.0013471723
251	0xbb65a9b4	-0.0035043778
252	0x3cd12a5d	0.025532896
253	0xbcd1f3ba	-0.025628913
254	0xbc3d3dd7	-0.011550388
255	0xbd067bf5	-0.03283306

base_model.model.encoder.encoder.layer.0.attention.self.value.lora_B.default.weight f4 [768, 8]
0	0x3bbc7e66	0.0057523726
1	0xbca63982	-0.020291094
2	0x3c4f530f	0.01265408
3	0xbb84ce2f	-0.0040528993
4	0xbcc821ca	-0.024430174
5	0xbb651d4e	-0.0034960094
6	0x3c6c9d2e	0.014441771
7	0xbc970795	-0.018436233
8	0xbad25fde	-0.0016050299
9	0xbb50188a	-0.0031752908
10	0xbb99b88c	-0.004691189
11	0x3b6334f1	0.0034669007
12	0x3a22e830	0.0006214408
13	0x3c1a3d26	0.009413993
14	0xbc9662ec	-0.018357717
15	0xbcb827ea	-0.02247997
16	0xbc7f7cae	-0.015593691
17	0x3ccc048f	0.024904517
18	0xbc85ff1c	-0.016356997
19	0x3c78eea2	0.015193613
20	0x3c90b307	0.017663492
21	0x3cbbf5ed	0.022944415
22	0xbc67b0ec	-0.014141303
23	0x3c60d4c7	0.013722605
24	0x3c64f9a0	0.013975531
25	0x3cbede9a	0.023299504
26	0xbc17ff90	-0.009277239
27	0xbb8fb62b	-0.00438573
28	0xbc1c1547	-0.009526557
29	0x3c2e4d43	0.010638538
30	0x3ca419a2	0.020031754
31	0xbd02aca0	-0.03190291
32	0x3bd27d22	0.0064236084
33	0x3bdf271a	0.006810081
34	0xbb5f7f10	-0.0034102835
35	0xbc8f5c84	-0.01750017
36	0x3be23d7f	0.0069043036
37	0x3bdaeb52	0.0066808844
38	0x3c43a529	0.011941233
39	0xbc54b88b	-0.012983452
40	0xbbf5d56b	-0.007502248
41	0x3a2c01ab	0.0006561528
42	0xbb873995	-0.0041267374
43	0x3c113a31	0.008863972
44	0x3ca2ed95	0.019888679
45	0x39dbd5e2	0.0004193029
46	0xbc762c21	-0.01502517
47	0x3a918e2b	0.0011104991
48	0x3ba2a665	0.0049636834
49	0x3c266b79	0.010157459
50	0x3b354409	0.002765896
51	0xbc11a7df	-0.008890121
52	0xbccb1328	-0.024789408
53	0xbc7b9dfe	-0.0153574925
54	0x3d026694	0.031836107
55	0xbcddd147	-0.02707733
56	0x3c009167	0.007847167
57	0x3c75b0ca	0.014995763
58	0xbb97f36a	-0.0046371715
59	0x3af2dbe3	0.0018528666
60	0xbcc192ac	-0.023629509
61	0xbafdbe77	-0.0019359131
62	0x3c22af1f	0.009929447
63	0xbc9aa8f5	-0.018879393
64	0xbba0b464	-0.0049043167
65	0xbbf9ef51	-0.0076274057
66	0xbc16ee52	-0.009212093
67	0x3c730853	0.014833528
68	0x3c5ba000	0.013404846
69	0x3c1f5526	0.009724891
70	0xbd28bf64	-0.04119815
71	0x3c83e27f	0.016099213
72	0x3c4e7ef2	0.012603508
73	0xbbafc5ba	-0.005364147
74	0x3b7030c4	0.003665016
75	0xb9060b29	-0.00012783393
76	0xb9ab5700	-0.00032680482
77	0x3c7892fc	0.015171763
78	0xbcb50e8b	-0.022101661
79	0x3c886b07	0.016652597
80	0xbbd6f036	-0.006559397
81	0x3c52dce3	0.012870046
82	0xbc20ff1c	-0.009826448
83	0x3c7149b6	0.014727047
84	0xbb0faf19	-0.0021924435
85	0x3b5e1a79	0.003389029
86	0xbbbe8548	-0.005814228
87	0x3b5f957e	0.0034116204
88	0xbcdab1ec	-0.026696168
89	0x3cd6cde7	0.026221229
90	0xbd090885	-0.03345539
91	0x3cf53867	0.029934121
92	0x3cc0dd19	0.023542928
93	0x3c6ff255	0.014645179
94	0xbd1e2fba	-0.038619734
95	0xbb49687d	-0.0030732446
96	0x3c5140ed	0.012771827
97	0xbbe5c797	-0.0070123184
98	0x3c72c48a	0.014817366
99	0xbbbdb62f	-0.0057895402
100	0x3b2726d3	0.0025505319
101	0xbc2b3c0d	-0.010451329
102	0x3ba66e9e	0.0050791046
103	0x3ce9df41	0.028548839
104	0x3b188b99	0.0023276566
105	0xbc86d678	-0.016459689
106	0x3bb504da	0.00552426
107	0xbc313a78	-0.010817163
108	0xbc6624d0	-0.014046863
109	0xbc1bb61e	-0.009503869
110	0x3cbeddea	0.023299176
111	0xbc869257	-0.016427202
112	0xbc4fee27	-0.012691057
113	0x3cb4ff2c	0.022094332
114	0xbd375555	-0.044759113
115	0x3d2146f8	0.03937432
116	0x3d1701e4	0.036867037
117	0x3d17f3c1	0.037097696
118	0xbd56292d	-0.052285362
119	0x3c5056f0	0.01271604
120	0xbc3eb008	-0.011638649
121	0x3b050a39	0.0020300283
122	0xbc8da4c1	-0.017290475
123	0x3c86f842	0.0164758
124	0x3bd8217c	0.0065957885
125	0x3c274970	0.01021038
126	0xbc8fddb8	-0.017561778
127	0x3b3eb593	0.0029099926
128	0xbce5677c	-0.028003447
129	0x3d02bf58	0.03192076
130	0xbce6d4b5	-0.028177598
131	0x3d08f19b	0.033433538
132	0x3c1f27ea	0.009714106
133	0x3d0cbc16	0.03435906
134	0xbca3b20d	-0.019982362
135	0x3d0adfc1	0.033904795
136	0xbca18ac0	-0.019719481
137	0x3b154bc2	0.002278075
138	0xbc47c68b	-0.012193332
139	0x3bc4528b	0.005991285
140	0x3c2903f8	0.010315888
141	0x3c508e10	0.012729183
142	0xbab52b44	-0.0013822098
143	0xbcb94228	-0.022614554
144	0x3c4fd1b9	0.012684279
145	0xbc8d425d	-0.017243559
146	0x3c34942d	0.011021656
147	0xbcad7c9c	-0.021177582
148	0xbcbea239	-0.023270713
149	0xbc4a0d61	-0.012332291
150	0x3cac340a	0.021020908
151	0xbd163cbc	-0.036679015
152	0xbc8fc119	-0.01754813
153	0x3c840dfb	0.016119948
154	0xbc9bb9c5	-0.01900948
155	0xbb0d96fc	-0.0021604886
156	0xbc2b6cb3	-0.010462928
157	0x3c2e58ac	0.010641258
158	0x3cd0a456	0.025468986
159	0xbbd88db8	-0.006608691
160	0xbcd52330	-0.026017755
161	0x3cce5b74	0.025190093
162	0xbba5843c	-0.005051164
163	0xbb350fb4	-0.0027627768
164	0x3c36884a	0.011140892
165	0xba22823c	-0.0006199216
166	0x3bcb162e	0.0061977124
167	0x3c1fae08	0.009746082
168	0xbb6c085c	-0.0036015725
169	0x3cf7ce29	0.030249672
170	0x3c19c5b8	0.009385519
171	0x3ad449bb	0.001619629
172	0xbc894aca	-0.016759295
173	0xbb49d055	-0.0030794342
174	0x3d00639b	0.03134499
175	0xbb16529c	-0.0022937423
176	0x3cd00f07	0.02539779
177	0xbcc0115c	-0.023445778
178	0x3ca9c888	0.020725504
179	0xbcee7823	-0.02911002
180	0xbc8caa0b	-0.017170927
181	0xbccfbad3	-0.02535764
182	0x3cd5df04	0.026107319
183	0xbb25fb34	-0.002532673
184	0xbc24fba2	-0.01006976
185	0x3a96fc1f	0.001151923
186	0xbc8f2cd2	-0.017477427
187	0xbb6a45cb	-0.0035747166
188	0x3b7a6364	0.0038206214
189	0x3b3e52f3	0.002904114
190	0x3bcc001b	0.0062255985
191	0xbc9b0389	-0.018922584
192	0xbbc8e809	-0.0061311764
193	0xbbf2ba6a	-0.007407476
194	0xbb262821	-0.0025353509
195	0xbc264c67	-0.010150052
196	0x3c12c881	0.008958937
197	0xbc61757f	-0.013760923
198	0xbbd6d4f2	-0.006556147
199	0xbd107249	-0.03526524
200	0xbabeec17	-0.001456621
201	0x396c1230	0.00022513489
202	0xbbf30005	-0.007415774
203	0x3c8db563	0.017298406
204	0x3c857a1d	0.01629358
205	0x3cbf01aa	0.023316223
206	0xbd068933	-0.032845687
207	0x3bb3ddeb	0.005489101
208	0x3aa3499d	0.0012457852
209	0x3b4c34da	0.0031159432
210	0xbb10fade	-0.0022122185
211	0x3c1c265b	0.009530629
212	0xbbbe9e40	-0.0058172047
213	0x3bea763a	0.007155207
214	0x3c51ea48	0.012812205
215	0xbcbd3c5c	-0.02310007
216	0x3c08a3b7	0.008339814
217	0xbba9b6d2	-0.0051792646
218	0x3b845cf3	0.0040394007
219	0xbc4acb5a	-0.012377584
220	0xbc516435	-0.012780239
221	0xbaca2923	-0.0015423637
222	0x3c3be23c	0.011467513
223	0xba1e8cda	-0.000604821
224	0x3d30a791	0.043128554
225	0xbd29775d	-0.0413736
226	0x3d280ddd	0.041028846
227	0xbd1d13c9	-0.038348947
228	0xbd549598	-0.051900476
229	0xbd0364f5	-0.032078702
230	0x3d0d0d61	0.034436587
231	0xbcab1f7e	-0.02088904
232	0x3ca62c7c	0.020284884
233	0xbc830528	-0.01599367
234	0xbb78aef3	-0.0037946075
235	0x3b67eb5d	0.003538809
236	0xbb5d94e9	-0.0033810681
237	0x3bd95b28	0.006633181
238	0x3ba57e46	0.0050504534
239	0x3c96e07f	0.018417595
240	0x3b69593b	0.0035606164
241	0x3ba7d6bf	0.0051220353
242	0x3c210724	0.009828363
243	0xbae9fcff	-0.0017851888
244	0xbbe0ee3e	-0.006864338
245	0x3beda9ce	0.0072529083
246	0xbc2ef94d	-0.010679555
247	0xbbcea200	-0.006305933
248	0x3c0b1e2c	0.00849108
249	0x3c098ba4	0.008395109
250	0x3b8d5dcd	0.0043141604
251	0xbbab41bd	-0.0052263425
252	0xbc4764c5	-0.012170021
253	0x3bde2982	0.0067798505
254	0x3ca3ea14	0.020009078
255	0xbc9c2566	-0.019060802

base_model.model.encoder.encoder.layer.1.attention.self.query.lora_A.default.weight f4 [8, 768]
0	0x3c18e6ae	0.009332342
1	0xbce76a30	-0.028248876
2	0x3cced226	0.025246691
3	0x3d14db66	0.036342047
4	0x3cf47f87	0.029845966
5	0xbdbf3e82	-0.09338094
6	0x3c8aada6	0.016928505
7	0xbbcecf72	-0.0063113505
8	0x3b64be6c	0.003490354
9	0x3d6d509a	0.057938196
10	0x3c1853b8	0.009297304
11	0x3cba8d49	0.022772448
12	0xbb6207ae	-0.003448944
13	0xbc3336b2	-0.010938333
14	0x3c90abbd	0.017660016
15	0xbcfc8e1f	-0.030829487
16	0x3c8a9aba	0.016919482
17	0x3d46d968	0.04854718
18	0xbcb7e817	-0.022449536
19	0x3da7761f	0.08176827
20	0x3bc1dcb6	0.0059162034
21	0xbcfe321a	-0.03102975
22	0xbc4f1399	-0.01263895
23	0xbadb9365	-0.0016752301
24	0xbd2cd3ce	-0.04219418
25	0xbd55fd52	-0.05224354
26	0x3ae213ee	0.0017248371
27	0x3d2a0757	0.041510906
28	0xbd255b87	-0.04037049
29	0xbd451879	-0.048119042
30	0x3db192b5	0.0867056
31	0x3cea0be8	0.02857013
32	0xbc337576	-0.010953298
33	0x3cccd071	0.025001736
34	0x3d995063	0.07486036
35	0x3da6f7dc	0.08152744
36	0xbbf394a1	-0.0074334894
37	0xbd083dfb	-0.033262234
38	0xbc1ff382	-0.009762647
39	0xbd0e5e4e	-0.034757905
40	0xbd240302	-0.04004193
41	0x3b48d870	0.0030646585
42	0xbcfd3aac	-0.030911766
43	0x3c0d24f8	0.008614771
44	0x3be78aeb	0.007066121
45	0xbb0fabea	-0.0021922537
46	0x3a7ec53f	0.0009718723
47	0x3b05a2b4	0.0020391168
48	0x3db446e1	0.088025816
49	0x3d45d333	0.04829712
50	0xbbd27375	-0.006422455
51	0x3aa3b2a5	0.0012489153
52	0x3c870721	0.016482892
53	0xbd088a98	-0.0333353
54	0x3c4f74dc	0.012662139
55	0xbcfd45f6	-0.030917149
56	0x3d08de98	0.033415407
57	0x3d3073f1	0.04307932
58	0x3d87ecca	0.06636961
59	0xbd1bd392	-0.038043566
60	0x3c8f4599	0.017489241
61	0x3b994c66	0.004678297
62	0xbd6b1bde	-0.057399623
63	0x3c0e189b	0.008672859
64	0x3cba1719	0.022716092
65	0xbca064a3	-0.019579237
66	0xbc8be341	-0.017076137
67	0x3cd84d31	0.026403995
68	0x3c201127	0.009769714
69	0xbcb8e11a	-0.022568274
70	0xbd51cf57	-0.051223125
71	0x3c99ba58	0.018765613
72	0xbd583c32	-0.05279178
73	0x3cd6149d	0.026132876
74	0xbcb77e84	-0.022399195
75	0x3bff1973	0.007785016
76	0xbcd722cb	-0.026261708
77	0x3d426c43	0.047466528
78	0xbd27e2f8	-0.04098794
79	0x3bfc75b2	0.00770446
80	0xbbea31e9	-0.007147063
81	0xbd92d3aa	-0.07169278
82	0x3b1b3316	0.0023681573
83	0x3d34eb0f	0.04416948
84	0x3d65e97e	0.05613088
85	0x3c276c5c	0.010218706
86	0xbb99e8ac	-0.004696926
87	0x3c1ff079	0.009761923
88	0x3c559c6c	0.013037782
89	0x3a19d4c2	0.000586819
90	0x3d17324b	0.036913197
91	0xbd2b94b9	-0.04188988
92	0x3d039e06	0.032133125
93	0x3d375034	0.044754222
94	0xbd91679d	-0.07099841
95	0x3d428a52	0.047495194
96	0xbbf4e21b	-0.007473243
97	0x3c28f0b2	0.0103112925
98	0x3d8d6238	0.06903499
99	0x3ca681d6	0.020325582
100	0xbd02a765	-0.03189792
101	0xbcc858fc	-0.024456494
102	0x3b8f1d8e	0.004367537
103	0xbd459b21	-0.048243646
104	0x3ca6aee3	0.020347064
105	0x3cc2cb3e	0.023778554
106	0xbbae5a45	-0.0053208196
107	0xbc02490a	-0.007951984
108	0x3b83df87	0.0040244493
109	0xbd4e3fe0	-0.050353885
110	0xbbceafb1	-0.006307565
111	0xbd0a388a	-0.033745326
112	0xbc07ae86	-0.008281356
113	0xbc8bf162	-0.017082874
114	0xba4e3bf0	-0.0007867208
115	0xbbb876cb	-0.0056293956
116	0x3d2466c7	0.04013708
117	0xbd15f23b	-0.036607962
118	0xbcb2f0e8	-0.021843389
119	0xbcccd11b	-0.025002053
120	0x3b749efd	0.003732621
121	0x3d8729bd	0.06599758
122	0xbd348a88	-0.044077426
123	0xbb62944c	-0.0034573255
124	0x3ceeb5c9	0.029139416
125	0xbc23f88e	-0.0100079905
126	0x3d185383	0.037189018
127	0xbda1cc5b	-0.07900306
128	0xbc7ae185	-0.015312557
129	0x3c2b824e	0.010468079
130	0x3d82806c	0.06372151
131	0x3cbf9f43	0.023391372
132	0xbbb78c33	-0.00560143
133	0x3cebf0b2	0.028801296
134	0xbcbf76a3	-0.023372
135	0x3d1d4fbf	0.03840613
136	0xbd13d698	-0.036093324
137	0x3b09d09c	0.0021028882
138	0xbc8ced77	-0.017203076
139	0x3c9fb845	0.019497046
140	0x3d3ebd0d	0.04656701
141	0x3d70efa7	0.0588223
142	0xbc0f9d03	-0.008765462
143	0x3d7aa66b	0.061193865
144	0x3d4eeb75	0.050517518
145	0xbc8765c4	-0.016528018
146	0x3db5ba8d	0.08873472
147	0xbd9e707a	-0.07736297
148	0xbbe8e892	-0.0071078027
149	0x3d01e4e6	0.031712435
150	0xbbc18d61	-0.0059067463
151	0x3a82a28e	0.0009966658
152	0xba947ae5	-0.0011328129
153	0xbccee6b8	-0.0252565
154	0x3bef1673	0.0072963773
155	0xbc91fec1	-0.017821671
156	0xbd64124e	-0.05568152
157	0x3c4604dc	0.0120861195
158	0xbcb626e5	-0.022235343
159	0x3d1e45db	0.038640838
160	0xbc98d08b	-0.018654129
161	0xbd0c30ee	-0.03422635
162	0x3c05e519	0.008172297
163	0x3d0683c3	0.0328405
164	0x3bc6aab9	0.006062832
165	0xbd2bd925	-0.041955132
166	0xbb9698f8	-0.004595872
167	0xbc888295	-0.016663829
168	0x3d33f878	0.04393813
169	0x3d703ac7	0.058649804
170	0xbd29982f	-0.0414049
171	0xbd1a3453	-0.037647557
172	0x3d532fdf	0.051559325
173	0x3b326983	0.0027223534
174	0x3cfe1e0b	0.031020185
175	0xbce5d18e	-0.028054025
176	0x3d87de42	0.06634189
177	0x3cda9a80	0.026685
178	0x3d6ced9d	0.057843793
179	0xbcfeb47e	-0.031091925
180	0xbbe22158	-0.0069009475
181	0xbc84c38b	-0.016206523
182	0xbc3f89bb	-0.011690552
183	0xbce148b2	-0.027500484
184	0x3d2ce2a3	0.042208325
185	0x3d9f18ce	0.07768403
186	0xbc003c86	-0.00782693
187	0xbafe4820	-0.0019400157
188	0x3cc306e5	0.023806999
189	0xbba9ae84	-0.0051782746
190	0xbd486d2e	-0.048932247
191	0x3b43d06d	0.002987887
192	0xbd0242b0	-0.03180188
193	0xbd187ad8	-0.037226528
194	0x3b216c25	0.002463111
195	0xbb8ac523	-0.0042349263
196	0xbbc38426	-0.005966681
197	0x3d69c929	0.057076607
198	0xbd0f2688	-0.034948856
199	0x3c4f598f	0.01265563
200	0x3d38b1e2	0.045091517
201	0xbd043e7d	-0.032286156
202	0x3ce129f5	0.027485827
203	0x3d603b2a	0.054743923
204	0xbb685530	-0.0035451166
205	0x3cef1e97	0.029189391
206	0xbb645891	-0.0034842829
207	0xbc35fa45	-0.011107032
208	0xbbef8e6d	-0.0073106796
209	0xbb321f58	-0.0027179327
210	0xbc960893	-0.018314635
211	0x3d0a1ec4	0.033720747
212	0xbc3c7fc4	-0.011505071
213	0xbcd8112a	-0.026375372
214	0x3ca10a56	0.019658249
215	0xbd627995	-0.05529173
216	0xbd0d037e	-0.03442716
217	0xbaa0ec27	-0.001227741
218	0x3be5b947	0.007010612
219	0x3cfc2b68	0.030782416
220	0xbc39fd24	-0.011351857
221	0xbbc83e66	-0.006110954
222	0x3c3c6cf0	0.011500582
223	0xbca648ed	-0.020298446
224	0xbc8994a9	-0.01679452
225	0x3c7529f1	0.014963613
226	0x3c37f060	0.011226743
227	0xbc9aa317	-0.018876595
228	0x3c96ff71	0.01843235
229	0xbb8658cb	-0.0040999404
230	0xbc205b2c	-0.009787362
231	0x3d875aed	0.066091396
232	0x3d4de7ff	0.050270077
233	0xbc9d1f93	-0.019180095
234	0x3c1d6515	0.009606619
235	0xb9e64f32	-0.00043928024
236	0x3cfaeb0b	0.030629655
237	0xbcc02381	-0.02345443
238	0xbcc61c41	-0.024183394
239	0x3c193458	0.009350859
240	0xbb641e2a	-0.0034808018
241	0x3c8696a2	0.01642925
242	0xba36047e	-0.00069434184
243	0x3bbccca2	0.005761699
244	0xbc91e29f	-0.017808257
245	0xbb6bad56	-0.003596147
246	0xbba8e382	-0.005154074
247	0x3bc7f5b0	0.0061022863
248	0x3d8988d4	0.06715551
249	0x3c2122d4	0.009834964
250	0x3a9b9649	0.001187035
251	0xbd1c1cdf	-0.03811347
252	0x3bc4cd9b	0.0060059554
253	0x3c640534	0.013917256
254	0xbb22c132	-0.0024834392
255	0xbcc094d3	-0.023508465
