李江艳/week13/model_output/epoch_15.pth (torch, 926030 bytes, 38 tensors)

base_model.model.bert.encoder.layer.0.attention.self.query.lora_A.default.weight f4 [8, 768]
000000 20 eb 03 3c 82 70 65 3d 18 5b 99 bd 44 37 2b bd
       0.008051664 0.0560155 -0.07488078 -0.041800752
000010 43 75 37 bd a4 6b 2d bd 07 2b 19 3d bc 20 2d 3d
       -0.044789564 -0.042338982 0.03739455 0.042267546
000020 56 e5 f6 bb fe b4 94 3b ca 18 51 3d ed 83 ec bc
       -0.007534663 0.0045381775 0.05104903 -0.0288715
000030 d9 07 c2 3c 0b bc 8d 3b bd e2 b7 bd 4b d1 ba ba
       0.023685383 0.004325395 -0.08978794 -0.0014253048
000040 e1 e1 8c 3d 2f c6 02 3b e3 09 a2 3c 8e 47 7f bd
       0.068790205 0.0019954552 0.019780105 -0.0623241
000050 98 01 fa 3c 9a ea 3b bc 6d e1 b4 3c e1 45 c5 3c
       0.030518338 -0.011469508 0.022080148 0.024081172
000060 fa 35 7c 3d 62 b1 75 ba 45 9c d9 3c 1c f8 56 3c
       0.061574914 -0.00093724404 0.026563773 0.013120677
000070 4c e0 7a 3b 9a d0 18 bc fd 2a 84 3c db 1a 42 bc
       0.0038280664 -0.009327078 0.01613378 -0.011847223
000080 79 27 d5 bc 1b 6b 41 3d f1 6b e1 bb 85 b5 22 bd
       -0.026019799 0.047221284 -0.0068793227 -0.03972389
000090 dc 9e c4 3c 4a 44 7e bd f4 f3 1f bb 71 b5 1a bd
       0.024001531 -0.062076844 -0.0024406882 -0.037770692
0000a0 cc 44 35 3c 86 f0 73 bb 53 81 48 3d f1 75 e6 39
       0.011063766 -0.003722222 0.04895146 0.00043956892
0000b0 24 d2 a2 3c d3 ed 44 bc 1f fa d1 3d e3 de 95 bc
       0.019875593 -0.012019592 0.10252785 -0.018294757
0000c0 9b 9d b1 bc 92 9e 04 bd 4a d2 43 3d 51 ba 12 3c
       -0.021681597 -0.032377787 0.04780797 0.008955554
0000d0 8c 48 23 3d 47 a8 cc 3c 44 cd 84 bd 61 ea 68 bc
       0.039864108 0.024982585 -0.06484464 -0.014216037
0000e0 f6 0b ca bd 3d 63 12 bc 68 e6 e8 bc be 88 9d bd
       -0.098655626 -0.008934793 -0.028430179 -0.07692097
0000f0 06 4c 81 bd da 90 0b bc 09 cf 3b 38 2e 4e ac 3d
       -0.063133284 -0.008518422 4.477709e-05 0.08413349
000100 52 9a e9 bc c3 1f 83 3d c5 95 86 ba 28 4a 0d bb
       -0.028515968 0.064025424 -0.0010268023 -0.0021559093
000110 0d ce 10 bd 37 de 6b bd 33 49 54 3d 0f 73 bf 3c
       -0.035352755 -0.057584967 0.05182762 0.023370294
000120 0f 6e 06 bd 64 ea 5b bd e8 ae 2f bd e2 fe f0 3c
       -0.032819804 -0.05369033 -0.042891413 0.029418413
000130 4b 31 b7 3c e2 d3 2e 3c 53 4a 19 3d a7 3c 6d bd
       0.022362372 0.010670634 0.037424397 -0.05791917
000140 a0 ae 1b bc fa f5 a2 3c 3c 17 eb 3c f3 9f 44 3c
       -0.009502083 0.019892681 0.028697602 0.0120010255
000150 3d f0 ff bb 14 d1 3d bc 2c b0 1d 3d 89 ba c0 3b
       -0.007810621 -0.011585493 0.03849809 0.0058816117
000160 41 67 59 bc da 80 7f bc fb f4 06 3d 3d 6f 98 3b
       -0.013269247 -0.015594685 0.032948475 0.0046519325
000170 82 2b 9a 3c 76 db 17 bc 40 e0 e8 3c 1d 80 ab bc
       0.018819574 -0.009268632 0.028427243 -0.020935113
000180 e4 6e 68 3b 00 c5 87 bd 69 83 fc 3c 19 41 d1 3c
       0.0035466487 -0.06629372 0.03082438 0.025543736
000190 4e 37 b4 3c 6a dd e5 3b 29 20 3b bd b2 15 91 3c
       0.021999028 0.00701492 -0.045684967 0.01771054
0001a0 8b c0 9a 3c a3 f2 37 3c c7 87 f8 bc 04 4a 92 bd
       0.01889064 0.011227283 -0.030338181 -0.071430236
0001b0 5f 0f 6e bc b8 f8 26 3c 84 00 5c bb 28 27 d4 3d
       -0.014530032 0.010191135 -0.0033569643 0.10359031
0001c0 d8 29 04 bd 03 af ae bb da 85 ae 3d 91 e9 ff 3b
       -0.032266468 -0.0053309216 0.08521624 0.0078098257
0001d0 9e 02 70 3c c4 4f 04 3d 08 71 e2 3c 53 d7 d7 bc
       0.0146490615 0.032302633 0.027641788 -0.026347792
0001e0 42 a8 c5 bd aa 99 90 3d 0a 36 9c 3d 02 30 c7 3c
       -0.09651233 0.07060559 0.07627495 0.024314884
0001f0 e9 88 04 bd 59 7c 3d 3d 23 ea 96 3c 08 4b a0 3c
       -0.03235713 0.046261165 0.018422192 0.019567028
000200 f7 1f ec 3c 84 c4 c2 bc a4 ea 5f 3d 19 39 c0 bd
       0.028823836 -0.023775347 0.05466713 -0.093858905
000210 7b 1f 45 bd fc 2f 22 3d 35 2b fd bb a2 d3 05 3d
       -0.048125725 0.039596543 -0.007726098 0.032672532
000220 64 fd a6 bc f4 72 6a bc f3 14 c0 bc 3f e4 3f 3d
       -0.020384498 -0.0143096335 -0.02344749 0.04684853
000230 7e fe 62 3d 1f dc db 3c a8 ef 8f 3c a9 61 8e bc
       0.055418484 0.02683836 0.017570332 -0.017380552
000240 4a a0 03 3d 6e 90 21 3c 75 89 c5 3c 62 48 99 bc
       0.032135285 0.009861095 0.024113396 -0.018711273
000250 9f f0 02 bc ad e5 68 bd 73 84 c5 3a 11 d9 a0 bd
       -0.007991939 -0.05685966 0.001506938 -0.07853902
000260 d2 51 d9 3c 32 e5 6b 3c bd 79 60 3b 14 68 99 bc
       0.026528273 0.014397906 0.003425225 -0.018726386
000270 23 46 33 3d 25 78 f3 3c f6 f7 90 bc 4c ce e7 3b
       0.04376806 0.029720375 -0.017696362 0.007074153
000280 8c 9d 0b bd 92 06 1b 3d ff 74 f6 bc 9a f3 97 3c
       -0.034085795 0.037848063 -0.030085085 0.018548775
000290 58 ae ba 3c 39 38 89 3d de 19 85 bd 98 cb 16 bd
       0.022788212 0.06700177 -0.064990744 -0.036815256
0002a0 e9 d2 36 bc e5 a7 21 38 3f 22 58 3c 04 ae 65 3d
       -0.011158683 3.8541755e-05 0.013191759 0.056074157
0002b0 2a 73 d2 bb 3d 01 28 3a 76 a2 0f 3d aa 1c 8c 3c
       -0.00642242 0.0006408876 0.035067044 0.017103512
0002c0 a5 0e 4b bd 25 95 70 3d a8 7c 6f 3b 4b d0 51 bc
       -0.049574513 0.058735985 0.0036542807 -0.012806009
0002d0 99 3f de bc f4 1c 46 3c 2b b1 67 bd d6 5a 03 3d
       -0.027129935 0.012091864 -0.056565445 0.03206905
0002e0 3a 22 cd bc d4 ad 68 bd 28 b0 c4 bd 46 19 f3 3c
       -0.025040735 -0.0568064 -0.09603912 0.029675137
0002f0 b5 65 19 bd 37 98 c8 3c bc 58 04 3c 77 c3 29 bc
       -0.03745051 0.024486644 0.008077797 -0.010361544
000300 23 bd 2d 3d f5 47 87 bd 34 19 01 3b d5 d8 7c bc
       0.042416703 -0.066055216 0.001969886 -0.015432556
000310 d3 f0 53 bd 55 c2 2a 3c ed 25 75 bd 98 17 1e 3d
       -0.05174334 0.010422309 -0.059850622 0.03859672
000320 74 28 87 3d 20 24 56 3c 9e 77 5f 3d df 08 1d bc
       0.06599513 0.013070136 0.054557435 -0.009584635
000330 9c 70 58 3b 7e 47 5c bd 4c dc 30 3d 1b f9 eb 3c
       0.0033026105 -0.053779118 0.04317884 0.028805306
000340 b3 fc 06 bd 5f e7 1c bd 49 aa c9 bc 84 ac 85 bd
       -0.032955837 -0.03830659 -0.024617331 -0.06527045
000350 cb 26 a9 3c 10 73 43 bd 34 97 68 3d c0 aa 10 bd
       0.02064838 -0.047717154 0.056784824 -0.03531909
000360 da ed de 3c a2 35 0f bd 9a 2a 5d bb 82 29 8d 3c
       0.027213026 -0.034963258 -0.0033747316 0.017231707
000370 30 38 c2 3c 73 ac 0b bd c8 fa 22 bd d0 68 21 3d
       0.023708433 -0.034100007 -0.039789945 0.039406598
000380 5d 3d 1c 3d 28 1e bd bb a1 86 0a 3c 77 34 ec 3c
       0.038144458 -0.005771417 0.00845495 0.028833611
000390 dd be 12 3d 98 42 9f 3c b0 84 4a 3c 20 95 0f 3d
       0.035826553 0.019440934 0.012360737 0.035054326
0003a0 81 6c a7 3c 38 c5 56 3c e4 42 4b 3d a8 51 19 bb
       0.02043748 0.013108544 0.04962434 -0.0023394618
0003b0 09 a7 f8 bc 71 50 db bb f9 77 17 3d b4 2d 31 bd
       -0.030353086 -0.006692939 0.03697965 -0.043256477
0003c0 2e d6 35 bd db 0c a5 bc 8e 4d 4f 3d d4 d6 47 bd
       -0.04439371 -0.020147732 0.05061107 -0.04878886
0003d0 2c e3 1a bb 1c 1e 87 3c b0 47 8b 3d 91 08 a7 bb
       -0.002363394 0.01649385 0.06800783 -0.0050974567
0003e0 1c 10 72 3c ce 6b b2 ba bc 49 8e bd 4b 64 c5 3c
       0.014774349 -0.001361245 -0.069476575 0.024095675
0003f0 46 4b 37 bb 7c 2b 06 bc e8 80 f5 bc 94 c8 bc 3c
       -0.002796845 -0.008189078 -0.029968694 0.023044862

base_model.model.bert.encoder.layer.0.attention.self.query.lora_B.default.weight f4 [768, 8]
000000 f6 ce b3 3a 1d b0 ae 3c df 29 b9 3b 1c 48 ca bc
       0.0013718295 0.021324212 0.0056507434 -0.024692588
000010 b7 b7 f0 b9 f8 cf 49 bd b2 0a be bc 6b 12 9a 3d
       -0.00045913245 -0.0492706 -0.02319846 0.07523044
000020 e8 83 8d ba 97 04 28 bc d9 fe 17 bc 71 db 22 3c
       -0.0010796757 -0.010255001 -0.009277069 0.009940014
000030 99 ce 1a 3b 87 dc e3 3c 9c 7c 87 bc 67 b7 24 bd
       0.0023621677 0.027815117 -0.01653891 -0.04021397
000040 c0 61 49 3c c6 b4 2f 3c 63 4f 1c bc 81 5e 5b 3c
       0.012291372 0.010724252 -0.009540412 0.013389231
000050 dd a4 00 bd 5e 00 ea ba 53 e5 6b bc 42 57 88 bc
       -0.031407226 -0.0017852893 -0.014397937 -0.01664317
000060 63 f7 e1 3b 40 3b 15 bd 53 26 25 bc 04 33 8b 3d
       0.006895946 -0.03643346 -0.010079938 0.0679684
000070 14 9d 32 bd ef 6e 9b 3c a8 2d 5e 3b 1f 8e 0c bd
       -0.043606833 0.018973796 0.0033901725 -0.034315225
000080 20 d5 53 3d a6 d9 69 3d 83 b5 32 bd 72 f7 87 ba
       0.051716924 0.05709233 -0.043630134 -0.0010373427
000090 3c b6 77 3c 0a 7e d2 ba 7e 5c 81 bc c4 b0 9d bc
       0.015119132 -0.0016059291 -0.015791174 -0.019249327
0000a0 9c d0 76 bc dd 23 7f bc 7b f3 8b ba da 9f f2 bc
       -0.015064385 -0.015572515 -0.0010677421 -0.029617239
0000b0 20 07 09 3c 3f 33 2b 3c c0 cb 59 3b ef b7 92 bc
       0.008363515 0.01044923 0.0033233017 -0.017909972
0000c0 93 76 d6 bc 4f 0e a3 bb 53 9d 50 3a 0c e5 70 bd
       -0.026179587 -0.004976071 0.00079580134 -0.058812186
0000d0 6d 03 0c 3d db 0a 2c bc 32 f9 81 bb bc 9b 40 3c
       0.034182955 -0.010500635 -0.003966474 0.01175588
0000e0 36 2e 88 bd 76 35 cd 3c 06 bb ba bc 74 c7 86 bc
       -0.06649439 0.025049906 -0.022794258 -0.016452529
0000f0 43 3f 58 3d 1c ef dd 3b 67 e8 a4 bc 92 66 18 bd
       0.052794706 0.006772889 -0.02013035 -0.037207194
000100 fb a8 5a 3d 4a 9f 1b 3d 37 67 89 3d 3e f6 e6 3b
       0.05338381 0.037993707 0.0670914 0.0070483973
000110 1c 45 a8 bb cd 52 29 bd 7d 6e e6 3c c4 cb 97 3c
       -0.0051351916 -0.04133873 0.028128857 0.01852978
000120 c2 a2 c7 3d ea 35 1a bd db 63 42 3d cd 9d 0e 3d
       0.097478405 -0.037649073 0.04745851 0.03481846
000130 68 fd 74 3c fe 26 0e bd 93 f5 d1 ba 6d ac 88 3c
       0.014952995 -0.034705155 -0.0016018621 0.016683782
000140 b6 b4 7f bd 13 5c 22 3d 70 22 48 3d 7d d1 08 bd
       -0.0624282 0.03963859 0.048860967 -0.03340291
000150 ff d5 84 bd c7 46 9e bd 14 17 ea 3d 50 62 89 bc
       -0.06486129 -0.077283435 0.11430183 -0.016770512
000160 cf a2 b9 bc eb cf 5d bd f4 a5 14 3c 9f 72 68 39
       -0.022660641 -0.054153364 0.009072769 0.00022167944
000170 26 58 5c bc 24 3c dc bc 3f ae 3c 3b ad fa 56 3d
       -0.013448751 -0.026884146 0.0028790382 0.052485157
000180 46 c5 21 bd 5b 3b aa 3b 03 87 3c bd d1 66 7e 3c
       -0.039494775 0.005195064 -0.046027195 0.015527443
000190 92 b6 af bc 2f ac 03 3c 61 be b1 3b c0 6c d2 3b
       -0.021449361 0.008036657 0.0054243063 0.0064216554
0001a0 e6 68 6c bd f8 2b 98 bc 30 d5 e6 3b 01 43 4d 3c
       -0.057717226 -0.018575653 0.007044457 0.012528182
0001b0 c9 53 e4 3c a2 a6 04 3c 4e cd 6c 3d 64 c4 41 3d
       0.027871983 0.008096369 0.05781298 0.047306433
0001c0 3e 29 32 3d d3 5f 3f bc d2 d7 33 bd 83 b0 82 3d
       0.043496363 -0.011680561 -0.043906994 0.06381323
0001d0 31 44 e8 3c e6 68 2e 3c ff 7d 26 3d dd f8 85 ba
       0.028352829 0.010645127 0.040647503 -0.0010221262
0001e0 7c e1 23 3d ea a0 70 3d b8 d8 8c 3c d6 ff 24 bc
       0.04000996 0.05874721 0.017193183 -0.010070762
0001f0 ed 72 28 bd dc e4 39 3c 67 db 6e bc f4 c9 74 3d
       -0.041125227 0.011346068 -0.014578677 0.05976291
000200 ec 06 1d 3c aa ac 93 3c be 9d 9c bb 1f 8a 59 3c
       0.00958417 0.018026669 -0.0047795465 0.01327756
000210 cd 1a 17 bc b9 6e 07 3c 15 08 ae 3c 4f b1 b7 bc
       -0.009222698 0.008266144 0.021244088 -0.022423415
000220 c4 5c 0f 3d 6e 73 aa bc 0f 06 01 bd ef 1d cb bc
       0.035000578 -0.020806994 -0.03149992 -0.024794547
000230 92 f0 1b bd 00 47 f6 3c d6 52 87 bc fc 5f ec bc
       -0.038071223 0.030063152 -0.016518991 -0.028854363
000240 10 54 54 bd 60 03 6b 3d b8 8f 30 bc f5 2c ac ba
       -0.05183798 0.057376266 -0.010776453 -0.0013135957
000250 9e 4a 20 bd 35 07 9f bc 83 6d c4 bc 4d 60 98 bd
       -0.03913366 -0.019412616 -0.023978 -0.07440243
000260 c3 98 ed bb 2c 6d 0b 3b f6 84 0a bc a1 dd 7c bc
       -0.0072508766 0.0021274788 -0.008454552 -0.0154337
000270 20 c9 7a 3c 53 88 4f 3d 66 30 4e 3d b3 52 c1 3c
       0.015306741 0.05066712 0.050339125 0.023599004
000280 e4 b5 21 3d 6e 0e 07 3c b6 fc 2a 3d 76 9f c9 bb
       0.039480105 0.008243186 0.04174491 -0.0061530424
000290 af ab 6f 3b f6 1a 9c bd 9c 57 23 3d c8 4d 2b 3d
       0.0036570837 -0.0762233 0.039878473 0.041822225
0002a0 2f b8 19 bd 94 4c 26 3d 68 c4 a3 3b d2 4d 47 bc
       -0.037529167 0.040600374 0.0049977787 -0.01216455
0002b0 d9 0c ae 3c e6 de 54 bd 10 da 2a 3d a1 e5 24 3c
       0.02124636 -0.051970385 0.041711867 0.010064513
0002c0 32 0a 47 bc f0 d0 aa bb 76 d7 ab bc f6 01 92 bd
       -0.012148427 -0.0052128956 -0.020976763 -0.0712928
0002d0 8c 94 8b 3c d4 72 46 3c 08 bb aa bc 87 8b ad 3b
       0.017038606 0.012112338 -0.020841137 0.005296174
0002e0 fc a5 ac bc e2 d6 02 3d 8f e0 2a bd 6a 8e 79 bd
       -0.021075241 0.03194321 -0.041718062 -0.060926832
0002f0 e2 cc b6 3c d7 50 7f 3c ad 7d e8 bc 64 8c 79 bd
       0.022314493 0.015583239 -0.02838024 -0.060924903
000300 4d c5 1a 3d 41 7e c9 bc 7f 26 29 bc 04 0b bd 3d
       0.037785817 -0.024596335 -0.01032412 0.09230617
000310 f3 8c 0c bd 8d 04 b6 3c 78 f6 b5 bb fc 0d 0b 3d
       -0.034314107 0.022218967 -0.005553063 0.033948883
000320 2e 8e cf bc c5 5e 10 3d d6 64 ce 3c 14 e2 a8 bc
       -0.025336351 0.03524663 0.025194567 -0.020615615
000330 1e 4a f3 3c 50 60 5d bc 20 fa a7 3d b3 5c 81 bc
       0.029698428 -0.013511732 0.082020044 -0.015791273
000340 94 32 5b bd 03 fa a1 bc 11 ff 4e bd 03 91 b1 bc
       -0.053515032 -0.019772535 -0.05053622 -0.021675592
000350 3b 04 16 bd 20 b5 af bb 9f 5a d4 bc b1 c3 72 bd
       -0.03662513 -0.005362168 -0.025922118 -0.059268657
000360 e3 ba 29 bd fb 53 86 bb 0f 4a bb bc 11 9d b8 bb
       -0.041437995 -0.0040993667 -0.022862462 -0.005633958
000370 7b bd 5a 3d 95 af 36 3d 7a 9e 78 bb dd ff 11 bd
       0.05340336 0.04460104 -0.0037936256 -0.0356444
000380 8a 11 28 bd 87 47 71 ba 85 3d 5b bc c5 4a 49 bd
       -0.04103235 -0.0009204079 -0.013381367 -0.04914357
000390 11 38 a1 3c 16 7e 29 3c 88 78 36 bc 88 fb fc bc
       0.019680055 0.010345003 -0.011137135 -0.030881658
0003a0 33 c3 e6 bc 88 85 2e bd f8 59 17 3c f6 f1 84 bd
       -0.02816925 -0.042607814 0.009237759 -0.06491463
0003b0 b9 5b 9a bc 13 6e fe bc 8a 9d 54 bd e1 3f 53 bd
       -0.018842565 -0.031058347 -0.051908053 -0.05157459
0003c0 e2 84 da 3c a7 e9 36 3c 55 ff 5d 3c 46 5a 89 ba
       0.026674692 0.0111641055 0.013549645 -0.0010479174
0003d0 0c 6c 88 bc 6d ab 25 bd 65 e6 8b bc 0b 54 e4 bc
       -0.016653083 -0.040446687 -0.017077634 -0.027872106
0003e0 a1 d2 04 3d 90 55 d4 3c 78 0b 07 bd fe 2b 8c 3c
       0.032427434 0.025919706 -0.03296992 0.01711082
0003f0 39 a4 63 bd 45 e2 2f bd 34 71 89 bd 73 b7 e5 3c
       -0.055576537 -0.042940397 -0.06711045 0.028041577

base_model.model.bert.encoder.layer.0.attention.self.key.lora_A.default.weight f4 [8, 768]
000000 c9 34 53 3c 28 24 bb 3c 0e 90 7f bc b6 60 ae bd
       0.012891003 0.02284439 -0.01559831 -0.0851454
000010 a9 14 44 bd f7 65 00 be 3e d3 62 3d 66 8a 78 3c
       -0.047871266 -0.12538897 0.055377237 0.0151697155
000020 38 2f 24 3d 48 4e b8 bc e1 0d b6 3d 90 c1 de 3b
       0.040084094 -0.022498265 0.08889366 0.006797977
000030 6d 5d c1 3d fe 57 33 3d b4 95 0d 3d ef 70 9e bc
       0.09441648 0.043785088 0.034566596 -0.01934096
000040 ef 01 d1 ba 4c cb 03 3d 44 18 4e 3d f5 36 52 3c
       -0.0015946011 0.0321763 0.05031611 0.012830486
000050 f8 ab 7d bd cb 9e b8 bc 9d 9b 0f bd 79 94 15 bd
       -0.06193158 -0.022536656 -0.035060514 -0.036518548
000060 c1 ca 65 bd a7 9c 98 3b 94 f1 9a bd d2 cf a8 bd
       -0.056101564 0.0046573463 -0.075656086 -0.082427636
000070 02 a4 07 bd 86 be 9a 3d 2b 46 63 bc 4d 6b 0e bd
       -0.033115394 0.07555871 -0.01387171 -0.0347703
000080 04 45 f8 3c 88 e9 27 bd 68 66 bd bc 8f 89 60 3b
       0.030306347 -0.040994197 -0.02312012 0.0034261679
000090 ec 9f 1d bd 7f 9b 84 bd 49 eb 24 bd 46 54 fb 3c
       -0.03848259 -0.06474971 -0.040263448 0.030679833
0000a0 71 9c aa bc 7c ac 60 bd d5 e9 1d bd 6d 8c 8e bd
       -0.02082655 -0.054851994 -0.038553078 -0.06960378
0000b0 71 73 fc bc bb 61 41 3d 16 67 bd 3c a0 ef b5 bc
       -0.030816766 0.047212344 0.023120444 -0.022208989
0000c0 cf c2 78 bd 12 69 8c bd 70 b0 cc 3d 69 8c 12 3d
       -0.06073266 -0.06855978 0.0999459 0.035778437
0000d0 26 e3 a6 3d 21 c6 d6 3d c7 79 5e bc 4a 60 d3 3c
       0.08148794 0.10487009 -0.013578839 0.02580275
0000e0 33 16 8f 3d cb 81 4a 3d 1a f3 51 3c 28 f3 13 bd
       0.06986656 0.049440186 0.012814308 -0.036120564
0000f0 a1 0f 26 bc 24 1f 49 3d 29 59 5e bd 26 bb 63 bd
       -0.010135562 0.049101964 -0.05428425 -0.0555984
000100 91 64 12 bd 9c 76 13 3d 19 27 47 bd a5 55 a0 3c
       -0.03574044 0.036001787 -0.04862127 0.019572088
000110 5d 45 b4 3d d5 9a 85 3c 43 53 16 bc 1d ed 86 3d
       0.088022925 0.016309181 -0.009175125 0.065881945
000120 59 de 75 ba 00 f5 28 3d 5f 7a 07 3d 5d 8a bb bd
       -0.00093791407 0.041249275 0.033075687 -0.0915725
000130 c8 83 22 3d ed 64 2d bd 50 3c 73 bc ba 08 2e 3b
       0.039676458 -0.04233258 -0.014845923 0.0026555494
000140 24 63 7e bd 51 8b bb bc 78 27 1e bc 03 e6 3a 3a
       -0.062106267 -0.02289358 -0.009652965 0.00071296113
000150 49 82 16 3d 44 f0 8a 3d 79 1f 6a bb 90 13 25 3b
       0.036745343 0.06784108 -0.0035724326 0.0025188662
000160 00 63 eb bc c1 52 97 3d ff 23 da bc c0 9d 88 3d
       -0.02873373 0.07388831 -0.026628492 0.066707134
000170 b6 86 db 3c 4c 15 71 bc ca 56 05 3d a2 d1 b9 3c
       0.026797634 -0.01471455 0.03255347 0.022682969
000180 fd c4 f5 3d be cc 17 3d 88 ea 8f bc 29 4b 39 3d
       0.12000463 0.03706049 -0.017567888 0.045237694
000190 21 47 1f 3d b7 81 c2 bd 25 61 64 bc 52 32 8e 3d
       0.038886193 -0.094973974 -0.013939177 0.069431916
0001a0 63 ce 49 bd 96 02 92 3d 2e 27 04 bc 20 25 0f bd
       -0.04926909 0.071293995 -0.008065982 -0.034947515
0001b0 1c 2e ee bd 9f 04 c5 bd 48 c2 dc bc b3 ae 57 bd
       -0.116298884 -0.09620022 -0.02694811 -0.05265684
0001c0 23 f7 07 bd 89 76 2d bc 49 2b 8e 3c 25 97 5f 3c
       -0.033194672 -0.010587343 0.017354624 0.0136468755
0001d0 df bc 00 3d 67 f9 a3 bd 2d 63 e2 bb 08 48 8e 3d
       0.03143012 -0.08006554 -0.0069087953 0.069473326
0001e0 96 b5 7f 3d de a1 21 3d 8d b4 39 3d 0a 9d 22 3d
       0.062429033 0.03946101 0.045338202 0.039700545
0001f0 4f 3c ae 3c 6e 7e 3b 3d 0e a5 5b bc f3 d6 24 bb
       0.021268992 0.04577487 -0.013406051 -0.0025152534
000200 1e 2c f0 3c 32 a6 6d 3b 4d c0 53 bd 9a 2c 81 3d
       0.029317912 0.003626239 -0.051697064 0.06307335
000210 68 21 7e bc 0f 9b 80 bd 56 ef 05 3d 31 f1 c7 3b
       -0.015510894 -0.06279575 0.03269895 0.0061017503
000220 2f 54 17 3d b9 e8 5c bd 57 5c cd 3c 73 8a 6c bb
       0.036945518 -0.05393288 0.025068445 -0.0036093264
000230 51 54 84 bc f0 69 01 bc 35 90 90 3c 2a a8 b9 3c
       -0.016153486 -0.007898793 0.017646888 0.022663195
000240 c3 85 3c bd 27 b4 b4 3c c9 e5 6d 3d 58 36 bc bc
       -0.046026003 0.02205856 0.05808047 -0.022975132
000250 41 bd a2 bd 65 12 1d 3b 27 96 fd bc 7d 41 d2 bd
       -0.079462536 0.0023967263 -0.030955387 -0.10266397
000260 d7 88 33 3d 80 e4 8c bc 7d e7 7e bd 6d d1 00 bc
       0.043831673 -0.017198801 -0.062232483 -0.007862431
000270 cc e5 9e bd 23 3a 7b 3c 4c df 5d bd 52 ed 06 3d
       -0.07758674 0.015333685 -0.05416803 0.03294117
000280 95 65 17 bc 75 c8 f0 3c 5d 6b d6 3d 5a 8b de 3b
       -0.009240528 0.02939246 0.10469697 0.0067915143
000290 d9 28 30 3d 10 29 fe 3a 3e 4b 78 bd d6 0e 86 bd
       0.043007705 0.00193909 -0.06061863 -0.065457985
0002a0 06 76 21 bd 28 18 7e bd f5 02 e6 bc 24 83 41 3d
       -0.039419197 -0.062034756 -0.028077582 0.047244206
0002b0 6d 2b 1b 3d 7c 4e 0b 3d ae 91 38 bd a5 45 29 bd
       0.03788321 0.034010395 -0.045060806 -0.041326184
0002c0 6b 65 5c bc f6 6b 15 3d 8f 78 8e 3c 79 89 2e 3d
       -0.013451914 0.036479913 0.017391471 0.042611573
0002d0 3c 44 d2 3c 9a 16 74 3c 60 16 66 3c 2f e3 5c bd
       0.025667302 0.014897967 0.014043421 -0.053927597
0002e0 c4 49 50 bc cc 0a 8b 3d e1 83 0e bd ea ab 39 3c
       -0.0127129 0.06789169 -0.03479374 0.011332491
0002f0 bf d7 5b 38 11 fc 4d bd 88 c9 68 3d 9b 5a 68 bd
       5.2414598e-05 -0.050289217 0.05683282 -0.056727033
000300 21 b4 42 bd 7f ab 4e bc 85 0c c6 3c 15 94 20 bc
       -0.047535066 -0.01261413 0.024175892 -0.0098009305
000310 d7 5d 02 3d 4f ef 60 bd 4e 9d a1 3c a0 7d 34 3d
       0.031827774 -0.054915722 0.019728329 0.044065118
000320 83 6b b5 bc e8 a5 ae bd a7 aa b5 3d c3 39 a4 3d
       -0.022145992 -0.08527738 0.0887044 0.0801883
000330 ca 28 df bc ab 5b 97 bd 75 af 9d bc ac 3e e7 bc
       -0.02724113 -0.07390531 -0.019248703 -0.028228126
000340 4e 66 5e 3d ad 56 99 3b 3f eb 1a bc 55 61 6c 3c
       0.054296784 0.004679522 -0.009455501 0.014427503
000350 4d 73 6f 3d 69 15 99 3d 42 a2 10 3b a3 be 3f bd
       0.05845957 0.07474787 0.002206937 -0.046812665
000360 57 2a 08 bb f9 b3 93 b9 83 36 71 bc d2 24 70 3d
       -0.002077719 -0.00028172115 -0.014722469 0.058628865
000370 d8 87 21 3c b2 6c 37 3d fe 4f 5a 3d b8 55 5f bd
       0.009859048 0.044781394 0.053298943 -0.054525107
000380 cf 52 e1 bc 95 2e 02 3d 35 92 80 bb 65 d2 bb 3d
       -0.027505307 0.031782705 -0.0039236792 0.09170989
000390 0c aa 51 3d 2e 29 c1 3c 96 27 9a 3d 10 0f 10 3a
       0.05118756 0.023579206 0.07527082 0.00054954085
0003a0 bc ce 0e 3d aa bd 2a 3d 61 3e b1 bc 9d 46 6d 3d
       0.034865126 0.041684784 -0.02163619 0.05792867
0003b0 e7 40 b2 bb 1f 06 b3 3d 90 a5 bc bc 8b 48 27 3a
       -0.005439866 0.08741402 -0.023028165 0.0006381354
0003c0 de 86 07 bd d2 da 1c 3d ef 40 2a ba a3 24 86 3b
       -0.033087604 0.03829462 -0.0006494661 0.004093723
0003d0 51 66 2a bb 6d 02 14 3c ae 66 f7 bc f3 f0 45 bd
       -0.0026000927 0.0090337815 -0.030200329 -0.04832549
0003e0 a2 18 a1 bc 84 35 cc bc 5c 28 88 bc c5 aa f6 bc
       -0.019665066 -0.024927862 -0.016620807 -0.030110726
0003f0 d7 6b 1c 3c 3e d0 f6 bb 28 3a b8 3d 10 8d 22 3b
       0.009547195 -0.0075321486 0.089954674 0.0024803318

base_model.model.bert.encoder.layer.0.attention.self.key.lora_B.default.weight f4 [768, 8]
000000 75 e7 2e bd 99 c4 4c 3b d8 93 43 bd 4b b6 e5 3c
       -0.042701203 0.003124511 -0.047748417 0.028041026
000010 f0 60 7f 3d 0f 2d dc bc 55 24 5c bb 13 b8 9c 3b
       0.062348306 -0.026876954 -0.0033590992 0.0047826855
000020 f9 86 8d 3c ca 7d e9 3b 91 8e 1d 3c 59 95 98 3c
       0.017276274 0.007125591 0.00961651 0.018625902
000030 72 7f 87 bc 34 0f 50 3c e9 28 4b 3c ab de 46 bd
       -0.016540263 0.012698937 0.01239989 -0.048552196
000040 dc fe 0a bc 3c e0 9c bc 90 ad 6f bc 41 4f 89 3b
       -0.008483615 -0.019149892 -0.014628783 0.004190356
000050 16 0f 38 3b d9 ab 81 bb 1b 11 dc bb e0 3f 0d 3d
       0.0028085164 -0.0039572534 -0.0067159063 0.034484744
000060 b3 0d fc bb da 3a cc bc 95 6a 02 bd 30 7a 1e 3b
       -0.0076920628 -0.024930406 -0.031839926 0.0024181716
000070 90 bc f9 3c de 39 8f bc b5 45 db bc 9e be 64 bc
       0.030485421 -0.017483648 -0.026766637 -0.013961462
000080 df ba cf bc 84 2a 61 b8 16 f9 9b 3b 44 88 f3 3b
       -0.025357662 -5.3683776e-05 0.004759918 0.0074320156
000090 d3 ca 17 bb be fd 96 3c 61 1e 93 3c 91 18 28 3d
       -0.0023161664 0.01843154 0.017958822 0.041039053
0000a0 ed 9e 97 3d 4f a4 05 3d e7 df f7 3b 15 ab 91 bc
       0.074033596 0.0326274 0.007564533 -0.017781774
0000b0 11 8c cd 3b 0d 21 82 bb 7d 90 4f bc ef 07 08 b9
       0.0062728007 -0.003971225 -0.012668726 -0.00012972926
0000c0 da 12 53 3b d2 64 a0 3c b3 2b 12 3d 4c 4e be bb
       0.0032207281 0.019579325 0.035686206 -0.0058076736
0000d0 46 7b 07 bd 4d ff 13 3d 1d 6e 2d bc aa b6 a7 bc
       -0.033076547 0.036132146 -0.010585335 -0.020472843
0000e0 74 1d c0 3b 17 02 63 3d 0f 73 7f 3d 2c 32 50 3b
       0.005862886 0.055421915 0.062365588 0.0031768186
0000f0 12 49 8a bd 2f 9a 85 3d ec 35 32 bd a6 5a 20 bc
       -0.06752218 0.06523549 -0.043508455 -0.009787237
000100 dd 83 12 bc ca f8 e0 bb d6 b6 b3 3b cc be 0d 3d
       -0.0089425715 -0.0068655955 0.005484442 0.034605786
000110 91 f1 11 ba b7 10 b0 bc 5a 0f 18 3c b5 d1 80 bc
       -0.0005567307 -0.021492345 0.009281004 -0.015724996
000120 a7 05 d1 bc 1f c3 21 bd fd 1f 19 bd 19 ab 7a 3c
       -0.02551539 -0.039492723 -0.037384022 0.015299582
000130 9a ce e5 3c 51 5f cc bc 68 bb 06 3c a5 22 5d bc
       0.028052617 -0.024947794 0.008223392 -0.013497029
000140 04 e9 80 bb 3a bf 00 bd 03 dc c4 bc da 3f b9 bc
       -0.0039340276 -0.031432368 -0.024030691 -0.022613455
000150 04 6c 3f 3d 51 1e d5 bc 3f 9f fc 3c 7b c6 06 3d
       0.04673387 -0.026015433 0.030837653 0.03290413
000160 84 eb 8b 3d 68 af 94 3b e7 60 88 bc 26 d6 b4 bb
       0.068320304 0.0045375116 -0.01664777 -0.0055186925
000170 21 68 ed 3b f7 b0 fa bb 4b 14 e6 3c b7 b4 fb bc
       0.007245079 -0.0076504904 0.028085848 -0.03072582
000180 00 bf 99 3d 94 25 57 3c 9f 0f 0e 3c da 74 3f 3c
       0.075071335 0.013131518 0.008670717 0.011685574
000190 db 11 e9 3a 3b 94 05 bd 79 d1 f9 ba 26 2a db bc
       0.0017781811 -0.032612067 -0.001905962 -0.026753496
0001a0 28 51 84 bc c5 51 1e 3d 7e 2f 07 3c 45 7c 35 3c
       -0.01615198 0.0386522 0.008251069 0.011076991
0001b0 1b eb 94 bc 60 ed c7 3c cd 27 a2 bc 9c 16 e2 3c
       -0.018178513 0.024405181 -0.01979437 0.027598672
0001c0 7d 64 bb bc 20 f3 01 3c 3e 28 fa 3c 6b 29 23 bd
       -0.022875065 0.007931501 0.030536767 -0.03983442
0001d0 7f 3c e4 bc 58 71 cd 3c a3 cb 11 bb bb c7 8c ba
       -0.027860878 0.02507846 -0.002224662 -0.0010740677
0001e0 a2 56 46 3d bf 24 26 bc 6e 8a b3 bc ff e3 05 3c
       0.048422463 -0.010140597 -0.021916594 0.008172034
0001f0 0b 65 9f 3c f8 74 af bc 36 db 7f bb 9b 7f 5c 3b
       0.01945736 -0.02141808 -0.0039040572 0.0033645395
000200 06 09 e0 bb 59 07 8b 3b 96 f3 e9 3c ac cc 09 bc
       -0.006837013 0.0042428193 0.028558534 -0.008410614
000210 b6 30 0d bd 8f 40 3d 3d 61 49 4b 3c be f7 ac bc
       -0.034470282 0.046204146 0.012407632 -0.021114226
000220 df 01 96 bb 5f cb cd 3c 66 7b 4c 3c f2 ff be bb
       -0.00457786 0.025121389 0.012480592 -0.005828851
000230 d8 93 b2 bc 15 c3 8d b8 89 00 b0 3c bc 4b 2f 3c
       -0.021799013 -6.759741e-05 0.02148463 0.010699209
000240 4e 99 c2 bc 8a 7d 0b bd 79 02 1b bc 8f 1e 0b 3d
       -0.023754742 -0.03405527 -0.009461039 0.03396469
000250 57 9b cd bc 15 84 f9 3b 60 20 1c 3d 1e 7c c4 bc
       -0.025098486 0.0076146224 0.038116813 -0.023984965
000260 94 fe 89 3b 0d 80 c7 bd 46 51 82 bb 88 06 2f 3d
       0.0042112563 -0.097412206 -0.0039769737 0.042730838
000270 7c 5b 34 bc 15 82 5a bc 69 a7 75 3d 1c 1b 59 bd
       -0.01100814 -0.013336678 0.059974108 -0.05300437
000280 59 25 8b bd 21 7c 84 3b 87 d6 2a 3b 52 34 d4 3c
       -0.06794233 0.0040431176 0.002606781 0.025903855
000290 05 2a 12 3d b2 3d 9e bc db 9a 75 ba b4 83 90 3c
       0.035684604 -0.019316528 -0.00093690836 0.017640926
0002a0 50 94 28 3d bc 73 fc 3a 48 de c2 3b c5 c9 78 bb
       0.041157067 0.0019260566 0.005946908 -0.003796206
0002b0 24 56 e9 3b dd 99 08 3b 5e d9 64 3b 9c 17 1d 3d
       0.0071208645 0.0020843663 0.00349196 0.038352594
0002c0 2c f0 1f 3d d8 85 a8 3c 39 2d 72 bc 0c 19 58 ba
       0.039047405 0.020571634 -0.01478129 -0.00082434784
0002d0 92 c0 e9 3c 26 5e e1 bb ea 9e 3c 3d e0 e8 20 bd
       0.028534207 -0.0068776784 0.04604999 -0.039284587
0002e0 b2 86 2c 3c 01 d2 a2 bc 8e 07 31 bc c9 79 8a 3c
       0.010530161 -0.019875528 -0.010805024 0.016903775
0002f0 ce bf 00 3d 81 1c 73 3c 57 24 94 3b 68 d3 ff 3c
       0.03143292 0.014838339 0.0045209336 0.031228736
000300 8d f4 77 3d 19 b7 61 bc 9e 79 f8 bb 43 53 51 3c
       0.060535956 -0.013776564 -0.0075828573 0.012776199
000310 1d 1a be 3b 55 17 dc bb 12 ad f7 3b 4d 92 64 bc
       0.005801453 -0.0067166486 0.0075584734 -0.013950896
000320 c0 a2 9b 3c 69 b1 c3 3c 02 79 d0 3c f1 2c 3f bd
       0.018998504 0.023888307 0.025448326 -0.04667372
000330 c3 0c 0e bd 4a da ea 3c 2c 8f 94 bc 96 de a1 3c
       -0.03468014 0.028668541 -0.018134676 0.019759458
000340 56 64 7a 3d cd 58 a1 bc 06 6e 0b bc 48 8f 97 bc
       0.061130844 -0.019695664 -0.008510118 -0.018500939
000350 8c bf b9 3b 3c 8c 0c 3b 1e ff e4 3c b0 c6 c8 3a
       0.005668586 0.002144589 0.02795368 0.0015318003
000360 24 c1 70 bc 65 a3 e6 bc b2 0c 71 3c 8e 65 e2 3c
       -0.014694486 -0.028154084 0.014712499 0.027636316
000370 c0 ff d5 bc d5 e6 c7 3b 58 13 15 3a 80 71 30 bd
       -0.026122928 0.0061005154 0.00056867814 -0.043076992
000380 eb 9b a1 3d e2 ea 56 3a 44 a1 52 3d 68 3b 0e 3c
       0.07891067 0.00081984524 0.051423326 0.008681156
000390 43 99 24 bd 0a c1 7e 3d e1 35 fb 3b 49 dd b8 3b
       -0.040185224 0.062195815 0.007666335 0.0056416136
0003a0 fc ba 67 3d 4c e5 ad bb b0 ee 62 bc ea e4 f5 3b
       0.056574807 -0.0053068753 -0.013850853 0.0075040953
0003b0 85 c8 b0 3c 83 f1 cb bc b8 57 29 bb 00 f5 7a bc
       0.02157999 -0.024895435 -0.0025839638 -0.015317202
0003c0 9e 8e 6c 3a f9 95 a7 3c 9e 8d c5 ba 09 43 80 bc
       0.0009023937 0.020457255 -0.0015072112 -0.015656965
0003d0 5a 9d bb 3c a7 69 92 3c 9f 24 a7 ba 9b b0 bb bc
       0.02290218 0.017872645 -0.0012752003 -0.02291136
0003e0 b9 16 96 bc 93 11 ac bc b1 d9 0d bd a9 80 5a 3c
       -0.018321382 -0.021004474 -0.034631435 0.013336339
0003f0 d9 40 d6 3c 58 56 95 bc 5a 92 1c 3b d4 b7 d4 39
       0.026153969 -0.018229648 0.0023890943 0.00040572754

base_model.model.bert.encoder.layer.0.attention.self.value.lora_A.default.weight f4 [8, 768]
000000 fa 26 c3 3c 86 05 ea bd 93 48 7f 3b e9 47 45 3d
       0.023822296 -0.11426835 0.003895317 0.048164282
000010 4e 91 27 3d 9e 18 92 3b 52 32 41 3b 96 2c 45 bc
       0.040910058 0.004458501 0.0029479456 -0.012034556
000020 b2 d9 fe bc 37 07 c2 bb 10 16 47 bb 9e d0 04 bd
       -0.031109665 -0.00592127 -0.003037814 -0.032425515
000030 38 25 59 bc 9b 37 32 3d d3 0a 50 3c fb 51 62 bc
       -0.013253503 0.04351006 0.012697893 -0.013813491
000040 49 c0 cc 3c c1 27 1d bd e9 65 02 bd f5 0f ff bc
       0.024994032 -0.03836799 -0.03183547 -0.031135539
000050 fe 98 35 bc 5c 8e 1e 3b 58 22 30 3d 15 72 71 bd
       -0.011083839 0.002419374 0.043001503 -0.058946688
000060 f9 cb b1 3c c3 40 ba bb 26 f0 a4 bb 9f 4f 90 3d
       0.021703707 -0.0056839897 -0.0050335107 0.070464365
000070 47 46 38 3c b3 a2 9d bc 66 1e dd 3c 31 1e 04 3d
       0.011247224 -0.01924262 0.026992034 0.032255355
000080 06 d3 79 3d 8c ca ec 3b 64 8b f7 3b 4a fd db 3b
       0.060992263 0.007226294 0.0075544585 0.006713544
000090 7a 7d 29 3d fc dd 99 3d fa 81 2f bd 82 f2 ca bc
       0.04137943 0.07513043 -0.042848565 -0.02477384
0000a0 8b a7 36 bd 34 d9 50 3d 40 75 26 3c 49 b9 d0 3b
       -0.044593375 0.05098839 0.0101597905 0.006369744
0000b0 9a 9f 47 bd 99 73 a9 3c 0b eb af bd f1 2d c9 3c
       -0.048736192 0.020685004 -0.08589753 0.02455804
0000c0 ae bc ca 3c 8a 51 b3 3d cd b2 80 3c d2 6a 45 3b
       0.024748173 0.08755787 0.015710259 0.0030123484
0000d0 40 cd 73 bb a6 1b 2a 3d b1 93 80 bc 17 19 46 3c
       -0.0037201196 0.041530274 -0.015695425 0.012090943
0000e0 fd 3d f8 bc d8 4b 90 bc ea 7c 45 3d 9e 67 83 3a
       -0.030302996 -0.01761429 0.04821483 0.0010025387
0000f0 3f 0f 52 3d 4c 56 4e 3a 8b 96 99 3d cf f1 67 bb
       0.05128407 0.00078711356 0.07499417 -0.0035391932
000100 ce 05 93 bd 4d 44 d6 bb ac e1 94 bd 8e 25 3a 3d
       -0.071788415 -0.006538904 -0.07269606 0.04544597
000110 19 0b a2 3c 82 9c f9 bc c9 8c 1d bd e2 0c 80 3d
       0.019780682 -0.030470137 -0.03846434 0.06252457
000120 27 8d f9 3b 23 c4 71 bd 47 99 9d 3d 64 6b c5 3a
       0.0076157036 -0.05902494 0.07695251 0.0015061912
000130 9a af d3 bc bc f3 f1 bc a6 66 d1 3c 5d 20 84 bd
       -0.02584057 -0.029535167 0.025561642 -0.06451485
000140 cd 4b 58 3b ce 9c d8 bc 67 ff be 3c 9b 1e ab bc
       0.0033004165 -0.026441958 0.023315145 -0.020888617
000150 98 eb 08 3c 20 62 0c 3c 23 d7 91 3c a9 30 03 b9
       0.008356951 0.008568317 0.01780278 -0.00012511261
000160 f5 0d 92 bd 35 10 3c bb 8a 76 c7 bc 10 ab 3c bd
       -0.07131568 -0.0028696184 -0.024348516 -0.046061575
000170 ad d8 6d 3c e5 68 84 3c 04 5a c7 bc d0 05 22 3d
       0.014516992 0.016163299 -0.024334915 0.039556324
000180 de d6 24 bd 80 e9 d5 3b 0b 02 a3 bc a5 89 c6 bc
       -0.040243976 0.0065280795 -0.019898435 -0.024235556
000190 b7 23 01 bd b9 3e 03 3d ee 5b 03 3d a9 6d 25 3c
       -0.0315282 0.03204224 0.032070093 0.010096946
0001a0 86 7f 4f 3d 8c 1d 66 3c 0f e4 cb bc 8c 75 95 3c
       0.050658725 0.01404513 -0.02488902 0.018244527
0001b0 df e9 44 3d 76 e3 5c bc fd ac 04 bd 03 3c 26 bc
       0.0480746 -0.013481965 -0.032391537 -0.010146144
0001c0 57 46 45 3c d6 83 16 3d 64 58 05 3c ea fb 94 3d
       0.012040696 0.036746822 0.00813875 0.07274611
0001d0 26 a8 cc 3c 78 25 84 bc b9 5d b8 3b 43 3d dd bc
       0.024982523 -0.016131148 0.005626407 -0.02700675
0001e0 0c ac 21 bc 51 03 b3 bc 67 97 6c bd 9d 8d f6 3c
       -0.009867679 -0.021852167 -0.057761576 0.030096823
0001f0 86 46 eb bc c9 a2 97 3c f5 a6 bf 3b 6b e6 d2 bc
       -0.028720152 0.01851024 0.0058487603 -0.025744637
000200 32 69 a9 3c d5 b6 c6 3c 3b d5 32 3d 06 2f 7d bd
       0.020680044 0.024257103 0.043660384 -0.061812423
000210 23 d2 42 3c f1 ba 85 bc ba 64 9d bc 71 60 3b 3d
       0.011890921 -0.016324492 -0.01921307 0.04574627
000220 8d 88 39 bd 8e ed 20 3c c5 5a 42 bb 33 38 7e bb
       -0.04529624 0.009822262 -0.0029656154 -0.0038790822
000230 f4 5d cf 3a b1 a4 cd 3c 9d ea 2b bc 0d c1 d4 3c
       0.0015820847 0.025102945 -0.010492948 0.02597096
000240 a8 df 35 3c c8 79 f8 bc a9 4f 17 3d 9f 38 b5 bb
       0.011100687 -0.030331507 0.036941204 -0.0055304314
000250 a9 b7 9a 3d 06 b8 03 bd be a6 e8 bc bd d5 7f 3c
       0.07554562 -0.03215792 -0.028399821 0.015614924
000260 df 15 06 3d 3b 26 69 3d 27 a9 ea 3c 2a a3 65 3d
       0.0327357 0.056921225 0.028645111 0.05606381
000270 3a 92 1d 3c 74 c2 91 bd e3 27 52 3d 6b 8e 14 3c
       0.009617383 -0.07117167 0.05130757 0.009067158
000280 67 f8 ce bc e5 1e 08 3c 32 63 4d 3c 84 e5 86 3d
       -0.025264932 0.008308147 0.012535857 0.065867454
000290 bd 36 3c 3d 1c 89 38 bd 03 b7 eb bc 6b e1 23 3c
       0.04595064 -0.045052633 -0.02877379 0.010002474
0002a0 d5 8a 3b bd 19 2b 05 3d c8 7f 77 bc 7b 98 63 bd
       -0.045786697 0.032511804 -0.015106149 -0.05556534
0002b0 fe aa a3 bd d0 05 84 3c 71 f7 6e bd 6c 34 00 3d
       -0.079915985 0.016116053 -0.058341447 0.031299993
0002c0 68 76 80 3c 4b 58 80 3d f2 b3 fc 3c 5b 5d 49 3c
       0.01568146 0.062668405 0.030847523 0.012290324
0002d0 cc 0e 5b 3b f1 f4 36 3d 46 32 c7 3b 1f e8 93 bc
       0.0033425568 0.044667188 0.006078991 -0.01805502
0002e0 85 29 94 bd ca 77 5c 3d 8a 41 39 3c eb af 66 3b
       -0.07234482 0.053825177 0.01130713 0.003520007
0002f0 da 5f a3 3c a9 82 07 bd 53 17 32 3d 55 f5 71 3d
       0.019943167 -0.03308359 0.043479275 0.059071857
000300 ef d8 20 bd b9 7c 97 3c 27 55 18 bc ae cd c5 3b
       -0.039269384 0.01849209 -0.009297646 0.006036482
000310 93 28 5b 3d 28 b2 67 3d 46 33 b3 3d 51 0a 9b bd
       0.05350549 0.056566387 0.08750014 -0.07570327
000320 42 1c a3 3c 1c 8b a3 bb cc d7 b7 3c bc bb 88 3c
       0.019910935 -0.0049909484 0.022441767 0.016691081
000330 cb 0c 5e 3c 99 e5 78 3c 81 f4 78 bc 57 cf 1d 3c
       0.013552855 0.015191459 -0.015195013 0.009631953
000340 6e e0 c4 bc 4b 2b b3 bc 74 af 98 3d 1d 41 fd 3b
       -0.024032798 -0.02187123 0.0745534 0.0077287094
000350 3e a5 77 bd 32 b5 69 bd ae 10 5b bc 8f d5 a2 bb
       -0.06046032 -0.057057567 -0.013370676 -0.004969306
000360 cb 6b 11 bd 67 54 53 bc bb ae 4b bd e7 da 77 3c
       -0.03550319 -0.012898541 -0.049727183 0.015127874
000370 41 55 06 3b 9d 55 f6 bc 00 7f c6 bc ee 78 f1 bc
       0.0020497593 -0.03007012 -0.02423048 -0.02947661
000380 3b 18 90 bc 89 92 36 3d c5 62 fb bc d2 ba 5d bc
       -0.017589679 0.04457334 -0.030686745 -0.013533311
000390 05 14 27 bd b4 17 cc bb 92 2b 38 bc 1d 30 2d 3d
       -0.040790576 -0.0062284116 -0.011240857 0.042282213
0003a0 2b e4 8a 3d 62 9a f3 3c 63 6e 4b 3d 7b ce ae bc
       0.06781801 0.029736701 0.04966582 -0.021338692
0003b0 b0 04 28 bd 2e c3 db 3d 3e 6e c2 3a 12 b2 54 3d
       -0.041020095 0.10730587 0.001483388 0.051927634
0003c0 e4 16 11 3d ff 8b d0 ba 64 e6 84 3c 74 5a 03 3c
       0.03542222 -0.0015910863 0.01622314 0.008017171
0003d0 78 d7 50 bd 16 14 05 bd 79 83 62 bb ed 6b 04 3d
       -0.050986737 -0.03248986 -0.0034563227 0.03232949
0003e0 46 63 16 bd 88 db af 3d 09 51 39 bc 75 0c 10 bd
       -0.03671577 0.08586794 -0.011310824 -0.03516813
0003f0 9a 6d 1c 3d 21 6f 24 3d ac 39 f9 3c fd f8 c2 bb
       0.03819046 0.040145043 0.030423008 -0.005950092

base_model.model.bert.encoder.layer.0.attention.self.value.lora_B.default.weight f4 [768, 8]
000000 95 b5 75 bc b5 a7 b1 3c cd b7 09 3d e8 ee 99 ba
       -0.014996906 0.021686414 0.03362255 -0.0011744173
000010 c4 6a 87 bc b0 63 9b ba 75 02 12 3d 1b 6b 93 bc
       -0.016530402 -0.0011855271 0.035646874 -0.017995408
000020 8e 58 4c bd 74 09 2d bd 6b c4 a3 3c ca bf 6a bc
       -0.04988914 -0.042245343 0.01999112 -0.014327953
000030 71 5b 06 bd b9 d3 2b 3d 21 b1 e5 3c c4 47 3a 3c
       -0.03280205 0.04194996 0.028038563 0.011369649
000040 a9 dd 18 bc b4 55 17 bd 34 d7 88 3c bb 65 4c 3c
       -0.009330192 -0.036946967 0.01670418 0.012475426
000050 1c 44 fa bb eb cc 59 3c e0 61 5f bb b8 81 aa bc
       -0.007637514 0.013293485 -0.0034085438 -0.020813808
000060 05 42 8b bb f1 e3 d8 3a fc 8e 6b 3b 43 83 bc bc
       -0.0042498135 0.0016547424 0.003594338 -0.02301181
000070 a5 7e 1b bc bc 0f c6 3b 3c 59 99 3c 49 7d 4f 3c
       -0.009490644 0.006044356 0.018719308 0.012664148
000080 33 0c d1 bc 2e c8 89 3c 8f 25 4b bd ba ea 24 3d
       -0.025518512 0.016819086 -0.049596366 0.040262915
000090 75 e2 31 bc b1 25 76 bc 76 be eb bc 67 a7 23 3d
       -0.010857214 -0.015023635 -0.028777342 0.03995457
0000a0 a0 92 bf b9 1c 93 a8 bc 42 fe a1 3b 31 b6 ff bc
       -0.00036539603 -0.02057796 0.00494364 -0.031214805
0000b0 0a a1 7c 3c 10 12 7d bd 5b b0 62 bc d1 a8 54 bc
       0.015419254 -0.061784804 -0.013835992 -0.012979702
0000c0 ac 07 bd 3b d3 b6 4c 3d c1 05 01 bd 2e ef 01 bd
       0.005768737 0.049979042 -0.031499628 -0.03172224
0000d0 4b 2c 71 3d 4a 27 54 3c e8 82 26 3c 4d ad 7b 3c
       0.05888013 0.01294882 0.010163046 0.015361142
0000e0 a4 2d 9b 3c 1d f9 f5 3b e8 6a 03 bb e3 a2 66 bc
       0.018942662 0.0075065033 -0.0020052735 -0.014076921
0000f0 f4 1b 7d 3d cf 80 0f 3c 19 26 99 bc a4 a5 17 3d
       0.061794236 0.008758738 -0.018694924 0.0370232
000100 05 38 2f bc 1d 27 45 bc d1 fd b5 3c 0e 1b 85 bb
       -0.010694508 -0.012033251 0.022215756 -0.004062063
000110 e3 31 56 bd 48 8a 34 3d 91 94 36 3b 8c f8 73 bc
       -0.05229367 0.044077188 0.0027859549 -0.014890801
000120 d3 a6 68 bb a3 ff 25 3c 9f 00 fc ba a6 b9 86 bc
       -0.0035499826 0.010131749 -0.0019226259 -0.016445946
000130 cb 3a ea bc 65 45 fd 3c 2a f0 30 3c 82 10 21 3b
       -0.028592488 0.030916879 0.010799447 0.002457649
000140 f2 fe 84 bc 0a 5d fa bc b7 7a 6b bc 3d c7 92 bc
       -0.016234849 -0.030561943 -0.014372519 -0.01791727
000150 af 15 71 bb 6d 06 f1 bb 23 a4 f9 bb 3c e7 ee 3b
       -0.0036786606 -0.0073555023 -0.0076184436 0.007290749
000160 b0 32 09 bd 84 69 23 bc e4 05 03 3d 3f bb 27 bd
       -0.033495605 -0.009973887 0.03198804 -0.040950056
000170 b9 94 e5 3c 0d b5 ae bd 74 52 32 3d 91 c6 fd bc
       0.028025018 -0.085306264 0.043535665 -0.030978473
000180 b0 67 17 3c 1b 6e d5 3c 5f f7 19 bd e4 34 49 3c
       0.00924103 0.026053479 -0.037589427 0.0122806765
000190 87 c8 b2 3c 13 24 3f bd 2a 31 aa bc d0 53 ce bb
       0.021824135 -0.046665262 -0.020775396 -0.0062966123
0001a0 b9 76 e1 bb 05 3c 5b 3c f5 d0 21 3d 3e 15 25 bd
       -0.006880608 0.013381009 0.039505918 -0.04030346
0001b0 d9 92 5f bc 56 09 83 bc 01 0d e5 3c e6 0c 24 bd
       -0.013645851 -0.015995663 0.027960302 -0.040051363
0001c0 84 ff 2b bc be c2 22 bc 03 c4 3f bc 4d a8 f3 3b
       -0.010497931 -0.0099341255 -0.011704448 0.0074358345
0001d0 f9 6f c0 bc 7a 47 5e bd d6 63 4a 3a ea 69 4c bc
       -0.023490893 -0.054267384 0.0007720565 -0.012476424
0001e0 31 a5 ee ba 5f 9e e1 3c 70 df 38 bb 18 82 ae bb
       -0.001820719 0.027541338 -0.002820935 -0.005325567
0001f0 d1 f6 e4 3c 16 a5 e2 3b d1 3b 5a 3c 48 05 73 3c
       0.027949722 0.0069166524 0.013319925 0.014832802
000200 82 19 20 bd 38 82 82 bc 85 13 87 3a 82 36 35 3b
       -0.039086826 -0.015931234 0.00103055 0.0027650897
000210 de 9c 94 3b 8b 26 69 bc c2 82 0d 3b f7 7b 62 3b
       0.0045353016 -0.014230381 0.002159283 0.0034558752
000220 ae c8 b4 bc 73 2e 07 bd 4d 4b a4 bc 08 fc c4 3c
       -0.022068348 -0.03300328 -0.020055437 0.02404596
000230 cd 4c 5c bb a1 85 2d bd e5 7f b1 3b f2 53 75 3c
       -0.0033615113 -0.042363767 0.0054168575 0.014973627
000240 8c 12 ee 3b ee 81 80 bc fb 83 75 bb 1a 13 be 3c
       0.0072653946 -0.015686955 -0.00374627 0.023202468
000250 3a 26 79 bc 0b 2f 0c 3d f1 b3 c4 3b 96 c5 e6 3c
       -0.015206868 0.03422455 0.006002896 0.028170388
000260 3b 01 22 3d 65 04 8e bc 0b 17 9c bc a5 cd ec bc
       0.039551955 -0.01733608 -0.019053956 -0.028906653
000270 99 36 0c 3d a0 cd b5 bc 43 cd 66 3b ad 56 49 bd
       0.034231756 -0.022192776 0.003521756 -0.049154926
000280 02 47 40 bc 64 58 9c bd 74 1e e2 3c 0a 0b 6e bd
       -0.01173568 -0.07634047 0.027602412 -0.058115996
000290 27 c4 2a 3d 73 f1 30 3a 97 97 27 3d 56 02 be bc
       0.04169097 0.0006749846 0.04091605 -0.023194473
0002a0 09 a7 be 3b 48 36 07 38 33 04 12 3d 07 05 3a bd
       0.005818252 3.223706e-05 0.035648536 -0.04541495
0002b0 f9 2b af 3c 0a b7 1b bd 30 8a cd 3c 38 6a ea bc
       0.021383272 -0.038016357 0.025090307 -0.028615102
0002c0 85 ea 3b 3c 37 0e 88 3b 9f 04 c0 bc af d2 ad 3c
       0.011469488 0.004152085 -0.023439704 0.021218626
0002d0 c9 33 33 bc 2d 65 49 3b 38 f8 a1 bc 13 c5 1e 3c
       -0.0109376395 0.0030730471 -0.01977168 0.009690541
0002e0 b3 00 8e bd 8b 11 a6 bc 99 81 9e 3c 29 19 22 bd
       -0.06933727 -0.020272037 0.019348906 -0.039574776
0002f0 50 d9 cb bb 36 ab 97 3c c0 c4 77 3c f3 55 1c bc
       -0.006220974 0.018514257 0.015122592 -0.009541976
000300 bb 97 0e bc b5 7d ef 3c 19 64 1e bc e0 9c 12 3d
       -0.008703168 0.029234746 -0.00966742 0.03579414
000310 c3 06 1b bd 19 f7 92 bc 3e d1 f9 3b 3c 54 2e 3d
       -0.037848245 -0.017940091 0.0076238206 0.0425608
000320 74 9b a4 3b 72 c0 ad 3c 05 43 0d bc 97 fa 39 3b
       0.0050234143 0.02120993 -0.008621936 0.0028378123
000330 21 e1 b2 3c 73 51 b5 3c 63 08 44 3b 53 4c b3 bb
       0.021835865 0.022133565 0.0029912225 -0.005471745
000340 b1 c6 81 3c ba c2 0a 3d b1 98 6d 3b 36 4c 94 3c
       0.015841814 0.033877112 0.0036254341 0.018102746
000350 93 92 36 bd 4b 56 99 3d 45 f3 55 bc e8 5a 39 3c
       -0.044573378 0.07487162 -0.013058488 0.011313178
000360 53 07 b2 3b 41 1e fb 3c 33 7e 2d bc bc 42 17 3d
       0.005433002 0.030654075 -0.01058917 0.036928877
000370 5e 24 95 ba 82 67 9f 3c 3e ad df 3b 7f 2b e0 3b
       -0.0011378636 0.019458536 0.006826072 0.0068411226
000380 5d e9 76 bb 05 e3 82 3c c8 96 ea 3b 55 75 00 bb
       -0.0037675716 0.015977392 0.007159088 -0.0019601185
000390 be 19 1d 3c 91 87 4b bb 61 50 ac bc ac 24 32 bc
       0.009588657 -0.0031056146 -0.021034421 -0.010873001
0003a0 5d 06 08 bc 8d 94 d1 bb 43 ff f4 bb 41 27 00 bc
       -0.008302298 -0.0063958825 -0.0074767186 -0.007821859
0003b0 65 46 cb bc 71 d6 4c 3c 9d 86 53 3c 6f 3b eb 3b
       -0.02481384 0.012502299 0.012910512 0.007178716
0003c0 be 5f 1a bc b5 45 04 3d 1d 77 ee 3a fd 0d 03 3d
       -0.009422241 0.03229304 0.0018193458 0.031995762
0003d0 85 14 d1 3b 07 2f 1a 3d 7c 40 40 3c 5e 1d c2 3c
       0.00638062 0.037642505 0.011734124 0.023695644
0003e0 56 a3 92 3c 7f 27 16 ba 1b 4a ec 3b 6e 70 66 bc
       0.01790015 -0.0005727931 0.0072109825 -0.014064891
0003f0 42 92 84 3d 3e 1b 00 bd fa 5d 21 3d 24 bc cb ba
       0.06473209 -0.03127598 0.039396264 -0.0015543741

base_model.model.bert.encoder.layer.1.attention.self.query.lora_A.default.weight f4 [8, 768]
000000 17 dc 4e 3d 0a c1 2a bd 1f 3f bf bc 12 7e 2b bc
       0.050502863 -0.041688003 -0.023345528 -0.010467069
000010 f1 4e 6f 3d 70 53 f4 3c ca 59 09 bd db 53 40 3b
       0.058424894 0.029824942 -0.033532895 0.0029346857
000020 fb d5 7d 3d 9b 73 86 bc 59 14 97 bd 61 2f a1 bc
       0.061971646 -0.016412547 -0.07376928 -0.019675912
000030 d1 e2 c9 bc fb 80 e2 bb 75 87 58 3b b4 6c 0c 3d
       -0.024644287 -0.0069123483 0.0033039723 0.034283355
000040 e6 1e 2a 3d 3a a7 8a 3c 4f cb 91 3b 8a d0 57 bd
       0.041533373 0.016925443 0.004449285 -0.052689113
000050 28 5e 19 bd 58 71 1e 3d e4 9a c6 bc 6a bc f1 3c
       -0.03744331 0.03868231 -0.02424378 0.029508788
000060 6e 20 f0 bc 49 5a 75 3c a3 98 17 bb 38 2c a8 bd
       -0.029312339 0.014975139 -0.002313175 -0.08211559
000070 67 70 31 bc df 18 6d bd 7e f4 07 bc f3 e2 63 3c
       -0.010830021 -0.057885047 -0.008298038 0.013909089
000080 35 70 be 3b 2c 16 2d 3d eb c7 73 3c 27 54 d6 3a
       0.005811716 0.042257473 0.014879207 0.0016351984
000090 db 71 a9 bd 4d d5 51 bc fc a0 97 3d bd e7 47 3c
       -0.08273669 -0.0128072025 0.07403752 0.012201247
0000a0 07 10 84 3c 5b 1d 31 bd 41 67 79 3d 71 bd db 3b
       0.016120924 -0.043240886 0.060889486 0.006705933
0000b0 61 7a 85 3d 79 c5 d7 bb 11 17 ef 3c 5c 2e b0 bd
       0.065174825 -0.00658482 0.029185804 -0.08602592
0000c0 a4 48 74 3d 8c 02 22 bb 4d ee 09 bd 93 3f cf 3b
       0.059639588 -0.0024720756 -0.033674527 0.0063247173
0000d0 b0 d6 06 3d f3 3a 60 3c ce 0b 0f bd 05 ff ac 3c
       0.032919586 0.01368593 -0.034923367 0.021117697
0000e0 5f 4a a9 3c 3c 01 03 bd d4 46 dd 3c fa 4a 16 3c
       0.020665346 -0.0319836 0.027011313 0.009173149
0000f0 e3 b5 eb 3c 12 d0 98 3d de ce 78 bd d3 6c e1 bc
       0.028773254 0.07461561 -0.06074416 -0.027517712
000100 2b 88 28 3c 85 af 48 ba e1 df a0 bc 49 e8 73 3d
       0.010286371 -0.0007655549 -0.019638004 0.059547696
000110 a2 ad 85 3b 5f f5 4c 3b 1b c7 39 3a 7c e0 ca bb
       0.0040795365 0.0031274182 0.0007086859 -0.0061913114
000120 47 ed be bc e1 df 82 bc 62 cb a8 bc 66 38 53 3c
       -0.023306502 -0.015975894 -0.020604793 0.012891864
000130 7d e7 07 3d ba 61 3b 3d eb 08 02 3d 82 d2 3a 3c
       0.03317975 0.045747496 0.031746786 0.011402728
000140 b2 48 8c bc 88 3d 8f bc ee af 34 3d ff 83 d2 bb
       -0.017124508 -0.017485395 0.044113092 -0.0064244266
000150 a2 79 99 3c 2d a9 27 3d 04 51 cd 3c 4c 01 54 bb
       0.018734757 0.040932823 0.025063045 -0.0032349406
000160 a6 54 ab 3d 0b b3 c4 3c d8 60 86 3d 17 9d 3c bd
       0.08365755 0.024011156 0.0656144 -0.04604825
000170 1d 54 6c 3b 02 f0 80 3d 8a 6c f1 3a ea 31 00 bd
       0.0036060878 0.06295778 0.0018419188 -0.0312976
000180 c0 9c a7 bd d3 84 e7 bb 26 eb 54 3c e8 d7 a7 bb
       -0.081841946 -0.0070653944 0.012995517 -0.0051221736
000190 44 30 10 bd 9d f3 af bc 89 fc d0 3d 07 0e 84 bd
       -0.03520228 -0.021478469 0.10204417 -0.06447988
0001a0 7b 2a a9 3c 8f 97 29 3d 2c d3 7c 3c b0 eb 3e 3d
       0.02065014 0.041404303 0.015431207 0.046611488
0001b0 c8 ae 96 bd 66 64 02 bd 87 c9 04 bc e1 26 28 3c
       -0.07357556 -0.03183403 -0.0081046885 0.010263176
0001c0 e9 49 57 bd 79 f4 ca bc 72 0e ab b8 db cc 0f 3d
       -0.05256072 -0.024774777 -8.156606e-05 0.035107475
0001d0 f1 32 0c bc b7 c5 8a bc 7f 09 f4 3b 0e 8c 45 bc
       -0.008557067 -0.01693998 0.007447421 -0.012057317
0001e0 be 13 35 3d 8a 15 8d bd ee a6 64 bd 8f cf 11 3d
       0.04420828 -0.06888874 -0.05582326 0.035598334
0001f0 19 0c d2 bc 3b 32 27 3d 2d 6b b1 3c 0b 83 93 bd
       -0.025640534 0.040819388 0.02165755 -0.07202729
000200 d2 dc 0c bd 9f a5 2e 3d cd c0 68 3c f2 f3 8b bc
       -0.03439028 0.042638417 0.014206124 -0.017084096
000210 c5 0d fe bb 2e ec 18 bd 01 79 f8 3c 48 f2 92 bc
       -0.0077531063 -0.037334614 0.030331137 -0.017937794
000220 e3 7a 90 3c f1 4f b7 3a 6f 74 b7 3b 75 8c 2c 3d
       0.017636722 0.0013985616 0.0055985968 0.042126138
000230 f3 75 d6 3c 23 d1 7d bb 07 79 33 bd b9 7d 60 bd
       0.02617929 -0.0038729392 -0.043816593 -0.0548074
000240 12 76 8e 3c df e8 30 bc 5c 7a 40 3d 0b 46 e2 bc
       0.017390285 -0.010797708 0.04699169 -0.02762129
000250 c6 1c 14 bd fc 71 43 3d a1 3e 40 3c 07 48 8d bc
       -0.036160253 0.047716126 0.011733682 -0.01724626
000260 2c de 09 bd e2 3f 35 3d 09 93 64 3d 4b 25 1e bd
       -0.033659145 0.044250377 0.055804286 -0.038609784
000270 d4 17 0b bd 51 48 a1 3c 33 e9 0f bd 5d 54 ba 3c
       -0.03395827 0.019687803 -0.035134505 0.022745306
000280 ef 97 9f ba 2c 9b 9d 3d b8 45 6e 3c b8 01 54 bd
       -0.0012176017 0.07695612 0.014542989 -0.05175945
000290 a0 7b 12 3c 2d 93 87 bc 94 f1 5c 3c 3d d7 21 bc
       0.008940607 -0.016549671 0.013485331 -0.009877977
0002a0 48 78 ed 3b 27 16 92 bc 42 58 8d 3b 27 ee 71 3d
       0.0072470047 -0.017832829 0.0043134997 0.05906501
0002b0 93 ba ad 3c 66 82 00 3c af 5d a6 3d 29 a7 17 3c
       0.02120713 0.007843589 0.081233375 0.009256163
0002c0 63 4e 34 bc 5d 74 a9 b9 0f 3d 1c 3d 63 05 e5 bc
       -0.011005017 -0.0003232089 0.038144168 -0.02795667
0002d0 75 0e 0c bc 2b 6f 85 3d d1 54 cb 3c 43 13 0c 3d
       -0.008548369 0.06515344 0.024820717 0.034198057
0002e0 d0 35 de 3b 3e cd 5f 3c 6f c1 3b bd 3c b1 17 bd
       0.0067813173 0.013659773 -0.04583877 -0.03703426
0002f0 a5 ef af 3c cc ef 26 bd 69 4a 68 bd 8e 79 48 3a
       0.021476576 -0.040756032 -0.056711588 0.00076475076
000300 98 0a 46 3d c6 4a 25 bd c4 05 9e 39 65 f2 98 3c
       0.048349947 -0.040354513 0.00030140404 0.01867027
000310 2c a8 d0 3c 4d 0e e6 3c 97 bf de bc 69 9c f1 bc
       0.025470816 0.028082991 -0.027190967 -0.029493527
000320 84 95 c9 3c b1 a6 f0 3b 3b 0b 13 3d 9c 0d 8d bb
       0.024607427 0.00734409 0.035899382 -0.004304601
000330 20 6d 5b bc f3 34 2b 3c 4c f0 98 3d 44 4f 4b bd
       -0.013392717 0.010449636 0.07467708 -0.04963614
000340 15 20 24 bd ea 81 d6 bc 1e 4c 44 3d 86 11 51 3d
       -0.04006966 -0.026184995 0.047924154 0.051042102
000350 cc 10 9e 3d e0 d2 55 3c 29 1b a3 bc 7c 1a a2 bd
       0.077180475 0.013050765 -0.019910412 -0.07915208
000360 65 e9 97 3c 68 ec 30 bd 9c 16 69 3b d4 c7 14 bd
       0.018543908 -0.043194205 0.0035566455 -0.036323383
000370 e5 08 19 bc 55 66 dd bc b2 2d 99 3c b4 bf 9a bc
       -0.0093404995 -0.027026335 0.018698547 -0.01889024
000380 a5 f0 a0 3c 80 6c 37 bc 55 5e db bc db 53 c7 bc
       0.019645998 -0.011195302 -0.02677838 -0.024331978
000390 8d 7d 1a 3d c8 0b 4d 3d 88 f3 e5 3a cc 05 3c bd
       0.03771739 0.050060064 0.0017543891 -0.045903966
0003a0 d9 a8 03 be 02 57 6d bc 70 70 76 3d db b1 26 3d
       -0.12857379 -0.014486076 0.060165823 0.04069696
0003b0 b4 25 4d bb 8e 0f d6 bb 8e 0a 43 bd e2 af 2b 3c
       -0.003130299 -0.006532616 -0.047617488 0.010478945
0003c0 7c dd 45 3d 0b 47 3d bd 99 65 ae 3c fb b6 fa 3c
       0.048306927 -0.04621033 0.02128868 0.03060483
0003d0 ac 71 5b 3c 3f 27 10 3b 55 2a 9f bd 1f 4d f4 bc
       0.013393801 0.0021996049 -0.07771746 -0.02982193
0003e0 cd a6 c1 bd 05 29 04 3c 85 3b e5 bb 22 52 84 bc
       -0.09455643 0.00806642 -0.0069956207 -0.016152445
0003f0 e7 af 59 bd fa 41 b4 bc d0 81 27 3c 7c 0b b6 3c
       -0.05314627 -0.022004116 0.010223821 0.022222273
