李江艳/week13/model_output/epoch_8.pth (torch, 897130 bytes, 36 tensors)

base_model.model.bert.encoder.layer.0.attention.self.query.lora_A.default.weight f4 [8, 768]
0	0x3b6b6171	0.0035916234
1	0xbd3ae1e8	-0.045625597
2	0xbda4f3e2	-0.080543295
3	0x3b3df43d	0.0028984689
4	0xbca5d1b2	-0.020241592
5	0xbd05aa53	-0.032633137
6	0xbc50987a	-0.012731666
7	0x3d65f31b	0.056140047
8	0xbd08e705	-0.033423442
9	0xbd49e9c1	-0.04929519
10	0xbb5c0ac2	-0.0033575748
11	0xbc19a1aa	-0.009376923
12	0xbd59f072	-0.053207822
13	0xbd01f37a	-0.031726338
14	0x3d6bcad5	0.057566483
15	0xbad1962a	-0.0015990187
16	0x3d334abf	0.043772455
17	0x3c3a7f52	0.011382895
18	0x3cfcc14a	0.030853886
19	0xbd326b27	-0.04355922
20	0xbc7461c4	-0.014915887
21	0xbcdf258c	-0.027239583
22	0x3d982fb5	0.074309744
23	0xbc5b4d28	-0.013385095
24	0xbcb9c672	-0.022677634
25	0x3d70a927	0.058755066
26	0xbd35de46	-0.04440143
27	0x3c82009c	0.015869431
28	0xb9b91a0b	-0.00035305353
29	0xbd24dd8c	-0.040250346
30	0xbc6ccadf	-0.014452665
31	0xbcbcb90e	-0.02303746
32	0x3b0149ca	0.001972782
33	0xbcdd5463	-0.027017778
34	0x3c46d791	0.012136356
35	0x3bd585e3	0.0065162047
36	0x3c98aa4a	0.018635888
37	0xbbe2395c	-0.0069038104
38	0x3d32e471	0.04367489
39	0xb9bcb42b	-0.0003599239
40	0x3b025c40	0.001989141
41	0x3c98eb84	0.01866699
42	0x3c249ff2	0.0100479
43	0x3c394655	0.011308272
44	0xbbb31f4f	-0.0054663788
45	0x3d1aef96	0.037826143
46	0xbc0fd90f	-0.008779778
47	0x3b847fed	0.0040435703
48	0xbcd46cde	-0.025930818
49	0xbcf3e44b	-0.029771945
50	0x3cd19e59	0.025588201
51	0xbcb90461	-0.022585096
52	0x3afc83cb	0.0019265352
53	0x3c8e32e0	0.017358243
54	0x3d244c22	0.04011167
55	0xbd2b523c	-0.04182647
56	0x3b95bfa7	0.004569966
57	0xbd118853	-0.0355304
58	0xbcb03aee	-0.021512475
59	0xbc5637d0	-0.01307483
60	0xbc14be09	-0.009078511
61	0x3cf73601	0.030177118
62	0xbd4cc45e	-0.049991958
63	0xbd2b4953	-0.041817974
64	0xbd2e151c	-0.0425006
65	0xbbb076ca	-0.0053852545
66	0xbb1f96a0	-0.0024351254
67	0xbd6f5bfe	-0.05843734
68	0xbd076b80	-0.033061504
69	0x3d15525b	0.036455493
70	0xbc82b032	-0.015953157
71	0xbc005d4c	-0.007834744
72	0xbcbafef3	-0.022826647
73	0x3c8ce0b6	0.017196994
74	0x3d11da48	0.03560856
75	0xbc860eed	-0.016364539
76	0xbc26bcb0	-0.010176823
77	0x3d229dfc	0.039701447
78	0xbcdaa836	-0.026691537
79	0x3c763157	0.015026412
80	0x3d1746aa	0.036932625
81	0xbc363143	-0.011120143
82	0xbcae3581	-0.021265747
83	0xbb34cb6e	-0.0027587074
84	0x3c5065bd	0.012719569
85	0xbcbcf5f1	-0.023066493
86	0x3cfc2df1	0.030783625
87	0xbbb31556	-0.00546519
88	0x3d2979ed	0.041376043
89	0xbd44ff31	-0.048094932
90	0x3d39fe57	0.045408573
91	0xbd05c21f	-0.03265583
92	0xbd26ba66	-0.040705107
93	0x3d0cbc7a	0.034359433
94	0x3cfcb348	0.030847207
95	0x3d132b38	0.03592989
96	0xbc207e24	-0.009795699
97	0x3cac6281	0.021043064
98	0x3d08eb8c	0.03342776
99	0x3c0cfce7	0.0086052185
100	0xbc3e42b5	-0.011612584
101	0x3d454fac	0.048171684
102	0x3d763cfd	0.060116757
103	0xbbc3dcc4	-0.005977245
104	0xbcc668c2	-0.024219874
105	0x3c75bb76	0.014998307
106	0xbd63d8f9	-0.055626843
107	0xbd47b04f	-0.048752125
108	0x3d46af39	0.04850695
109	0xbc99fcd7	-0.018797321
110	0xbd22a6ea	-0.039709963
111	0xbcbd05da	-0.02307408
112	0x3c41f256	0.011837563
113	0xbbc7eea8	-0.006101448
114	0xbc093cc1	-0.008376301
115	0x3d16a369	0.036776934
116	0x3bd117ca	0.0063810097
117	0x3d106a7f	0.035257813
118	0x3a94fd8a	0.0011367064
119	0xbd39ecc5	-0.045391817
120	0x3d50630f	0.05087572
121	0x3b8cb631	0.00429418
122	0xbb6e19d6	-0.0036331317
123	0x3c727267	0.014797783
124	0x3cd7cfe1	0.026344242
125	0xbc0bcfb9	-0.008533412
126	0xbc868cb4	-0.016424514
127	0x3c39d0d7	0.011341295
128	0xbd621bcd	-0.055202294
129	0x3d1d4398	0.03839454
130	0xbd0beddd	-0.03416239
131	0x3a925775	0.001116498
132	0xbbae5e34	-0.0053212885
133	0xbbae94f4	-0.005327815
134	0xbd683da2	-0.056699403
135	0x3d868a28	0.0656932
136	0xbd441a3b	-0.047876578
137	0xbcd95c50	-0.026533276
138	0xbc1ef8e5	-0.009702896
139	0x3bbe4dfa	0.0058076354
140	0xbb97a994	-0.0046283696
141	0x3cf7fcb2	0.030271862
142	0x3d20e0f4	0.039277032
143	0x3d39ef4d	0.04539423
144	0xbcb439d5	-0.022000233
145	0xb9817af6	-0.0002469641
146	0x3d363553	0.044484448
147	0xbaa7d427	-0.0012804315
148	0xbc5f71bb	-0.013637955
149	0xbccd3421	-0.025049271
150	0x3cc69146	0.024239194
151	0xbb9446dc	-0.0045250487
152	0x3d4c8b23	0.04993738
153	0x3c744671	0.014909373
154	0xbd1d3e32	-0.038389392
155	0x3d2ce278	0.042208165
156	0x3c3c41f9	0.0114903385
157	0x3d08a287	0.033358123
158	0xbd0462df	-0.032320853
159	0x3c57e55c	0.013177242
160	0xbd0408e4	-0.03223504
161	0x3c1ae767	0.009454585
162	0xbd5c05b8	-0.05371639
163	0xbc10e435	-0.008843471
164	0xbcf9f61e	-0.030512866
165	0x3d237ab0	0.039911926
166	0xbcf681a9	-0.030091124
167	0x3cb96607	0.022631658
168	0xbc6913bd	-0.014225897
169	0x3c5c5630	0.013448283
170	0x3c3fb5f1	0.011701093
171	0x3c240a6e	0.010012252
172	0xbce1e6a1	-0.027575793
173	0xbc1586e8	-0.009126402
174	0x3d2d178b	0.04225878
175	0x3d3fe7a8	0.046851784
176	0x3c1f8f68	0.009738781
177	0xbc48f565	-0.012265538
178	0x3d37b808	0.04485324
179	0xbb17d12a	-0.0023165443
180	0x3d4242dd	0.047427047
181	0x3c2dfd63	0.010619494
182	0x3d150064	0.036377326
183	0x3b4da62e	0.0031379568
184	0x3c8c1fd3	0.017105019
185	0x3c298e89	0.010348924
186	0x3d0b8f6e	0.034072332
187	0x3cf09c5f	0.029371439
188	0xbd0fa7c3	-0.0350721
189	0xbd9a0400	-0.07520294
190	0x3d004385	0.03131439
191	0xb9023377	-0.00012416938
192	0x3c57be60	0.0131679475
193	0x3c8c60bf	0.017135976
194	0xbcff52a8	-0.031167343
195	0x3cb7b17d	0.0224235
196	0xbd159d29	-0.036526833
197	0x39551d58	0.00020324194
198	0x3cddae87	0.02706076
199	0xbc13489e	-0.008989481
200	0x3cc11d3d	0.023573512
201	0xbcd42f2b	-0.025901398
202	0x3cb1a637	0.021685703
203	0xbd617f57	-0.05505308
204	0xbc8dd575	-0.017313698
205	0x3c2dbc81	0.010604025
206	0xbb19e7c2	-0.0023484086
207	0x3d384cc5	0.044995088
208	0x3c9af365	0.018914888
209	0x3c74e83c	0.014947947
210	0xbcf43c1e	-0.029813822
211	0x3d858ebe	0.065213665
212	0xbc2410fa	-0.010013813
213	0x3cb58824	0.022159643
214	0xbc81a91e	-0.015827712
215	0xbd16de4d	-0.036833096
216	0x3c8f82da	0.01751845
217	0xbd366aee	-0.04453557
218	0x3d59e61b	0.05319796
219	0xbb941b70	-0.0045198724
220	0xbcf22844	-0.029560216
221	0x3c97114a	0.018440861
222	0x3c8f6d19	0.017508077
223	0x3c2a6f3d	0.010402498
224	0xbd284a47	-0.04108646
225	0xbc2895be	-0.010289608
226	0x3abbaa27	0.0014317677
227	0x3ca19e44	0.019728787
228	0xbcd80a2e	-0.026372042
229	0x3d143f93	0.03619344
230	0xbcb97fbe	-0.02264392
231	0xbd194e07	-0.03742793
232	0x3c64ab8f	0.013956918
233	0x3c03e524	0.008050237
234	0x3d8dc9fd	0.06923292
235	0xbd1ccf08	-0.038283378
236	0x3bd8b8af	0.006613813
237	0xbd2cf64a	-0.042227067
238	0x3c858c22	0.016302172
239	0x3c99b2dd	0.018762046
240	0x3d912fad	0.070891716
241	0x3ca4d742	0.020122174
242	0x3cda2690	0.026629716
243	0x3d52fd98	0.051511377
244	0xbcd49cca	-0.02595367
245	0x3ba598ff	0.005053639
246	0x3c68af48	0.014201947
247	0xbc0bb3e6	-0.008526778
248	0xbc8aebdb	-0.016958168
249	0xbd2fd06d	-0.04292338
250	0x3d11c75b	0.03559051
251	0xbd525c70	-0.051357687
252	0xbc20aa91	-0.009806291
253	0xbae2e35e	-0.0017310192
254	0x3b5aa841	0.0033364447
255	0xbc458cc9	-0.012057492

base_model.model.bert.encoder.layer.0.attention.self.query.lora_B.default.weight f4 [768, 8]
0	0xbc88ec75	-0.016714314
1	0xbc7184dc	-0.014741149
2	0xbbbcf16c	-0.0057660844
3	0x3c0fa8cd	0.008768273
4	0xbd03f7ae	-0.032218628
5	0xbd348bf1	-0.04407877
6	0x3ccb5b48	0.0248238
7	0xbc287336	-0.010281375
8	0xbd1f8430	-0.038944423
9	0xbd0c03ae	-0.034183197
10	0xbca39281	-0.01996732
11	0xbca30271	-0.019898625
12	0xbcbbafeb	-0.022911033
13	0xbd1518b0	-0.036400497
14	0xbbed1b57	-0.007235925
15	0x3d2390a2	0.039932854
16	0xbc0e798a	-0.008695969
17	0xbca35d09	-0.019941824
18	0xbca01ae8	-0.01954408
19	0x3c37029b	0.011170055
20	0xbb89fe8f	-0.004211254
21	0x3c3292cd	0.010899258
22	0x3c42ebfc	0.011897083
23	0x3cab97db	0.020946434
24	0xbbf99d88	-0.007617656
25	0xbcd49800	-0.025951385
26	0xba3acf6b	-0.00071262446
27	0xbc7de530	-0.015496537
28	0xbc2c01f6	-0.010498514
29	0xbc048543	-0.008088413
30	0x3ce2561f	0.027628956
31	0x3c1a030c	0.0094001405
32	0x3c6f5051	0.014606551
33	0x3cd7167a	0.026255835
34	0x3bc168eb	0.0059024
35	0x3c881272	0.016610358
36	0xbb0f5b5f	-0.002187453
37	0x3baec85d	0.0053339438
38	0xbbe798f3	-0.0070677935
39	0xbcd083de	-0.025453504
40	0x3ca23944	0.019802697
41	0x3c8ea12a	0.017410833
42	0x3c4bdee3	0.012443277
43	0x3cba5e37	0.022750003
44	0x3cb10ed0	0.021613508
45	0x3cdc412b	0.026886543
46	0xbc9a9557	-0.018870039
47	0xbcbc87f1	-0.02301404
48	0x3b507943	0.003181056
49	0x3c984238	0.018586263
50	0x3b3f2329	0.0029165244
51	0xbd1f2847	-0.03885677
52	0xbd145a9d	-0.036219228
53	0xbd765c80	-0.06014681
54	0xbd3fb9ab	-0.046807926
55	0xbd344b43	-0.044017088
56	0x3a2bb3dc	0.00065499335
57	0xb9949180	-0.00028337166
58	0x3b8e5249	0.0043433052
59	0x3d138b07	0.03602126
60	0xbc408dd5	-0.011752565
61	0xbb72c498	-0.0037043449
62	0x3c2731f8	0.010204785
63	0xbc39ec18	-0.011347793
64	0xbcd0b495	-0.025476733
65	0xba3da86e	-0.0007234876
66	0xbcaaf11f	-0.020866929
67	0xbce1c7d9	-0.027561115
68	0xbd3bc3ea	-0.045841135
69	0x3d104e88	0.035231143
70	0x3c2c235f	0.01050648
71	0x3cebd385	0.028787384
72	0xbc5c9581	-0.013463379
73	0xbb136b8c	-0.0022494523
74	0x3c75e570	0.015008315
75	0xbb34c384	-0.0027582357
76	0xbc49bd17	-0.012313149
77	0xbd05086d	-0.03247874
78	0xbcdc1fee	-0.026870694
79	0x3adefb0c	0.0017012074
80	0xbbe1d3ce	-0.006891704
81	0xbc2c3ab7	-0.010512046
82	0xbb8e2406	-0.0043377904
83	0xbc30ac73	-0.010783303
84	0x3d2f1f43	0.042754423
85	0x3d0cb8f8	0.034356087
86	0xbbe77be5	-0.00706433
87	0x3ce8a044	0.028396733
88	0x3c217335	0.009854128
89	0xbb0b7823	-0.0021281324
90	0x3c0b632f	0.008507534
91	0xbc89ade1	-0.016806545
92	0xbcb08df4	-0.021552064
93	0xbd34c87d	-0.044136513
94	0xbcd0111e	-0.025398787
95	0xbca7462f	-0.020419208
96	0xbc96a474	-0.018388964
97	0xbd4b4e67	-0.049635317
98	0xbcb7254a	-0.022356648
99	0x3c937033	0.017997837
100	0x3ba395d3	0.0049922257
101	0x3bd63c58	0.0065379553
102	0x3b9d1c39	0.004794624
103	0x3c5bab8d	0.0134076
104	0xbaeca942	-0.0018055814
105	0x3c924a33	0.017857647
106	0x3c94bae2	0.018155519
107	0xba1e02cc	-0.00060276384
108	0xbcce9d82	-0.02522159
109	0xbca8f49b	-0.02062445
110	0xbd3b165a	-0.045675613
111	0xbd2173ca	-0.039417066
112	0xbc7d8be8	-0.015475251
113	0xbccc50aa	-0.024940807
114	0xbb874ef5	-0.0041292855
115	0x3c4050fc	0.011738058
116	0xbccd57f8	-0.02506636
117	0x3ca5de9a	0.020247746
118	0xbbf166a5	-0.0073669725
119	0x3ccddc8d	0.02512958
120	0xbcca498d	-0.024693275
121	0xbc08e38d	-0.008355034
122	0xbd10e7cd	-0.035377312
123	0xbb212b07	-0.0024592297
124	0xbcffba4b	-0.031216761
125	0xbbadb74d	-0.005301392
126	0xbd07d3fb	-0.033161145
127	0x3b5be2db	0.0033551964
128	0xbc40e30b	-0.011772881
129	0xbc7d4526	-0.015458381
130	0xbb16436b	-0.0022928368
131	0x3d190d0b	0.037365954
132	0xbcc9692f	-0.024586288
133	0xbc26b8dd	-0.010175911
134	0x3abe9aa7	0.001454194
135	0x3bbd7acf	0.005782462
136	0xbc876ac3	-0.0165304
137	0xbc43b116	-0.011944076
138	0xbce23dd0	-0.027617365
139	0x3cbe2c41	0.023214461
140	0xbcfed21d	-0.03110605
141	0x3d2b808e	0.041870646
142	0x3a3d77a4	0.00072276057
143	0x3bba014e	0.005676425
144	0xbc2796a0	-0.010228783
145	0xbc3c1dc2	-0.011481704
146	0xbbfe7347	-0.007765207
147	0xbd2c824f	-0.04211646
148	0x3c96321b	0.018334439
149	0xbc5cd8aa	-0.013479391
150	0x3cf0f432	0.029413316
151	0x3baaaeaf	0.005208812
152	0xbce468f5	-0.027882079
153	0xbcb54fdc	-0.022132806
154	0xbc3ad5d5	-0.011403521
155	0x3c85a333	0.016313171
156	0xbd048c24	-0.03236021
157	0xbc79b620	-0.015241176
158	0x3b9e4041	0.004829437
159	0x3c9b4f61	0.01895875
160	0xbc0ed965	-0.008718823
161	0xbd01e128	-0.031708866
162	0xbcd6c63f	-0.026217578
163	0xbd520352	-0.051272698
164	0x3a98a558	0.0011645956
165	0x3d0dac0f	0.034587916
166	0x3c348557	0.011018119
167	0xb9cb8744	-0.00038819958
168	0x3bc99622	0.0061519304
169	0x3ca60738	0.020267114
170	0xbc38a924	-0.011270795
171	0xbc998d3a	-0.0187441
172	0xbc04cc1c	-0.008105304
173	0x3c68d26d	0.014210326
174	0xbca5f05c	-0.020256214
175	0xbc904f8c	-0.017616056
176	0x3c4974c4	0.0122959055
177	0x3c8a3c90	0.016874582
178	0x3b210e45	0.0024575156
179	0xbaa7f6dc	-0.0012814659
180	0x3c4ec72d	0.012620729
181	0x3ce56e7e	0.028006788
182	0x3b1c884d	0.0023884953
183	0xbb023283	-0.0019866533
184	0x3c4a7711	0.012357489
185	0x3c5ab48c	0.01334871
186	0xbb413656	-0.002948185
187	0x3c876eae	0.016532268
188	0x3c916d7f	0.017752407
189	0xbd324f0d	-0.04353242
190	0x3c90c3da	0.017671514
191	0xbccd4c3d	-0.025060767
192	0xbbcc9140	-0.006242901
193	0xbcf7e7df	-0.030261932
194	0xbc9513d9	-0.01819794
195	0x3bb09388	0.005388681
196	0x3ce9c37b	0.028535595
197	0x3d4c335c	0.049853668
198	0x3d297565	0.04137172
199	0x3d1e04d4	0.038578823
200	0xbb8bc301	-0.0042651896
201	0x3c36735f	0.011135905
202	0x3c7ee0a8	0.015556492
203	0x3d10406e	0.035217695
204	0xbccb3c1c	-0.024808936
205	0x3d16b006	0.036788963
206	0xbd2aafb1	-0.04167146
207	0xbca32555	-0.019915262
208	0x3c443252	0.011974888
209	0x3c441b1e	0.011969356
210	0x3bef8990	0.0073101
211	0xbcb0ac44	-0.021566518
212	0x3bf894b0	0.0075860843
213	0xbc2afdec	-0.010436516
214	0xbc98e70b	-0.018664857
215	0xbce3ab15	-0.02779154
216	0xbb714bb3	-0.0036818802
217	0x3aaeb2f0	0.0013328474
218	0xbc399dbb	-0.01132911
219	0xbc2649c4	-0.010149423
220	0xbb31822a	-0.002708564
221	0x3ca1813d	0.019714946
222	0xbc813091	-0.015770229
223	0x3cd7320a	0.026268978
224	0x3987885c	0.00025850802
225	0x3ca787f3	0.020450568
226	0x3acb1def	0.0015496592
227	0xbcaa3de7	-0.02078147
228	0xbc623d9b	-0.013808633
229	0xbc85a936	-0.016316038
230	0xbba5a0c6	-0.005054566
231	0xbcd39733	-0.025828933
232	0x3c39944d	0.011326862
233	0x3cfb88b9	0.030704843
234	0x3bf0ce53	0.0073488145
235	0x3cd8d236	0.026467424
236	0xbb05b8c2	-0.0020404314
237	0x3d468baa	0.048473038
238	0x3bb1918a	0.005418961
239	0x3c288732	0.010286139
240	0x3c65d300	0.014027357
241	0x3d0a4301	0.033755306
242	0x3c965d22	0.018354956
243	0x3ba69377	0.005083497
244	0x3b7e7c53	0.0038831427
245	0xbc309f90	-0.01078023
246	0x3a16d659	0.0005753986
247	0xbc7ed15c	-0.015552845
248	0xbcc9c198	-0.024628446
249	0xbcdc2dea	-0.026877362
250	0xbd1c348d	-0.038136054
251	0x38c05936	9.17189e-05
252	0x3b3ed45b	0.0029118273
253	0x3d13c1e7	0.03607359
254	0xbc3656ee	-0.011129124
255	0x3d041825	0.03224959

base_model.model.bert.encoder.layer.0.attention.self.key.lora_A.default.weight f4 [8, 768]
0	0xbad90aaf	-0.001655897
1	0xbc0975f9	-0.008389943
2	0xbc998919	-0.018742131
3	0x3bb82a82	0.0056203017
4	0xbc181797	-0.009282968
5	0x3cf2b349	0.029626505
6	0xbd15ac65	-0.03654136
7	0x3ccf459b	0.025301745
8	0x3d0a4157	0.03375372
9	0xbd2baf20	-0.04191506
10	0x3b248318	0.0025102552
11	0xbc065352	-0.008198576
12	0x3d10e8ef	0.035378393
13	0x3d7bea01	0.06150246
14	0xbd2ac634	-0.041692927
15	0xbbba0372	-0.0056766802
16	0xbbbb911b	-0.005724085
17	0x3cd76ef3	0.026298022
18	0xbc88d8b8	-0.016704902
19	0xbd172b93	-0.03690679
20	0x3ca2313c	0.019798867
21	0x3d3b1dd2	0.045682736
22	0x3d6281e9	0.055299673
23	0x3b8bcf8a	0.004266684
24	0xbcf1eee8	-0.029532865
25	0xbc93b189	-0.018028991
26	0x3c224311	0.009903685
27	0xbd6991bb	-0.057023745
28	0xbd8fb4f4	-0.07016936
29	0xbc957906	-0.018246185
30	0xbcc5cb54	-0.024144806
31	0xbbfe6a21	-0.0077641164
32	0xbd9d63f3	-0.076850794
33	0x3ccc54ca	0.024942774
34	0xbd27dd8d	-0.04098277
35	0xbcf62d5d	-0.030050928
36	0x3c6355bf	0.013875424
37	0xbb4132b8	-0.0029479694
38	0x3ce9f5d7	0.028559608
39	0x3d707b28	0.0587112
40	0xbd231642	-0.03981615
41	0xbc4f9d1b	-0.012671734
42	0x3d660169	0.05615369
43	0xbd5317ec	-0.051536486
44	0xbd4d104f	-0.05006438
45	0xbd227654	-0.039663628
46	0x3ca4187f	0.020031212
47	0xbd5d22b3	-0.05398817
48	0x3d85ae29	0.06527359
49	0xbd5c520f	-0.053789195
50	0xbc14d2e2	-0.0090834815
51	0x3d52e5f3	0.051488828
52	0x3b9f5fba	0.0048637064
53	0xbb83cc47	-0.0040221545
54	0x3d4e3762	0.050345786
55	0x3cadfdc4	0.021239169
56	0x3d5a4f0c	0.05329804
57	0x3d79187d	0.06081437
58	0xbc137807	-0.009000785
59	0x3d227252	0.039659806
60	0x3c4e4e35	0.012591888
61	0x3d2bbcef	0.041928228
62	0x3db90e29	0.09035904
63	0x3c567623	0.013089689
64	0x3ceb06d0	0.028689772
65	0x3ceb62cf	0.028733639
66	0xbc1841cc	-0.009293031
67	0xbd64349b	-0.05571423
68	0xbcc9aded	-0.024619067
69	0x3b1a5332	0.0023548123
70	0x3cb93666	0.022608947
71	0xbd2c86fe	-0.042120926
72	0x3c8dad9d	0.0172947
73	0xbd1b5e21	-0.037931565
74	0x3d571b15	0.05251606
75	0x3d10faa1	0.03539527
76	0xbd168ad2	-0.036753483
77	0xbc859b32	-0.016309354
78	0xbb8a7ad3	-0.0042260676
79	0xbbbf9e70	-0.0058477446
80	0x3d05db4b	0.032679837
81	0xbb726015	-0.003698354
82	0xbc2f2c2e	-0.010691686
83	0x3cd5f3c6	0.026117217
84	0xbba28a24	-0.0049603153
85	0x3d1f6ae2	0.03892029
86	0x3a944266	0.0011311292
87	0x3d22db57	0.03975996
88	0xbc9ba991	-0.019001754
89	0x3aea811c	0.0017891261
90	0x3c2749c8	0.010210462
91	0xbcb01a96	-0.021497052
92	0x3b297b87	0.0025860982
93	0x3d37daa6	0.044886254
94	0x3cb98237	0.0226451
95	0x3c37c96c	0.011217456
96	0x3cb6a90e	0.022297408
97	0x3cac1bc2	0.02100933
98	0x3ce63092	0.028099332
99	0x3d04fd5d	0.03246819
100	0xbbbac956	-0.0057002706
101	0xbc6f7085	-0.014614229
102	0x3cb8d367	0.022561742
103	0x3bde3ea0	0.006782368
104	0x3c8c3c1e	0.01711851
105	0xbd67c0fe	-0.056580536
106	0xbcb5098e	-0.022099283
107	0xbc65e0a1	-0.0140306065
108	0x3c85c5d1	0.016329678
109	0xbd29b6e4	-0.041434184
110	0x3d2d74a7	0.042347576
111	0x3dcccce7	0.100000195
112	0xbd5e2188	-0.054231197
113	0xbd128ccd	-0.03577881
114	0x3d0ce47a	0.03439758
115	0x3d07f00b	0.033187907
116	0xbc62f849	-0.013853141
117	0xbd044556	-0.032292686
118	0x3d3c72bf	0.046007868
119	0xbcb4e773	-0.02208302
120	0xbd7831c2	-0.060594328
121	0x3d55d140	0.05220151
122	0x3d0cf2e8	0.03441134
123	0xbc908af5	-0.017644385
124	0x3bb22139	0.0054360894
125	0xbc9c574d	-0.019084597
126	0x3cacbbda	0.021085668
127	0x3c539f06	0.012916332
128	0xbd0f97ba	-0.035056807
129	0xbd157d41	-0.036496405
130	0xbbbd06af	-0.005768619
131	0xbc14d188	-0.009083159
132	0xbba018c2	-0.004885764
133	0xbd061503	-0.032734882
134	0x3c8106dc	0.015750341
135	0xbc2eb1e1	-0.010662527
136	0xbb94afd6	-0.004537563
137	0x3c957833	0.018245792
138	0x3cd4aa28	0.025960043
139	0x3c330a8a	0.010927806
140	0x3cde1efe	0.027114388
141	0xbc60d578	-0.01372277
142	0x3d6d0e75	0.057875115
143	0x3d23156d	0.039815355
144	0x3b5beded	0.0033558563
145	0xbccce8a0	-0.025013268
146	0xbd239526	-0.03993716
147	0x3b780e39	0.0037850274
148	0xbc817ea8	-0.015807465
149	0xbd33b09f	-0.04386961
150	0x3a577dbf	0.0008220337
151	0xbbaa0a3b	-0.005189208
152	0x3d182be3	0.03715123
153	0x3949fb67	0.00019262508
154	0xbabee986	-0.0014565445
155	0x3b3a1d2c	0.0028398735
156	0xbd48238f	-0.048862036
157	0xbd426154	-0.0474561
158	0x3cbe1643	0.023203975
159	0xbc9971ea	-0.018731076
160	0x3d32bf91	0.043639723
161	0x3c1125a9	0.008859077
162	0xbccbbe7d	-0.024871105
163	0x3d2ce627	0.042211678
164	0x3d4573d6	0.048206173
165	0x3ce3a167	0.027786924
166	0xbbd87740	-0.0066060126
167	0xbd8f6128	-0.07000953
168	0x3ce8bf77	0.02841161
169	0xbd38751c	-0.04503356
170	0xbd71264f	-0.058874425
171	0x3c4ce703	0.012506249
172	0x3c304431	0.010758446
173	0x3c2e93b5	0.010655333
174	0xbd617f0f	-0.055052813
175	0xbc51ba56	-0.012800774
176	0x3cd7a424	0.026323386
177	0xb9aee76d	-0.00033360292
178	0x3c3783b6	0.011200836
179	0x3c970bb8	0.018438205
180	0x3bdd2071	0.006748252
181	0xbb6bd525	-0.0035985198
182	0xbbdf13c0	-0.0068077743
183	0xbc9607c0	-0.018314242
184	0xbce8f6f7	-0.028438075
185	0x3b207da5	0.0024488952
186	0xbd24fe74	-0.040281728
187	0xbcb93dff	-0.02261257
188	0x3cff7bfd	0.031187052
189	0xbca91c61	-0.020643415
190	0xbc31b89e	-0.010847239
191	0xbb9e1366	-0.00482409
192	0xbcaa3348	-0.020776406
193	0xbcd610dd	-0.026131088
194	0xbbea0325	-0.007141488
195	0x3cfae04f	0.030624537
196	0xbaf82655	-0.0018932322
197	0xbd6cf7bd	-0.05785345
198	0x3c4dead9	0.012568199
199	0x3c076606	0.00826407
200	0xbcf3c3cc	-0.02975645
201	0xbc5d6bb0	-0.013514444
202	0x3d91e084	0.07122901
203	0xbcac2193	-0.021012103
204	0x3ca3b9a6	0.019985985
205	0xbcf458b0	-0.029827446
206	0xbca9358f	-0.020655422
207	0x3cbb9f9f	0.022903262
208	0xbd0a2e46	-0.033735536
209	0x3d03c189	0.03216699
210	0x3d835d00	0.06414223
211	0xbc859408	-0.016305938
212	0x3da39d49	0.07988984
213	0xbdb73c73	-0.08947077
214	0x3cdeff98	0.027221486
215	0xbd1b302b	-0.037887733
216	0x3b20a428	0.0024511907
217	0xbd0dc814	-0.034614637
218	0xbb53a732	-0.00322957
219	0xbc6ec5df	-0.014573543
220	0x3d82b34b	0.06381854
221	0x3c4ad64c	0.012380194
222	0x3cc312b6	0.023812633
223	0x3d759a77	0.059961762
224	0xbb731368	-0.0037090424
225	0xbbbbc37d	-0.005730091
226	0x3c95631f	0.018235741
227	0xbc0d5e88	-0.008628495
228	0xbcad9eb9	-0.021193849
229	0xbbe76acd	-0.007062292
230	0xbcdb4264	-0.026765056
231	0x3c964ae2	0.018346254
232	0x3b85cbb8	0.004083123
233	0xbcbeabba	-0.023275245
234	0x3a7b4ce0	0.00095863454
235	0xbc2f864c	-0.010713171
236	0x3a22986b	0.00062025216
237	0x3cf0a86a	0.029377181
238	0xbc80d742	-0.015727643
239	0xbb213343	-0.0024597205
240	0x3c0359d7	0.008017025
241	0x3c40b693	0.011762279
242	0x3d41a114	0.047272757
243	0xbd93598f	-0.07194816
244	0x3cb8cd79	0.022558914
245	0xbb7860c7	-0.003789948
246	0xba4f1f1c	-0.0007901059
247	0xbd08da5b	-0.033411365
248	0x3b579f56	0.0032901368
249	0x3ba77add	0.005111082
250	0xbd716cee	-0.058941774
251	0x3d650ff9	0.055923436
252	0xbce11ee1	-0.027480545
253	0xbb0eb27f	-0.0021773872
254	0xbd196cb9	-0.0374572
255	0xbd64bc88	-0.05584386

base_model.model.bert.encoder.layer.0.attention.self.key.lora_B.default.weight f4 [768, 8]
0	0xbb2e6a4d	-0.0026613653
1	0x3cb0467e	0.021517988
2	0xbb83ab26	-0.004018205
3	0xbcc05081	-0.023475887
4	0xbc65d621	-0.014028103
5	0xbbea7951	-0.0071555753
6	0x3c67a980	0.014139533
7	0xbbc753a2	-0.006082968
8	0x3d36e4b0	0.044651687
9	0xbcb57c8a	-0.022154111
10	0xbc19dd5a	-0.009391153
11	0x3a7820df	0.00094653474
12	0x3b11b104	0.0022230754
13	0x3b5840be	0.0032997574
14	0xbc1bb405	-0.009503369
15	0x3ce7c5eb	0.028292617
16	0x3cb5446a	0.022127349
17	0xbc40ac9d	-0.011759904
18	0xbd1e5f29	-0.03866497
19	0xbb005345	-0.0019580883
20	0x3c146640	0.009057581
21	0xbc52936b	-0.01285253
22	0xbd0c3348	-0.034228593
23	0x3c44d76e	0.012014253
24	0xbc8bd01d	-0.01706701
25	0x3b1d45aa	0.0023997822
26	0xbd1d18bd	-0.03835367
27	0xbc508dda	-0.012729133
28	0x3bb586c3	0.0055397465
29	0xbc712a31	-0.014719532
30	0xbb8e6c08	-0.0043463744
31	0xbbd8ca98	-0.006615948
32	0xbd0f0486	-0.034916423
33	0x3c8e9820	0.017406523
34	0x3caf6f1b	0.021415284
35	0xbd01bda6	-0.031675003
36	0xbcc8066a	-0.024417121
37	0x3cfc1efd	0.030776495
38	0x3c4cdb94	0.012503523
39	0xbd05214e	-0.032502465
40	0xbd168807	-0.03675082
41	0x3d0277ac	0.03185241
42	0xbb987fa3	-0.0046538874
43	0x3b321556	0.0027173362
44	0xbb171c56	-0.002305766
45	0xba91b1d8	-0.0011115624
46	0x3ce07763	0.027400678
47	0xbc64fdaf	-0.0139764985
48	0x3d4f82b6	0.050661765
49	0xbd8c271a	-0.068433955
50	0xbbfef805	-0.007781031
51	0x3d846f94	0.06466594
52	0x3d14ba24	0.03631033
53	0xbd0762a6	-0.033053063
54	0xbd204e5f	-0.03913724
55	0x3d940617	0.07227724
56	0x3d8138d1	0.06309665
57	0xbd3caf63	-0.0460657
58	0xbc92b909	-0.017910497
59	0x3d2169a7	0.0394074
60	0x3d2e030f	0.042483386
61	0xbce3026b	-0.027711114
62	0xbd253c22	-0.04034055
63	0x3d525ec7	0.051359918
64	0x3cd9f231	0.026604744
65	0xbd0f23b1	-0.034946147
66	0xbc4e275a	-0.012582624
67	0xbc40ca87	-0.011767036
68	0x3c97f28d	0.018548274
69	0x3a555877	0.00081384875
70	0xbbed7585	-0.0072466754
71	0x3a0657ec	0.0005124796
72	0x3c80df34	0.015731432
73	0xbcd6d673	-0.026225304
74	0xbce42e14	-0.027854003
75	0x3c6f77d9	0.014615976
76	0x3c2ebf1f	0.010665684
77	0xbd003429	-0.031299744
78	0xbc8055cf	-0.015665917
79	0x3cf40f3b	0.029792419
80	0xbd048ecb	-0.03236274
81	0x3d36eb7b	0.044658165
82	0x3c823d23	0.015898293
83	0xbbf9d74a	-0.0076245414
84	0xbd21ce12	-0.039503165
85	0xbbc0759c	-0.005873395
86	0x3d6d4da5	0.057935376
87	0xbd0a26df	-0.033728477
88	0xbcbb4209	-0.022858636
89	0x3c9a9ad7	0.018872662
90	0x3d23edfe	0.04002189
91	0xbc85b737	-0.016322715
92	0xbc8ef25f	-0.017449556
93	0x3c86dfd7	0.016464157
94	0x3cfa75a4	0.030573674
95	0xbc75270e	-0.014962925
96	0x3c832ad4	0.016011633
97	0xbbace5fb	-0.0052764392
98	0x3c55b587	0.013043768
99	0x3c3ef17c	0.011654254
100	0xbc1d08ce	-0.009584619
101	0xbb8a786e	-0.004225782
102	0x3b632a49	0.0034662655
103	0x3c82db1e	0.015973624
104	0xbb49d7cc	-0.003079879
105	0xbbd56961	-0.0065128063
106	0x3c107c2f	0.00881867
107	0x3afd1da7	0.0019311205
108	0x3c5c435b	0.013443793
109	0xbc761e42	-0.015021862
110	0xbc22392f	-0.009901329
111	0x3b4a30fc	0.003085195
112	0x3bec2c8f	0.0072074602
113	0xbba5efd1	-0.0050639887
114	0xbd0ad81c	-0.033897504
115	0x3c80637a	0.015672434
116	0x3d144cd6	0.03620609
117	0xbd26d919	-0.040734384
118	0xbc8bf3f2	-0.017084096
119	0x3c2e0da8	0.010623373
120	0xbcf65e60	-0.030074298
121	0x3d205db6	0.03915187
122	0x3dbaa028	0.09112579
123	0xbc42c2b8	-0.011887245
124	0xbcc31db5	-0.023817876
125	0x3c3c19cd	0.011480761
126	0x3d7e9bf0	0.062160432
127	0xbd02a650	-0.03189689
128	0x3d43b225	0.047777314
129	0xbd53540d	-0.05159383
130	0xbca0f81c	-0.019649558
131	0x3d40c06e	0.047058515
132	0x3d1d35ac	0.038381264
133	0xbd15d6a9	-0.03658167
134	0xbd667910	-0.056267798
135	0x3d5a66b9	0.05332062
136	0xbca5729e	-0.020196255
137	0xbc4b38a9	-0.012403646
138	0x3c87f451	0.016595991
139	0x3cd4f288	0.025994554
140	0xbc30f26a	-0.0107999835
141	0x3b605c5b	0.0034234736
142	0x3c0ff66d	0.00878678
143	0x3cdf8e62	0.027289573
144	0x3d069afd	0.032862652
145	0xbc61d4b9	-0.013783627
146	0xbc2d6747	-0.010583705
147	0x3cc0777c	0.023494475
148	0xb99eb2c2	-0.00030269293
149	0xbc727ba9	-0.014799991
150	0xbb4707e6	-0.0030369698
151	0x3d00c2f3	0.031435918
152	0x3cee3aff	0.029080866
153	0xbcb58629	-0.0221587
154	0xbce47bd0	-0.02789107
155	0x3b8a161c	0.0042140614
156	0x3ca05d8f	0.019575862
157	0xbc325bf0	-0.010886177
158	0xbc79e878	-0.015253179
159	0x3c2ed7de	0.010671584
160	0xbba31e99	-0.0049780128
161	0xbb8c64c9	-0.0042844755
162	0xbca320bc	-0.01991307
163	0xbb65f1df	-0.0035086793
164	0x3b08f6cc	0.0020899056
165	0xbac2e881	-0.0014870317
166	0xbc03b980	-0.008039832
167	0x3c3af8f7	0.011411897
168	0xbd2dc5f3	-0.042425107
169	0x3d084c08	0.033275634
170	0x3c00350b	0.007825146
171	0xbcedba10	-0.029019386
172	0xbd19660d	-0.03745084
173	0x3ce7479e	0.028232392
174	0x3d09e632	0.033666797
175	0xbcfd2d30	-0.030905336
176	0xbd06e4d1	-0.03293306
177	0x3cc8ba99	0.02450304
178	0x3d0e92e7	0.034808066
179	0xbc61bc47	-0.013777799
180	0xbd104904	-0.035225883
181	0x3d3e1d8e	0.046414904
182	0x3d05361d	0.03252231
183	0xbcf835e2	-0.03029913
184	0xbd2e3aa8	-0.042536408
185	0x3cb3ed84	0.021963842
186	0x3cb9c86b	0.022678575
187	0x3b4b32e4	0.0031005675
188	0xbcb13ce3	-0.021635478
189	0xbb2d99ad	-0.0026489303
190	0x3c47e0aa	0.01219956
191	0xbc2ea842	-0.010660233
192	0xbcc4fee8	-0.02404733
193	0x3d61b69b	0.055105787
194	0x3d0969f2	0.033548303
195	0xbd0f773b	-0.035025816
196	0xbd3c8d6a	-0.0460333
197	0x3bb29836	0.005450274
198	0x3d55f10a	0.052231826
199	0xbd0a620d	-0.033784915
200	0xbc26c386	-0.010178452
201	0xbb4ea18e	-0.00315294
202	0x3cfd6525	0.030932019
203	0x3ad0edfd	0.0015940067
204	0xbd1fb98e	-0.038995318
205	0x3c2516e9	0.010076263
206	0x3ce6449f	0.028108893
207	0x3bc0f7c8	0.005888913
208	0xbcd1efd8	-0.025627062
209	0x3cd645bd	0.0261563
210	0x3cf92864	0.030414768
211	0xbcd8bcce	-0.026457217
212	0xbcd07db8	-0.025450572
213	0x3d0d95c7	0.034566667
214	0x3d2407dc	0.040046558
215	0xbce57061	-0.028007688
216	0x3c8d536d	0.017251695
217	0x3c0d7a1a	0.008635068
218	0x3ccdfede	0.025145944
219	0x3cf70e9d	0.030158335
220	0x3b04353c	0.0020173332
221	0xbd0b6fc6	-0.034042142
222	0x3ce8198f	0.0283325
223	0x3c956bff	0.018239973
224	0xbc2b9fc6	-0.010475105
225	0xbbcf57d3	-0.006327608
226	0xbbcf5bfd	-0.0063281045
227	0x3c877fef	0.016540496
228	0xbc35dcab	-0.011099975
229	0xbc05a902	-0.00815797
230	0xbc1b422c	-0.009476226
231	0x3bfa6484	0.007641377
232	0xbc0af8ab	-0.008482139
233	0x3b866205	0.0041010403
234	0x3d281c8d	0.041042853
235	0xbc77cdd3	-0.015124756
236	0x3b77fc96	0.0037839762
237	0xbb592799	-0.0033135174
238	0x3cb97907	0.022640718
239	0xbc8255b9	-0.015910016
240	0xbd00e0a5	-0.031464238
241	0x3bebc010	0.0071945265
242	0x3a891ec1	0.0010461436
243	0xbca19ff4	-0.019729592
244	0xbc16115e	-0.009159414
245	0x3bfb8847	0.0076761576
246	0xbc395b43	-0.011313262
247	0xbcfda108	-0.030960575
248	0xbd183e40	-0.03716874
249	0x3d29f983	0.04149772
250	0x3c14096a	0.009035448
251	0xbcf584d1	-0.029970558
252	0xbd17e532	-0.037083812
253	0x3ceac960	0.028660476
254	0x3ced17fe	0.028942104
255	0xbd1141bf	-0.03546309

base_model.model.bert.encoder.layer.0.attention.self.value.lora_A.default.weight f4 [8, 768]
0	0x3cb6a7fa	0.022296894
1	0xbb3af059	-0.0028524606
2	0x3ba28682	0.0049598822
3	0x3c74bbc2	0.014937343
4	0xbd32171a	-0.043479063
5	0x3cd2a6ec	0.02571436
6	0xbc494175	-0.012283673
7	0x3d1355a0	0.03597033
8	0xb8ce6dc1	-9.843289e-05
9	0x3d17a233	0.03701992
10	0x3af1ab7f	0.0018437951
11	0xbd4d47a1	-0.05011714
12	0x3b590826	0.003311643
13	0xbd151a84	-0.03640224
14	0xbb37baa3	-0.0028034828
15	0xbc948c04	-0.01813317
16	0xbd63e4c3	-0.055638086
17	0x3d0aa701	0.033850674
18	0x3cbde04b	0.02317824
19	0x3d361ecd	0.044462968
20	0xbcc6c9e8	-0.024266198
21	0xbc73d6ed	-0.014882785
22	0x3c2d9add	0.010596004
23	0xbcbaf2ca	-0.022820849
24	0xbd54cf0b	-0.051955264
25	0x3c6ac482	0.014329078
26	0xbc3d244b	-0.011544297
27	0xbca670e6	-0.020317506
28	0xbcf1720e	-0.02947333
29	0xbd1bf016	-0.03807076
30	0xb9028f4f	-0.00012451153
31	0x3d11adc8	0.03556612
32	0x37cb6019	2.4244235e-05
33	0xbc113d75	-0.00886475
34	0x3c5990b9	0.0132791335
35	0xbb505c68	-0.003179336
36	0x3d29e048	0.041473657
37	0xbd94902e	-0.072540626
38	0xbc7f7081	-0.015590788
39	0xbcd75906	-0.026287567
40	0xbd256bd8	-0.04038605
41	0x3c6db4ac	0.014508408
42	0x3ce37ded	0.027770007
43	0x3c851144	0.016243584
44	0xbc45b46d	-0.012066943
45	0xbd89f07e	-0.06735323
46	0xbd447cd6	-0.047970615
47	0xbc0bbd84	-0.008529071
48	0x3c9f909a	0.019478131
49	0xbbec7a8c	-0.007216757
50	0x3d97ada2	0.07406165
51	0x394644ae	0.00018908337
52	0x3d0a3647	0.03374317
53	0x3cb3cd2e	0.021948423
54	0xbc7391f6	-0.014866343
55	0x3cf41a82	0.029797796
56	0x3c18b9be	0.009321628
57	0xbd2838d5	-0.041069824
58	0xbd2ff46e	-0.042957716
59	0x3bf26d09	0.007398252
60	0xbcfdfafe	-0.031003471
61	0xbb899611	-0.0041987975
62	0xbaee76e0	-0.0018193386
63	0x3d375bee	0.044765405
64	0x3cb4bf6e	0.022063937
65	0xbc56765a	-0.013089741
66	0xbd014ffb	-0.031570416
67	0x3b384a2d	0.0028120384
68	0xbd3f3a0e	-0.046686225
69	0xbcca0516	-0.024660628
70	0x3d0e12c7	0.034685876
71	0xbce1cfd4	-0.02756492
72	0xb95c94e4	-0.00021036301
73	0xbd3c3342	-0.04594732
74	0x3dcf5a0a	0.101245955
75	0x3c92be54	0.017913021
76	0xbd83ad50	-0.06429541
77	0x3d0345bc	0.032048926
78	0x3c80b2a5	0.015710184
79	0x3d0580bf	0.032593485
80	0xbd25bb76	-0.04046198
81	0xbb3b2b9d	-0.002855993
82	0xbd54cb4d	-0.051951695
83	0x3b75e02f	0.0037517657
84	0xbcc28a8e	-0.023747709
85	0xbcdc04e8	-0.026857808
86	0x3bae80d9	0.0053254184
87	0x3d0d9c0e	0.034572653
88	0xbb992fce	-0.004674888
89	0x3b13da95	0.0022560705
90	0xbd295e7c	-0.041349873
91	0xbcc7917b	-0.024361363
92	0xbd3b9eca	-0.04580573
93	0xba3c0480	-0.00071723014
94	0x3c92bd9e	0.017912682
95	0x3b43f4d9	0.002990058
96	0xbd399603	-0.045309078
97	0xbd42c054	-0.0475467
98	0xbcbe34ec	-0.023218594
99	0x3d9543dc	0.07288334
100	0x3c0717e3	0.008245441
101	0x3c4bc8bf	0.012437998
102	0xbd0141c3	-0.031556856
103	0xbd889f6f	-0.066710345
104	0xbd199465	-0.037495036
105	0xba9dd710	-0.0012042243
106	0x3c55800a	0.013031015
107	0xbd181566	-0.037129782
108	0x3c53f16e	0.012935979
109	0xbc09c0ac	-0.008407753
110	0x3b4f7c01	0.0031659605
111	0xbc8ccfa5	-0.017188856
112	0xbd21139b	-0.039325338
113	0x3cec301c	0.028831534
114	0x3cc3ea68	0.023915485
115	0xbc9c7bcd	-0.019102002
116	0xbd385e23	-0.04501165
117	0x3ce438d8	0.027859136
118	0xbc279191	-0.010227577
119	0xbdb615da	-0.088908866
120	0x3cead476	0.028665762
121	0xbcc1655d	-0.023607904
122	0x3d4253ed	0.04744332
123	0x3b6c8fd0	0.003609646
124	0x3cb4ff04	0.022094257
125	0x3c9d7dfc	0.019225113
126	0xbbf6b2d3	-0.0075286417
127	0x3c650d8c	0.013980281
128	0xbd2b22f4	-0.04178138
129	0x3ce4fc41	0.027952315
130	0x3d39a149	0.04531983
131	0x3ceb0d89	0.028692978
132	0xbb993f6b	-0.0046767495
133	0x3d60c38e	0.054873995
134	0xbd02dc99	-0.03194866
135	0xbc878283	-0.016541725
136	0x3ccd4b4c	0.025060318
137	0x3cdc583f	0.026897548
138	0xbc90f689	-0.017695682
139	0xbb661016	-0.0035104803
140	0xbd54e7b5	-0.051978786
141	0xbd61c673	-0.055120897
142	0xbd1d5839	-0.038414214
143	0xbca05af1	-0.019574614
144	0xbc736329	-0.014855185
145	0xbd3831a8	-0.04496923
146	0x3d79432a	0.06085507
147	0x3d137404	0.035999313
148	0x3db43829	0.08799774
149	0x3c935560	0.017985046
150	0x3d1241be	0.035707228
151	0x3d2705b3	0.04077692
152	0x3c7db431	0.0154848555
153	0xbb4d3d39	-0.003131701
154	0xbd06cb86	-0.03290894
155	0xbc480078	-0.012207143
156	0xbc9c54c0	-0.01908338
157	0xbce04f46	-0.02738155
158	0x3d0513a6	0.03248944
159	0xbd0ca34c	-0.03433542
160	0x3cb67f50	0.022277504
161	0xbcbbbc8a	-0.02291705
162	0xbbf16a34	-0.0073673967
163	0x3c502f68	0.012706615
164	0x3ca88fad	0.020576322
165	0xbc3da5ad	-0.011575145
166	0x3b8c6b7b	0.0042852736
167	0xbd607c21	-0.05480588
168	0xbd5bb571	-0.053639833
169	0x3d5a92b8	0.05336258
170	0xbc8b3ba5	-0.016996214
171	0x3c6a0f1d	0.01428583
172	0x3bac439a	0.005257082
173	0x3c867439	0.016412841
174	0x3c0274ca	0.007962415
175	0x3c67cd89	0.0141481245
176	0xbc91d26b	-0.01780053
177	0xbcea56c2	-0.028605822
178	0x3c53b58d	0.012921703
179	0x3d0e3132	0.034714885
180	0xbd564dda	-0.05232034
181	0x3d09b34b	0.033618253
182	0x3c302de0	0.010753125
183	0x3ba7aeb9	0.005117264
184	0x3cbe02ea	0.023194749
185	0x3cb4664c	0.022021435
186	0x3bd374a9	0.006453116
187	0xbd12132d	-0.03566282
188	0x3a911e28	0.0011071609
189	0xbb52f78f	-0.0032191013
190	0xbca16cf3	-0.019705271
191	0x3d58bfcc	0.052917287
192	0xbcf148fa	-0.029453743
193	0x3dad16a0	0.08451581
194	0x3d25e29c	0.040499315
195	0x3d0d01ee	0.03442567
196	0xbc50bd51	-0.012740449
197	0x3d6396db	0.05556379
198	0xbbd085cf	-0.0063636075
199	0xbd8cef2f	-0.06881558
200	0x3cdb878d	0.026798034
201	0x3dc470d0	0.0959183
202	0x3d8d18d1	0.06889499
203	0xbcfc1973	-0.030773854
204	0xbd2b1af2	-0.041773744
205	0xbc318db4	-0.010837007
206	0xbc668875	-0.01407062
207	0x3c8de982	0.01732326
208	0xbd4d43e9	-0.050113592
209	0xbc162b58	-0.009165607
210	0x3b846012	0.004039773
211	0x3cc7cf9e	0.024390992
212	0x3c93c3c9	0.018037694
213	0xbd50a165	-0.050935168
214	0x3cdbe78a	0.026843805
215	0x3db39d1c	0.087702006
216	0xbcececcd	-0.02892151
217	0x3d338cc3	0.043835413
218	0xbbfc2fae	-0.0076961135
219	0xbc97656c	-0.018480979
220	0xbc54ec53	-0.012995797
221	0xbd6d4af4	-0.05793281
222	0xbcff9601	-0.031199457
223	0xbc9c7570	-0.019098967
224	0xbc7d2c38	-0.015452437
225	0x3d9077a0	0.07054067
226	0x3cfd1a01	0.030896189
227	0x3d3fa609	0.046789203
228	0x3ccb7050	0.024833828
229	0xbd416339	-0.047213767
230	0xbce214b6	-0.027597766
231	0xbd2066b5	-0.03916045
232	0x3d11da12	0.03560836
233	0xbd4d1861	-0.050072078
234	0xbc2e6b64	-0.010645721
235	0xbc1718c9	-0.009222218
236	0xbd8d43c1	-0.06897689
237	0xbd0d55fa	-0.03450582
238	0xbc9558dc	-0.018230848
239	0x3d5fd77b	0.054648858
240	0x3d3b61b9	0.045747492
241	0xbce6eb24	-0.028188296
242	0xba1e0348	-0.00060277106
243	0xbd1538ed	-0.03643124
244	0xbadf1443	-0.0017019588
245	0x3b1865ad	0.0023253963
246	0x3c8d8915	0.01727728
247	0x3d11d108	0.03559974
248	0x3bd02022	0.006351487
249	0xbd5ab6e6	-0.05339708
250	0xbd82cf60	-0.0638721
251	0x3c87845d	0.016542608
252	0xbcb01d50	-0.021498352
253	0x3b887609	0.0041644615
254	0xbc1d7a27	-0.009611643
255	0x3dcd91f1	0.10037602

base_model.model.bert.encoder.layer.0.attention.self.value.lora_B.default.weight f4 [768, 8]
0	0xba34aba5	-0.0006892032
1	0xbc11fc02	-0.008910181
2	0xbc6ced86	-0.014460927
3	0x3c02c05a	0.0079804305
4	0xbc0a58cf	-0.008444025
5	0x3a937e29	0.0011252809
6	0x3b2643cd	0.0025370002
7	0xbc13726e	-0.00899945
8	0xbc9786c1	-0.018496873
9	0x3baf9c3f	0.005359202
10	0x3d0ef990	0.03490597
11	0xbb3ef111	-0.0029135386
12	0x3c54311f	0.0129511645
13	0xba3470f3	-0.0006883286
14	0xbc754694	-0.01497044
15	0x3c968830	0.018375486
16	0x3c1e4504	0.009660009
17	0xbc868d7c	-0.016424887
18	0x38f8e1f5	0.00011867649
19	0xbae22134	-0.0017252327
20	0xbc77d56c	-0.015126567
21	0xbc608bca	-0.013705203
22	0x3bf7ce7e	0.0075624576
23	0x3b782097	0.0037861222
24	0x3cad0053	0.021118319
25	0xbcdfc68f	-0.02731636
26	0xbca5dfe9	-0.02024837
27	0x3c82286c	0.015888415
28	0xbb407918	-0.0029369052
29	0xbc22c3e9	-0.009934404
30	0x3c9a7ea8	0.018859223
31	0xbd0d555a	-0.034505226
32	0xbd0de68e	-0.034643702
33	0xbc9bbc3e	-0.01901066
34	0x3cde1ee3	0.027114337
35	0x3ca6c078	0.020355448
36	0x3d1a7700	0.037711143
37	0x3bdf6b64	0.006818222
38	0xbbaee5ac	-0.0053374376
39	0xbbc1e600	-0.0059173107
40	0x3cae23aa	0.02125724
41	0x3bd1001c	0.006378187
42	0x3b854039	0.004066494
43	0x3b9db4c8	0.0048128106
44	0xbc297b1c	-0.010344293
45	0xbcca0abb	-0.02466332
46	0x3c42c177	0.011886946
47	0xbc7f95ce	-0.015599681
48	0xbbef31d7	-0.0072996425
49	0x3c0b203b	0.008491571
50	0xbb887aa9	-0.004165013
51	0xbd04fbe8	-0.0324668
52	0x3cb8aa64	0.022542186
53	0x3d25d516	0.040486418
54	0xbcb2f074	-0.021843173
55	0x3d058d21	0.032605294
56	0x3bcdd4bb	0.006281463
57	0x3a84bb54	0.0010126629
58	0xbb8a252c	-0.004215857
59	0x3b8669ad	0.004101953
60	0xbc0fbfaa	-0.008773724
61	0xbc33cedd	-0.010974613
62	0xbbe1fa8d	-0.006896323
63	0xbba676f6	-0.005080099
64	0x3cc9133c	0.024545304
65	0xbc0fb204	-0.00877047
66	0x3c82d54a	0.015970845
67	0xbcd7460a	-0.026278514
68	0x3bc53479	0.006018218
69	0xbc3978eb	-0.011320333
70	0x3b82e3cb	0.00399444
71	0x3b2107f7	0.0024571398
72	0x3c363fc6	0.011123603
73	0xbc8f5f1d	-0.017501408
74	0xbcbcbef4	-0.023040272
75	0x3cab4494	0.020906724
76	0xbce21b17	-0.027600808
77	0xbc004869	-0.007829764
78	0x3cc05b28	0.023480967
79	0xbcaf1e6c	-0.021376811
80	0xbb16a552	-0.0022986722
81	0x3c51b96b	0.012800555
82	0xbcc65403	-0.024209982
83	0x3c14aed2	0.009074884
84	0xbb5c7fd3	-0.0033645525
85	0xb9430207	-0.00018597404
86	0xbbc416d4	-0.0059841666
87	0xbb74b645	-0.0037340086
88	0x3d11e551	0.035619084
89	0xbc48fc73	-0.01226722
90	0x3bae5a09	0.0053207916
91	0x3c7f86c0	0.015596092
92	0xbbec5314	-0.007212052
93	0xbce893c2	-0.028390769
94	0x3d02c5c9	0.031926904
95	0xbcae1a61	-0.021252813
96	0x3c8ad246	0.01694597
97	0xbc19082d	-0.009340328
98	0xbbc0a03f	-0.005878478
99	0x3c69dc3e	0.014273701
100	0xbd011535	-0.031514365
101	0xbc56a028	-0.013099708
102	0x3ce4dac1	0.027936341
103	0xbb9dfca6	-0.004821378
104	0xbce3e75b	-0.02782028
105	0xbc895b6f	-0.016767232
106	0x3d0506dd	0.03247725
107	0x3c28372f	0.010267063
108	0x3c24fba1	0.010069759
109	0x3c054396	0.0081337895
110	0xbc793764	-0.01521096
111	0x3bc3d528	0.005976338
112	0x3d238b7c	0.039927945
113	0xbd000f82	-0.03126479
114	0x3b7ce82d	0.0038590536
115	0x3b9ae568	0.0047270544
116	0xbbba4226	-0.005684155
117	0xbca88e81	-0.020575764
118	0x3cb0c6fc	0.021579258
119	0xbc6af46c	-0.014340501
120	0xbcc43d15	-0.023954907
121	0x3c5d1482	0.013493659
122	0x3ca5d310	0.020242244
123	0xbbb74d0b	-0.005593901
124	0xbbb9aad4	-0.0056661163
125	0x3b3d0598	0.0028842445
126	0xbc84aaa8	-0.016194656
127	0x3c4b81cf	0.0124210855
128	0x3c4eed06	0.012629753
129	0x3baf0feb	0.0053424737
130	0x3cbabbd4	0.022794642
131	0xbc8649c3	-0.016392594
132	0x3c768796	0.015046975
133	0xbc270a73	-0.010195362
134	0xbc8a57ac	-0.016887508
135	0x3c40982e	0.011755032
136	0xbc22e9da	-0.00994345
137	0xbc806193	-0.015671527
138	0x3c728ee0	0.014804572
139	0x3b35758d	0.0027688474
140	0xbbd63da0	-0.006538108
141	0xbb9b4c9a	-0.004739356
142	0xbc24310b	-0.010021458
143	0x3bea008e	0.0071411794
144	0x3cc64d0e	0.024206664
145	0xbcb35847	-0.02189268
146	0x3cbe182d	0.023204887
147	0x3bf10d90	0.007356353
148	0xbb897a46	-0.0041954843
149	0xbc49d6a9	-0.012319245
150	0x3c800297	0.015626235
151	0x3a3a8b80	0.0007116124
152	0xbc8daa31	-0.017293068
153	0x3c1f77e4	0.009733174
154	0x3ab21fcf	0.0013589802
155	0x392d94e2	0.00016554029
156	0x3bbb86fa	0.0057228776
157	0x3c03ab6c	0.008036476
158	0xbc2398bd	-0.009985146
159	0x3b3fe284	0.00292793
160	0x3d15323a	0.036424853
161	0x3d64e47f	0.055881973
162	0xbd058515	-0.03259762
163	0xbca0ce41	-0.0196296
164	0xbcb2e29e	-0.021836575
165	0xbbafc1de	-0.005363687
166	0xbb0ab0c1	-0.0021162482
167	0x3b629384	0.003457279
168	0xbd1977a4	-0.037467614
169	0x3924f36f	0.00015730945
170	0x3d09c980	0.03363943
171	0x3c5e8189	0.013580688
172	0xbb3b48c0	-0.0028577298
173	0x3c81a38c	0.015825056
174	0xbbe08626	-0.0068519292
175	0xbb075e5d	-0.002065561
176	0x3bda34a8	0.006659109
177	0x3c469d47	0.012122459
178	0xbc6627e3	-0.014047596
179	0xbc4761fd	-0.012169358
180	0x3c230bd0	0.009951547
181	0x3a9a52ea	0.0011773978
182	0xbb1d07b6	-0.0023960895
183	0x3c014bce	0.007891608
184	0xbc001254	-0.00781687
185	0xbd02c2ba	-0.031923987
186	0x3c4db917	0.012556336
187	0x3bfe2926	0.00775637
188	0x3cab4ca4	0.020910569
189	0x3b90924c	0.004411971
190	0x3bd4141e	0.0064721247
191	0x3c0d6649	0.008630344
192	0x3bcf7e46	0.0063321916
193	0xbce21e2d	-0.02760228
194	0x3c8cc8a2	0.017185513
195	0x3c8f10f6	0.017464142
196	0x3c324099	0.010879659
197	0xbc5c5404	-0.013447765
198	0x3b6f8c74	0.0036552222
199	0xbca4f4bb	-0.020136228
200	0xbbb6ee32	-0.0055825943
201	0x3b7949b7	0.0038038322
202	0xbc44caa3	-0.012011203
203	0xb98f0547	-0.00027279017
204	0xbb6a380d	-0.0035738975
205	0x3bb6c7d2	0.0055780197
206	0xbb0b03ee	-0.002121206
207	0x3b98bd9c	0.004661275
208	0xbca62384	-0.020280607
209	0x3c5193b7	0.012791566
210	0x3c22abb2	0.009928631
211	0xbcd8dfd1	-0.026473911
212	0x3d0b1a29	0.033960495
213	0x3cf82815	0.03029255
214	0xbccbb4a3	-0.024866408
215	0x3bc3f21d	0.00597979
216	0xbbdadaf6	-0.006678934
217	0xbcb601f2	-0.022217724
218	0x3c307e01	0.010772229
219	0xbc914566	-0.017733287
220	0x3c807279	0.015679585
221	0x3c27323a	0.010204846
222	0x3ad55f95	0.0016279096
223	0xbba767e1	-0.005108819
224	0xbc473445	-0.012158458
225	0x3bba3d21	0.0056835567
226	0xbc1dc150	-0.009628609
227	0x3bb001b6	0.0053712977
228	0xbc752ec6	-0.014964765
229	0xb907e0e0	-0.00012958376
230	0x3b6f1101	0.003647864
231	0x3b4ea2f5	0.0031530235
232	0x3c709058	0.014682852
233	0x3b770b5a	0.0037695975
234	0xbc8ef1f8	-0.017449364
235	0xbc18f508	-0.009335764
236	0xbb3e5d76	-0.0029047406
237	0x3bce6764	0.006298946
238	0xb9c03d8d	-0.00036666953
239	0x3c14051e	0.009034423
240	0x3c8486db	0.016177585
241	0xbc5e648c	-0.013573777
242	0xbb4d3d6f	-0.0031317135
243	0x3c68c319	0.014206671
244	0xbc280f69	-0.01025758
245	0xbca7c113	-0.020477807
246	0x3cd7d70a	0.026347656
247	0xbd1550b9	-0.036453936
248	0xbc98334e	-0.018579151
249	0xbce9d3b7	-0.028543336
250	0x3c593c98	0.013259076
251	0xbb7daef9	-0.0038709028
252	0x3d0528ae	0.0325095
253	0x3cb06526	0.021532606
254	0xbc0a11fc	-0.008427139
255	0xba5cc348	-0.0008421433

base_model.model.bert.encoder.layer.1.attention.self.query.lora_A.default.weight f4 [8, 768]
0	0x3c740113	0.014892834
1	0x3c289c25	0.010291134
2	0xbcdd0f57	-0.026984854
3	0xbc810b70	-0.015752524
4	0xbd63821b	-0.055544
5	0xb96a52ab	-0.00022346775
6	0xbc9cfb30	-0.019162744
7	0x3d37d83c	0.04488395
8	0xbc619a92	-0.013769763
9	0xbaf26f0e	-0.0018496232
10	0xbd3c4129	-0.04596058
11	0xbd905d90	-0.07049096
12	0xbd82e4a1	-0.06391264
13	0x3c763fee	0.01502989
14	0x3d8f68b0	0.070023894
15	0xbcc3afd3	-0.02388755
16	0x3ced3692	0.028956685
17	0xbb57cc1f	-0.0032928062
18	0xbc110cd8	-0.00885316
19	0xba308e57	-0.00067350775
20	0x3c8b93f2	0.01703832
21	0x3ca4abcb	0.020101449
22	0xbc9f4133	-0.01944027
23	0x3c324279	0.010880106
24	0x3c645eb9	0.013938599
25	0x3ca4115e	0.020027813
26	0x3d723336	0.05913087
27	0x3c3bb507	0.0114567345
28	0x3c8c7813	0.0171471
29	0x3d29bda5	0.041440625
30	0x3bd8cf51	0.006616511
31	0xbc2934ff	-0.010327577
32	0x3c451794	0.012029547
33	0x3c374788	0.011186488
34	0xbdbe132b	-0.09281
35	0x3d80d649	0.06290872
36	0x3c993b63	0.018705076
37	0x3da2f32b	0.07956537
38	0xbd175b2a	-0.036952175
39	0x3bea0523	0.0071417256
40	0x3c883235	0.016625503
41	0xbcb0a3c4	-0.021562465
42	0xbd338beb	-0.043834608
43	0x3cdad635	0.02671347
44	0x3dba9665	0.09110717
45	0x3c30984b	0.010778497
46	0x3c6aa610	0.014321819
47	0x3c10a196	0.008827588
48	0x3c8268f1	0.01591918
49	0xbccbc6f5	-0.024875144
50	0x3c33a4fb	0.010964627
51	0xbc0d7e03	-0.008636001
52	0x3cc1ca6e	0.023656096
53	0xbcfb57c7	-0.030681504
54	0x3d3f88f5	0.04676147
55	0xbd193fad	-0.03741424
56	0x3b97c8a9	0.004632075
57	0x3bdfa694	0.0068252776
58	0xbd2cfeba	-0.042235114
59	0xbbfb9f8d	-0.007678932
60	0x3d0da09a	0.03457699
61	0xbbaac2e6	-0.005211222
62	0x3dc34d3d	0.095362164
63	0xbd974afc	-0.07387349
64	0xbdf88265	-0.12134246
65	0xbcec9670	-0.028880328
66	0x3d6fa267	0.05850449
67	0xbd4e850a	-0.050419845
68	0xbb4b2d71	-0.0031002427
69	0x3d8c05e3	0.0683706
70	0x3d1a8808	0.037727386
71	0x3d7e0df7	0.062025037
72	0xbc0cc79c	-0.008592512
73	0x3c529947	0.012853927
74	0x3cba4c27	0.02274139
75	0xbd45af32	-0.048262782
76	0xbc625155	-0.013813336
77	0x3d1e3569	0.038625155
78	0x3c7bb39f	0.015362649
79	0x3c0dea4b	0.008661817
80	0x3c525a2c	0.012838881
81	0xbd4c7a67	-0.04992142
82	0x3a229217	0.00062015787
83	0x3cdf5b8a	0.027265329
84	0xbbc3c0b2	-0.005973899
85	0xbd89ce81	-0.067288406
86	0xbc8506c8	-0.016238585
87	0x3c035984	0.008016948
88	0xbd8de8bf	-0.069291584
89	0xbd7e6913	-0.062111925
90	0xbd3a16d5	-0.04543193
91	0xbd791da6	-0.06081929
92	0x3d03f34f	0.03221446
93	0xbb5aff31	-0.0033416266
94	0x3c3ef890	0.011655942
95	0x3c688fd9	0.014194452
96	0x3bb7031e	0.0055850884
97	0xbcbf3043	-0.023338443
98	0xb99a8732	-0.00029473897
99	0xbda4cffd	-0.08047483
100	0xbbe819e4	-0.0070831645
101	0xbd5bd178	-0.05366656
102	0x3d6ae4ab	0.05734698
103	0x3d1c4338	0.038150042
104	0xbd708f6d	-0.05873053
105	0x3ca62f0d	0.020286107
106	0xbd5d4282	-0.054018505
107	0x3b0481b8	0.002021892
108	0x3d483e80	0.04888773
109	0x3d763711	0.06011111
110	0xbd3a7655	-0.045523006
111	0xbdc6a35c	-0.09699127
112	0x3d24da69	0.040247355
113	0xbcecca1b	-0.028904965
114	0x3d6bd4c6	0.057575963
115	0x3c83e1e9	0.016098933
116	0xbd53b55b	-0.051686626
117	0x3d077ef2	0.03308005
118	0x3c87552d	0.016520107
119	0x3caf812f	0.021423904
120	0x3d81a826	0.063309
121	0x3d12fc8a	0.03588537
122	0xbc2e68cf	-0.0106451055
123	0x3d2ef8eb	0.042717855
124	0x3c0503c3	0.008118573
125	0x3d0f243f	0.034946676
126	0x3c8c947c	0.017160647
127	0xbcf8184f	-0.030285029
128	0x3b6548b8	0.003498597
129	0xbd73403a	-0.059387423
130	0x3cad8fec	0.021186791
131	0x3c282776	0.0102633145
132	0xbd4fe754	-0.05075772
133	0xbd00755c	-0.031361923
134	0x3c810b58	0.01575248
135	0xbd95f174	-0.07321444
136	0xbd2df705	-0.042471904
137	0x3c7c2fea	0.015392283
138	0x3c5d7fcd	0.01351924
139	0x3ce7d05a	0.028297592
140	0xbbd52fc6	-0.006505939
141	0x3cad85a0	0.021181881
142	0xbd3cacce	-0.046063237
143	0x3c8cd35c	0.017190628
144	0xbc2eb382	-0.010662915
145	0xbb94ccea	-0.004541029
146	0xbd6daa42	-0.0580237
147	0x3d435e7b	0.047697525
148	0xbca964c7	-0.020677937
149	0xbca32cd1	-0.019918831
150	0x3d69d02f	0.057083305
151	0xbd17b630	-0.037038982
152	0x3c37d01d	0.011219052
153	0xbd31c876	-0.043404065
154	0xbd92e5d9	-0.07172746
155	0x3d1af434	0.037830546
156	0xbcd257bb	-0.025676599
157	0x3b453149	0.003008919
158	0x3d71eb91	0.059062544
159	0xbcaa777a	-0.020808924
160	0x3cc9307e	0.024559256
161	0xbd1399ea	-0.036035456
162	0xbd067fb7	-0.032836642
163	0xbcb22253	-0.021744883
164	0xbbc678a5	-0.0060568624
165	0xbcf30dd3	-0.029669678
166	0xbd7df1c9	-0.061998162
167	0xbccdef0d	-0.025138402
168	0xbcbbe009	-0.022933977
169	0xbcbcc11e	-0.023041304
170	0x3d7b02b9	0.061281893
171	0x3cc6fc7f	0.024290321
172	0x3d45de8d	0.048307944
173	0xbdb8c3b8	-0.090217054
174	0xbc57dc64	-0.013175104
175	0x3cb8144c	0.022470616
176	0xbcafddd9	-0.02146809
177	0x3d975a25	0.073902406
178	0xbbef1d87	-0.007297221
179	0x3cf427e6	0.029804181
180	0x3ccde98b	0.025135776
181	0xbd18162d	-0.037130523
182	0xbc957320	-0.018243372
183	0xbd32ab46	-0.04362037
184	0x3c6732ca	0.01411123
185	0xba176c6b	-0.00057763484
186	0x3d4f39f4	0.050592378
187	0xbc697200	-0.014248371
188	0xbbf46825	-0.007458704
189	0xbbd40d78	-0.006471332
190	0xbdb3efea	-0.08785994
191	0xbd8b9b9c	-0.068167895
192	0xbc8b28e2	-0.016987268
193	0xbdb32a29	-0.08748276
194	0x3c7c0569	0.015382149
195	0x3c0323dd	0.008004156
196	0xbcbce1a5	-0.023056814
197	0x3c723a65	0.01478443
198	0xbc94bceb	-0.01815649
199	0xbd447784	-0.04796554
200	0x3d33d5d4	0.043905094
201	0xbcfe5c29	-0.031049805
202	0x3d95d254	0.073155075
203	0x3cb322df	0.021867214
204	0xbd1f6f51	-0.03892452
205	0x3c17fc50	0.009276465
206	0xbc10707f	-0.008815884
207	0xbd35efec	-0.04441826
208	0x3dd22592	0.10261072
209	0xbd3f7d0c	-0.046750113
210	0x3d9b2609	0.07575614
211	0xbd36e14b	-0.04464845
212	0x3d402c68	0.04691735
213	0xbcf82ea2	-0.030295674
214	0x3b2959b6	0.0025840825
215	0xbd8946e0	-0.067029715
216	0x3d4e4dc5	0.050367136
217	0xbd2a2327	-0.04153743
218	0x3a81d313	0.0009904824
219	0xbdb956cb	-0.090497576
220	0x3d0a061a	0.033697225
221	0xbd4d36c2	-0.05010105
222	0xbd7b39b0	-0.061334312
223	0x3dd31395	0.10306469
224	0x3c9897ee	0.018627133
225	0xbd58eaea	-0.052958407
226	0x3c7cc362	0.015427442
227	0xbcb7f160	-0.022453964
228	0x3c83c24f	0.016083864
229	0x3d2cfc9e	0.042233102
230	0x3be58c7d	0.007005273
231	0x3ce836c2	0.028346423
232	0x3c996c39	0.018728362
233	0xbc98ede2	-0.018668119
234	0xbca75fda	-0.020431448
235	0x3bcba18d	0.0062143267
236	0xbcfffad8	-0.031247541
237	0xbd11a1e6	-0.03555479
238	0xbcbe648a	-0.0232413
239	0xbcad0386	-0.021119844
240	0xbd0bcd2f	-0.034131225
241	0x3c7a2814	0.015268344
242	0xba6e16bf	-0.0009082369
243	0xbd3803cf	-0.044925507
244	0xbcb00c60	-0.021490276
245	0xbb9fd923	-0.0048781796
246	0x3d39a7d9	0.045326088
247	0x3da80e45	0.08205847
248	0x3d05da71	0.032679025
249	0x3d048ad1	0.03235895
250	0xbc577f9b	-0.013152982
251	0x3c99d2a3	0.018777197
252	0x3db5a129	0.088686295
253	0x3d0d9e0c	0.034574553
254	0xbc8ddd6e	-0.0173175
255	0x3c8fd0ab	0.017555555
