DongKaiwei/Week2/Week2_model.pt (torch, 2224 bytes, 4 tensors)

linear1.weight f4 [5, 2]
00000000: 697d 423f 8058 9940 3b75 d340 34cf 35c0
00000010: 3945 41c0 5083 9e40 dc92 8640 dfa3 8cc0
00000020: f2f8 e8bf b788 9abf
0.7597261 4.792053 6.6080604 -2.8407717 -3.01985 4.9535294 4.205427 -4.395004
-1.8200972 -1.2072972

linear1.bias f4 [5]
00000000: f841 93be 68b3 9a39 3910 a7bd 0724 0ebe
00000010: e885 1bbe
-0.28761268 0.00029506837 -0.08157391 -0.13880931 -0.151878

linear2.weight f4 [4, 5]
00000000: 6531 9ec0 dcd6 2540 5e2e e3c0 405c bc40
00000010: 9365 293f 2805 7d3f cc34 0b40 ca9f bdbf
00000020: 4040 3940 dcb1 1dbf 7f75 d33f 416f 88bf
00000030: 0d75 1040 71a0 fcbf 0b41 80be a7f4 03bf
00000040: 0a24 1cc1 925e 5f40 1d05 8bc0 655c 7b3f
-4.9435296 2.591239 -7.09941 5.886261 0.66170615 0.9883599 2.1750975 -1.4814389
2.8945465 -0.61599517 1.6520232 -1.0658952 2.2571442 -1.9736463 -0.25049624 -0.51545185
-9.758799 3.490147 -4.344374 0.9818786

linear2.bias f4 [4]
00000000: c54f d6bd 2c9d c2be 545f 81be 6901 343e
-0.104644336 -0.38010538 -0.25268042 0.17578663
