贾鸿祥week1/week3/model.pth (torch, 12545 bytes, 7 tensors)

embedding.weight f4 [13, 30]
000000 81 42 5c 3e e4 df 8c 3f a3 d1 73 be ba 82 4a 3d
       0.21509744 1.1005826 -0.23810439 0.049441077
000010 b1 e5 66 bf e2 40 4d 3f 42 d7 96 bf 89 26 6f bf
       -0.9019423 0.8017713 -1.1784441 -0.93418175
000020 4b 66 7e 3f b0 1f 99 3f d6 2f 30 bf f4 1e 3c be
       0.99374837 1.1962795 -0.6882299 -0.18371183
000030 8d 4f 8a bf 27 42 01 c0 3e 86 1a c0 1d 01 00 bf
       -1.0805527 -2.0196626 -2.4144435 -0.500017
000040 b6 08 92 3f 7d 75 0a 3e b2 a3 ff bf 80 bf 2c bf
       1.1408908 0.1352138 -1.9971831 -0.67479706
000050 8b d5 11 c0 db a3 9c bf 5e 04 ba 3d 29 05 18 be
       -2.2786586 -1.2237505 0.09082864 -0.14845718
000060 78 5b 83 be d9 66 10 3f b2 df c4 be 37 75 98 3f
       -0.25655723 0.56406933 -0.38451916 1.1910771
000070 64 00 62 3f ac c3 0b bf 84 89 eb bf 01 80 06 40
       0.88281846 -0.54595447 -1.8401341 2.1015627
000080 6c a1 90 3f 8b 84 ea bf bc dc 86 bf 0d 0b 19 3f
       1.1299262 -1.8321699 -1.0536113 0.5978249
000090 eb ee 0f c0 9c e1 9d bf e4 37 e5 be 93 fd 67 3f
       -2.2489574 -1.2334476 -0.44769204 0.906213
0000a0 e6 ad 55 bf 91 1c fb 3d 95 fb 32 3c 34 05 06 40
       -0.8346847 0.12261308 0.01092424 2.0940676
0000b0 5e a3 c2 bf 1c e1 76 bd 16 1c a3 bf 3f 0e e5 bf
       -1.5206106 -0.060273275 -1.2742946 -1.7894973
0000c0 f6 48 1b 40 b5 e0 2c 3e fa 99 5c 3f 59 11 a9 bf
       2.4263282 0.16882594 0.8617245 -1.3208419
0000d0 ab 99 ed be 88 8a 0e 40 4b 39 74 be 95 4e 8b 3e
       -0.46406302 2.2272053 -0.2384998 0.2720839
0000e0 0d d6 bd bf ef 5f 0a 3c c8 3f ec be 32 dd 49 3e
       -1.4830948 0.008445724 -0.4614241 0.19713286
0000f0 74 bc ac 3d 73 75 23 bf 1c 3d 1f bf 08 80 85 3f
       0.08434382 -0.6385109 -0.6220262 1.0429697
000100 5d 38 b5 bd 6b 04 48 bf a1 08 da bd 2c e3 ba 3d
       -0.08848641 -0.7813174 -0.10646177 0.09125361
000110 52 d0 b4 bf a1 35 be 3f 21 8f 55 40 d5 1c 37 bf
       -1.4126074 1.4860116 3.336861 -0.7152837
000120 f6 18 28 3e f0 89 89 3f 45 e2 07 c0 7c 06 39 bf
       0.16415772 1.074522 -2.1231854 -0.7227552
000130 50 be a2 bd ae be 3d 3f ac e7 88 3f 65 ca ee 3c
       -0.079464555 0.7411908 1.0695701 0.029149244
000140 b2 d4 01 3f b1 28 64 be 12 8e 89 3f 95 c6 93 be
       0.5071517 -0.22281148 1.0746481 -0.28862444
000150 d6 dd 15 3f c3 f7 1e 3f 62 06 f7 be f1 68 a9 3f
       0.5854162 0.62096804 -0.48247057 1.323515
000160 e1 ce 08 3f f5 71 ae bf 42 5f 66 3e 30 ee 98 be
       0.5344067 -1.3628527 0.22497275 -0.29869223
000170 76 3f dc bc 16 dc 27 bf d3 62 8f 3f 23 19 94 3e
       -0.02688573 -0.655702 1.1202034 0.28925428
000180 6a 17 91 bf 82 33 ac be ea 7d ac 3e 98 50 49 3e
       -1.133527 -0.33633047 0.33689815 0.1965965
000190 df 7b ad 3e 7d 6e 4b 3d 7e ae b8 bf c9 c6 36 3e
       0.3388357 0.049665917 -1.4428251 0.17849268
0001a0 31 33 be 3e 63 6b cb be ab 4c 7e 3e a0 cb ca 3e
       0.3714843 -0.39730367 0.24833934 0.3960848
0001b0 c1 7e 70 bf e3 04 37 3f 04 14 81 be 77 d1 cb be
       -0.9394341 0.7149183 -0.25210583 -0.39808246
0001c0 88 d5 1b 3f 2a 05 17 3e c3 a9 39 be 49 c3 00 c0
       0.608727 0.14748064 -0.18131165 -2.0119193
0001d0 f9 ef 9c 3d f3 4a cb 3e 97 26 3f bf f1 1f ae be
       0.07662959 0.3970562 -0.7466826 -0.34008744
0001e0 86 9a 7b be 1a 15 a1 bf 50 c5 e4 bf 1f c1 2a bf
       -0.24570665 -1.2584565 -1.7872715 -0.6670093
0001f0 21 22 d0 3e bf c4 15 bf 9f cb 8e bf ac 67 23 3f
       0.40651038 -0.58503336 -1.115589 0.63830066
000200 5b 84 85 be 32 4d 4e be b5 97 0c 40 3d 9f 38 3f
       -0.26077542 -0.20146635 2.1967595 0.7211798
000210 fe 89 e0 3d 26 da 2b be 72 b6 e8 3e ac e3 09 3e
       0.1096382 -0.16782436 0.45451695 0.13465756
000220 bf 2c 15 40 4b 1b 2b 3f 68 b0 f6 3e 1c ba 10 bd
       2.330856 0.6683852 0.48181462 -0.035333738
000230 71 71 42 3f 8d 2c 04 c0 5f 90 bf 3e a8 a8 94 be
       0.7595435 -2.0652192 0.37414834 -0.29034925
000240 93 5b 42 be 8c 4e 05 bf bd 23 a5 3f 23 4c f0 3e
       -0.18980245 -0.5207298 1.2901531 0.46933088
000250 75 ec 94 bf 29 0a 8c 3e b0 8a 4a bf 09 3e e1 bf
       -1.1634661 0.27351502 -0.7911787 -1.7597057
000260 34 07 90 be 22 20 81 3f a2 55 82 bf 9f 19 84 bf
       -0.28130496 1.0087931 -1.0182383 -1.0320319
000270 fa 24 7d be d1 f1 df 3c b1 1e 86 3f e8 11 31 40
       -0.24721137 0.027336987 1.0478116 2.766718
000280 06 22 57 bf 95 6f f7 3e 09 51 23 3e df bc a8 bf
       -0.8403629 0.48327318 0.15948881 -1.3182639
000290 77 e4 2b bf 51 69 96 3f fd 15 81 bf dc a9 38 be
       -0.67145485 1.175089 -1.0084835 -0.18033546
0002a0 c5 90 2b bf 3f df 82 be d0 bd bb bf e9 a7 b5 3f
       -0.67017776 -0.25560948 -1.4667301 1.4191867
0002b0 18 c2 8b 3f c8 79 d3 3f 67 4d d8 bf ca c3 c5 bf
       1.0918608 1.652154 -1.6898621 -1.5450375
0002c0 fe c3 09 40 1e 36 06 bf af c0 9c 3f 25 58 8d 3f
       2.1525874 -0.52426326 1.2246302 1.1042525
0002d0 5e 34 4d 3e 8d 08 80 bf 30 35 04 bf 7c 9d 8a bf
       0.20039508 -1.000261 -0.5164366 -1.082931
0002e0 3e d0 01 3f e4 a3 07 bf 52 3c ba 3e 3a b9 05 bf
       0.5070838 -0.5298445 0.36374146 -0.5223576
0002f0 f9 ea ad 3e 4f e6 02 bf 03 c6 75 bf 12 9c d3 be
       0.33968332 -0.51132673 -0.96005267 -0.4133001
000300 e8 6c 09 3f 60 9a 90 3c 16 18 b9 bf c4 1c 55 be
       0.536818 0.017651737 -1.4460475 -0.20811754
000310 6d 60 00 bf 37 36 39 bf 71 a7 0c bf 81 c6 6b bf
       -0.50147134 -0.7234835 -0.54942995 -0.9209977
000320 b4 b5 08 3f 0d d8 c8 bf 37 08 20 bf 96 26 e9 be
       0.53402257 -1.5690933 -0.62512535 -0.4553725
000330 04 9a 57 bf 98 31 20 3f a5 3c fa 3e 73 37 b6 3e
       -0.84219384 0.62575674 0.48874393 0.3558918
000340 aa c0 80 bf 5e be 50 bf 59 8d 16 3f ac 4c 50 40
       -1.0058796 -0.8154048 0.5880943 3.2546797
000350 78 61 8a 3e 5d d0 a7 3e 4b 50 bf 3f 87 44 81 bd
       0.27027488 0.32776156 1.4946378 -0.06311899
000360 c1 47 eb 3e 80 cd a5 3e 18 92 0c 3e f6 e4 f6 be
       0.4595318 0.32383347 0.13727605 -0.48221558
000370 90 df 47 be 4b 0f 5e 3f 41 9b 7f bd d1 f6 b1 bf
       -0.19518876 0.86742085 -0.06240392 -1.3903447
000380 5f 5b 9d 3f fa cc e8 be 10 1f b7 3e c3 27 bd bd
       1.2293509 -0.45468885 0.35765886 -0.092360996
000390 09 00 98 be 9d c3 be 3e 45 65 bc be a4 7d 9d be
       -0.29687527 0.37258616 -0.36796013 -0.3075992
0003a0 32 3d 5f 3f 5b b6 02 3f a9 b4 5d 3e c4 91 9e bf
       0.8720275 0.510595 0.21650948 -1.2388234
0003b0 0c 87 32 be 31 6d d7 3e cd 90 49 be 83 da e7 be
       -0.17434329 0.42075494 -0.19684143 -0.452839
0003c0 e6 cd 2b 3f 1b 8b 4c bf 7f 39 d7 3e e6 fe 16 bf
       0.6711105 -0.7989976 0.42036054 -0.58982694
0003d0 d3 d5 06 3d c5 db b2 bf 10 3d 8e be 6c bb 11 bf
       0.032918762 -1.3973318 -0.27780962 -0.5692661
0003e0 5f ef 00 3f 67 b8 8c bf 73 b9 f0 3e c6 87 bb bc
       0.5036525 -1.0993775 0.47016487 -0.02289189
0003f0 cb 1b 80 3f 02 c1 94 3e 95 91 29 3e ae f7 d0 bf
       1.0008482 0.29053503 0.16559441 -1.6325586

rnn.weight_ih_l0 f4 [30, 30]
000000 73 f1 ce 3d 37 7a 51 3e 12 8a 9c 3d 64 f5 43 bd
       0.101046465 0.20456778 0.07643522 -0.047841445
000010 d7 a2 23 be 83 42 bb bd f7 89 3b be 4e e3 36 be
       -0.15980087 -0.091435455 -0.18314348 -0.17860147
000020 a3 e6 b8 bd 5f 47 3a bd 4c 7d 4e bd ab dc fa 3d
       -0.090283655 -0.04547822 -0.05041246 0.1224912
000030 14 af 9c 3d f5 5d 81 3e 6f 76 ca bd ed cb 22 3e
       0.07650581 0.25266996 -0.09885871 0.15898104
000040 6b 05 07 3d f5 03 9d 3d 0c 6d 24 3e 50 c0 84 3d
       0.03296415 0.0766677 0.16057223 0.06481993
000050 b4 6a 77 bd 10 3d 66 3d eb 2d 4a be 55 b0 71 3e
       -0.060404494 0.056210577 -0.19744079 0.23602422
000060 7f 37 c5 bc a2 a9 71 3c 2d 36 7a 3d fc 57 a4 3d
       -0.024074314 0.014749916 0.061086822 0.08024594
000070 32 41 68 bd 22 e5 98 3d bd e3 68 be 1a 20 f8 3d
       -0.0567028 0.074655786 -0.22743125 0.12115498
000080 5a e3 d8 bd 27 bb 81 bd 2f 26 17 be 12 d8 c4 3c
       -0.10590239 -0.063345246 -0.1476066 0.024028812
000090 40 13 b6 bd 0c c2 8b 3d 2d 0f f5 38 b5 a8 95 3c
       -0.088903904 0.06824121 0.00011685337 0.018268922
0000a0 ba 3b cb bd 60 1c 03 3e 8f b1 75 3d 0d b8 8a 3e
       -0.09923501 0.12803793 0.059983786 0.27093545
0000b0 50 33 8b 3d 11 b3 80 3e 56 86 24 bd b2 29 06 be
       0.067968965 0.25136617 -0.040167175 -0.13101843
0000c0 4b 5f 3a 3e 5f a6 2a 3e 0e b3 0f be f3 a3 42 be
       0.18200414 0.16665028 -0.14033148 -0.19007854
0000d0 df e5 09 be 29 c4 1b 3e 79 2c 33 3d c1 e2 a0 3d
       -0.13466595 0.15211548 0.043743584 0.0785575
0000e0 e9 85 f4 bd 5b bc 81 3d 83 8b 1a 3e ed 86 5c bd
       -0.11939604 0.06334754 0.15092282 -0.053839613
0000f0 61 28 f2 3d cc 69 a6 bd fc 1b 25 3e 94 59 82 bd
       0.11824108 -0.08125648 0.16123956 -0.06364742
000100 1f 91 1a bc 23 f2 0c be a3 06 ab bc 51 ea 35 bd
       -0.009434014 -0.13764243 -0.020877188 -0.044412915
000110 96 19 41 3c 08 df 1d be 95 dc 1f 3d 19 37 87 3c
       0.011785885 -0.15417111 0.039028723 0.016505765
000120 8b a8 01 be ef 19 4f be 4c 94 9c bd 1e d1 cd 3d
       -0.1266195 -0.20224737 -0.07645473 0.100496516
000130 23 ba 6a 3c dd 89 0d 3e 3f ef 8a 3c f2 f6 27 3e
       0.014326605 0.13822122 0.016959785 0.16402796
000140 d9 34 d8 3d ea 86 b4 bd b9 7d 5d 3e bf d7 f0 bd
       0.10556955 -0.08814795 0.2162999 -0.117599
000150 4a 12 ef bd 90 7e 20 bd 9a f8 26 3e 80 10 81 3c
       -0.1167341 -0.0391832 0.16305771 0.015754938
000160 95 26 5d 3e 27 c8 4d be 40 77 44 bd 1b 41 ad bc
       0.21596749 -0.20095883 -0.04796529 -0.021149209
000170 22 55 01 3e 4a 77 d2 3c 23 98 43 3c 76 13 da bc
       0.12630132 0.025691647 0.011938128 -0.026620608
000180 f2 b9 1a be df 35 12 be 85 21 50 3d 78 62 b0 3d
       -0.15109995 -0.14278363 0.050813217 0.086125314
000190 c5 84 17 bd ae 1c ab bc 33 e8 21 3d 1d c5 84 3d
       -0.036991853 -0.020887699 0.039528083 0.06482909
0001a0 11 91 c9 3d f6 a5 98 bd 4a 44 e1 3b dd 67 9d 3c
       0.09842122 -0.074535295 0.006874596 0.019214565
0001b0 53 cf 2d 3e fa 89 84 3d 36 12 e3 3d 11 c2 2e bd
       0.16973619 0.064716294 0.11087458 -0.042665545
0001c0 d5 4f fe bd 05 36 2f 3e 55 e9 05 bd 16 f7 a7 3d
       -0.124175705 0.1711045 -0.032693226 0.08201425
0001d0 ef 03 e8 bd a8 5a 20 3d f7 33 96 3d fe 34 1f 3e
       -0.11328875 0.039148957 0.0733413 0.15547559
0001e0 bd 41 6f 3e 42 d0 cb bd 90 dc d0 bc c7 ac 04 3e
       0.23364921 -0.099518314 -0.025495797 0.12956534
0001f0 14 31 30 3d 7e c4 86 bd 3b c6 b1 bd 8f ee 38 3e
       0.043015555 -0.06580447 -0.086803876 0.18059753
000200 6a 56 d3 3d e3 11 91 3d 31 79 d8 3c 13 fa 9d bd
       0.103192165 0.0708349 0.026424976 -0.077137135
000210 cf 60 9b 3d 47 e9 10 be 90 7d 70 3d 1d 59 ae bd
       0.07586824 -0.14151488 0.058713496 -0.08513091
000220 b4 e0 a9 3d 9f 4c c2 3d e2 1e 00 be bd 14 2c bc
       0.08294812 0.094872706 -0.12511781 -0.010502991
000230 72 df 5d bd 2d b3 28 3d 8e 01 c6 bd f4 ba 28 be
       -0.054168172 0.0411865 -0.09668265 -0.16477567
000240 14 c3 a2 3d ad de 90 bd 0c 50 8b 3d 4d 67 de bc
       0.079473644 -0.07073722 0.06802377 -0.027148867
000250 ea df c8 bc 6c 61 f6 bd 2e be 54 bd c4 51 a4 3d
       -0.024520833 -0.120303005 -0.051939182 0.08023408
000260 15 67 dc 3d 89 0f 24 be 32 3e 77 bd 43 f6 2d 3e
       0.10761849 -0.16021551 -0.06036205 0.16988473
000270 09 b9 b8 bd 97 1d c1 bd ee 5b ef bd f4 41 93 3d
       -0.09019668 -0.09429472 -0.11687456 0.07190314
000280 42 d7 f7 3d 08 05 a9 3c f6 56 07 3c 68 8e 77 3d
       0.12101604 0.020632282 0.008260479 0.060438544
000290 00 ae c7 3c 8f 80 e9 3d 5d 12 f9 bb 5e e4 8c be
       0.024374962 0.11401474 -0.007601066 -0.2751798
0002a0 e4 58 50 3d 32 dd 61 3e 50 ae d8 bc a5 23 04 bd
       0.050866023 0.22057036 -0.026450306 -0.032260556
0002b0 ae 6e cb 3c 2b 74 72 3e 1b f2 ff bd c4 17 61 3e
       0.02483305 0.23677127 -0.1249735 0.21981722
0002c0 73 ef 41 be 9e 22 0f be e3 a1 8b bd bd d6 a6 3d
       -0.18938999 -0.13978049 -0.06817987 0.08146427
0002d0 01 83 51 be 72 b6 25 3e 21 78 59 3d 4c c7 e1 bd
       -0.2046013 0.16182879 0.05309308 -0.11024341
0002e0 22 db bc 3c b9 52 58 3e 7c 9e 12 be f7 5e 37 3a
       0.02305371 0.21125306 -0.1431827 0.0006995047
0002f0 71 12 e3 3d 7c f3 4c 3e d5 4b cd 3c 27 85 1e 3e
       0.11087502 0.20014757 0.025060574 0.15480481
000300 93 2f 4c 3e 2a db 85 3e 2e e0 c8 bd 68 9e 20 be
       0.19940023 0.2614377 -0.09808384 -0.15685427
000310 f7 1c 1d 3d 7d b4 7c be f6 a1 a6 3d 9e 6e 98 3d
       0.0383577 -0.24678226 0.0813636 0.074429736
000320 9e 26 d1 3d 80 97 11 be b1 af 0f be 0d ab c1 3d
       0.10212444 -0.14217949 -0.14031865 0.094564535
000330 9e 71 0a be 45 d1 1c bd b9 c4 11 be 35 48 83 bd
       -0.13519904 -0.038285512 -0.142352 -0.06410257
000340 1c 3e 8f 3c ed 5f 4e 3e 92 f9 e7 bd 3d e5 4e 3e
       0.01748567 0.2015378 -0.11326899 0.20204635
000350 40 8d 2a 3e a2 be a5 bd af ba 7c be 97 01 36 3e
       0.16655445 -0.08093001 -0.24680589 0.17774044
000360 b0 6a 32 bc 32 50 c5 bd 65 f6 fb bd 22 b7 54 bd
       -0.010889694 -0.09634437 -0.123028554 -0.05193246
000370 ad d5 96 3c 06 43 42 3a d4 fe 56 3c 44 57 82 3e
       0.018412435 0.00074105 0.013122279 0.25457203
000380 f1 cf d8 bd a4 2b 38 3e cf 45 ad bb a5 e1 ed 3c
       -0.10586537 0.17985398 -0.005287863 0.02903826
000390 2e 0f ae 3d 95 f6 0c 3e 62 2c 02 bd 5d c9 dd bd
       0.08498989 0.13765939 -0.031780608 -0.108294226
0003a0 9c 11 42 be 61 aa d4 3c fd 11 bf bd 86 16 c4 bd
       -0.1895203 0.02596015 -0.09329603 -0.095746085
0003b0 d0 fc a6 bb d0 b1 8c bd d5 82 48 3d 20 0c 4e 3e
       -0.0050960556 -0.068698525 0.048952896 0.20121813
0003c0 86 37 4b bc a3 80 d6 bd 92 ff 9c 3c 4e 84 4f 3d
       -0.012403375 -0.10473754 0.019164834 0.050663285
0003d0 6b b9 88 3d 61 7e 14 3e 67 c8 9a bc a1 8f 2d 3d
       0.06675991 0.14501335 -0.018894387 0.042373303
0003e0 d4 66 dd bd c1 32 be bc 9c e4 c4 3d c6 b5 34 3e
       -0.108106285 -0.02321756 0.09613916 0.17647466
0003f0 c3 6a 89 bd a5 d6 a2 3d fe 43 d3 3d 03 dd 0d bc
       -0.06709816 0.079510964 0.10315703 -0.00865865

rnn.weight_hh_l0 f4 [30, 30]
000000 2e 52 b8 3e db a0 80 3e d1 9f 8d bd d1 7a 63 bd
       0.36000198 0.25122723 -0.06915248 -0.05553705
000010 ce e5 cf be 49 3d 01 3e 7c 90 6b 3d 5d 9a 71 3c
       -0.40605015 0.12621035 0.057510838 0.014746276
000020 5c ae 73 bd 04 42 a3 3d 56 63 8e 3d a0 f5 92 3d
       -0.059492454 0.07971576 0.069525406 0.071757555
000030 f1 70 c3 3c cb 8b dd 3d a5 09 9f bd cc 6b 34 be
       0.023857566 0.10817679 -0.077655114 -0.17619246
000040 31 44 a3 3e 40 24 f5 bc 44 c7 44 3d 58 7d 7f be
       0.31887963 -0.029924512 0.048041597 -0.24950159
000050 96 13 e5 bd f6 cb ec bd f9 10 7e bd f1 08 9a be
       -0.11185376 -0.1156234 -0.062027905 -0.30084947
000060 b8 85 9c 3e 65 cd c3 3e 20 6e a0 be de 75 0f ba
       0.3057077 0.3824264 -0.3133402 -0.00054725807
000070 1d 82 50 be 6a 30 0d be 78 21 ce 3d e6 55 74 3e
       -0.20362134 -0.13788 0.100649774 0.23860893
000080 ef d7 92 bc 57 29 8b 3e a5 f0 3e be ae 59 71 bc
       -0.01792523 0.27179977 -0.18646486 -0.014730854
000090 22 94 79 3d b0 dc dc bd ef 0f b0 bd bc 0d b3 bd
       0.060932286 -0.1078428 -0.08596789 -0.08742854
0000a0 39 87 0f 3e 7a b8 b1 be f7 c2 16 3e 5d 3b d4 3e
       0.14016427 -0.34711057 0.1472281 0.4145154
0000b0 fb 8e 25 bd e3 8c d2 be 90 94 30 3e 8f 68 04 be
       -0.04041956 -0.41123113 0.17244172 -0.12930511
0000c0 77 74 d1 bd f4 65 64 3d 57 11 dc 3c ed d6 ae bd
       -0.10227292 0.055761293 0.026863737 -0.085370876
0000d0 dc 69 0f 3e 71 08 9b be 09 3d 08 be 19 06 84 3e
       0.14005226 -0.30279878 -0.13304533 0.25785902
0000e0 98 27 a6 be 34 a5 73 be dd 4a 82 bd 21 e2 57 3e
       -0.32452083 -0.23793489 -0.06361935 0.21082355
0000f0 ef 9c cd 3e 6c 7f a7 3d 52 8a 79 3e 12 2d d3 3c
       0.40158793 0.08178601 0.24369171 0.025778327
000100 61 4c 94 be cd 50 0a 3e f8 4d b5 3d 30 40 60 3e
       -0.28964522 0.13507386 0.08852762 0.21899486
000110 4d 07 54 3d e3 dc 72 be 60 b4 86 3e 41 66 82 3e
       0.051764775 -0.23717074 0.2630949 0.2546864
000120 f6 3f 39 be 29 56 91 bc a6 2c 23 3d 48 c0 aa 3e
       -0.18090805 -0.01774128 0.039837502 0.33349824
000130 e2 c3 f0 3d 77 83 93 be 04 d7 9f bd 17 45 58 bd
       0.11756112 -0.28811237 -0.07804683 -0.052800264
000140 5a 06 9f 3e 27 28 8d be fb 1d 41 3e 0e 98 60 be
       0.31059533 -0.27569696 0.18859093 -0.21933004
000150 ee 4a 83 3e 6a 36 82 3e 8e dc be bc 06 b9 85 bd
       0.25643104 0.2543214 -0.023298528 -0.06529431
000160 51 bb 0f 3e 07 6c 2d bd 90 96 58 3e 5f d0 63 3d
       0.140363 -0.04233935 0.21151185 0.05561864
000170 8f 0c e0 bd d1 da 4c 3b bc 31 5d be 8d 73 97 3e
       -0.10939895 0.0031258354 -0.21601003 0.29580346
000180 8d ca ed bd 16 89 64 3e d7 3e f8 3d d8 93 aa 3e
       -0.11610899 0.22317919 0.12121361 0.3331592
000190 88 5a 7f 3d 1f 53 b9 3e ec 3b 28 3e 40 8d bb be
       0.062342197 0.3619623 0.16429108 -0.36631203
0001a0 7d bb 67 be c7 34 4b 3d d1 d1 89 be b2 fc c1 bd
       -0.22630115 0.04961088 -0.2691789 -0.09472026
0001b0 17 71 a8 bd 33 9c 70 3a 27 93 a9 bc 3d 3c 1b 3e
       -0.08224695 0.0009178549 -0.02070005 0.15159698
0001c0 b4 1a be bb cc eb 5e 3e de cc d3 3d 6a c3 58 bd
       -0.005801523 0.21769637 0.1034181 -0.052920736
0001d0 a1 32 94 bd 8d 61 af 3d 8d 46 4e 3d a2 67 fe be
       -0.07236219 0.08563528 0.05036025 -0.4968844
0001e0 bc 45 b1 bd b9 f6 85 be 6d f6 64 3e 38 48 21 be
       -0.08655879 -0.26164797 0.22359629 -0.15750206
0001f0 d7 13 0b 3e f2 3d c5 3c 98 e9 f2 bd 75 65 ff 3d
       0.13581787 0.02407739 -0.11860961 0.12470523
000200 6c e5 74 3e 8a ec 6d 3e dd f0 8f be 11 69 7c 3d
       0.23915642 0.23234764 -0.28113452 0.061623637
000210 d7 71 2d bd 7a b7 e6 be 9f 3c 84 3e 63 9b 5c 3e
       -0.042344894 -0.45061857 0.258275 0.2154365
000220 7c bc 3d be 9c fb 85 3c 07 a2 82 3e 12 d2 14 3d
       -0.18528932 0.016355328 0.25514242 0.03633315
000230 35 ce 32 be 89 30 0a 3c 91 7a f9 bd 3c 1d 17 3d
       -0.17461474 0.008434423 -0.12181581 0.036893114
000240 2b 41 4f 3d 52 58 c0 be 8e 21 dd 3d 5d e5 93 3e
       0.05059926 -0.37567383 0.10797416 0.28885928
000250 d5 83 71 3e ee 45 05 be f3 3d 93 be de b1 c9 bd
       0.23585446 -0.13014957 -0.287582 -0.098483786
000260 1d bf fe bc a4 82 5a be dd 5c 5a be f1 bf 11 be
       -0.03109699 -0.21338898 -0.21324487 -0.14233376
000270 d0 8e 76 3e 23 a4 69 3b f8 28 81 3e f3 8f 75 3e
       0.24077916 0.0035650812 0.2522657 0.23980694
000280 b9 b2 64 be b1 4c 28 bc 75 98 28 be 41 31 9e 3d
       -0.22333802 -0.010272191 -0.16464408 0.07724238
000290 11 66 7c 3e 9b da 23 3b 62 fd cb 3d 9d bd 93 be
       0.2464831 0.0025002125 0.09960438 -0.288556
0002a0 a4 c7 d9 bd 26 82 c9 bd 07 e9 b2 be d0 46 8f bd
       -0.106337816 -0.09839277 -0.3494341 -0.06995928
0002b0 cf 15 8a be cd cf ab be 6a f1 3f be f9 59 4f bd
       -0.26969764 -0.33556977 -0.18744436 -0.050622914
0002c0 6d b1 1d bb 72 c3 01 be 32 73 a1 be 7d 18 ae bd
       -0.0024062053 -0.12672213 -0.315332 -0.085007645
0002d0 8f 76 42 3e 28 9c 43 3e b9 1d 62 3e 28 8b 97 3d
       0.18990539 0.19102538 0.22081651 0.07399589
0002e0 f2 d8 18 be c4 6e a3 3d 9c 9c 9b 3e 4f d7 37 3d
       -0.14926508 0.07980111 0.3039292 0.04488307
0002f0 e5 86 5c 3e 3d 69 57 3d b3 78 f6 3d 97 73 98 3e
       0.21535833 0.052590597 0.1203474 0.29775688
000300 59 09 49 be 7a 14 f7 bd 74 fb fe 3b a1 85 77 3e
       -0.19632472 -0.120644525 0.0077814404 0.24172069
000310 3b cf fc bd 0a 28 31 bc 83 a4 9c bd 75 4c fb 3d
       -0.123442136 -0.010812769 -0.076485656 0.122704424
000320 3a a9 6d 3e a4 d6 b9 be 25 75 47 bd 53 a3 b8 3d
       0.23209086 -0.3629657 -0.048695702 0.090155266
000330 7c 25 93 3d 6b ad e6 bb 6b de f5 bd 45 38 78 be
       0.07184884 -0.007039716 -0.120053135 -0.24240215
000340 3d b6 2b bd c7 fa 94 bd ed 36 98 bc 25 6b 9b bd
       -0.041921843 -0.072743945 -0.018580878 -0.075887956
000350 49 9a 25 bc 77 06 90 be c0 35 a0 be 58 82 b8 be
       -0.010107585 -0.28129932 -0.31291008 -0.36036944
000360 80 88 0e 3e 33 ca 54 be d6 ce 39 3e a1 90 37 be
       0.13919258 -0.20780258 0.18145308 -0.17926265
000370 bf 96 a4 bd b3 cf c2 be 87 be aa bc 2b 68 b7 3e
       -0.08036565 -0.38049087 -0.020842804 0.3582166
000380 49 12 63 3d fa f6 56 be 74 da 93 3e 8e 7c 86 be
       0.05543736 -0.20992652 0.28877604 -0.26266903
000390 d6 ce 17 be 2e 89 28 bd f7 0e a4 be 58 cd 22 be
       -0.14824995 -0.04114645 -0.32042667 -0.15898645
0003a0 8f a0 80 be 2a 52 31 be 7b 0e 79 bd 9e 19 bc 3d
       -0.25122496 -0.173165 -0.060804825 0.091845736
0003b0 00 8c a0 bc ef c2 1d bd c8 43 14 be d3 e2 65 3e
       -0.019598007 -0.03851598 -0.14478981 0.22449808
0003c0 18 1c 87 3c 9d ba b1 3d eb 46 c4 3d 5c ef 27 3d
       0.016492888 0.08678172 0.09583839 0.040999755
0003d0 01 4c 83 be d6 f4 64 bc 58 00 e3 3e fc 11 0a be
       -0.25643924 -0.013974389 0.443362 -0.13483423
0003e0 fa f5 ee 3d 4a 43 a6 be 9d e1 af 3e c0 55 60 3e
       0.1166801 -0.32473212 0.34351817 0.21907711
0003f0 45 1f b4 be e2 a0 f4 bd 25 f4 28 3e f4 46 74 3e
       -0.35180107 -0.119447485 0.16499384 0.23855191

rnn.bias_ih_l0 f4 [30]
000000 2a 8e d3 bd 52 10 a8 3d da 92 a7 bc a2 01 f8 bd
       -0.1032985 0.08206238 -0.020455766 -0.121096864
000010 5a 49 f8 3d 9f 76 ac 3d 0e b9 4b 3d f7 97 14 be
       0.12123366 0.08421063 0.04973703 -0.14511095
000020 e6 56 1b be 8a 38 4d bd f0 12 fc ba 77 d3 06 be
       -0.15169868 -0.050102748 -0.0019231718 -0.13166605
000030 25 e5 26 3e 0f 8c c0 3c e3 7a 6c 3e 76 28 90 bb
       0.16298349 0.023504285 0.23093753 -0.0043993546
000040 cb d8 8b 3d ea 80 f1 bd 60 db 0f 3e d6 0e 2b bd
       0.06828459 -0.117921665 0.14048529 -0.041762196
000050 28 9d 94 bd 1c c1 65 bc 36 fc 9c 3d 54 75 0f 3e
       -0.07256538 -0.014023092 0.07665293 0.14009601
000060 44 15 7b bd d2 07 e3 3d 8d f5 bb bd 82 1a a1 3d
       -0.061299577 0.11085476 -0.091776945 0.07866384
000070 64 80 89 bd d9 72 47 bd
       -0.06713942 -0.04869351

rnn.bias_hh_l0 f4 [30]
000000 da fa 2d 3e 98 1a 3f 3c d7 7e 32 bd 30 6b 09 be
       0.16990224 0.011664055 -0.043577995 -0.13419795
000010 b4 91 38 3d fc 80 30 3e 91 19 19 3a 40 b1 23 bd
       0.04506083 0.17236704 0.00058402965 -0.03996396
000020 7a c1 1a 3e 79 e0 25 3d 1d 35 90 bb 45 7b c3 bd
       0.15112868 0.040497277 -0.004400863 -0.09544996
000030 69 54 2d 3c 08 a4 ff bd 9d 7d 35 3e 0c 1d 1b bd
       0.010579207 -0.12482458 0.17723699 -0.037869498
000040 2c f4 a6 3d 3e 00 05 bc 98 c6 5a 3d 10 59 fb 3b
       0.08152041 -0.0081177335 0.05341205 0.007670529
000050 20 86 70 3b bc fb da bd 95 92 e7 3d 04 67 0e 3e
       0.0036701038 -0.10692546 0.11307255 0.13906485
000060 a4 f6 e7 3d 73 78 c8 bd 01 53 06 bd 37 0e 2e be
       0.1132634 -0.09788599 -0.032794002 -0.1699761
000070 04 31 b2 3d 5d b6 f7 bd
       0.08700755 -0.1209533

classify.weight f4 [11, 30]
000000 4c eb 8f 3e 0b 20 64 bd 34 49 b0 3c 69 39 86 3e
       0.28109205 -0.05569462 0.021519281 0.26215675
000010 46 98 b0 3d f8 c8 ca be 7d bb cf bd 58 a7 88 be
       0.08622794 -0.39606452 -0.101431824 -0.26690173
000020 6f ed 70 be bf e4 ea bd dd 90 8a 3e a2 ca 45 be
       -0.23528074 -0.11469411 0.27063647 -0.1931558
000030 ce 2b e2 3d 38 12 ce 3d 4d d5 9e bc 87 b4 a9 bd
       0.11043511 0.10062069 -0.01938882 -0.08286386
000040 97 f1 b4 3e 3a 3c 70 3e 69 8d 3b 3e 7c f9 71 3e
       0.35340568 0.23460475 0.18315662 0.23630327
000050 ef 07 b5 3e ba 3f b3 3e 5a aa 4a 3e ae 67 86 be
       0.35357615 0.35009557 0.19791546 -0.26250976
000060 57 a2 95 3e 29 a0 04 3e aa ae 8d 3e a5 34 d5 3c
       0.29225418 0.12951721 0.2767232 0.02602608
000070 79 6b ba 3d 10 f6 56 3e 2a 84 2f 3e d3 54 93 3e
       0.0910253 0.20992303 0.1714026 0.28775653
000080 74 e0 60 bd 44 1b 96 be ba 5f b5 be 4d 41 09 3c
       -0.054901555 -0.29317677 -0.35424596 0.008377385
000090 6f b8 7f be 3c 5e cc 3e 48 e4 9f be 4b b9 a9 3e
       -0.249727 0.39915645 -0.31228852 0.3314918
0000a0 03 be 0b bd 28 7c 47 be 61 14 94 3e e7 bf 4c be
       -0.034116756 -0.19480956 0.28921798 -0.1999508
0000b0 86 14 45 3e e8 c6 31 be fe 42 84 3e 32 5f 15 3d
       0.1924611 -0.17361033 0.2583236 0.03646774
0000c0 7d e4 74 3e b7 75 ec 3d 3a 46 10 3e e3 40 3a 3d
       0.23915286 0.1154589 0.1408929 0.045472037
0000d0 aa 12 70 3e e4 cf 9b 3e de 5c 66 3e 51 e8 58 3e
       0.2344462 0.30432045 0.22496364 0.21182372
0000e0 ec bf 20 be b6 74 62 3e 35 6e 58 3e 9f 41 24 be
       -0.15698212 0.22114834 0.2113579 -0.16040657
0000f0 91 92 3c be 2d e7 3a 3e 73 7b 91 be 79 d8 42 be
       -0.18415286 0.18252249 -0.28414497 -0.1902789
000100 54 e6 4f be 1b f3 63 be 2b 9e 20 be 4c 17 90 be
       -0.20302707 -0.22260706 -0.15685336 -0.28142774
000110 5b 25 87 be e9 53 6c 3e 24 fc 4c 3e 8b 1c 92 be
       -0.26395687 0.23078884 0.20018059 -0.28537402
000120 8a a7 f4 3d 52 25 59 3e 7a 18 83 be fa 67 94 bd
       0.11946018 0.21205643 -0.25604612 -0.072463945
000130 70 cd 92 3e c0 e9 32 be 50 75 53 be 6a 8e a0 be
       0.2867236 -0.17471981 -0.2065022 -0.31358653
000140 4a ca 9e be 75 1b 4b 3d 47 15 87 be ff 9b 5f be
       -0.3101371 0.049586732 -0.2638342 -0.21836852
000150 2b 37 8b be 6e fd 5c 3e 7d 8c 80 be 76 15 9f 3e
       -0.27190527 0.21581051 -0.25107184 0.3107106
000160 de 1f 9c bd e3 4f 1c 3e 23 85 be bd a9 76 8e be
       -0.07623266 0.1526485 -0.093027376 -0.27824906
000170 4e 1f 53 be 4c 78 a5 3e 20 a2 cb 3d 8c c6 30 3e
       -0.2061741 0.32318342 0.09943032 0.1726324
000180 1d 2a a9 bd b3 3a ff bd ac 85 8a be 0b e2 fc 3c
       -0.082599856 -0.12462368 -0.2705511 0.030869504
000190 61 8b c3 be 6a 86 a6 3d c9 d1 1f 3e 7e a8 ad 3e
       -0.38192275 0.08131106 0.1560737 0.33917612
0001a0 82 24 65 3e 54 30 c0 be e5 bc a8 be bc f5 1b 3e
       0.22377208 -0.3753687 -0.32956615 0.15230459
0001b0 d2 c3 48 3e a7 49 44 3e e7 05 8b 3d e1 d5 1b 3e
       0.1960595 0.19168721 0.06788235 0.15218307
0001c0 7d e1 25 3e 70 d9 80 3d 62 00 8e be c9 e8 93 3e
       0.16199298 0.06291473 -0.27734667 0.28888538
0001d0 5b c8 9e be 92 b6 82 be 63 ab 68 3e be b4 98 3e
       -0.31012234 -0.25529915 0.22721629 0.29825395
0001e0 9b 85 57 be 05 aa 84 3d 89 68 2f be 34 11 56 be
       -0.2104706 0.06477741 -0.17129721 -0.20905
0001f0 5c 50 45 3e 3c d6 8f 3e cd 9c e5 bd e1 6a 97 3e
       0.19268936 0.28093135 -0.11211548 0.2957373
000200 46 75 ac 3e 91 1c e1 3d 36 45 bc be 0c eb 81 3e
       0.33683223 0.10991777 -0.36771554 0.2537464
000210 a1 c0 33 3e c5 0b d1 bd a7 1b ad 3e 36 78 01 bd
       0.17553951 -0.10207323 0.3381016 -0.031608783
000220 d5 61 2a be 92 c5 3f 3d 38 28 8b 3d 47 39 8c be
       -0.16638882 0.046819277 0.067947805 -0.2738745
000230 c0 1f 89 be e0 6e 6b 3e d0 43 89 be 11 ff 6f 3e
       -0.26782036 0.22991514 -0.2680955 0.23437144
000240 72 c9 2d be bc b3 57 3c a6 83 8c be a7 4f b6 3d
       -0.16971377 0.013165411 -0.2744419 0.08901911
000250 54 24 8b be 5a 92 b9 be f9 b4 94 be 0e c0 59 be
       -0.27176154 -0.3624447 -0.2904432 -0.2126467
000260 13 9a ce 3d 2d 92 a6 bd 61 5d 86 3e 33 5f 4c be
       0.10087981 -0.081333496 0.26243117 -0.1995819
000270 7f 4c ad 3e 3d a2 a3 be 2e 6d dc 3e 7a de af be
       0.33847424 -0.31959715 0.43052047 -0.34349424
000280 69 61 56 3c 53 dc 57 be e2 44 96 be 4b ab 36 3e
       0.013084748 -0.21080141 -0.29349428 0.1783878
000290 67 32 75 3e a9 8a 29 be 2c 26 c2 bd 42 72 a7 bd
       0.23945008 -0.16556801 -0.09479937 -0.0817609
0002a0 4f dd a9 be cf 52 b2 bd 9d 01 94 be 8d 82 3c 3e
       -0.33176658 -0.08707201 -0.2890748 0.18409176
0002b0 bd f4 a6 be 21 8a d1 3c 00 43 c3 bd 06 8b ac be
       -0.32608595 0.02557856 -0.095342636 -0.33699816
0002c0 fb 15 d2 bb 67 bf 54 be ec e4 9e bd 75 2c c1 3d
       -0.0064113117 -0.20776139 -0.07758507 0.09432308
0002d0 f2 2d b7 3d b0 f0 38 be fd 87 7d 3e 36 88 da 3d
       0.0894431 -0.18060565 0.24758907 0.106705114
0002e0 47 2d 06 3e 09 b0 05 3e 9f 58 85 3e 5b 3d bc bd
       0.1310321 0.13055433 0.26044175 -0.0919139
0002f0 ce a5 8c 3e 0c d3 75 be 06 b8 96 be 3c 2a b1 3e
       0.2747025 -0.24006289 -0.29437274 0.34602535
000300 4b c8 01 be e5 f1 7d be ee c8 a3 3e 04 d6 c9 3e
       -0.12674062 -0.24799307 0.31989235 0.39421093
000310 a6 0b 3e bd d7 ea d7 3a 8a 5f 84 3e 34 d2 a6 3e
       -0.046397828 0.0016473186 0.2585414 0.32582247
000320 09 13 d0 3e 4d 07 a7 be 2f 26 7f 3d 82 3a 65 3e
       0.40639523 -0.32622758 0.062292274 0.223856
000330 c7 eb dc bd 92 6b be be f4 01 2c be df 19 16 be
       -0.107871585 -0.37191445 -0.1679762 -0.14658307
000340 c4 78 91 3e d4 5d 82 3e 54 d5 98 3e dd 5c 8d 3e
       0.2841245 0.2546221 0.29850256 0.27609912
000350 96 c1 85 3e 7d 5f 49 be c4 f7 92 be d5 51 9d 3e
       0.26124257 -0.19665332 -0.28704655 0.30726495
000360 7c 1e ef 3d 91 06 aa 3e 9f 87 4d 3e e5 b5 60 3e
       0.11675736 0.33208135 0.20071267 0.21944387
000370 43 54 8d be 05 ed a3 3e b0 30 ac be 91 a8 80 be
       -0.2760335 0.3201677 -0.33630896 -0.25128606
000380 24 36 96 bd dc 5e 8d 3e 58 d4 10 3d 08 a0 b1 be
       -0.07334545 0.27611434 0.035358757 -0.34692407
000390 4a 90 38 3e 4e 22 9f be e6 4c 66 be af 52 b8 be
       0.18023792 -0.3108086 -0.22490272 -0.36000583
0003a0 eb eb 4c be 42 0c 5d be 43 e0 11 3d 9c 82 21 be
       -0.2001187 -0.21586707 0.035614263 -0.1577248
0003b0 82 28 89 3d 95 1c 8e 3e bc 72 89 3e 92 cd c9 bd
       0.066971794 0.2775618 0.26845348 -0.098536626
0003c0 58 8e 3a 3e 9c 4e 29 3e 45 15 87 3e 3b c8 52 3e
       0.18218362 0.16533893 0.26383415 0.20584194
0003d0 02 56 c0 be 91 69 84 be db ee 84 3e 5d e2 63 be
       -0.3756562 -0.2586179 0.25963482 -0.2225432
0003e0 68 49 80 3e 6c cb 2f be 56 b1 a8 3e 9a 16 4e be
       0.25056005 -0.17167443 0.32947797 -0.2012581
0003f0 63 48 89 be a5 9a 54 3e 08 f9 51 bd 4d b2 a3 3e
       -0.2681304 0.20762117 -0.051262885 0.3197197

classify.bias f4 [11]
000000 f8 4c 7e bb 00 db c1 bd 51 6e 5b bd 85 a8 9d bd
       -0.0038803201 -0.09465599 -0.053572003 -0.07698158
000010 4d c8 03 3d a0 43 a3 3d eb 7a f8 ba fd 30 f6 bc
       0.032173444 0.07971883 -0.0018957531 -0.030052656
000020 cf 36 9f bd f7 13 86 38 9c 44 69 3d
       -0.07774126 6.393337e-05 0.056950197
