陈雅慧/week13/lora_tuning.pth (torch, 328372 bytes, 14 tensors)

base_model.model.bert.encoder.layer.0.attention.self.query.lora_A.default.weight f4 [8, 768]
-0.014430039 0.0058696195 -0.030107187 0.01942838 -0.01646735 -0.023473125 0.007112343 -0.033362508
0.021508656 -0.044681583 0.013762004 0.01009526 0.02059113 -0.03348988 -0.038097084 -0.035054017
-0.013628253 0.028523017 -0.039386377 0.0093269 0.010894931 0.015237478 0.028827233 -0.009856794
-0.005609851 -0.024059003 0.0041997954 -0.027635183 0.027944123 0.036958955 0.005599895 -0.017501045
0.024073048 0.03757496 0.015511753 0.014027268 0.007846227 -0.018844351 -0.03379828 -0.036084283
-0.018925235 0.0049757306 -0.005585637 -0.06113919 -0.004570234 0.024723921 0.04393169 -0.022929894
0.018052533 -0.0064171674 0.027771529 0.0026559932 -0.01400475 -0.0062626554 -0.01086324 0.040787965
-0.035074882 -0.019076305 -0.00518628 -0.014652302 -0.016283909 -0.01567972 -0.0142533155 -0.0023360138
-0.050304867 -0.016895736 0.04409617 -0.03224958 -0.041474745 -0.049720883 0.025732493 -0.017284714
-0.003874513 -0.037619628 0.0031316944 0.018494613 0.02580267 -0.016846752 0.042639673 -0.04147901
-0.035344936 0.024959784 -0.02726858 0.018321706 -0.008278124 0.036781218 -0.005685089 -0.019543646
-0.03310951 -0.016840514 0.025760975 0.052293092 0.037433624 0.0073983055 -0.012325559 -0.07114786
-0.045417376 -0.036247607 0.03630848 0.0011426231 0.023759656 -0.044577308 -0.05475323 -0.021126939
0.027014658 0.0070533855 0.0078768395 -0.010591889 0.017064711 0.0053252727 0.007712387 0.009230547
-0.021202113 -0.005540749 -0.0049710064 0.0074822265 -0.02485634 -0.019994056 0.013406007 0.022024594
-0.056210715 0.022065777 -0.021636747 -0.032816477 -0.0027556901 0.02185181 -0.027221294 -0.013632157
-0.032425966 -0.008065312 -0.02336939 0.021874852 -0.0024285342 -0.0076181944 0.03899278 -0.003922741
0.028513968 -0.026914518 0.002387325 0.029116306 0.0005003776 -0.015986372 -0.016923618 -0.0206421
-0.009703919 0.024757614 -0.04309566 -0.030054044 0.034123253 -0.05719832 0.025465628 -0.036083467
0.020566702 -0.052451894 -0.01560111 -0.024563236 0.026756443 0.04629773 0.017171472 -0.034492344
0.04655301 -0.028138287 -0.033441536 -0.033811994 -0.0031436053 -0.024459925 0.055120837 -0.044257008
0.020813413 -0.01984309 -0.032079183 0.01953797 0.0007463841 0.0007517417 0.02290191 -0.036643077
-0.0339725 -0.0370824 0.040783707 0.022604676 -0.011165698 0.0013891883 -0.0019410261 -0.028270632
-0.006290564 -0.040832613 -0.027336096 -0.0456739 -0.029442795 -0.029461304 0.016338479 0.010467988
0.01421362 -0.0010597202 -0.030883672 0.013383912 -0.004977866 0.0091664465 -0.037136063 0.023916481
0.021628285 -0.018902123 -0.032591853 -0.034054887 -0.024276061 0.0073306835 -0.0011795078 0.018503154
-0.00968735 0.053693376 -0.0005313308 0.010502572 0.01344002 -0.019620063 -0.026141543 0.0038733652
-0.005658057 -0.0033527226 -0.00040299274 0.03206369 0.001923798 -0.020430192 -0.013131478 0.0002858775
0.027521994 -0.02111036 -0.024543788 -0.00377527 0.025732003 0.01766541 -0.040871777 0.017787242
-0.059642065 -0.03141542 -0.011750104 -0.025885455 0.021882962 0.008306706 0.03551564 0.02730928
0.033262093 0.03244839 0.037755292 -0.03984378 -0.011763462 -0.032189466 0.011975745 0.026831085
0.00566643 -0.038014565 0.0042586117 0.04003675 0.010337852 -0.0032351818 0.024211105 -0.017412849
00000000: f86b 6cbc f055 c03b 59a3 f6bc 4428 9f3c
00000010: 89e6 86bc b64a c0bc a80e e93b 20a7 08bd
00000020: ec32 b03c 0904 37bd 077a 613c 9766 253c
00000030: bbae a83c af2c 09bd b00b 1cbd cd94 0fbd
00000040: 0949 5fbc 1aa9 e93c 9c53 21bd dbcf 183c
00000050: a780 323c 9da6 793c 1727 ec3c 647e 21bc
00000060: d7d2 b7bb 6317 c5bc 709e 893b 2e63 e2bc
00000070: 13eb e43c 4662 173d 537f b73b 5a5e 8fbc
00000080: d734 c53c 34e8 193d 0225 7e3c a0d2 653c
00000090: 768d 003c 785f 9abc 1170 0abd 1dcd 13bd
000000a0: 1809 9bbc 740b a33b b807 b7bb 166d 7abd
000000b0: e7c1 95bb d289 ca3c b7f1 333d 79d7 bbbc
000000c0: e8e2 933c 1a47 d2bb 1e81 e33c 2c10 2e3b
000000d0: 2e74 65bc f636 cdbb bbfb 31bc 4811 273d
000000e0: aeaa 0fbd e945 9cbc abf1 a9bb 3510 70bc
000000f0: d565 85bc c272 80bc bd86 69bc cf17 19bb
00000100: 7a0c 4ebd ed68 8abc 309e 343d 2318 04bd
00000110: 6ce1 29bd 20a8 4bbd f3cc d23c ac98 8dbc
00000120: 8beb 7dbb 0a17 1abd 1d3d 4d3b 0482 973c
00000130: 1f60 d33c 3302 8abc f0a6 2e3d e5e5 29bd
00000140: dac5 10bd 7678 cc3c 5b62 dfbc 6717 963c
00000150: f8a0 07bc e7a7 163d fc49 babb ff19 a0bc
00000160: d69d 07bd 1ef5 89bc ae08 d33c 4831 563d
00000170: 0054 193d 7c6d f23b 24f1 49bc f8b5 91bd
00000180: 9207 3abd 5f78 14bd 33b8 143d 12c4 953a
00000190: 9ca3 c23c b296 36bd ec44 60bd 6712 adbc
000001a0: d84d dd3c 1620 e73b dc0d 013c 9a89 2dbc
000001b0: 4bcb 8b3c a07f ae3b 31b8 fc3b b83b 173c
000001c0: 0eb0 adbc 2c8f b5bb d3e3 a2bb 772d f53b
000001d0: 869f cbbc 93ca a3bc dea4 5b3c ec6c b43c
000001e0: 353d 66bd 4ac3 b43c 8c3f b1bc 926a 06bd
000001f0: cf98 34bb 9102 b33c 31ff debc 6959 5fbc
00000200: 17d1 04bd 5f24 04bc 2a71 bfbc e432 b33c
00000210: 0b28 1fbb 0ca2 f9bb e5b6 1f3d 568a 80bb
00000220: 2096 e93c d67b dcbc ab74 1c3b 5285 ee3c
00000230: c62b 033a daf5 82bc 66a3 8abc 9f19 a9bc
00000240: 30fd 1ebc 7bd0 ca3c 1385 30bd e633 f6bc
00000250: d3c4 0b3d c948 6abd 4b9d d03c 42cc 13bd
00000260: 807b a83c ccd7 56bd cc9b 7fbc d738 c9bc
00000270: 5430 db3c b0a2 3d3d 30ab 8c3c d847 0dbd
00000280: 5eae 3e3d 4482 e6bc fef9 08bd 727e 0abd
00000290: f204 4ebb 2e60 c8bc 63c6 613d d646 35bd
000002a0: e480 aa3c fa8d a2bc 7665 03bd 180e a03c
000002b0: fda8 433a 8810 453a c99c bb3c 0d17 16bd
000002c0: c026 0bbd b7e3 17bd d10c 273d 712d b93c
000002d0: 55f0 36bc 6d15 b63a 076a feba d097 e7bc
000002e0: 1321 cebb 1940 27bd f3ef dfbc 8e14 3bbd
000002f0: 0432 f1bc d558 f1bc 46d8 853c ed81 2b3c
00000300: 3ee0 683c 4fe6 8aba c1ff fcbc 3248 5b3c
00000310: 5e1d a3bb dd2e 163c fc1b 18bd 7fec c33c
00000320: cd2d b13c a0d8 9abc 097f 05bd 237d 0bbd
00000330: 97de c6bc 3b36 f03b b799 9aba ed93 973c
00000340: b1b7 1ebc 96ed 5b3d 0249 0bba fb12 2c3c
00000350: 8833 5c3c 41ba a0bc ca26 d6bc 49d8 7d3b
00000360: 3967 b9bb 5ab9 5bbb c548 d3b9 3755 033d
00000370: f327 fc3a 385d a7bc 6925 57bc d4e1 9539
00000380: ce75 e13c a2ef acbc 0e10 c9bc 856a 77bb
00000390: eccb d23c 0db7 903c 2a69 27bd 8db6 913c
000003a0: 3d4b 74bd 75ad 00bd 8283 40bc bc0d d4bc
000003b0: e643 b33c da18 083c d978 113d b6b7 df3c
000003c0: d53d 083d 9ae8 043d 4ba5 1a3d 3b33 23bd
000003d0: 89bb 40bc 1ad9 03bd ea35 443c ddcc db3c
000003e0: 76ad b93b 29b5 1bbd d38b 8b3b 93fd 233d
000003f0: 1860 293c 5805 54bb 5e56 c63c 64a5 8ebc

base_model.model.bert.encoder.layer.0.attention.self.query.lora_B.default.weight f4 [768, 8]
-0.0031940313 -0.010550883 -0.0028241258 0.015820919 0.017895807 0.0014017092 0.008830473 0.00088044425
-0.00464924 0.008732912 -0.0039090216 -0.006676149 -0.006160711 0.008814091 0.008257198 -0.015484178
0.007242536 0.010807203 -0.015386056 -0.014986828 -0.0065011536 0.013086485 0.0038556815 -0.007829393
0.007996937 0.007914089 0.010430093 -0.0028017669 -0.009212737 -0.0066753905 -0.0135364225 -0.001874424
-0.007629281 -0.005338095 -0.0068649943 -0.0064255763 0.0028405793 0.012217679 0.012588135 -0.004438252
-0.004604128 -0.013907656 0.0074816747 0.023231573 0.008965475 -0.0077890493 0.0066943094 0.0016841609
-0.0038678674 -0.008904751 0.008571839 0.01048196 0.0063351807 -0.00729548 0.0006785786 0.008246659
-0.005363295 -0.009168804 0.0014320913 0.016921457 0.01250764 0.0018724336 0.0057806596 -0.0045630937
0.009883764 0.022961983 -0.002550753 -0.041527577 -0.024721391 0.009249256 -0.012779606 -0.0025166313
0.0062407306 0.014655073 -0.013306715 -0.015432541 -0.008895854 0.00878828 -0.0031994034 -0.0040707113
-0.008449638 -0.0152871255 0.0040356987 0.005925387 -0.009267656 -0.002216198 -0.002153523 -0.0053429045
0.012456549 0.012410782 0.01534813 0.00036040432 0.0072172834 -0.015287695 -0.012988758 0.021409126
-0.009048164 -0.022676067 -0.0045584184 0.0077948165 0.0014779514 0.014257023 0.019809889 -0.010779174
-0.0071933 -0.00869396 0.013143921 0.019738998 0.011664497 -0.013666573 -0.00039735195 0.0039168578
-0.012140855 -0.017638871 0.0181928 0.022927238 0.006658398 -0.008228758 -0.006034868 0.0062144413
0.003716178 0.0022463945 -0.0032881733 -0.012534202 -0.0026092692 0.00821746 -0.0011685182 0.010607686
-0.007292351 -0.0019054579 -0.0138462605 -0.0044401214 -0.0052873148 0.010106948 0.008058528 -0.019135822
-0.005120145 -0.015819024 0.0030248035 0.0027399848 0.0029381635 0.0007420778 0.0024900467 0.008963411
0.0024391161 -0.006230583 -0.003422281 0.03400801 0.025015466 -0.012834334 0.008495675 0.0069726
-0.005007649 -0.011888039 -0.0062758643 0.013437801 0.0050963233 0.0048940876 0.00842639 -0.0044559594
-0.002064774 -0.012999856 0.010428039 0.024191886 0.030571748 -0.014056846 -0.0006656796 0.018140234
-0.013213723 -0.019025104 0.010222529 0.02161135 0.02858064 -0.0033242446 0.005295612 0.007877515
-0.003385511 -0.005755909 0.01482139 0.0113928905 0.005902846 -0.015706476 -0.0047259545 0.0053457674
-0.012417728 -0.020844169 -0.011168871 0.032198276 0.014565785 -0.004169009 0.016316444 0.0014169302
0.0065136338 0.012643791 0.0010898755 -0.020926293 -0.010419957 0.0012792652 -0.010226129 -0.00284341
-0.009345178 -0.012019631 0.00829224 -0.0023260769 -0.0100617865 0.0027963647 0.0042304657 0.0015648953
-0.012964314 -0.01993995 0.015265845 0.02776431 0.0073958985 -0.01725597 -0.0043505537 0.0041772383
-0.008192621 -0.006832521 0.018873777 0.01340837 0.008426509 -0.0147458175 -0.0104909595 0.0026205112
-0.0030486116 -0.00813522 0.010179817 0.0195148 0.019023875 -0.0077217263 0.002484104 0.0016365434
0.0065607834 0.014014649 -0.0037152772 -0.014349782 -0.010805134 -0.0040679113 -0.001753054 -0.009772985
-0.0055683646 -0.0015184461 -0.006069284 -0.0063448204 -0.005370778 0.00821974 0.00846943 -0.0076994617
0.005388048 0.015286981 0.0015282008 -0.01907967 -0.009138217 0.004706142 -0.0091181705 -0.00058981124
00000000: f452 51bb 9cdd 2cbc f814 39bb df9a 813c
00000010: 3a9a 923c 8eb9 b73a b0ad 103c 9dcd 663a
00000020: a758 98bb 7d14 0f3c 4017 80bb 99c3 dabb
00000030: cadf c9bb fa68 103c 3349 073c 5ab1 7dbc
00000040: cc52 ed3b b210 313c cc15 7cbc 508b 75bc
00000050: a107 d5bb b268 563c 9aaf 7c3b db46 00bc
00000060: 9605 033c 18aa 013c fbe2 2a3c d99d 37bb
00000070: 05f1 16bc 3cbd dabb dfc7 5dbc 3caf f5ba
00000080: 0cff f9bb 30eb aebb bff3 e0bb a48d d2bb
00000090: 0329 3a3b a92c 483c 773e 4e3c c26e 91bb
000000a0: 3ade 96bb f0dc 63bc d628 f53b 2450 be3c
000000b0: ede3 123c 483b ffbb f05b db3b 10bf dc3a
000000c0: 0c7c 7dbb 3ce5 11bc e670 0c3c 87bc 2b3c
000000d0: 5997 cf3b ec0e efbb a4e2 313a ff1c 073c
000000e0: 94be afbb c038 16bc 03b5 bb3a de9e 8a3c
000000f0: d8ec 4c3c 726c f53a b06b bd3b 0186 95bb
00000100: 83ef 213c c51a bc3c 892a 27bb d218 2abd
00000110: 8484 cabc 318a 173c 8d61 51bc 11ee 24bb
00000120: 0b7f cc3b d51b 703c 6804 5abc c5d8 7cbc
00000130: eabf 11bc b8fc 0f3c 15ad 51bb 9a63 85bb
00000140: 5a70 0abc da76 7abc e53d 843b c029 c23b
00000150: 5ed7 17bc a23d 11bb 1f22 0dbb 8813 afbb
00000160: 8e16 4c3c 9856 4b3c b976 7b3c a6f4 bc39
00000170: f67e ec3b 3e79 7abc cdce 54bc 3162 af3c
00000180: c03e 14bc 29c3 b9bc c95e 95bb a96b ff3b
00000190: d2b7 c13a 4a96 693c 5948 a23c 229b 30bc
000001a0: c6b5 ebbb 1c71 0ebc 9a59 573c aeb3 a13c
000001b0: 721c 3f3c c3e9 5fbc ad53 d0b9 fc58 803b
000001c0: 70ea 46bc 657f 90bc 1109 953c e7d1 bb3c
000001d0: b12e da3b ead1 06bc 24c0 c5bb 83a2 cb3b
000001e0: 1f8b 733b 3f38 133b 657e 57bb 415c 4dbc
000001f0: 4600 2bbb 86a2 063c f728 99ba dccb 2d3c
00000200: adf4 eebb 8fc0 f9ba 6ddb 62bc 707e 91bb
00000210: 3641 adbb 9d97 253c eb07 043c bac2 9cbc
00000220: e4c6 a7bb e696 81bc c83b 463b 5191 333b
00000230: 348e 403b 0088 423a 0d30 233b 45db 123c
00000240: 94d9 1f3b eb29 ccbb 5948 60bb fc4b 0b3d
00000250: 3ced cc3c 1947 52bc 7231 0b3c 687a e43b
00000260: 3417 a4bb 0dc6 42bc c4a5 cdbb 392a 5c3c
00000270: 0fff a63b 955e a03b d70e 0a3c 4c03 92bb
00000280: 2951 07bb 59fd 54bc 5eda 2a3c 102e c63c
00000290: 9a71 fa3c af4e 66bc 0081 2eba d49a 943c
000002a0: 5f7e 58bc 89da 9bbc 657c 273c 490a b13c
000002b0: f221 ea3c 92db 59bb d086 ad3b b110 013c
000002c0: 73df 5dbb 109c bcbb 6ad5 723c 3fa9 3a3c
000002d0: a96c c13b deaa 80bc 2edc 9abb 8c2b af3b
000002e0: ba73 4bbc 64c1 aabc a4fd 36bc 57e2 033d
000002f0: 55a5 6e3c 2f9c 88bb 10aa 853c 4ab8 b93a
00000300: 5270 d53b e727 4f3c 27da 8e3a 9e6d abbc
00000310: 78b8 2abc 04ad a73a 7e8b 27bc 8158 3abb
00000320: 841c 19bc fded 44bc 2ddc 073c 1871 18bb
00000330: 31da 24bc 3743 373b b89f 8a3b 2c1d cd3a
00000340: 4668 54bc 1b59 a3bc 981d 7a3c fa71 e33c
00000350: 4b59 f23b 645c 8dbc 178f 8ebb 37e1 883b
00000360: 583a 06bc 57e3 dfbb 2e9d 9a3c c8ae 5b3c
00000370: 570f 0a3c 7198 71bc 46e2 2bbc e2bc 2b3b
00000380: 37cb 47bb 9649 05bc 3fc9 263c 80dd 9f3c
00000390: f5d7 9b3c 8906 fdbb 59cc 223b 4981 d63a
000003a0: d7fb d63b b39d 653c 027c 73bb 591b 6bbc
000003b0: 0408 31bc 1d4c 85bb bbc6 e5ba df1e 20bc
000003c0: d476 b6bb 9906 c7ba d8e0 c6bb 36e8 cfbb
000003d0: 5afd afbb 17ac 063c 5dc3 0a3c c44b fcbb
000003e0: 398e b03b 3f76 7a3c e94d c83a f84c 9cbc
000003f0: 76b8 15bc fb35 9a3b 6164 15bc 909d 1aba

base_model.model.bert.encoder.layer.0.attention.self.key.lora_A.default.weight f4 [8, 768]
-0.012010151 0.045703147 -0.007283462 0.03762988 0.006148265 0.021046266 0.021688076 -0.051290568
-0.0010436352 0.024298089 -0.026750872 0.033662256 -0.009803828 0.03777353 -0.0037706834 0.0060641062
0.00029823344 0.03330988 -0.01904312 0.0009374906 -0.015503868 0.002817776 -0.06369344 -0.013899526
-0.018759686 0.041266073 0.0005180968 0.0062840856 0.010182424 0.035539906 -0.030707978 0.03538291
0.010856283 0.023804452 -0.033812135 -0.065411724 -0.027227998 -0.035454705 -0.03237812 0.026067749
-0.038248748 -0.020186454 -0.04336448 -0.0054215654 0.0060368176 -0.004704634 0.028071826 0.0047845794
-0.028541978 -0.048309717 0.029360835 -0.012113505 0.040179636 -0.0009329134 0.019227935 -0.005790978
-0.03509409 -0.009287206 0.020944135 0.0057488573 -0.011582884 0.015429554 0.025619596 0.011054999
0.014067508 -0.051352754 0.016480131 -0.017369922 0.01119656 -0.041423768 -0.015442629 -0.048012823
-0.017528206 -0.05516441 0.031281207 0.043959644 -0.009044191 0.012698186 0.057619914 -0.040749103
-0.017574655 0.02208569 0.039785188 0.009400483 0.020867137 0.0058711665 -0.046700425 -0.0023097494
0.012600779 0.03722325 0.012338608 0.012296329 0.011457359 0.0395044 0.024990652 -0.045798324
-0.019519072 -0.029139442 0.016934566 0.0042912937 -0.007353807 0.0032358721 -0.015522601 -0.0052596447
0.036543395 0.037240114 -0.018127585 0.0043800203 -0.004052897 -0.034369357 0.04550832 0.030789183
-0.0001719604 -0.009554702 0.02301038 -0.013948307 -0.0443511 0.010171506 0.0021456063 0.004953389
0.023774102 0.021996249 -0.030636514 0.021246668 -0.023503968 0.002101717 -0.00636306 0.01992814
0.01839989 -0.028268334 0.050036643 -0.008038595 -0.015522409 0.018991183 -0.040947407 -0.035080165
0.010303047 -0.013810787 -0.020987716 -0.008424107 0.04483114 -0.017448917 0.03105025 -0.04280687
0.00036487504 0.06261292 0.009989134 0.05518108 -0.030689286 -0.056381922 0.012505398 -0.018747427
0.0057749334 -0.049225077 -0.050957423 0.04185568 0.015119024 -0.017559895 0.0106666805 -0.022387154
-0.01992411 0.014162467 -0.024249202 0.020630106 0.038792767 -0.03373529 -0.033509515 -0.013729719
-0.02184991 0.010668553 -0.042733006 0.040858224 -0.003268524 -0.027314685 0.0135844145 0.0130034825
0.014098671 -0.012332909 0.008100292 -0.014596269 -0.057316884 0.026501084 -0.04714131 -0.052254394
-0.052168816 -0.007388563 0.029985487 -0.034155663 0.023056667 0.017621335 0.014341851 0.044582613
0.045063462 -0.0075016757 0.025636138 0.018115006 -0.0075919693 0.028177511 0.026241602 -0.016383145
-0.029508352 -0.049238924 0.0030682934 -0.016339634 0.009387084 0.03776387 0.019697104 0.041359
-0.030836744 0.049637787 0.008031143 -0.020966543 0.037387937 -0.012761714 -0.02620338 0.0077118464
-0.008400448 0.027592845 0.0019627183 -0.03171053 0.012887378 -0.023679249 -0.059171762 0.07745451
0.025020177 -0.005663085 -0.019954927 -0.03300588 -0.0063451417 0.01830165 -0.059719473 0.012603856
-0.043465324 -0.023760218 -0.025896307 -0.023715531 -0.0059597325 0.07898781 0.03518895 0.018573163
-0.03804821 0.014885057 -0.0016083121 0.030641565 0.03591982 0.028672509 0.03861344 -0.0061928215
0.030815823 -0.004285181 -0.0010296688 -0.0007103489 -0.027646353 -0.014686687 0.058976695 0.020160906
00000000: 39c6 44bc 3933 3b3d 1caa eebb ca21 1a3d
00000010: 6377 c93b 3869 ac3c 31ab b13c 0f16 52bd
00000020: 96ca 88ba c90c c73c a524 dbbc 6fe1 093d
00000030: 3ca0 20bc 6bb8 1a3d 921d 77bb 69b5 c63b
00000040: 375c 9c39 f16f 083d 5100 9cbc eec1 753a
00000050: f003 7ebc 70aa 383b b571 82bd d6ba 63bc
00000060: eaad 99bc 9d06 293d e3d0 073a bbea cd3b
00000070: 2fd4 263c 4b92 113d 4c8f fbbc aced 103d
00000080: 8dde 313c 8e01 c33c 987e 0abd 95f6 85bd
00000090: 400d dfbc f438 11bd eb9e 04bd 088c d53c
000000a0: b8aa 1cbd 105e a5bc f49e 31bd 63a7 b1bb
000000b0: 7fd0 c53b 5529 9abb e3f6 e53c f6c7 9c3b
000000c0: ded0 e9bc 69e0 45bd 2286 f03c b977 46bc
000000d0: 6793 243d c28e 74ba e783 9d3c 3fc2 bdbb
000000e0: d2be 0fbd 5e29 18bc 0993 ab3c e960 bc3b
000000f0: 23c6 3dbc 3dcc 7c3c 30e0 d13c 0720 353c
00000100: 687b 663c 4457 52bd 5701 873c 5e4b 8ebc
00000110: c771 373c f8ab 29bd 1503 7dbc 18a9 44bd
00000120: 5097 8fbc 14f4 61bd b920 003d 070f 343d
00000130: 162e 14bc 0d0c 503c dc02 6c3d 88e8 26bd
00000140: b9f8 8fbc 0ded b43c cbf5 223d 7c04 1a3c
00000150: 8ff1 aa3c ea62 c03b f248 3fbd 2a5f 17bb
00000160: 7f73 4e3c 6877 183d df27 4a3c 8b76 493c
00000170: a6b7 3b3c 5ecf 213d 32b9 cc3c 0697 3bbd
00000180: 76e6 9fbc d7b5 eebc 5cba 8a3c fb9d 8c3b
00000190: 34f8 f0bb ed10 543b 8252 7ebc 1959 acbb
000001a0: 87ae 153d 1789 183d 4d80 94bc 4686 8f3b
000001b0: 2ace 84bb e2c6 0cbd ef66 3a3d 9939 fc3c
000001c0: 4550 34b9 538b 1cbc 4480 bc3c 7187 64bc
000001d0: 80a9 35bd 63a6 263c 4d9d 0c3b 0a50 a23b
000001e0: e8c1 c23c 7a31 b43c 6df9 fabc 7e0d ae3c
000001f0: 658b c0bc f6bc 093b 3781 d0bb 5740 a33c
00000200: 5ebb 963c fe92 e7bc 39f3 4c3d 50b4 03bc
00000210: b451 7ebc 6693 9b3c 78b8 27bd 38b0 0fbd
00000220: 1cce 283c a446 62bc 6eee abbc 4405 0abc
00000230: dca0 373d 08f1 8ebc 185d fe3c 4256 2fbd
00000240: b34c bf39 343b 803d 77a9 233c 8e05 623d
00000250: 1968 fbbc bbf0 66bd 71e3 4c3c 3494 99bc
00000260: a73b bd3b 3ca0 49bd bbb8 50bd dd70 2b3d
00000270: c8b5 773c c5d9 8fbc 4dc3 2e3c 4465 b7bc
00000280: e337 a3bc b109 683c 43a6 c6bc 7800 a93c
00000290: 2ae5 1e3d 042e 0abd 4641 09bd 9ef2 60bc
000002a0: 95fe b2bc 28cb 2e3c ce08 2fbd f45a 273d
000002b0: bc34 56bb 0cc3 dfbc 2a91 5e3c 8f0c 553c
000002c0: 1dfe 663c f80f 4abc 16b7 043c 3025 6fbc
000002d0: 1cc5 6abd cd18 d93c 3f17 41bd b408 56bd
000002e0: f8ae 55bd c21b f2bb 20a4 f53c cfe6 0bbd
000002f0: 56e1 bc3c 9e5a 903c 15fa 6a3c 429c 363d
00000300: 7794 383d 9ed0 f5bb e102 d23c ec65 943c
00000310: 0ec6 f8bb 86d4 e63c a1f8 d63c f235 86bc
00000320: 80bb f1bc c1ae 49bd 6c15 493b b2da 85bc
00000330: 49cc 193c 4aae 1a3d d25b a13c 0e68 293d
00000340: 579d fcbc fe50 4b3d 0e95 033c 07c2 abbc
00000350: 1824 193d 8216 51bc 79a8 d6bc a8b3 fc3b
00000360: 08a2 09bc 640a e23c f3a0 003b e7e2 01bd
00000370: 9525 533c fcfa c1bc 175e 72bd 78a0 9e3d
00000380: 1df7 cc3c 6691 b9bb 8478 a3bc 2c31 07bd
00000390: e8ea cfbb 58ed 953c 689c 74bd 6780 4e3c
000003a0: b208 32bd caa4 c2bc 7e24 d4bc 1347 c2bc
000003b0: dc49 c3bb 5cc4 a13d 4a22 103d bf26 983c
000003c0: 71d8 1bbd 74e0 733c 00ce d2ba 0504 fb3c
000003d0: a920 133d 9ce2 ea3c 2029 1e3d 27ed cabb
000003e0: 7771 fc3c b46a 8cbb f4f5 86ba b536 3aba
000003f0: 9b7a e2bc 6ea0 70bc 8c91 713d 7c28 a53c

base_model.model.bert.encoder.layer.0.attention.self.key.lora_B.default.weight f4 [768, 8]
-0.0069489605 -0.011453807 0.0051448126 0.00970723 -0.017165221 -0.008938016 0.0129495505 0.012098124
-0.005699981 -0.0049763964 0.004975426 0.005176318 -0.005615829 -0.0060379375 0.0049152197 0.0045238296
0.0032464582 0.0018349653 -0.0019687964 -0.0029768127 0.004957752 0.004398087 -0.0009857074 0.0019283104
0.0011372268 -0.0005050123 -0.0033121419 0.00036222974 -0.0017741459 0.0018741802 -0.001110396 -0.00028553567
-0.014461055 -0.009556897 0.014732746 0.01202992 -0.008155761 -0.008765901 0.0133703975 0.014344313
-0.010327665 -0.007318635 0.0124293575 0.00873342 -0.004730568 -0.005281753 0.00901604 0.009746373
-0.0019534621 0.00021028402 0.00083581277 -0.00016353994 0.002237682 -0.0011495766 -0.00014599497 -0.002139628
0.002504052 0.003153965 -0.0014659214 -0.0037378524 0.0019213067 0.0017878405 -0.0012978034 -0.001430014
0.02664177 0.020587038 -0.023106888 -0.020636305 0.019995846 0.021335812 -0.019410972 -0.01896791
0.008703798 0.00816423 -0.008317539 -0.0071581905 0.0051559373 0.007941362 -0.0069127223 -0.004879548
0.0033358051 0.0029015532 -0.00335273 -0.003645728 0.005824546 0.006210699 -0.0031579034 -0.0027203585
-0.012948184 -0.009021183 0.006494087 0.006340944 -0.013397507 -0.010340795 0.0087769395 0.007694484
0.0036467002 0.006550596 -0.0032054447 -0.0064204647 0.0050308076 0.0076310253 -0.0033886267 -0.0008313831
0.0025933567 0.0030571446 -0.0016126769 -0.0033270842 0.0009185747 -0.00036670658 -0.002848839 -0.005006722
-0.014977663 -0.0131402 0.013924529 0.013690173 -0.01177668 -0.0075071882 0.013243033 0.016851826
-0.0009153429 -0.0036686128 0.00024278887 0.0031780014 -0.0064351694 -0.007192591 0.00095045916 -0.0042147944
-0.0023219658 0.0009118527 0.0031514012 0.0009254774 -0.0036968233 0.00048743686 0.0025118047 0.0050516743
-0.013533872 -0.011128245 0.012491517 0.010065978 -0.010851563 -0.010645826 0.014241202 0.013507093
0.013209689 0.017233107 -0.011357956 -0.015711598 0.019018767 0.019721163 -0.014712825 -0.013387469
-0.0015188357 -0.00078502257 -0.0010202846 -0.0014806889 -0.0006607001 0.00082814833 -0.0042919377 -0.0046130507
-0.018491022 -0.018107202 0.017532045 0.01753666 -0.017011853 -0.016271194 0.015835289 0.012652837
-0.02237321 -0.017176628 0.020791449 0.018116249 -0.01437879 -0.016051231 0.018494468 0.019889917
0.0005445965 0.0024295936 -0.0016261082 -0.0010516561 0.0046217637 0.0005589388 -0.0061259205 -0.0070855888
-0.009143667 -0.007203567 0.0061491122 0.007741118 -0.00866089 -0.0038527057 0.009692984 0.009563177
0.0029030757 0.0037442076 -0.0035893181 -0.002282373 -0.0018900587 -0.003544069 -0.0040574055 -0.008027884
-0.0111832 -0.0074157394 0.011307624 0.0075488067 -0.0073752226 -0.011756136 0.007737627 0.0072397725
0.0039364756 0.008351631 -0.006834255 -0.0065494142 0.0061744894 0.00892516 -0.008196945 -0.0052946107
0.0010086588 -0.0030216584 -0.0020098495 0.0033304975 -0.0024776913 -0.002231957 0.00028945177 -0.0030930692
-0.0048655136 0.0002425554 0.0035546354 0.0012661356 -0.0014823849 -0.002991423 0.0012110776 0.000485258
0.013831134 0.017520292 -0.01308116 -0.015433454 0.011965197 0.017032899 -0.011192105 -0.009159647
-0.0006260974 -0.003927601 -0.0010250596 0.0011631667 -0.006761971 -0.0027963836 0.0065309587 0.002243104
-0.00017168118 0.00063393434 0.0017133064 0.0014901737 -0.0006440225 -0.0014992484 0.00022156432 -0.00024684131
00000000: 1bb4 e3bb c0a8 3bbc d195 a83b 130b 1f3c
00000010: 149e 8cbc c270 12bc 5a2a 543c 3637 463c
00000020: e8c6 babb 0a11 a3bb e608 a33b 1a9e a93b
00000030: fd04 b8bb e4d9 c5bb da0f a13b a23c 943b
00000040: 88c2 543b 3883 f03a ec06 01bb a116 43bb
00000050: a374 a23b d41d 903b da32 81ba 5cbf fc3a
00000060: 000f 953a cd62 04ba 8510 59bb a7e9 bd39
00000070: 758a e8ba 0da7 f53a b58a 91ba f3b3 95b9
00000080: 10ee 6cbc 8894 1cbc 9e61 713c 2419 453c
00000090: be9f 05bc db9e 0fbc 830f 5b3c 6904 6b3c
000000a0: 5e35 29bc 29d1 efbb 81a4 4b3c 9e16 0f3c
000000b0: e102 9bbb 8e12 adbb 03b8 133c 40af 1f3c
000000c0: a805 00bb b07f 5c39 721a 5b3a eb7b 2bb9
000000d0: 13a6 123b 64ad 96ba 3a16 19b9 0039 0cbb
000000e0: 051b 243b c1b2 4e3b 2924 c0ba c2f6 74bb
000000f0: 5bd4 fb3a f955 ea3a 0e1b aaba 4f6f bbba
00000100: d73f da3c 26a6 a83c a84a bdbc 780d a9bc
00000110: 54ce a33c 71c8 ae3c c203 9fbc 9762 9bbc
00000120: 609a 0e3c 43c3 053c 4946 08bc 418f eabb
00000130: 23f3 a83b 7d1c 023c 1e84 e2bb 9ee4 9fbb
00000140: 869d 5a3b fc27 3e3b 7ab9 5bbb 2bed 6ebb
00000150: d5db be3b 1f83 cb3b d4f4 4ebb 0b48 32bb
00000160: 9f24 54bc 95cd 13bc 5acc d43b b2c7 cf3b
00000170: 3881 5bbc 706c 29bc 27cd 0f3c 0322 fc3b
00000180: 7afd 6e3b 62a6 d63b 7012 52bb c362 d2bb
00000190: 79d9 a43b ae0d fa3b b913 5ebb 2df1 59ba
000001a0: 4ef5 293b 605a 483b 7560 d3ba 360b 5abb
000001b0: 81cc 703a 8642 c0b9 96b3 3abb 6e0f a4bb
000001c0: df64 75bc fe49 57bc b523 643c bf4c 603c
000001d0: faf2 40bc dcfe f5bb 4ef9 583c d70c 8a3c
000001e0: 9ff3 6fba 1c6d 70bb 2495 7e39 0446 503b
000001f0: 1dde d2bb d4af ebbb 3c28 793a 421c 8abb
00000200: 1f2c 18bb 6609 6f3a bd87 4e3b bd9b 723a
00000210: 6746 72bb ab8e ff39 179d 243b 8488 a53b
00000220: 2cbd 5dbc 3e53 36bc 38a9 4c3c c6eb 243c
00000230: c1ca 31bc d56b 2ebc ee53 693c db4c 5d3c
00000240: 746d 583c 722c 8d3c b816 3abc 9cb5 80bc
00000250: 3fcd 9b3c 478e a13c 100e 71bc 1d57 5bbc
00000260: ab13 c7ba f9c9 4dba 12bb 85ba ad13 c2ba
00000270: d532 2dba 1818 593a 62a3 8cbb 1329 97bb
00000280: 7c7a 97bc 8e55 94bc 5d9f 8f3c 0ba9 8f3c
00000290: 715c 8bbc 2b4b 85bc 02b9 813c d84d 4f3c
000002a0: 0648 b7bc 00b6 8cbc d452 aa3c 8768 943c
000002b0: 0495 6bbc df7d 83bc b681 973c 2ef0 a23c
000002c0: 41c3 0e3a d139 1f3b 2323 d5ba b9d7 89ba
000002d0: 2a72 973b bf85 123a f2bb c8bb 3a2e e8bb
000002e0: 52cf 15bc e60b ecbb 7e7e c93b 34a9 fd3b
000002f0: 68e6 0dbc ad7d 7cbb 52cf 1e3c dfae 1c3c
00000300: 8741 3e3b 6161 753b c43a 6bbb dd93 15bb
00000310: d9bb f7ba 9c43 68bb fcf3 84bb 6387 03bc
00000320: be39 37bc bbff f2bb 9d43 393c fb5b f73b
00000330: daab f1bb cf9c 40bc eb8b fd3b 9d3b ed3b
00000340: 8dfd 803b 48d5 083c e3f1 dfbb 789c d6bb
00000350: 5f53 ca3b d63a 123c 7b4c 06bc 6a7e adbb
00000360: f934 843a 0407 46bb aeb7 03bb 7a44 5a3b
00000370: c360 22bb 0646 12bb 8fc1 9739 17b5 4abb
00000380: e36e 9fbb 7856 7e39 e3f4 683b 76f4 a53a
00000390: 954c c2ba c00b 44bb 05bd 9e3a 3a6a fe39
000003a0: fb9b 623c b786 8f3c 5d52 56bc 99dc 7cbc
000003b0: ac09 443c 9488 8b3c 175f 37bc 5812 16bc
000003c0: af20 24ba 1bb3 80bb 4b5b 86ba 6675 983a
000003d0: 8693 ddbb 8843 37bb a701 d63b 0a01 133b
000003e0: 5105 34b9 9d2e 263a 0691 e03a ef51 c33a
000003f0: 9ed3 28ba 6e82 c4ba b853 6839 7b6a 81b9

base_model.model.bert.encoder.layer.0.attention.self.value.lora_A.default.weight f4 [8, 768]
0.019685585 -0.007903258 0.013753773 0.031094672 -0.033811256 -0.029360952 0.00029125475 0.00035899517
-0.028380811 0.01769968 0.0060092867 0.008056468 -0.03674788 0.046687737 0.00067352067 0.03130642
0.0058969604 0.044132728 -0.03591453 0.014402638 0.01361709 -0.035737652 -0.020109195 -0.00847211
-0.027372003 -0.006340886 -0.006235027 -0.009445381 0.023864636 -0.009036015 0.031421073 0.00067125994
0.032844786 -0.00096360233 0.021813119 -0.031872127 0.021532997 -0.01273151 -0.0030739203 0.03286153
-0.009016685 0.02587599 -0.0152272 -0.029555151 -0.02071797 0.031585384 0.017019708 -0.021073097
0.046906028 0.014618365 0.016371707 0.01401387 0.014992208 0.013677815 0.056494396 -0.00047797474
0.023370765 0.011857403 0.014935383 -0.029041478 0.0031961447 0.0416888 0.026538633 0.00024041608
0.033390254 0.019517533 -0.010842486 -0.013584522 0.007828035 -0.022637475 -0.0052562538 0.0031902387
-0.031498563 -0.024907837 -0.017316565 0.0061161593 -0.020119697 0.007226909 -0.009904178 0.021550953
0.030514652 -0.021646403 0.043824703 -0.02413621 0.022552194 -0.0055577178 0.0042684674 -0.028917298
0.013607715 0.00864692 -0.015194748 -0.026506688 0.03326467 -0.004804209 -0.0061486536 -0.010643924
0.042739056 0.012092072 -0.017055351 -0.008704715 -0.00948389 -0.0103688445 0.028361786 0.015074746
-0.021384241 0.0034547485 0.012116626 -0.054388933 0.026674116 0.00026582115 -0.037840042 -0.036930796
-0.0065561025 -0.026729735 -0.010674935 -0.009055367 0.02338288 -0.017270884 0.013643913 -0.024650907
-0.027600693 0.025716256 0.009509896 0.023253828 -0.015815783 -0.007985861 -0.025113564 0.012038898
0.016585784 0.016338542 0.002170873 0.03941082 -0.0049452865 -0.029665375 0.008142865 0.013047503
-0.02451805 -0.0077731623 0.042916436 -0.04913291 -0.004176139 -0.028222976 0.001809677 -0.0091195945
-0.013276819 -0.0011083093 0.019135403 -0.0043378514 0.026984448 0.054688606 0.01946683 0.0035085187
0.02814572 0.017369198 0.021657804 -0.022468382 0.025554113 -0.021424139 -0.03976787 -0.0032383217
-0.013258956 -0.03639839 -0.019181808 0.032091748 0.020539384 -0.01689901 0.0285875 0.04819166
0.018247226 0.006320406 0.04296436 0.03451005 -0.015915994 -0.024094902 0.03385082 0.013120363
0.022584748 -0.030424783 0.013561411 0.038760103 0.02117125 0.0014092759 -0.016743895 -0.017035833
-0.01842256 -0.013614933 0.04146787 0.040813275 -0.0131016895 -0.0327437 0.014991732 -0.0078893835
0.039176844 -0.034397904 -0.010512879 -0.027958844 -0.024472887 -0.03601489 0.013825317 -0.013047071
-0.0423384 0.003558611 0.02265361 -0.027398597 -0.016794533 0.006129946 -0.028294954 0.002692851
-0.013139378 -0.038444385 -0.032634538 -0.0042780936 -0.004259265 6.648581e-05 0.003919758 0.0054714265
0.011753964 -0.021162989 0.022375517 0.03466119 0.0096363 -0.0030858524 0.012293082 0.002108427
0.04499879 -0.024183312 -0.021995265 0.035424855 0.036805857 -0.00018342325 -0.0033118888 0.00046252485
0.03085558 0.0072257747 0.012680999 -0.0020527157 -0.014232668 -0.043531176 -0.020576557 0.0034585153
0.0055043777 -0.010980502 -0.0044993656 0.031626664 0.0071603674 0.04073118 -0.030908097 -0.05695464
-0.020068044 0.019151842 0.009403255 -0.018368691 0.024958719 -0.035911974 0.011838186 -0.01698814
00000000: aa43 a13c ab7c 01bc 8157 613c 41ba fe3c
00000010: ac7d 0abd 6186 f0bc 8db3 9839 8437 bc39
00000020: e07e e8bc ebfe 903c 8de9 c43b 47ff 033c
00000030: f284 16bd a43b 3f3d 358f 303a 293b 003d
00000040: 4a3b c13b 85c4 343d 1d1b 13bd 0bf9 6b3c
00000050: 371a 5f3c a561 12bd 0abc a4bc 9bce 0abc
00000060: 403b e0bc 35c7 cfbb 334f ccbb cdc0 1abc
00000070: c57f c33c cb0b 14bc 62b3 003d 7ef7 2f3a
00000080: 4188 063d 429a 7cba 6db1 b23c 598c 02bd
00000090: f865 b03c d397 50bc d373 49bb d099 063d
000000a0: b8ba 13bc e2f9 d33c 827b 79bc a51d f2bc
000000b0: bbb8 a9bc ad5f 013d ea6c 8b3c 7da1 acbc
000000c0: 8920 403d de81 6f3c f51d 863c 6e9a 653c
000000d0: e1a1 753c ea18 603c ab66 673d af98 fab9
000000e0: 0c74 bf3c 8e45 423c 89b3 743c 65e8 edbc
000000f0: 6976 513b e0c1 2a3d 8c67 d93c 3318 7c39
00000100: 38c4 083d 3ce3 9f3c afa4 31bc 9d91 5ebc
00000110: 2941 003c 3a72 b9bc a73c acbb 5313 513b
00000120: a304 01bd 850b ccbc 78db 8dbc 106a c83b
00000130: 10d2 a4bc b5cf ec3b 2245 22bc a08b b03c
00000140: ddf9 f93c cc53 b1bc 8881 333d 4db9 c5bc
00000150: 61bf b83c 841d b6bb 80de 8b3b f8e3 ecbc
00000160: e5f2 5e3c d0ab 0d3c 64f3 78bc 8e24 d9bc
00000170: 8940 083d a06c 9dbb a57a c9bb da63 2ebc
00000180: 260f 2f3d d31d 463c aab7 8bbc 399e 0ebc
00000190: 5162 1bbc 16e2 29bc fa56 e83c 11fc 763c
000001a0: 012e afbc 1069 623b d084 463c eec6 5ebd
000001b0: ad83 da3c e95d 8b39 29fe 1abd bf44 17bd
000001c0: 93d4 d6bb 51f8 dabc ece5 2ebc f65c 14bc
000001d0: 748d bf3c ab7b 8dbc b88a 5f3c b3f0 c9bc
000001e0: d91a e2bc e6aa d23c 65cf 1b3c d07e be3c
000001f0: 1a90 81bc 21d7 02bc f6ba cdbc cc3e 453c
00000200: e9de 873c 68d8 853c 3545 0e3b 3d6d 213d
00000210: 120c a2bb cd04 f3bc a769 053c 32c5 553c
00000220: 14da c8bc 03b6 febb 25c9 2f3d 973f 49bd
00000230: fed7 88bb df33 e7bc af32 ed3a 5a6a 15bc
00000240: 0487 59bc b044 91ba d9c1 9c3c 8924 8ebb
00000250: 7d0e dd3c 2901 603d e778 9f3c 2def 653b
00000260: da91 e63c d949 8e3c b56b b13c 9d0f b8bc
00000270: dc56 d13c ad81 afbc a2e3 22bd 063a 54bb
00000280: 183c 59bc 7a16 15bd 2b23 9dbc a372 033d
00000290: 3642 a83c cb6f 8abc 5530 ea3c 9e64 453d
000002a0: 357b 953c 691b cf3b 66fb 2f3d 695a 0d3d
000002b0: 4262 82bc ac62 c5bc 28a7 0a3d caf6 563c
000002c0: a603 b93c 653d f9bc ae30 5e3c eac2 1e3d
000002d0: 546f ad3c 74b7 b83a 7e2a 89bc bb8e 8bbc
000002e0: e9ea 96bc 2b11 5fbc 37da 293d d22b 273d
000002f0: 78a8 56bc 421e 06bd e29f 753c 7942 01bc
00000300: e677 203d d1e4 0cbd 363e 2cbc f209 e5bc
00000310: 5d7b c8bc 5984 13bd 9583 623c 62c3 55bc
00000320: 086b 2dbd 9637 693b 1094 b93c 0673 e0bc
00000330: b094 89bc b7dd c83b d2ca e7bc 8b7a 303b
00000340: 8c46 57bc dc77 1dbd cbab 05bd 402f 8cbb
00000350: 4e91 8bbb 4c6e 8b38 5071 803b a749 b33b
00000360: b393 403c 015e adbc dc4c b73c e4f8 0d3d
00000370: 92e1 1d3c 033c 4abb ec68 493c 892d 0a3b
00000380: a750 383d 151c c6bc 6a2f b4bc a719 113d
00000390: bdc1 163d 4e55 40b9 460c 59bb 097f f239
000003a0: d7c4 fc3c 31c6 ec3b f7c3 4f3c db86 06bb
000003b0: 2330 69bc bf4d 32bd 2b90 a8bc 42a8 623b
000003c0: 115e b43b 90e7 33bc 6a6f 93bb f68a 013d
000003d0: 84a1 ea3b bdd5 263d fa32 fdbc 4549 69bd
000003e0: bd65 a4bc 53e4 9c3c 1c10 1a3c f079 96bc
000003f0: 3a76 cc3c 6f18 13bd f3f4 413c b62a 8bbc

base_model.model.bert.encoder.layer.0.attention.self.value.lora_B.default.weight f4 [768, 8]
0.0040452653 0.00023700787 -0.0034920122 -6.50118e-05 -0.0039090496 -0.0016727742 -0.0038110842 -0.0004413664
0.00026379566 0.006587059 -0.004056467 0.0031981247 -0.0040973434 -0.0074881907 -0.005194466 0.0048079244
0.0011643836 0.0035890539 -0.0024511025 0.0012468896 -0.0033561396 -0.004535604 -0.0030851245 0.0021770834
-0.0070212637 -0.0027249216 0.008695702 -0.003757205 0.010133139 0.008153896 0.00969899 -0.0051308363
-0.0001625694 0.0064443573 0.0034268827 0.005641458 0.0011845693 -0.00063421257 0.0007519592 0.0042207395
-0.011971059 -0.00765087 0.0091253305 -0.011313895 0.010365858 0.008791117 0.00909286 -0.008820389
-0.012433215 -0.020859629 0.008805016 -0.024405463 0.007917896 0.01097504 0.01065369 -0.015816228
-0.0006719944 0.0013820207 -0.0013654709 -0.001795608 -0.0015615418 -0.0027511532 -0.0010868175 0.0013876497
0.006063788 0.0032571612 -0.006937277 0.00035223385 -0.010246218 -0.010045129 -0.0074754357 0.004989699
0.010540501 0.012460626 -0.0097124735 0.013876232 -0.0076568304 -0.00803362 -0.009265443 0.012802741
0.0059313476 0.0025807759 -0.0031819718 0.0029548944 -0.0018637374 -0.0012093505 -0.0010279918 0.0016866471
0.0023076169 0.008212951 -0.0021639187 0.006239245 0.0006109543 -0.00012769131 -0.0034088504 0.004745809
0.012726976 0.011957077 -0.011141758 0.01551923 -0.010300043 -0.010473586 -0.012407661 0.014680654
-0.0076669124 -0.0033529988 0.0011862237 -0.0067472467 -0.0022607679 -0.0009965865 -0.0022465985 -0.0016757449
-0.011107575 -0.010592066 0.013336604 -0.008137774 0.015740763 0.0176822 0.014865709 -0.012168708
0.0045154095 0.00590997 -0.004824397 0.00320685 -0.0052025616 -0.007632367 -0.007940498 0.0066296603
0.005612124 0.006930143 -0.0011230372 0.010495946 0.00033706313 -0.00040962358 -0.002690876 0.006612812
0.001853244 0.008455578 0.0005689374 0.0073548467 0.0019091052 -0.00044080967 -0.0007127938 0.0038061403
-0.005079911 -0.0016412726 0.0025234171 -0.005341496 0.0027512761 0.0011682825 0.0030654604 -0.0025072715
0.0022691167 0.006745784 -0.0036511784 0.005187545 -0.0030256305 -0.0026769093 -0.0035827763 0.0068179355
0.00073344534 -0.000111442336 -0.0016537136 -0.0017633679 -0.00030805325 -0.000477505 0.0005612858 -0.0017759994
0.02620605 0.023972735 -0.024091788 0.027782317 -0.022345291 -0.021296203 -0.021480836 0.024138723
-0.004673333 -0.005521128 0.00738357 -0.0035102414 0.011198976 0.009002366 0.00895145 -0.005406467
0.0038376828 0.001037452 -0.0011710388 0.0032400882 -0.0005384369 0.0013162168 -0.0006326693 0.0011510628
0.0021830418 0.0020874406 -0.0019747529 -0.00045758337 -0.0028064814 -0.0036098806 -0.0026206668 0.0018476107
-0.0064447164 -0.007546531 0.00588049 -0.009300959 0.0036297184 0.007402038 0.0057518063 -0.007449314
0.0033633667 -0.00044696397 -0.0005488528 -0.0011596499 -0.0008592972 0.0009783844 -0.00094287324 -0.0009258726
0.005914572 0.006665605 -0.0070249797 0.0022171808 -0.005351389 -0.0052491114 -0.005085196 0.0046579866
0.0046117012 -0.005083927 -0.007950539 -0.0029333641 -0.008079034 -0.0028167944 -0.004909855 -0.0026999665
0.0045338855 0.0090960665 -0.0054781404 0.006877056 -0.0061123166 -0.0054133763 -0.006940753 0.0055912775
-0.0029721975 0.0005032921 -0.00086862437 -0.0017951424 -0.0004734204 -0.0050312276 0.00027158463 -9.078358e-06
0.0038073463 -0.0013393129 -0.0033662831 0.00035847342 -0.0032030854 -0.0014417411 -0.0014681092 0.0009569831
00000000: 258e 843b 5185 7839 3eda 64bb f256 88b8
00000010: 7c17 80bb fd40 dbba 62c3 79bb 3267 e7b9
00000020: 0e4e 8a39 41d8 d73b 1dec 84bb a197 513b
00000030: 0243 86bb 7f5f f5bb 5736 aabb cb8b 9d3b
00000040: 3b9e 983a 5536 6b3b ada2 20bb ac6e a33a
00000050: aef2 5bbb 679f 94bb cd2f 4abb 66ad 0e3b
00000060: a112 e6bb 9994 32bb 6b78 0e3c 713b 76bb
00000070: 7705 263c eb97 053c 83e8 1e3c 9320 a8bb
00000080: 6477 2ab9 302b d33b 8d95 603b fbdb b83b
00000090: 8d43 9b3a 4941 26ba 211f 453a 214e 8a3b
000000a0: 4322 44bc 26b4 fabb 6982 153c ea5d 39bc
000000b0: 8fd5 293c 9e08 103c 38fa 143c 6583 10bc
000000c0: afb4 4bbc d0e1 aabc ea42 103c f7ed c7bc
000000d0: 10ba 013c a7d0 333c d18c 2e3c 0991 81bc
000000e0: c828 30ba eb24 b53a 9af9 b2ba 9b5a ebba
000000f0: a6ac ccba b14c 34bb 8b73 8eba cce1 b53a
00000100: beb2 c63b 1976 553b 1952 e3bb 07ac b839
00000110: c1df 27bc 5394 24bc 80f4 f4bb a180 a33b
00000120: 11b2 2c3c a727 4c3c 1121 1fbc 2359 633c
00000130: 26e6 fabb 729f 03bc 16ce 17bc 96c2 513c
00000140: c05b c23b 3c22 293b a188 50bb e7a6 413b
00000150: a648 f4ba 1283 9eba aebd 86ba 7c12 dd3a
00000160: 633b 173b 9d8f 063c 88d0 0dbb 9572 cc3b
00000170: 7328 203a e0e4 05b9 0567 5fbb bb82 9b3b
00000180: ce84 503c 9ee7 433c ec8b 36bc 5e44 7e3c
00000190: 83c1 28bc 6799 2bbc 8149 4bbc 2087 703c
000001a0: b93a fbbb fcbd 5bbb 107b 9b3a 0218 ddbb
000001b0: 6429 14bb e59f 82ba ab3b 13bb aba4 dbba
000001c0: 8cfc 35bc 588a 2dbc c681 5a3c 4c54 05bc
000001d0: c6f2 803c 43da 903c 4d8f 733c 435f 47bc
000001e0: 00f6 933b 6ca8 c13b fa15 9ebb 042a 523b
000001f0: 407a aabb ef18 fabb dd18 02bc 9f3d d93b
00000200: e9e5 b73b 4116 e33b e032 93ba 30f7 2b3c
00000210: d9b7 b039 bfc2 d6b9 6859 30bb 4ab0 d83b
00000220: 8de8 f23a 4489 0a3c be24 153a ed00 f13b
00000230: f13a fa3a 791c e7b9 c8da 3aba 7070 793b
00000240: 6275 a6bb f81f d7ba ea5f 253b b707 afbb
00000250: c14e 343b 0e21 993a e4e5 483b 0951 24bb
00000260: 76b5 143b bd0b dd3b 9c48 6fbb 48fc a93b
00000270: a849 46bb 166f 2fbb 03cd 6abb fd68 df3b
00000280: af44 403a 26b6 e9b8 6cc1 d8ba cf20 e7ba
00000290: 3582 a1b9 a359 fab9 4123 133a a7c8 e8ba
000002a0: 12ae d63c 7862 c43c 245c c5bc be97 e33c
000002b0: 790d b7bc 6075 aebc 94f8 afbc 92be c53c
000002c0: c222 99bb 94ea b4bb e0f1 f13b 140c 66bb
000002d0: e97b 373c a97e 133c 1aa9 123c bb28 b1bb
000002e0: a281 7b3b 1dfb 873a 8b7d 99ba a957 543b
000002f0: e425 0dba e884 ac3a b8d9 25ba 42df 963a
00000300: 5d11 0f3b 71cd 083b db6a 01bb cde7 efb9
00000310: f2ec 37bb bf93 6cbb 7ebf 2bbb 872b f23a
00000320: 332e d3bb e448 f7bb 20b1 c03b 0d63 18bc
00000330: 92e0 6d3b cc8c f23b a679 bc3b 6019 f4bb
00000340: ee6b 5c3b 7d56 eab9 e3e0 0fba 65ff 97ba
00000350: 7542 61ba 223d 803a 272b 77ba 42b6 72ba
00000360: 07cf c13b 266b da3b cd31 e6bb 1f4e 113b
00000370: b45a afbb bd00 acbb b7a1 a6bb 06a2 983b
00000380: c11d 973b 1297 a6bb fa42 02bc af3d 40bb
00000390: ed5d 04bc f899 38bb d9e2 a0bb ecf1 30bb
000003a0: fd90 943b ab07 153c f981 b3bb ed58 e13b
000003b0: d449 c8bb b162 b1bb 426f e3bb 0937 b73b
000003c0: 33c9 42bb 5cef 033a 65b4 63ba fc4a ebba
000003d0: 6935 f8b9 ffdc a4bb 7963 8e39 404f 18b7
000003e0: ac84 793b e28b afba dc9c 5cbb 7df1 bb39
000003f0: dbea 51bb cef8 bcba 926d c0ba 0cde 7a3a

base_model.model.bert.encoder.layer.1.attention.self.query.lora_A.default.weight f4 [8, 768]
0.02871037 0.013582763 -0.013571828 -0.036998134 0.029023334 -0.05060424 -0.019327953 0.026298132
-0.021318452 0.0065419027 0.025292572 0.017808707 -0.004050148 -0.032591783 0.0076597617 0.023900893
-0.014359442 -0.011804818 0.026883397 0.0019235995 0.009144403 0.017372755 -0.021193821 -0.030366968
-0.050754253 0.009461098 0.031408317 -0.041608907 0.0108939875 0.005413066 -0.020008815 0.027383981
0.024301058 -0.019354409 0.025269026 -0.030393042 0.019560402 0.014920026 0.024512967 0.01578277
0.0039817058 -0.03917718 -0.015471223 -0.021042272 -0.016671052 0.018589448 -0.027016917 -0.0020343468
-0.01624739 -0.03964795 -0.016321678 0.0603464 -0.031677444 0.04006256 -0.013739299 -0.018087395
-0.029495016 -0.050133593 0.019453168 -0.012459774 -0.02676043 -0.006731076 -0.03976168 0.016046492
0.01104562 -0.011482284 0.026038155 0.034110963 -0.025999442 -0.014832118 0.05512005 -0.011634261
-0.016313583 0.0034209676 0.030809302 -0.00059435633 0.0075184666 0.030991817 -0.034083854 -0.020162856
0.034760352 -0.00075168995 -0.03065551 0.008297746 -0.02404572 0.041551046 0.023370478 0.025847537
0.006814473 0.0042794547 0.0069762296 -0.008052124 -0.026001189 0.017529603 0.0055538514 0.071032286
-0.0037974336 -0.021290079 0.028018124 0.019168112 0.032650735 -0.011998586 -0.018361883 -0.01649567
-0.0020828112 -0.016850658 -0.020291561 -0.00021171953 -0.046731703 -0.020121384 0.005224048 0.01784508
-0.012411587 0.016436476 -0.040105563 -0.0049805185 -0.02188403 -0.021442352 -0.038646508 -0.0054898662
0.024935987 -0.013632357 -0.03132765 -0.026771635 -0.015714662 -0.04775837 0.03258784 0.056008514
0.0026343395 -0.03135456 -0.021970715 0.01865871 0.00202434 -0.031620797 0.0036712335 -0.011785841
0.013710592 -0.027085995 -0.012875209 -0.006933931 -0.0007433873 0.031408835 -0.033177372 -0.0331649
-0.012696427 0.011118613 -0.009470092 0.016305212 0.012461745 -0.058258887 -0.0098389145 -0.057557616
0.034666583 0.03482358 -0.029945038 0.028364168 0.02289112 -0.03136575 -0.055575036 -0.009910465
0.0048165764 0.02885667 0.012389032 0.0065484205 -0.021245275 -0.0076128547 -0.015684858 0.0018759456
-0.0011820334 -0.048052024 -0.026508832 -0.010962204 0.009494405 -0.015791064 0.013453791 0.045619816
0.04061559 0.011437283 -0.0050196983 -0.018483344 -0.010140468 0.010749513 0.018895088 0.018194929
-0.016438073 0.015118582 -0.011877693 0.027400358 -0.030425236 0.0059885127 -0.022156417 -0.02744882
-0.043464925 0.027457703 -0.030608099 -0.009090608 0.028104426 -0.009630163 0.02137672 -0.012668861
0.038455933 -0.00097592996 0.035763204 -0.035817575 0.036763296 0.0069975667 0.04725336 -0.01198672
-0.03619047 0.035744295 0.01686222 0.012924764 0.010699292 0.022921497 0.020445751 -0.021179913
0.013081874 0.0076857572 0.027767872 0.03203915 0.0059237676 -0.0020958113 0.010140412 -0.027312495
-0.02830162 -0.0073987013 0.049182445 -0.031413976 -0.0046320255 0.017148647 0.031720314 -0.011991642
-0.030319272 -0.02436978 0.022085812 0.026541812 0.006249029 -0.004915203 -0.018992161 -0.03051988
0.005414224 -0.06299274 0.027511794 0.0072461152 0.031899005 0.005546386 0.018397173 0.052514363
-0.032477926 -0.0030348827 -0.0033293085 -0.02037196 0.046224065 0.0479942 -0.021055838 0.026244607
00000000: 0332 eb3c 3d8a 5e3c 5f5c 5ebc 5b8b 17bd
00000010: 58c2 ed3c 6446 4fbd a855 9ebc 2e6f d73c
00000020: 09a4 aebc 755d d63b 5e32 cf3c 91e3 913c
00000030: 1bb7 84bb f67e 05bd bdfe fa3b cecb c33c
00000040: dd43 6bbc ff68 41bc 923a dc3c 4a21 fc3a
00000050: 68d2 153c 4f51 8e3c aa9e adbc 26c4 f8bc
00000060: b1e3 4fbd b902 1b3c 02a6 003d 1a6e 2abd
00000070: b27c 323c 1760 b13b 87e9 a3bc 5f54 e03c
00000080: 0313 c73c 238d 9ebc fd00 cf3c d4fa f8bc
00000090: 233d a03c 2073 743c 6bcf c83c de4a 813c
000000a0: f878 823b 4078 20bd 037b 7dbc d860 acbc
000000b0: bb91 88bc e648 983c 9552 ddbc ad52 05bb
000000c0: 3f19 85bc e465 22bd 0ab5 85bc c92d 773d
000000d0: 35c0 01bd a418 243d cc1a 61bc 042c 94bc
000000e0: 889f f1bc e258 4dbd 405c 9f3c 1424 4cbc
000000f0: b038 dbbc 5c90 dcbb 25dd 22bd ef73 833c
00000100: b0f8 343c 3120 3cbc f84d d53c f0b7 0b3d
00000110: c8fc d4bc 6902 73bc 90c5 613d a19d 3ebc
00000120: 10a4 85bc 5032 603b ca63 fc3c 94ce 1bba
00000130: 785d f63b 8de2 fd3c 839b 0bbd 932c a5bc
00000140: df60 0e3d 0f0d 45ba 4421 fbbc 45f3 073c
00000150: 88fb c4bc 6e31 2a3d 7273 bf3c 37be d33c
00000160: f14b df3b ab3a 8c3b db98 e43b 0eed 03bc
00000170: 7200 d5bc 3e9a 8f3c 15fd b53b 6079 913d
00000180: 5dde 78bb 8868 aebc 4486 e53c 7206 9d3c
00000190: c7bc 053d b895 44bc a96b 96bc ed21 87bc
000001a0: c67f 08bb 640a 8abc 7d3a a6bc 0701 5eb9
000001b0: be69 3fbd 9ad5 a4bc 7e2e ab3b d82f 923c
000001c0: f859 4bbc caa5 863c bb45 24bd 9e33 a3bb
000001d0: 2346 b3bc dfa7 afbc cd4b 1ebd 56e4 b3bb
000001e0: 8e46 cc3c 405a 5fbc 6c51 00bd 3050 dbbc
000001f0: 09bc 80bc 489e 43bd d47a 053d 2f69 653d
00000200: e2a4 2c3b a46d 00bd eefb b3bc 27da 983c
00000210: caaa 043b cf84 01bd 1499 703b 6619 41bc
00000220: 64a2 603c 73e3 ddbc 8af2 52bc 0736 e3bb
00000230: e1df 42ba 8da6 003d ffe4 07bd ebd7 07bd
00000240: ad04 50bc d82a 363c 7228 1bbc 8292 853c
00000250: 592c 4c3c dfa0 6ebd 6633 21bc 89c1 6bbd
00000260: 8cfe 0d3d 2ca3 0e3d 4c4f f5bc f95b e83c
00000270: 2886 bb3c 5f79 00bd a6a2 63bd 815f 22bc
00000280: 5fd4 9d3b d364 ec3c 5efb 4a3c 2294 d63b
00000290: 920a aebc 4175 f9bb 887d 80bc 4ae2 f53a
000002a0: 76ee 9aba 33d2 44bd 0d29 d9bc d19a 33bc
000002b0: 6c8e 1b3c 435c 81bc 4a6d 5c3c d8db 3a3d
000002c0: 885c 263d 7163 3b3c 487c a4bb 626a 97bc
000002d0: 3524 26bc ba1e 303c dfc9 9a3c 880d 953c
000002e0: 23a9 86bc eeb3 773c a89a 42bc b776 e03c
000002f0: 583e f9bc 493b c43b 6081 b5bc 59dc e0bc
00000300: 4708 32bd faee e03c d6bd fabc c6f0 14bc
00000310: 413b e63c d5c7 1dbc 3b1e af3c 0e91 4fbc
00000320: f883 1d3d 8dd5 7fba 707c 123d 73b5 12bd
00000330: 1c95 163d d84b e53b bd8c 413d f363 44bc
00000340: 753c 14bd 9c68 123d a322 8a3c 64c2 533c
00000350: 154c 2f3c ddc5 bb3c d97d a73c 7f81 adbc
00000360: 5b55 563c ced8 fb3b 7379 e33c 7c3b 033d
00000370: 2a1c c23b e159 09bb f823 263c 74be dfbc
00000380: cdd8 e7bc ce70 f2bb 8873 493d f1ab 00bd
00000390: 3fc8 97bb 527b 8c3c 29ed 013d 9878 44bc
000003a0: 1f60 f8bc 22a3 c7bc 4eed b43c 376e d93c
000003b0: a8c4 cc3b b60f a1bb 7395 9bbc d404 fabc
000003c0: ce69 b13b 5602 81bd 6a60 e13c d270 ed3b
000003d0: 88a8 023d 75be b53b abb5 963c 4d19 573d
000003e0: 9307 05bd e2e4 46bb 8730 5abb 19e3 a6bc
000003f0: 7255 3d3d 9195 443d 4b7d acbc eefe d63c
