李鸿骏/week13/model_output/lora_tuning.pth (torch, 328372 bytes, 14 tensors)

base_model.model.encoder.encoder.layer.0.attention.self.query.lora_A.default.weight f4 [8, 768]
-0.0094009545 -0.061171163 -0.08526926 -0.014418161 -0.021731354 -0.0527892 -0.03785093 -0.015090436
0.10555082 -0.018663732 -0.035771266 0.049983867 -0.0054836604 -0.06993707 0.0048289835 0.074784875
0.023716519 -0.084304556 0.01855302 0.02622761 0.015174879 -0.012921585 0.030554162 0.04869961
-0.0104684485 0.072252035 0.029678369 0.029218834 -0.004976402 -0.022404594 0.008676419 0.047946587
-0.024379153 -0.048413295 0.032373406 0.011726446 0.005106275 0.050204825 0.010623371 0.06670084
-0.052919265 0.054694094 0.032686338 -0.020201098 0.02368122 0.054173276 -0.028648969 -0.022129161
-0.017832426 0.01589321 0.06640074 0.09835825 -0.01507264 0.051200632 -0.04470531 -0.011453163
-0.0130967535 -0.08337812 0.076469205 -0.017792422 -0.015543204 0.030674849 -0.094236165 0.03698149
0.010847515 0.055757437 -0.07201909 -0.053959124 0.02945439 -0.020936782 0.028374886 -0.04158383
-0.006860792 0.033800036 -0.047986835 0.017644113 -0.011382683 -0.09152461 -0.004379722 0.0015585674
-0.0074528907 0.017682932 -0.0016517909 0.032303926 0.03452569 0.028217219 0.049860552 -0.071108274
0.054116037 -0.017220756 0.0052738823 0.003990511 -0.03906445 0.0015043708 0.019070515 0.09869933
-0.043873843 -0.057011258 -0.025632994 0.07117172 -0.044194326 -0.042374957 0.058070496 0.041110627
0.020129189 -0.046814352 -0.031489227 -0.06006769 -0.075351715 -0.009718087 -0.009717604 -0.03286366
0.056167208 -0.03527602 -0.023714462 -0.054511722 -0.027054427 -0.011950609 -0.058781683 -0.06946138
-0.030507807 -0.05125686 -0.0416184 -0.03818568 -0.010701543 -0.10368584 0.01858532 0.07633938
-0.005183309 -0.00012487307 0.0411604 0.028154239 0.014560445 -0.061886784 -0.006633179 0.04097572
0.08098864 -0.0061957007 0.08469282 -0.014688822 -0.015376539 0.03559333 0.079681724 -0.008119145
0.051030096 0.003562517 0.0062813177 -0.019547056 0.10478191 -0.0585332 0.058352612 0.011317146
-0.16292755 0.011072579 0.003610637 -0.010797017 -0.068465635 -0.08387894 0.009333524 -0.066472344
0.04697408 0.008986168 -0.04132153 -0.03760343 -0.020391548 -0.0330686 -0.053591106 -0.014209921
0.054568175 -0.05438502 0.06575813 0.0007145797 -0.09965118 -0.0037645525 -0.07097844 0.041831788
-0.05208952 -0.02643764 0.0060225413 -0.03821222 -0.038531873 -0.03852066 0.02810566 0.041930538
0.018268913 -0.03430359 0.039000057 -0.0031358183 -0.073703244 -0.07206057 0.005508946 -0.0197668
-0.09374547 0.028987199 0.015969945 0.059742767 0.025911434 -0.00034662226 0.035002884 0.012945195
0.06331368 0.013246308 0.03591718 -0.03299699 0.09548901 0.006643992 0.020853002 0.025679216
0.043508857 0.036711574 0.019984763 -0.010525578 0.11265904 -0.009304164 -0.045459587 -0.014313348
0.020800462 -0.004706516 0.0014562176 0.09342322 0.0010011287 -0.0038171492 0.07233529 0.012709932
-0.0017507506 0.06141943 0.030890806 0.038428523 -0.0037541292 0.030911889 -0.021136101 0.070589006
-0.05384908 -0.0032394202 0.04194697 -0.011300489 0.011252699 0.036498893 -0.0144137135 -0.017844915
0.06923033 0.044967875 -0.07692169 0.023905836 -0.02504619 0.0395267 -0.028138066 -0.035862725
-0.057024732 0.05270077 -0.02125709 -0.07784354 -0.010429758 -0.007240384 -0.06807385 0.0069134603
00000000: 7606 1abc 9d8e 7abd a6a1 aebd 263a 6cbc
00000010: f405 b2bc 7d39 58bd 9409 1bbd e03d 77bc
00000020: 072b d83d afe4 98bc e484 12bd e2bb 4c3d
00000030: 47b0 b3bb 2b3b 8fbd 733c 9e3b d028 993d
00000040: 2549 c23c dea7 acbd 81fc 973c 49db d63c
00000050: 0ea0 783c 0eb5 53bc b94c fa3c 3e79 473d
00000060: db83 2bbc e0f8 933d 0d20 f33c 565c ef3c
00000070: 1611 a3bb d789 b7bc 8a27 0e3c a463 443d
00000080: cab6 c7bc 054d 46bd fa99 043d 4820 403c
00000090: 8a52 a73b 93a3 4d3d a60d 2e3c 739a 883d
000000a0: dfc1 58bd ea06 603d 1ce2 053d c67c a5bc
000000b0: 1eff c13c cce4 5d3d 3eb1 eabc 3748 b5bc
000000c0: 4f15 92bc 7a32 823c 1cfd 873d 0d70 c93d
000000d0: 3cf3 76bc c1b7 513d ea1c 37bd 0ca6 3bbc
000000e0: c493 56bc 26c2 aabd e39b 9c3d 6ac1 91bc
000000f0: eca8 7ebc d249 fb3c e4fe c0bd e779 173d
00000100: c7b9 313c e961 643d bf7e 93bd 3e04 5dbd
00000110: 554a f13c 9d83 abbc 7372 e83c ce53 2abd
00000120: 7fd0 e0bb e871 0a3d d88d 44bd 638a 903c
00000130: 6f7e 3abc 4171 bbbd c583 8fbb d848 cc3a
00000140: 6137 f4bb ccdb 903c e880 d8ba 1f51 043d
00000150: cf6a 0d3d cc27 e73c 943a 4c3d 37a1 91bd
00000160: c7a8 5d3d 8b12 8dbc 88d0 ac3b d5c2 823b
00000170: 0b02 20bd 4f2e c53a c539 9c3c e022 ca3d
00000180: 0fb5 33bd a384 69bd 49fc d1bc 7bc2 913d
00000190: 1c05 35bd 5d91 2dbd 54db 6d3d 9e63 283d
000001a0: f8e5 a43c 68c0 3fbd d9fa 00bd 8a09 76bd
000001b0: 0052 9abd 9c38 1fbc 9636 1fbc 0c9c 06bd
000001c0: 960f 663d 977d 10bd d544 c2bc af47 5fbd
000001d0: 3fa1 ddbc 7dcc 43bc 10c5 70bd c541 8ebd
000001e0: 82eb f9bc b7f2 51bd 0e78 2abd 9668 1cbd
000001f0: 8655 2fbc 3e59 d4bd 3e40 983c d257 9c3d
00000200: bfd8 a9bb 5cf0 02b9 cf97 283d b8a3 e63c
00000210: ef8e 6e3c ff7c 7dbd 235b d9bb 28d6 273d
00000220: 5fdd a53d 4e05 cbbb 6e73 ad3d 63a9 70bc
00000230: e1ed 7bbc 50ca 113d 2c30 a33d 2a06 05bc
00000240: ef04 513d 1e79 693b 83d3 cd3b 2621 a0bc
00000250: e697 d63d 82c0 6fbd 2603 6f3d 8d6b 393c
00000260: 7bd6 26be c369 353c 70a0 6c3b f9e5 30bc
00000270: b637 8cbd b9c8 abbd a3eb 183c a722 88bd
00000280: e567 403d b83a 133c c440 29bd 0e06 1abd
00000290: 2d0c a7bc f172 07bd 5982 5bbd bad0 68bc
000002a0: e182 5f3d d4c2 5ebd 33ac 863d a252 3b3a
000002b0: eb15 ccbd b6b6 76bb 255d 91bd cf57 2b3d
000002c0: d25b 55bd c093 d8bc bd58 c53b 6b84 1cbd
000002d0: 99d3 1dbd d7c7 1dbd d73d e63c 5bbf 2b3d
000002e0: b0a8 953c ec81 0cbd 86be 1f3d 4d82 4dbb
000002f0: baf1 96bd 7e94 93bd 6384 b43b fced a1bc
00000300: a0fd bfbd 9076 ed3c 67d3 823c d5b4 743d
00000310: 3744 d43c daba b5b9 2f5f 0f3d 1518 543c
00000320: 9aaa 813d 0b07 593c e51d 133d da27 07bd
00000330: be8f c33d d8b5 d93b ead3 aa3c 385d d23c
00000340: 5836 323d e05e 163d 16b7 a33c 7973 2cbc
00000350: c8b9 e63d 7e70 18bc d533 3abd 8882 6abc
00000360: bb65 aa3c 1e39 9abb 8ede be3a ac54 bf3d
00000370: 4e38 833a 2329 7abb 8624 943d 523d 503c
00000380: 7179 e5ba f192 7b3d b70e fd3c 3a67 1d3d
00000390: d607 76bb ee3a fd3c 9e25 adbc f890 903d
000003a0: da90 5cbd 744c 54bb 96d0 2b3d b025 39bc
000003b0: 3e5d 383c dd7f 153d 7f27 6cbc 802f 92bc
000003c0: a2c8 8d3d 3c30 383d 1e89 9dbd 2cd6 c33c
000003d0: ab2d cdbc c0e6 213d cd81 e6bc cbe4 12bd
000003e0: c492 69bd c3dc 573d 5923 aebc 6f6c 9fbd
000003f0: 93e1 2abc be40 edbb 4d6a 8bbd 4f8a e23b

base_model.model.encoder.encoder.layer.0.attention.self.query.lora_B.default.weight f4 [768, 8]
-0.016203703 -0.026168069 -0.012658803 -0.049390506 -0.036949605 -0.071569614 -0.039682887 -0.0076273843
0.029649768 0.035608955 -0.020745514 -0.0391749 0.05082233 0.01521389 0.027275559 -0.05274875
-0.023811202 -0.07930828 -0.0057309424 0.00650141 0.026945679 -0.050130602 0.009763101 -0.07468434
-0.052215967 -0.07631016 0.07655518 0.038886607 -0.060364 0.02813421 -0.0071096467 0.007831397
0.009694678 -0.012465356 0.016742608 -0.020943591 0.0023685882 -0.041464344 -0.0044623595 0.024249738
-0.0154073825 -0.019462463 -0.08223919 0.007832128 -0.015216063 0.065507494 0.028154312 0.016886258
0.003118884 0.07488974 -0.051192958 0.012641684 -0.03151734 -0.01703432 -0.018049119 0.02363148
-0.018629981 0.037726227 -0.039637253 0.079549335 -0.025462572 -0.02030923 0.03474973 -0.010040271
0.11905788 -0.0368915 0.093291365 0.008068719 0.02509043 0.02196166 -0.048733078 -0.03099823
0.026058791 -0.021566125 0.060335107 -0.019641321 -0.05115214 -0.075466454 0.023647286 0.01081469
0.021295795 0.009615086 -0.043674402 -0.025479982 0.011793323 0.077901885 0.01910642 0.008723414
-0.15750936 0.045300484 -0.068342365 0.023920653 -0.08389805 -0.06248373 0.07737123 0.019722074
0.0012191783 0.002992649 -0.0025837743 0.012133679 0.043908652 -0.0054184836 0.0014005188 -0.02413633
-0.038806316 -0.0063965847 0.047002185 0.031383783 -0.09608415 0.050500944 0.07229363 0.015199601
-0.06814377 -0.04819889 -0.06956557 -0.056165215 0.009809046 -0.06282823 -0.048122846 0.04446018
0.021877341 -0.030308124 0.06494212 -0.0073797978 0.015378942 -0.0123383915 0.00011797217 0.012768409
0.024948278 -0.02205546 0.009464922 0.0016862199 0.020422539 0.02348232 0.051612597 0.008741907
0.0013178879 -0.013606507 0.012797076 -0.00053694565 -0.027152153 -0.07476092 0.039060246 0.029541794
-0.09721017 0.06865011 -0.06602756 0.09644575 0.053508338 -0.038414076 -0.03365375 -0.0016854012
0.00046222727 -0.020400608 0.05089933 -0.016287098 0.04335053 -0.014449923 0.10402721 -0.03678326
0.08417008 -0.026578818 0.09448798 -0.0004886172 -0.03188621 -0.0014980492 0.002505276 0.0020206186
0.059112404 0.0021302383 0.030552056 0.020038726 -0.029563738 -0.018442197 -0.030348802 0.020152668
-0.046775207 0.02569853 0.020846758 0.04519131 -0.0093039395 -0.019380644 -0.025813138 -0.022911418
0.0036552534 -0.0120915035 0.02375705 0.020188201 -0.0064776153 0.047661968 0.064792946 0.048630558
0.035649743 -0.023673456 0.03158366 -0.04785501 0.021584151 0.015965028 -0.023893846 0.03217002
0.07151735 0.0024766428 0.04203946 0.0021735763 -0.040898483 0.10861221 0.07040763 -0.04322301
-0.061522346 0.012789666 -0.014618544 -0.024859855 0.049964793 -0.009233647 -0.0236923 -0.036493406
0.016740045 0.06553358 0.023915572 -0.033125535 0.061835628 -0.034529995 0.0005273984 -0.025022203
-0.014864573 0.081487484 -0.05471422 0.015607483 -0.015193138 -0.0520714 0.019559784 0.022836858
0.03308752 -0.08963123 -0.04472026 -0.027876442 0.06594395 0.052909527 -0.07272145 0.056385707
0.035089348 0.04737505 -0.039551966 -0.06282941 0.028171679 -0.053496394 -0.0024375468 -0.01580741
-0.01613249 -0.05873932 0.001346357 -0.014922613 -0.01149708 0.016011015 0.00016225968 -0.0037190337
00000000: a1bd 84bc 6b5e d6bc de66 4fbc b34d 4abd
00000010: 7858 17bd 1793 92bd 868a 22bd 23ef f9bb
00000020: 12e4 f23c b2da 113d 7ff2 a9bc dc75 20bd
00000030: 132b 503d ae43 793c fe70 df3c 130f 58bd
00000040: b60f c3bc 616c a2bd a1ca bbbb c809 d53b
00000050: 2fbd dc3c bf55 4dbd 6af5 1f3c 1af4 98bd
00000060: 69e0 55bd 8048 9cbd f6c8 9c3d 9047 1f3d
00000070: 3e40 77bd b779 e63c 0af8 e8bb 424f 003c
00000080: 6dd6 1e3c 7e3b 4cbc cb27 893c e591 abbc
00000090: 513a 1b3b 84d6 29bd fc38 92bb 63a7 c63c
000000a0: 3f6f 7cbc be6f 9fbc 056d a8bd 5352 003c
000000b0: cb4c 79bc cb28 863d dfa3 e63c 0d55 8a3c
000000c0: 3166 4c3b cb5f 993d b5af 51bd 111f 4f3c
000000d0: 5418 01bd 8f8b 8bbc bfdb 93bc ce96 c13c
000000e0: e79d 98bc d186 1a3d ac5a 22bd c3ea a23d
000000f0: e296 d0bc 8b5f a6bc bc55 0e3d f37f 24bc
00000100: 9ed4 f33d 8b1b 17bd 8b0f bf3d a932 043c
00000110: 728a cd3c f0e8 b33c 569c 47bd 00f0 fdbc
00000120: 3f79 d53c 71ab b0bc f221 773d d6e6 a0bc
00000130: e884 51bd 288e 9abd f4b7 c13c 1930 313c
00000140: 8574 ae3c 9888 1d3c eee3 32bd 65bb d0bc
00000150: c838 413c 068b 9f3d 1185 9c3c a6ec 0e3c
00000160: 224a 21be 008d 393d 15f7 8bbd 3ff5 c33c
00000170: bed2 abbd f1ee 7fbd cf74 9e3d 3090 a13c
00000180: d6cc 9f3a 5220 443b 8a54 29bb 57cc 463c
00000190: 8fd9 333d 898d b1bb 9d91 b73a 8db9 c5bc
000001a0: 5ff3 1ebd 719a d1bb 5d85 403d 488c 003d
000001b0: c4c7 c4bd 14da 4e3d af0e 943d bf07 793c
000001c0: f68e 8bbd 336c 45bd 6578 8ebd 7f0d 66bd
000001d0: 1fb6 203c 16ac 80bd 761c 45bd e11b 363d
000001e0: 1c38 b33c be48 f8bc 6000 853d 3bd2 f1bb
000001f0: f5f7 7b3c f726 4abc d467 f738 9732 513c
00000200: 5560 cc3c a7ad b4bc c312 1b3c 2704 dd3a
00000210: 2b4d a73c ff5d c03c bb67 533d 373a 0f3c
00000220: fbbc ac3a d4ed 5ebc d4aa 513c d0c1 0cba
00000230: 316e debc 411c 99bd a3fd 1f3d a201 f23c
00000240: 2016 c7bd 6e98 8c3d 7539 87bd 5985 c53d
00000250: 8f2b 5b3d 1458 1dbd 84d8 09bd aee8 dcba
00000260: 1857 f239 2d1f a7bc d17b 503d 856c 85bc
00000270: 5390 313d 5fbf 6cbc 380c d53d 0baa 16bd
00000280: 5d61 ac3d d2bb d9bc ea82 c13d 8c16 00ba
00000290: 1d9b 02bd 315a c4ba 8e2f 243b 5b6c 043b
000002a0: d91f 723d 789b 0b3b 4e48 fa3c 4128 a43c
000002b0: a72f f2bc 1714 97bc 0d9e f8bc 3517 a53c
000002c0: 5c97 3fbd b985 d23c d2c6 aa3c 861a 393d
000002d0: 8d6f 18bc 28c4 9ebc 1376 d3bc bab0 bbbc
000002e0: fa8c 6f3b 711b 46bc 259e c23c ba61 a53c
000002f0: 2d42 d4bb 3239 433d 2ab2 843d d630 473d
00000300: 7705 123d d6ee c1bc de5d 013d 9d03 44bd
00000310: 3fd1 b03c 17c9 823c 07bd c3bc b6c4 033d
00000320: b077 923d 2c4f 223b 9231 2c3d 8f72 0e3b
00000330: 2b85 27bd 1470 de3d e031 903d 9c0a 31bd
00000340: dbfe 7bbd bf8b 513c 9e82 6fbc e5a6 cbbc
00000350: e2a7 4c3d b948 17bc 5b16 c2bc 1c7a 15bd
00000360: 6b22 893c 7836 863d 97ea c33c a4ae 07bd
00000370: 5b47 7d3d 536f 0dbd 1c41 0a3a 5dfb ccbc
00000380: 8a8a 73bc e9e2 a63d 051c 60bd 87b6 7f3c
00000390: a4ec 78bc d248 55bd d73b a03c 5d14 bb3c
000003a0: c886 073d 9490 b7bd 972c 37bd 235d e4bc
000003b0: 9f0d 873d a9b7 583d fcee 94bd b3f4 663d
000003c0: d9b9 0f3d 570c 423d 3e01 22bd b5ac 80bd
000003d0: 4bc8 e63c 091f 5bbd 40bf 1fbb 8b7e 81bc
000003e0: 4928 84bc a498 70bd 3f78 b03a fa7d 74bc
000003f0: 405e 3cbc 8829 833c 4024 2a39 08bb 73bb

base_model.model.encoder.encoder.layer.0.attention.self.key.lora_A.default.weight f4 [8, 768]
-0.048784018 -0.054720636 0.0928032 -0.09101495 -0.023530949 -0.021278236 -0.01684293 -0.04216817
-0.07222438 -0.057788897 0.041435547 -0.04682227 0.058465842 -0.03510753 -0.11163619 0.009975432
-0.08075271 -0.035106316 -0.021310762 -0.047208894 0.0029924961 -0.0630426 0.018130884 -0.024411382
0.044856343 -0.016673809 -0.0009182148 -0.08692412 0.020310964 -0.019483404 0.08074787 -0.027280383
0.03699711 0.0010432476 -0.018010197 -0.027438357 0.013948714 -0.018957721 0.0115438495 0.018714517
-0.04865735 0.035096053 0.029216856 0.0826369 0.042456154 0.009730306 0.006884341 0.038640693
-0.1048297 0.030630333 0.0038541195 -0.021565955 0.044696204 -0.037253127 -0.004333178 -0.091381796
0.004057552 -0.028902654 -0.032974556 0.058964256 0.032642476 -0.0036488627 0.021499766 -0.001647351
0.09647905 0.0283229 -0.041401092 -0.008839444 -0.024203015 -0.002280084 -0.010938594 0.05458298
0.031987667 -0.085535616 0.004765878 -0.008057296 -0.072158374 0.021136194 -0.045060173 -0.046470832
0.04339634 -0.0026388296 0.038219813 0.038562376 0.027967503 -0.0032337178 -0.07328986 0.03446757
0.027096115 -0.03885256 0.062105633 -0.014019972 -0.043483548 -0.024638657 -0.00030380941 0.03588414
0.08210869 0.0029185808 0.0069975327 0.032602914 -0.008342216 -0.035115786 -0.0003021029 -0.01648058
-0.0007677987 -0.07530504 0.022108374 -0.0008463066 0.002765234 0.0353211 0.011519243 -0.034696255
0.014675924 0.03232781 -0.031579573 0.009488835 0.09133905 -0.055640485 -0.05448288 0.041654054
0.0017406108 0.012889586 -0.03720864 0.090492 0.0082161315 0.030379137 -0.037470836 0.06331813
-0.03260108 0.022240994 -0.03686671 -0.04699001 0.021712512 -0.030045368 -0.0047587524 -0.024594212
-0.024139944 0.014180383 0.033502795 0.017453892 -0.07502042 -0.03287782 0.11109492 -0.017166434
0.049558725 -0.02492767 0.013864635 -0.041512445 0.028678425 0.09219475 0.105942406 -0.021351436
-0.0447244 -0.07004718 -0.0050941645 0.0657933 -0.063981876 0.048608977 -0.026666496 -0.030032761
0.013686685 0.011225246 -0.034090824 0.074838884 -0.037493005 -0.012467674 0.056932364 -0.04780092
-0.09216703 0.06690971 -0.039257497 0.032261748 0.07634988 0.043502506 -0.008583791 -0.026155189
-0.02222997 0.087620504 -0.037043296 0.06986452 0.018058581 -0.046561662 0.024129584 -0.030171312
0.04068792 0.003580019 0.016617047 -0.013155302 0.108008966 -0.057686996 -0.037912752 -0.022238106
-0.047164295 0.10821335 -0.039881397 0.038056012 0.07671442 0.0101105105 -0.09677138 -0.034660496
-0.0052821725 -0.006537156 -0.05943718 0.019936116 -0.033647906 0.0798742 0.01547518 -0.010776615
-0.03276802 -0.029296141 0.0029561806 0.01560658 -0.087856546 0.052563556 -0.0760965 0.05674988
0.036055338 -0.018382065 0.0511181 -0.0033886079 -0.094404824 -0.03633942 0.011636233 -0.0033302405
-0.005705149 0.014629373 0.0014538951 0.09270376 0.03610942 0.026149526 -0.046748344 -0.059855383
0.08521248 -0.045602877 -0.008098059 0.036604904 -0.06333853 -0.010580892 0.008567104 0.075820394
-0.049383026 0.022000004 0.02630431 0.037055105 -0.05153849 -0.056353416 0.02380629 0.08242971
-0.080366045 -0.015026589 -0.04984879 0.03692818 -0.020175038 -0.047926467 0.03189029 -0.030739674
00000000: c0d1 47bd bf22 60bd 9b0f be3d 0c66 babd
00000010: fac3 c0bc b24f aebc 2ffa 89bc 88b8 2cbd
00000020: 60ea 93bd 0db4 6cbd 52b8 293d b5c8 3fbd
00000030: e179 6f3d eacc 0fbd 84a1 e4bd ff6f 233c
00000040: ad61 a5bd a4cb 0fbd e893 aebc 1d5e 41bd
00000050: c11d 443b 7b1c 81bd 3887 943c 61fa c7bc
00000060: 49bb 373d 8397 88bc 5ab4 70ba 4605 b2bd
00000070: 2e63 a63c a99b 9fbc 245f a53d 1c7b dfbc
00000080: 488a 173d 95bd 883a 1f8a 93bc 68c6 e0bc
00000090: 2689 643c 394d 9bbc 6a22 3d3c 304f 993c
000000a0: ee4c 47bd e1c0 0f3d 3058 ef3c 893d a93d
000000b0: 81e6 2d3d dd6b 1f3c 0a96 e13b b445 1e3d
000000c0: f4b0 d6bd 77ec fa3c 6595 7c3b 16ab b0bc
000000d0: 5e13 373d bc96 18bd 55fd 8dbb 6126 bbbd
000000e0: 37f5 843b 42c5 ecbc 5410 07bd 8184 713d
000000f0: 1eb4 053d c221 6fbb 4720 b03c edeb d7ba
00000100: cf96 c53d 6d05 e83c 3194 29bd 51d3 10bc
00000110: 6745 c6bc 766d 15bb ca37 33bc 6792 5f3d
00000120: 8005 033d 4c2d afbd 152b 9c3b c002 04bc
00000130: c5c7 93bd d025 ad3c 0491 38bd 3358 3ebd
00000140: 5cc0 313d 37f0 2cbb 618c 1c3d 95f3 1d3d
00000150: 1b1c e53c c8ec 53bb fe18 96bd de2d 0d3d
00000160: acf8 dd3c dd23 1fbd 7a62 7e3d 06b4 65bc
00000170: ce1b 32bd 02d7 c9bc 9c48 9fb9 3ffb 123d
00000180: 9a28 a83d a945 3f3b 8f4b e53b a28a 053d
00000190: caad 08bc 92d5 0fbd 9163 9eb9 4802 87bc
000001a0: 1946 49ba 8739 9abd 9f1c b53c adda 5dba
000001b0: ee38 353b dcac 103d 35bb 3c3c a91d 0ebd
000001c0: 4973 703c 2a6a 043d 9559 01bd 0f77 1b3c
000001d0: f80f bb3d 47e7 63bd 7129 5fbd 719d 2a3d
000001e0: 3525 e43a d82e 533c 1668 18bd df53 b93d
000001f0: f49c 063c abdd f83c 057b 19bd f0ac 813d
00000200: b688 05bd bf32 b63c 8c01 17bd 9978 40bd
00000210: 70de b13c b421 f6bc 4fef 9bbb cd79 c9bc
00000220: 22c1 c5bc d654 683c 3a3a 093d 77fb 8e3c
00000230: 4ea4 99bd e5aa 06bd bc85 e33d 9fa0 8cbc
00000240: 17fe 4a3d 1d35 ccbc 7e28 633c f408 2abd
00000250: 04ef ea3c 9ad0 bc3d 55f8 d83d 35e9 aebc
00000260: ef30 37bd e574 8fbd f3ec a6bb a3be 863d
00000270: ee08 83bd 351a 473d b273 dabc 4407 f6bc
00000280: 1e3e 603c 18ea 373c d2a2 0bbd 2145 993d
00000290: 4492 19bd 3745 4cbc e931 693d e6ca 43bd
000002a0: 11c2 bcbd f507 893d 78cc 20bd e524 043d
000002b0: 535d 9c3d af2f 323d 07a3 0cbc 6843 d6bc
000002c0: a01b b6bc 6172 b33d b6ba 17bd 2115 8f3d
000002d0: 97ef 933c 71b7 3ebd 68ab c53c d429 f7bc
000002e0: 60a8 263d c19e 6a3b 7920 883c 5689 57bc
000002f0: ce33 dd3d 3349 6cbd 674a 1bbd b02c b6bc
00000300: 592f 41bd f69e dd3d ad5a 23bd 9fe0 1b3d
00000310: 731c 9d3d 8ea6 253c 1330 c6bd 2af8 0dbd
00000320: 1316 adbb a435 d6bb 6774 73bd 1151 a33c
00000330: 63d2 09bd 1695 a33d 9c8b 7d3c 6690 30bc
00000340: c237 06bd 76fe efbc 7bbc 413b beb2 7f3c
00000350: 22ee b3bd e24c 573d 7bd8 9bbd 9072 683d
00000360: c3ae 133d fc95 96bc 3661 513d 6813 5ebb
00000370: 5157 c1bd a5d8 14bd e6a5 3e3c 2a40 5abb
00000380: 42f2 babb 0ab0 6f3c a090 be3a 78db bd3d
00000390: 79e7 133d 8837 d63c 317b 3fbd eb2a 75bd
000003a0: e183 ae3d 15ca 3abd b9ad 04bc 06ef 153d
000003b0: a2b7 81bd 7a5b 2dbc 0a5d 0c3c b947 9b3d
000003c0: db45 4abd 5a39 b43c 237c d73c 18c7 173d
000003d0: 061a 53bd d7d2 66bd 6905 c33c e8d0 a83d
000003e0: f496 a4bd 1532 76bc 3f2e 4cbd 0142 173d
000003f0: 1f46 a5bc 8b4e 44bd 659f 023d c5d1 fbbc

base_model.model.encoder.encoder.layer.0.attention.self.key.lora_B.default.weight f4 [768, 8]
-0.00308129 -0.058390725 0.07426229 -0.008414959 -0.015458725 0.0072341473 -0.010495947 -0.024711575
-0.021108175 0.0058483374 0.0438023 -0.0013894149 0.0021992705 0.008093278 -0.0174007 0.022492418
-0.06714204 0.038252413 0.013247005 -0.0054542026 -0.015207272 -0.03895071 -0.041509207 0.02998306
-0.12579314 0.02990537 -0.064625755 -0.027668806 -0.07618715 -0.030001197 -0.020986583 0.035065107
0.028685978 0.010049797 0.0057865656 -0.02050001 0.04593086 0.0022851003 -0.03311472 -0.05659245
0.059207343 0.01035588 -0.013598334 -0.019588597 0.0633758 -0.037791427 0.011720984 -0.044862866
0.014849344 0.04482662 0.0056236265 0.015544149 0.063134685 0.02762948 0.029143322 0.022983931
-0.046731886 -0.010873833 0.0050089564 0.043538738 0.044430688 0.065064676 0.035260566 0.015443978
-0.031835552 0.080599576 -0.0047645057 0.0064980113 -0.0012280119 0.019968065 0.026854489 0.10375532
-0.027283303 -0.05320673 0.018102499 -0.016778793 -0.021479724 0.09236416 0.0041324208 0.04231455
0.068691514 0.025203597 0.0059063165 -0.07735155 0.02133317 0.019202666 -0.025373165 -0.030746771
0.03869038 0.028238796 0.023993623 0.016222313 -0.02824712 -0.026671767 0.0111721 0.014137734
-0.05408915 0.005382668 0.0072990386 -0.014390864 0.026845211 0.014809005 0.0009273343 -0.021365713
-0.023646496 0.04183953 0.009036071 0.0076780594 -0.017090699 -0.052527994 -0.013551399 0.033437293
0.029503344 -0.06341748 -0.048563514 0.029459687 0.041122295 -0.022092381 -0.0090853 -0.06886946
0.064039126 0.07851622 0.012140777 -0.044530373 0.03781619 -0.06175755 -0.07427204 -0.0070908973
-0.05893869 -0.027796226 -0.027161239 -0.00261401 -0.008889511 0.04548339 0.024180777 0.0019194495
0.02705538 -0.021441655 -0.0066174837 0.025310386 0.043961816 0.06768343 -0.009596169 -0.036024243
0.0019513404 0.0035407008 0.032354463 0.036530618 0.03966067 0.040416338 0.041695863 0.010561283
-0.02267794 -0.067127734 0.030356491 0.0113096135 0.016015438 0.042463202 -0.02888024 -0.075902216
0.050099283 0.030952109 0.031635355 -0.11852963 0.035858016 0.012584778 -0.037824668 0.032724135
0.08803341 0.0045047947 -0.048450757 0.02811299 -0.029198004 0.002217784 -0.01411665 -0.059447292
-0.021427454 0.06828305 -0.007965212 0.02646579 0.0021339385 0.053157926 0.038784638 0.06498896
0.020972714 -0.021788146 -0.022658946 -0.054735795 -0.010920354 0.024227126 -0.027531004 -0.032013286
-0.039304532 0.048997816 0.08017393 -0.016857954 -0.002806087 0.025909917 -0.0322018 0.054350186
0.037390444 0.010196072 0.0018844097 -0.07006467 0.03718915 -0.03172113 -0.029035276 0.025093582
-0.03839102 -0.0043665566 0.021372303 0.004039702 0.024252519 0.001238703 -0.0005484395 -0.023606598
0.012070998 -0.04129935 0.09859075 -1.7238903e-05 0.041890416 0.04071141 -0.04790816 -0.025773387
0.044100896 0.0028231104 0.016980113 0.034918983 0.09614545 0.0031557155 0.0776891 0.036503866
-0.021187387 -0.07360995 -0.029042248 -0.008291565 0.02880628 0.03812092 -0.011037155 -0.07599978
-0.08369389 -0.09459429 -0.009465224 -0.031847768 0.036369827 0.067574814 -0.016102536 -0.033976607
0.015313399 0.059249666 0.009565455 0.009541292 -0.03337232 -0.06890069 -0.01919949 0.02324923
00000000: 78ef 49bb 1d2b 6fbd d416 983d e5de 09bc
00000010: 9846 7dbc 6d0c ed3b 31f7 2bbc ee6f cabc
00000020: 0deb acbc 69a3 bf3b 0a6a 333d 071d b6ba
00000030: a321 103b ab99 043c ea8b 8ebc 0542 b83c
00000040: c481 89bd 90ae 1c3d f709 593c 2bb9 b2bb
00000050: ec27 79bc c88a 1fbd 8f05 2abd 099f f53c
00000060: ebcf 00be 1bfc f43c 825a 84bd b1a9 e2bc
00000070: 0208 9cbd 12c5 f5bc 0eec abbc 6ea0 0f3d
00000080: dbfe ea3c e7a7 243c 3b9d bd3b a3ef a7bc
00000090: ff21 3c3d 9fc1 153b 4da3 07bd 7ccd 67bd
000000a0: 6683 723d b5ab 293c 8ccb 5ebc 4478 a0bc
000000b0: 2ccb 813d 2fcb 1abd 5f09 403c 20c2 37bd
000000c0: aa4a 733c 1e9c 373d 6646 b83b e3ac 7e3c
000000d0: c24c 813d 3857 e23c fabd ee3c cc48 bc3c
000000e0: ef69 3fbd 2928 32bc 2c22 a43b ad55 323d
000000f0: f4fc 353d a140 853d 626d 103d bd08 7d3c
00000100: ff65 02bd 6411 a53d 921f 9cbb 45ed d43b
00000110: 3ef5 a0ba 1194 a33c f2fd db3c ab7d d43d
00000120: 3c81 dfbc 4def 59bd b14b 943c ae73 89bc
00000130: 3ff6 afbc 6c29 bd3d 4269 873b 0652 2d3d
00000140: 23ae 8c3d c677 ce3c c689 c13b 7d6a 9ebd
00000150: e6c2 ae3c e94e 9d3c 62db cfbc a7e0 fbbc
00000160: ce79 1e3d 0c55 e73c 468e c43c a8e4 843c
00000170: 8166 e7bc c07e dabc 2f0b 373c f4a1 673c
00000180: 968c 5dbd 1861 b03b c62c ef3b a9c7 6bbc
00000190: 7dea db3c 78a1 723c 5a18 733a 2607 afbc
000001a0: 4cb6 c1bc ed5f 2b3d 070c 143c 3b98 fb3b
000001b0: cb01 8cbc 9827 57bd b006 5ebc 8bf5 083d
000001c0: ffb0 f13c 06e1 81bd 89ea 46bd 7155 f13c
000001d0: da6f 283d 15fb b4bc 83da 14bc 6e0b 8dbd
000001e0: f226 833d 1dcd a03d 1cea 463c 7b65 36bd
000001f0: 26e5 1a3d 7cf5 7cbd f01b 98bd c25a e8bb
00000200: b269 71bd e9b4 e3bc 3f81 debc cf4f 2bbb
00000210: 50a5 11bc cb4c 3a3d c416 c63c 0a96 fb3a
00000220: 3fa3 dd3c 69a6 afbc 7ad7 d8bb ba57 cf3c
00000230: 4e11 343d 9c9d 8a3d 4039 1dbc 288e 13bd
00000240: 1ec4 ff3a 1a0b 683b 1d86 043d 21a1 153d
00000250: 3a73 223d 9a8b 253d 48c9 2a3d 3b09 2d3c
00000260: 16c7 b9bc 447a 89bd 2dae f83c f54b 393c
00000270: cf32 833c e5ed 2d3d 4196 ecbc 9f72 9bbd
00000280: e834 4d3d 478f fd3c 1394 013d aabf f2bd
00000290: dbdf 123d 6230 4e3c 0aee 1abd be09 063d
000002a0: dc4a b43d f59c 933b 4d74 46bd 374d e63c
000002b0: a730 efbc 3e58 113b 8649 67bc 017f 73bd
000002c0: a188 afbc fcd7 8b3d 8580 02bc c9ce d83c
000002d0: 8cd9 0b3b 20bc 593d a4dc 1e3d ef18 853d
000002e0: f8ce ab3c 0e7d b2bc 419f b9bc a432 60bd
000002f0: 49eb 32bc f777 c63c b388 e1bc 5d20 03bd
00000300: cafd 20bd efb1 483d 3b32 a43d b119 8abc
00000310: 54e6 37bb 0941 d43c 09e6 03bd 4d9e 5e3d
00000320: b926 193d 6d0d 273c 4cfe f63a 117e 8fbd
00000330: a653 183d 04ee 01bd 63db edbc 0e91 cd3c
00000340: e73f 1dbd 5515 8fbb f814 af3c 7a5f 843b
00000350: 38ad c63c fa5b a23a 27c5 0fba a062 c1bc
00000360: 6fc5 453c 8229 29bd f2e9 c93d 439c 90b7
00000370: 4995 2b3d 02c1 263d 593b 44bd b622 d3bc
00000380: 24a3 343d ef03 393b e119 8b3c 3507 0f3d
00000390: e8e7 c43d 1fd0 4e3b 761b 9f3d 1485 153d
000003a0: 2c91 adbc d0c0 96bd 02ea edbc 58d9 07bc
000003b0: 26fb eb3c af24 1c3d 2fd5 34bc c6a5 9bbd
000003c0: b467 abbd a7ba c1bd 0714 1bbc ce72 02bd
000003d0: 87f8 143d aa64 8a3d 77e9 83bc 0e2b 0bbd
000003e0: 0de5 7a3c c7af 723d 6db8 1c3c 1453 1c3c
000003f0: 6ab1 08bd ce1b 8dbd 4048 9dbc 2b75 be3c

base_model.model.encoder.encoder.layer.0.attention.self.value.lora_A.default.weight f4 [8, 768]
-0.0626453 -0.013395345 -0.022642788 0.029178139 0.059973925 0.04627272 -0.00038871024 0.044574395
-0.06285758 -0.04908686 0.04084077 -0.04011251 -0.036769126 0.029305544 0.0130834365 -0.051509228
0.044250507 0.024143858 -0.048980627 -0.0038802195 -0.07126679 -0.0067591 -0.09948097 -0.044392753
0.059355408 -0.026136661 -0.060377374 -0.03215814 -0.032809936 -0.09155826 0.02911288 -0.002678996
-0.006903921 0.0027866515 0.043353543 -0.10348699 0.008238863 -0.01963122 -0.03279878 0.04928668
0.015112351 0.117105246 -0.10312948 -0.012294735 -0.035108894 -0.03170257 0.07779198 -0.06729264
0.037207734 0.08632514 -0.00932815 -0.01761684 0.05712332 -0.029172117 -0.041606274 -0.018411068
0.009633809 0.05248823 -0.041016627 0.05012368 0.09144635 0.07787809 0.038339186 -0.034053016
0.02176018 0.046234347 -0.030774225 0.038927477 0.03250699 0.0149197 -0.052841328 -0.1035772
0.052965567 0.04035241 0.015179051 -0.08655789 0.0793232 0.023418428 -0.005266897 0.006998949
0.012322236 -0.0015923922 -0.02516073 0.0077477978 -0.06980312 0.077804655 0.04301396 0.033187162
-0.014966507 -0.025863206 0.03795904 -0.008420459 0.033215158 -0.03925878 -0.034104202 -0.04649001
0.030072495 -0.0077088457 0.0113817435 -0.016026061 -0.002566711 0.04593681 -0.0035128451 -0.026821567
0.012139518 -0.003655502 0.015135963 0.033280857 -0.019921996 -0.015648108 -0.07520886 -0.0031484298
0.038022555 0.011560712 -0.032620057 0.0028841319 0.065658204 0.024137883 0.0253276 0.008840547
0.07115316 0.0010290671 -0.06417713 -0.009447984 -0.031324327 0.0103064785 -0.024199136 -0.0114121195
-0.033633836 -0.08102897 -0.090264894 0.06656213 -0.01001845 0.024091225 0.046485532 0.013889531
-0.032614537 -0.07464949 -0.0036395986 0.010261071 0.033223443 -0.01356661 0.010771565 0.052034162
0.047067773 0.072853446 -0.0693621 0.015835742 -0.013520394 0.04814307 0.018687239 0.056935154
-0.021126674 0.0062420624 0.013266172 0.051425908 -0.0045352764 0.03506677 -0.059033122 -0.0050176997
-0.011687621 0.041565683 0.02585023 0.03700709 0.051952437 -0.09609776 -0.03697394 0.0437951
0.04281448 -0.019451639 0.021780387 0.016568216 0.04040769 -0.04484636 0.082781695 0.027403591
-0.012023466 0.072324075 0.058949385 -0.03244506 -0.03360016 0.030730093 0.027141977 0.03775816
-0.048404902 -0.040181298 0.0605795 0.023042899 -0.009772128 0.069626026 -0.03750776 -0.035225894
-0.012945747 -0.04422559 -0.0030874566 0.023118127 -0.0031585912 -0.07944098 0.02667345 -0.040825654
-0.0596378 0.008356596 0.036360618 0.004375133 -0.048210308 0.06520551 0.02282944 0.05068752
0.0127450405 -0.016087165 -0.063636295 -0.02349063 -0.010900825 -0.009656737 0.06750972 -0.03633976
-0.0024790398 -0.0043297876 -0.024038274 -0.06323389 0.043857504 0.011995439 0.0047676093 -0.070402205
-0.013145407 -0.07011683 -0.0013776261 -0.019551808 0.037275754 0.02135703 -0.049077887 -0.014368329
0.04293242 -0.025058113 0.008476895 -0.10094613 0.020285193 -0.04963932 0.046123818 -0.021259781
0.058587432 -0.0075354353 -0.08624601 -0.043183647 0.055741765 0.046328105 -0.06811186 -0.064216934
-0.03759753 -0.06514435 -0.010966346 0.019960467 -0.035746712 -0.013680606 0.02082902 -0.01870628
00000000: 2e4c 80bd 2678 5bbc 5e7d b9bc fe06 ef3c
00000010: 38a7 753d 7788 3d3d cecb cbb9 a493 363d
00000020: 7abb 80bd 4e0f 49bd a748 273d 044d 24bd
00000030: 399b 16bd 2e12 f03c e95b 563c 57fb 52bd
00000040: 0540 353d 57c9 c53c e99f 48bd 484b 7ebb
00000050: 53f4 91bd 717b ddbb aebc cbbd 2dd5 35bd
00000060: a81e 733d 8d1c d6bc 444e 77bd 41b8 03bd
00000070: b663 06bd e682 bbbd 227e ee3c 1892 2fbb
00000080: 493a e2bb 41a0 363b 7c93 313d fdf0 d3bd
00000090: 4cfc 063c a7d1 a0bc 0358 06bd d4e0 493d
000000a0: cb99 773c e0d4 ef3d 8c35 d3bd db6f 49bc
000000b0: 58ce 0fbd 8eda 01bd 6751 9f3d b9d0 89bd
000000c0: 2367 183d 3ccb b03d 19d5 18bc 3151 90bc
000000d0: 24fa 693d 5dfa eebc 576b 2abd cfd2 96bc
000000e0: 20d7 1d3c e6fd 563d 0d01 28bd 7d4e 4d3d
000000f0: 3948 bb3d 8c7e 9f3d 8d09 1d3d 2d7b 0bbd
00000100: 6842 b23c 3a60 3d3d 3a1a fcbc 6b72 1f3d
00000110: 0d26 053d c271 743c 2670 58bd 4820 d4bd
00000120: 6cf2 583d 9248 253d 8eb1 783c 4345 b1bd
00000130: 3474 a23d 01d8 bf3c ef95 acbb 7157 e53b
00000140: 34e3 493c d1b7 d0ba e01d cebc 3de1 fd3b
00000150: f0f4 8ebd 0c58 9f3d 682f 303d 43ef 073d
00000160: 1536 75bc 13df d3bc f07a 1b3d f7f5 09bc
00000170: 9e0c 083d d1cd 20bd d9b0 0bbd 4f6c 3ebd
00000180: 985a f63c 7c9a fcbb 7e7a 3a3c 1649 83bc
00000190: 4436 28bb 3d28 3c3d c337 66bb e7b8 dbbc
000001a0: d4e4 463c 2691 6fbb d5fc 773c 8251 083d
000001b0: 7433 a3bc 7630 80bc 1a07 9abd e355 4ebb
000001c0: 8abd 1b3d 2469 3d3c 9c9c 05bd b403 3d3b
000001d0: cf77 863d cfbc c53c d47b cf3c f1d7 103c
000001e0: bfb8 913d c3e1 863a 4d6f 83bd b8cb 1abc
000001f0: f04d 00bd 81dc 283c 443d c6bc e6f9 3abc
00000200: a2c3 09bd 84f2 a5bd cddc b8bd ba51 883d
00000210: 6d24 24bc f65a c53c 9d67 3e3d ea90 633c
00000220: d296 05bd d5e1 98bd 5586 6ebb 0d1e 283c
00000230: 4e15 083d 7d46 5ebc 387b 303c c621 553d
00000240: 23ca 403d 3034 953d b70d 8ebd f5b9 813c
00000250: a584 5dbc ab31 453d fb15 993c d634 693d
00000260: d911 adbc 378a cc3b 5c5a 593c f9a3 523d
00000270: a89c 94bb 2ca2 0f3d b7cc 71bd 846b a4bb
00000280: 6f7d 3fbc c740 2a3d ddc3 d33c bf94 173d
00000290: 14cc 543d e7ce c4bd fc71 17bd 7e62 333d
000002a0: 3c5e 2f3d 0b59 9fbc c86c b23c 11ba 873c
000002b0: 8982 253d d1b0 37bd 7389 a93d 7f7d e03c
000002c0: 12fe 44bc a51e 943d e974 713d 1ce5 04bd
000002d0: 52a0 09bd adbd fb3c da58 de3c 4da8 1a3d
000002e0: 3844 46bd 2595 24bd 3622 783d 76c4 bc3c
000002f0: 471b 20bc 1798 8e3d bda1 19bd 0749 10bd
00000300: 661a 54bc e425 35bd ed56 4abb 3a62 bd3c
00000310: 5e00 4fbb f4b1 a2bd 4782 da3c cd38 27bd
00000320: c446 74bd 1bea 083c dfee 143d 475d 8f3b
00000330: 2c78 45bd 778a 853d ce04 bb3c b89d 4f3d
00000340: 93d0 503c 3bc9 83bc bf53 82bd 6c6f c0bc
00000350: 6099 32bc 4a37 1ebc 8942 8a3d 00d9 14bd
00000360: 6377 22bb e4e0 8dbb eaeb c4bc c580 81bd
00000370: eda3 333d 8588 443c 9b39 9c3b 082f 90bd
00000380: d55f 57bc 6a99 8fbd 7691 b4ba 1d2b a0bc
00000390: 76ae 183d f0f4 ae3c e505 49bd 2469 6bbc
000003a0: e8d9 2f3d ac46 cdbc ade2 0a3c d8bc cebd
000003b0: 222d a63c 9952 4bbd 54ec 3c3d fe28 aebc
000003c0: 60f9 6f3d d0eb f6bb c0a1 b0bd 56e1 30bd
000003d0: 7a51 643d 8ac2 3d3d 3b7e 8bbd 2b84 83bd
000003e0: deff 19bd 676a 85bd 30ac 33bc 2284 a33c
000003f0: 256b 12bd 9f24 60bc 9fa1 aa3c ea3d 99bc

base_model.model.encoder.encoder.layer.0.attention.self.value.lora_B.default.weight f4 [768, 8]
-0.023392934 -0.029937902 -0.04829336 -0.019486526 -0.022073725 0.009655298 0.031742632 -0.04317519
-0.000745708 0.011554338 0.01844567 -0.0018255125 -0.025902092 0.014273637 -0.034458015 -0.026885362
0.033627793 0.021524396 0.0022208185 -0.0067042196 0.0060822 -0.0011033748 -0.005682829 0.006440367
0.018473513 0.030381626 -0.021653913 -0.023162443 0.036063828 0.005633336 0.009636641 -0.0055628857
-0.021836607 0.05847544 -0.025246216 0.021949654 0.015910065 -0.0015137342 -0.043762196 0.0067853867
0.015836148 0.022234628 -0.02421486 -0.015403586 0.025174895 -0.043912712 0.015502902 0.059917014
-0.021461857 -0.017763063 -0.0017479096 -0.023888392 0.019782633 -0.006594485 -0.015026827 -0.059128895
0.018432206 -0.06464185 -0.011259722 -0.00045501336 -0.061645463 -0.0034905502 0.010619789 -0.07461725
0.019353414 0.018447738 0.043987647 0.020369183 -0.04619196 0.028194126 -0.05233519 0.048860863
-0.019371714 -0.03781678 0.0118281515 -0.024886737 -0.038839195 0.024970364 0.023084296 -0.02051143
0.017658733 -0.011938255 -0.032632373 0.015684912 -0.0011584952 -0.007959504 0.009416306 -0.026616035
0.061848868 0.0744413 0.03597726 -0.02174661 0.06665384 -0.029154684 -0.014606167 0.1277626
-0.025082018 0.020459328 -0.030335072 -0.05632887 -0.040429413 -0.003983484 0.0065077897 -0.013767469
-0.002786778 -0.038518086 0.0035847067 -0.036610123 -0.020243553 -0.023132311 0.013809926 -0.04288395
-0.0066122757 0.019026423 0.019434664 0.016986517 0.0469395 0.042055544 -0.027673712 0.07549761
-0.0018582068 0.05452217 -0.0051386245 -0.037959725 0.00027029833 0.027272332 -0.014768303 0.034996558
0.007029699 0.04186293 0.003009353 -0.07322574 0.0069184736 0.019906638 0.019098895 0.012767381
-0.017395737 0.031050224 0.010918741 0.017526992 0.004942792 -0.010834185 -0.036720768 0.045523312
0.05097979 0.017006885 0.011590631 -0.0187382 0.036279455 -0.0073400205 -0.01944068 -0.009538924
-0.00421162 0.0062116194 -0.026897931 0.05095515 0.01662649 -0.0061372803 -0.03285166 0.034027908
0.011635791 0.0231629 -0.017426835 -0.010087138 0.018259829 0.0125645 0.05564569 0.020318741
0.06082884 0.033198442 -0.03655498 -0.018084025 0.086016096 -0.05582578 0.06679671 0.0018836088
-0.056423523 -0.045847658 0.020893887 0.025615556 0.013330669 0.0117026195 -0.030799588 0.013524036
-0.0075803683 -0.015016483 -0.045178495 -0.030389057 -0.0067281392 0.00083945284 -0.034342464 -0.050157823
-0.0003152083 -0.018321533 -0.0046803984 -0.006896435 -0.041820705 -0.039765164 0.03755662 -0.08293891
-0.0069118617 0.050843418 0.03592994 0.024258604 0.0065654316 0.016700882 -0.05948531 0.029986372
-0.006579076 -0.015763149 0.03352949 -0.018724991 -0.03799574 0.020979786 -0.012723044 -0.050309017
0.06183075 -0.0017110535 -0.019475427 -0.0023248259 0.02118277 -0.016193379 0.023133736 -0.06566809
0.023251321 -0.06944407 -0.025138592 0.026103484 0.04531034 -0.045709286 0.060761195 -0.054545905
0.03693746 -0.012879596 0.016785447 -0.031006662 -0.015668005 0.0015841029 -0.015390133 -0.0014085994
0.029782584 0.08345369 0.0010967067 0.02015538 0.05938047 -0.03368908 -0.05086747 0.057857603
-0.01692408 -0.019752044 0.009513914 0.03644579 0.020855412 -0.010235966 -0.046567224 0.026169196
00000000: 8aa2 bfbc 5540 f5bc 42cf 45bd 35a2 9fbc
00000010: f5d3 b4bc 4131 1e3c 9004 023d 78d8 30bd
00000020: 9e7b 43ba 684e 3d3c 601b 973c 0946 efba
00000030: a030 d4bc f9db 693c d923 0dbd b13e dcbc
00000040: 4cbd 093d ee53 b03c 278b 113b 12af dbbb
00000050: 314d c73b 1d9f 90ba 0637 babb b709 d33b
00000060: c455 973c e3e2 f83c 8c63 b1bc 2abf bdbc
00000070: aab7 133d d997 b83b 00e3 1d3c de48 b6bb
00000080: afe2 b2bc f183 6f3d 27d1 cebc c3cf b33c
00000090: d355 823c 7e68 c6ba fd3f 33bd f357 de3b
000000a0: cfba 813c 6525 b63c 3e5e c6bc 535f 7cbc
000000b0: 953b ce3c d1dd 33bd e2ff 7d3c 8b6b 753d
000000c0: c7d0 afbc d883 91bc 1d1a e5ba 97b1 c3bc
000000d0: 300f a23c 8d16 d8bb 1533 76bc 2431 72bd
000000e0: 23ff 963c f262 84bd b27a 38bc dc8e eeb9
000000f0: f47f 7cbd b7c1 64bb a0fe 2d3c eed0 98bd
00000100: 0d8b 9e3c b61f 973c 642c 343d 46dd a63c
00000110: c833 3dbd 5ef7 e63c 6d5d 56bd 5422 483d
00000120: 6eb1 9ebc c5e5 1abd ddca 413c 45df cbbc
00000130: d915 1fbd a68e cc3c 471b bd3c 9607 a8bc
00000140: 0ca9 903c ac98 43bc 86a9 05bd a57d 803c
00000150: a6d8 97ba 9468 02bc da46 1a3c df09 dabc
00000160: 3d55 7d3d ae74 983d e45c 133d f225 b2bc
00000170: cf81 883d ced5 eebc b44e 6fbc 33d4 023e
00000180: ce78 cdbc 529a a73c 4281 f8bc 1ab9 66bd
00000190: 5099 25bd e387 82bb 4c3f d53b f390 61bc
000001a0: 60a2 36bb 24c5 1dbd 66ed 6a3b 7ff4 15bd
000001b0: cfd5 a5bc f97f bdbc 0743 623c 15a7 2fbd
000001c0: caab d8bb 4ddd 9b3c 7235 9f3c 4f27 8b3c
000001d0: a243 403d 6f42 2c3d fbb3 e2bc 7e9e 9a3d
000001e0: 138f f3ba a452 5f3d e861 a8bb a87b 1bbd
000001f0: d4b6 8d39 3a6a df3c c1f6 71bc 8d58 0f3d
00000200: 6459 e63b 7778 2b3d 9138 453b 60f7 95bd
00000210: 5db4 e23b 3f13 a33c 4975 9c3c 472e 513c
00000220: 8181 8ebc 0a5d fe3c 85e4 323c c494 8f3c
00000230: 25f7 a13b de81 31bc 8468 16bd a776 3a3d
00000240: 2fd0 503d 0652 8b3c a1e6 3d3c db80 99bc
00000250: c499 143d 8e84 f0bb 1042 9fbc 2649 1cbc
00000260: a101 8abb d78a cb3b 0d59 dcbc 59b6 503d
00000270: 4734 883c 3d1b c9bb 768f 06bd d960 0b3d
00000280: 0ba4 3e3c 1fc0 bd3c b9c2 8ebc 8644 25bc
00000290: a395 953c 55db 4d3c bcec 633d 7d73 a63c
000002a0: a927 793d 17fb 073d adba 15bd f324 94bc
000002b0: 3529 b03d 93a9 64bd b7cc 883d 6ce3 f63a
000002c0: 5a1c 67bd c1ca 3bbd a829 ab3c b7d7 d13c
000002d0: e168 5a3c 58bc 3f3c 6b4f fcbc eb93 5d3c
000002e0: bd64 f8bb b207 76bc 160d 39bd 79f2 f8bc
000002f0: b977 dcbb ba0e 5c3a afaa 0cbd 4a72 4dbd
00000300: 8b42 a5b9 0a17 96bc 075e 99bb 7dfb e1bb
00000310: 304c 2bbd cce0 22bd f8d4 193d e0db a9bd
00000320: e67c e2bb 3041 503d 462b 133d fbb9 c63c
00000330: d522 d73b 4ad0 883c dea6 73bd fba5 f53c
00000340: 4a95 d7bb b821 81bc 3856 093d 2765 99bc
00000350: 6ca1 1bbd cddd ab3c 5074 50bc d410 4ebd
00000360: 3e42 7d3d 6e45 e0ba ee8a 9fbc 1b5c 18bb
00000370: 7d87 ad3c faa7 84bc f682 bd3c fe7c 86bd
00000380: 8e79 be3c b138 8ebd 73ef cdbc f9d6 d53c
00000390: 5697 393d a939 3bbd bbe0 783d 876b 5fbd
000003a0: bc4b 173d f104 53bc a281 893c af01 febc
000003b0: 305a 80bc aca1 cf3a e526 7cbc c1a0 b8ba
000003c0: 9bfa f33c c5e9 aa3d 5fbf 8f3a e51c a53c
000003d0: f038 733d 90fd 09bd 695a 50bd 18fc 6c3d
000003e0: 5ea4 8abc 0acf a1bc 3fe0 1b3c 2e48 153d
000003f0: f8d8 aa3c c1b4 27bc 46bd 3ebd c860 d63c

base_model.model.encoder.encoder.layer.1.attention.self.query.lora_A.default.weight f4 [8, 768]
-0.021210758 -0.03021482 -0.009647859 -0.004386291 0.0047290633 0.0034446085 0.068830386 -0.023302581
-0.029832434 -0.06631449 0.011322051 0.012654991 -0.02242426 -0.05265643 -0.0097425915 0.062418878
0.09249091 0.04160476 -0.013430656 -0.019094758 -0.09621764 -0.017975185 0.021506656 0.049370676
-0.026546996 0.016785085 -0.010913661 -0.029448856 -0.011138881 0.10829654 -0.033161983 -0.09346321
-0.033868823 -0.053266726 -0.03501639 -0.013348078 0.00797481 -0.038148127 -0.078573756 -0.010774234
-0.06559788 -0.053970456 -0.06466963 0.043558456 -0.035244007 -0.023869898 -0.10109077 -0.026017025
0.021803401 -0.03487299 0.034469232 0.12594168 0.047900677 0.04270258 -0.05093695 -0.023961449
0.033622693 0.05382963 0.03982547 0.009502013 -0.0066726212 -0.0043331017 0.06225885 -0.0229082
-0.063331544 -0.021566616 -0.059074383 -0.037486143 -0.0054346984 0.038030587 -0.034742277 0.04228993
0.017564598 -0.040676035 0.070147604 0.02349959 0.049409013 0.02956296 0.01350037 -0.0015616544
0.032169007 0.025966369 0.05017505 -0.08535499 -0.012459555 -0.04460213 0.018684048 -0.047924954
0.007766022 0.03985085 0.08099839 -0.03118945 -0.022030285 -0.02613661 0.039544024 0.14329149
0.05983296 -0.0025101176 0.0897179 -0.03685585 0.008392206 -0.010661307 0.10813742 -0.033971775
0.049053855 -0.10783406 0.0132746985 0.016719949 0.039245386 0.02760527 -0.00052979693 0.01353116
0.004815963 0.0076446943 0.0058991117 -0.037817933 0.00042313334 0.025497368 0.042218037 -0.055598095
0.030974688 0.014729971 0.0039268825 -0.030765802 -0.031714827 0.04503626 0.0017439362 -0.009575956
0.027026419 -0.035244215 -0.08465991 0.022300353 0.01479851 0.03064505 0.043943692 0.007529031
-0.00040791873 -0.077619776 -0.04388102 0.021399964 -0.06157679 0.015180507 -0.007828352 0.07023861
0.0074729496 0.0023878505 0.08444266 0.021665517 0.0030494276 0.039304707 -0.011539177 0.015875816
-0.015369917 -0.02777859 0.086922854 -0.076321736 -0.031707287 0.0023148735 -0.025389971 0.013877275
-0.068754524 0.024963686 -0.00015639965 0.007969073 0.026677838 0.059741672 0.0033254267 -0.0020438854
0.065351784 0.012533238 0.010896504 -0.063591935 -0.01013477 0.08864322 0.024417177 -0.014446745
0.05230633 0.053769834 0.0029541752 0.022144075 -0.023110501 -0.022773677 -0.05533311 0.008212739
-0.03578423 0.02426199 0.02893099 -0.056746826 -0.022280501 0.073755905 0.021465303 0.010854548
-0.19423401 -0.031354308 -0.036220577 0.07614351 0.0042268825 -0.03174768 0.039778788 -0.0068627195
-0.092297435 0.009537831 0.04934281 0.08580297 0.039834205 -0.060657304 0.032154344 0.01629698
-0.0074491436 -0.027896207 0.015931947 -0.032927066 -0.010690016 -0.0519716 -0.021659175 -0.011820344
0.077915475 -0.02418404 0.0062052994 -0.00932273 0.11399335 0.095988415 -0.0596062 0.080004044
-0.02112244 0.021473907 0.027699094 0.049861573 -0.058021758 0.06315878 0.039580148 -0.0194857
-0.035891417 -0.04110199 0.027409391 -0.039177768 -0.030871104 0.051913545 0.040770095 0.0002128603
-0.044660076 0.020540027 0.017135484 -0.04500757 0.023759041 0.05815029 0.02095721 -0.06284691
0.08690368 -0.0024037098 -0.032828715 -0.038414672 0.014021431 -0.026038598 0.054644376 0.03840632
00000000: 2fc2 adbc 1285 f7bc 0e12 1ebc e0ba 8fbb
00000010: 42f6 9a3b f1be 613b f2f6 8c3d 0ee5 bebc
00000020: 2663 f4bc e4cf 87bd 2080 393c e156 4f3c
00000030: 15b3 b7bc 45ae 57bd 649f 1fbc f0aa 7f3d
00000040: e06b bd3d c169 2a3d 410c 5cbc 9c6c 9cbc
00000050: c10d c5bd b240 93bc ba2e b03c e838 4a3d
00000060: 1679 d9bc e080 893c 36cf 32bc ba3e f1bc
00000070: da7f 36bc 94ca dd3d dcd4 07bd a469 bfbd
00000080: 09ba 0abd 362e 5abd 596d 0fbd e6b1 5abc
00000090: c7a8 023c 3641 1cbd 47eb a0bd 6a86 30bc
000000a0: 2e58 86bd 2010 5dbd 8371 84bd 5a6a 323d
000000b0: 055c 10bd ce8a c3bc ad08 cfbd a821 d5bc
000000c0: 0c9d b23c fbd6 0ebd 9c2f 0d3d dbf6 003e
000000d0: 8033 443d e7e8 2e3d 43a3 50bd cd4a c4bc
000000e0: f3b7 093d 757c 5c3d 0820 233d 55ae 1b3c
000000f0: 01a6 dabb b1fc 8dbb 2303 7f3d faa9 bbbc
00000100: f8b3 81bd 79ac b0bc fbf7 71bd 128b 19bd
00000110: 8e15 b2bb f6c5 1b3d eb4d 0ebd 3538 2d3d
00000120: a2e3 8f3c ea9b 26bd 8ca9 8f3d 3682 c03c
00000130: 1b61 4a3d 052e f23c a830 5d3c 6db0 ccba
00000140: a6c3 033d 6cb7 d43c 5a84 4d3d 99ce aebd
00000150: 2923 4cbc b9b0 36bd 4a0f 993c f54c 44bd
00000160: 1d7a fe3b a53a 233d 7ce2 a53d 0481 ffbc
00000170: db78 b4bc 721c d6bc eaf8 213d 01bb 123e
00000180: 6813 753d c980 24bb 05be b73d 29f6 16bd
00000190: 777f 093c c3ac 2ebc 2777 dd3d fd25 0bbd
000001a0: b2ec 483d 1bd8 dcbd 1f7e 593c 46f8 883c
000001b0: c5bf 203d 7224 e23c 12e2 0aba ccb1 5d3c
000001c0: 3acf 9d3b 5880 fa3b 564d c13b fae6 1abd
000001d0: ffd7 dd39 dbdf d03c d2ec 2c3d d4ba 63bd
000001e0: a1be fd3c fa55 713c 14ad 803b 9008 fcbc
000001f0: 68e7 01bd f177 383d ca94 e43a 78e4 1cbc
00000200: 8266 dd3c 3d5c 10bd 2d62 adbd 3baf b63c
00000210: 7375 723c 540b fb3c 4dfe 333d 17b6 f63b
00000220: eddd d5b9 1ef7 9ebd 96bc 33bd fa4e af3c
00000230: f237 7cbd a9b7 783c 7d42 00bc 43d9 8f3d
00000240: a5df f43b 7c7d 1c3b 46f0 ac3d e27b b13c
00000250: e8d8 473b f9fd 203d d10e 3dbc 000e 823c
00000260: 1bd2 7bbc ed8f e3bc 9c04 b23d 924e 9cbd
00000270: 80df 01bd 22b5 173b a1fe cfbc 835d 633c
00000280: 2ccf 8cbd a580 cc3c 36ff 23b9 b790 023c
00000290: 7b8b da3c afb3 743d 67ef 593b b5f2 05bb
000002a0: 28d7 853d 3658 4d3c 4087 323c 7d3c 82bd
000002b0: 4e0c 26bc 948a b53d 8806 c83c 0ab2 6cbc
000002c0: 2a3f 563d c23d 5c3d d69a 413b 7e67 b53c
000002d0: 3c52 bdbc dd8f babc f9a4 62bd b98e 063c
000002e0: 7c92 12bd 15c1 c63c af00 ed3c 5c6f 68bd
000002f0: 9985 b6bc 560d 973d 01d8 af3c 46d7 313c
00000300: 48e5 46be 606d 00bd 075c 14bd 21f1 9b3d
00000310: a981 8a3b db09 02bd 15ef 223d aae0 e0bb
00000320: 7006 bdbd 9044 1c3c b01b 4a3d 78b9 af3d
00000330: 3129 233d cb73 78bd 46b4 033d 3f81 853c
00000340: f217 f4bb 9686 e4bc b783 823c 88de 06bd
00000350: 2d25 2fbc 2ce0 54bd 956e b1bc 1eaa 41bc
00000360: 2692 9f3d 9c1d c6bc d355 cb3b 5dbe 18bc
00000370: 5875 e93d 9395 c43d a125 74bd 29d9 a33d
00000380: f808 adbc 0cea af3c 36e9 e23c a63b 4c3d
00000390: 39a8 6dbd 6459 813d cb1e 223d 7aa0 9fbc
000003a0: e102 13bd 8f5a 28bd a989 e03c de78 20bd
000003b0: 66e5 fcbc 4ca3 543d 8bfe 263d 4033 5f39
000003c0: 7ced 36bd 8f43 a83c b75f 8c3c dc59 38bd
000003d0: 52a2 c23c 002f 6e3d 74ae ab3c e1b5 80bd
000003e0: 8efa b13d 8f87 1dbb 6777 06bd b458 1dbd
000003f0: 25ba 653c e64e d5bc c8d2 5f3d f24f 1d3d
