zwl/week3/model.pth (torch, 12563 bytes, 7 tensors)

embedding.weight f4 [13, 30]
0.6918996 -0.3643791 -0.79804 -0.15701684 0.23879547 0.39246482 1.7177684 1.441862
-0.21808402 0.90820235 0.15428548 0.72805387 -0.2066761 -0.6553456 -1.6034963 -0.19745824
-0.61062926 0.26211843 1.2577977 0.1893478 -1.1978903 -0.035826627 0.28278294 -1.8924999
-0.50085175 -0.38357416 -0.0016767097 0.431367 0.17230305 0.37584588 0.19833803 -0.5573511
1.3569652 1.3783199 -1.9184299 0.10869689 0.55687565 -0.59250987 0.72093064 -0.2823528
-0.32293534 -1.4591165 -0.13984142 0.19713853 0.8626374 -1.4380225 1.6088951 -0.9761631
0.48913977 -0.3567206 0.94580585 1.0170087 1.3282484 -0.66312236 0.38699847 1.267206
-1.80439 0.46842784 -0.2894419 -0.6348067 0.48554808 -1.2886149 0.44301072 1.102426
1.6863619 0.225762 -0.8740693 3.3710992 0.7429328 -0.7193358 0.32184014 -0.6336914
-1.1982753 1.0952275 0.46090257 1.0115445 -1.1270131 -0.9408877 0.16559252 -0.4714724
-1.1839452 0.6587256 0.59031194 1.0080985 -1.105458 -0.0006082511 0.039152157 -0.053705737
1.0270681 -0.5465237 0.4354141 1.1389817 0.41810367 0.53074545 0.67005587 0.042920787
-0.94534063 -0.6279501 -0.48671815 -0.5105173 -0.8697719 -0.7956065 0.4756172 -0.5338731
1.2390957 -0.12990503 -1.1784649 -0.47858402 0.21806447 2.2823398 -0.3529586 1.3665149
-0.71436656 -0.61722004 -0.12318024 2.80288 0.36991972 -0.8290648 0.18602256 -1.5100592
0.8885176 -0.29054812 -0.833793 1.17995 -0.0855311 0.03517005 -1.2503905 0.39333206
-0.7134257 -0.17391263 0.64302385 -0.62680554 -1.04289 1.913648 0.2802907 0.58423966
0.71191984 0.40404606 -0.13833933 -0.9381859 0.56046504 -0.82594985 0.3912431 -0.0945951
-0.76643246 -0.65169716 -0.30942303 -1.3902351 0.5775298 0.56517464 -1.1164953 0.7638034
-0.58386934 0.3650642 0.26738095 -0.49461618 0.14225458 2.0495377 -0.8129131 -0.6396291
1.2053604 1.0951784 1.8081459 0.011496579 0.5110537 0.6266982 1.0401195 0.995684
-3.429883 -1.5040888 1.5453444 0.11541346 -0.4353819 -2.0606003 0.6163405 0.49177116
-0.9921735 -1.1647563 0.6174047 -1.2588615 -0.75490713 1.2408293 -0.18380748 -0.6132774
-0.022834538 0.8091824 0.5543025 1.2278564 0.046650242 0.021762677 1.7881652 0.024162479
0.054792613 -0.5930629 0.6530302 -0.039046083 -2.0321097 0.24511304 -0.38709274 -0.24897614
-0.26314172 -0.1727569 0.14339136 0.391157 -0.6208872 -1.0325774 -0.71303755 0.03554759
0.70623535 0.34035873 -1.2619432 -0.07298202 0.29767612 -0.92705506 1.4591007 0.9356797
0.034428775 2.223965 0.8340778 -0.62765616 -1.4621466 -0.28316957 0.87277013 -0.7022361
1.1766543 0.25792766 0.60796684 -0.79732966 -0.43148023 -0.21789059 -0.56849307 -0.17924337
-0.59758735 -0.46915776 0.433137 -1.5031662 0.7485672 0.6444679 0.24384972 0.81849885
-1.6857749 0.78367335 0.31188416 0.4441673 -1.7171898 1.2814187 -0.6947495 0.66642034
-1.046223 -0.074894115 -0.28042784 -0.62703454 0.35397527 -1.2866297 0.5002189 -0.13998866
00000000: 5520 313f e68f babe 594c 4cbf 06c9 20be
00000010: cd86 743e 26f1 c83e d6df db3f ef8e b83f
00000020: 6b51 5fbe f37f 683f 03fd 1d3e bd61 3a3f
00000030: e6a2 53be bbc4 27bf 5e3f cdbf 7e32 4abe
00000040: 3352 1cbf 6334 863e 84ff a03f 64e4 413e
00000050: 7854 99bf f1be 12bd edc8 903e 703d f2bf
00000060: d237 00bf d563 c4be 0bc5 dbba 23dc dc3e
00000070: 3670 303e df6e c03e 2019 4b3e 90ae 0ebf
00000080: 09b1 ad3f c96c b03f 1c8f f5bf 7a9c de3d
00000090: 678f 0e3f baae 17bf e98e 383f 8c90 90be
000000a0: c857 a5be 54c4 babf 9732 0fbe afde 493e
000000b0: ced5 5c3f 1f11 b8bf 46f0 cd3f d3e5 79bf
000000c0: 8770 fa3e 15a4 b6be 5520 723f 572d 823f
000000d0: 0b04 aa3f 63c2 29bf aa24 c63e ce33 a23f
000000e0: 40f6 e6bf c6d5 ef3e bb31 94be b182 22bf
000000f0: c299 f83e 55f1 a4bf 4dd2 e23e 4c1c 8d3f
00000100: b5da d73f 272e 673e 01c3 5fbf 17c0 5740
00000110: d830 3e3f 6426 38bf 3bc8 a43e 9939 22bf
00000120: 1661 99bf 6a30 8c3f 6cfb eb3e 4a7a 813f
00000130: f741 90bf 04de 70bf 1691 293e d564 f1be
00000140: 848b 97bf 3ea2 283f af1e 173f 5f09 813f
00000150: a67f 8dbf 0a73 1fba 035e 203d 8cfa 5bbd
00000160: f876 833f fae8 0bbf 99ee de3e 27ca 913f
00000170: af11 d63e efde 073f c888 2b3f b5cd 2f3d
00000180: d801 72bf 56c1 20bf 1f33 f9be 43b1 02bf
00000190: 5fa9 5ebf deac 4bbf 1984 f33e e8ab 08bf
000001a0: b09a 9e3f d305 05be f0d7 96bf f708 f5be
000001b0: 4b4c 5f3e db11 1240 fdb6 b4be f6e9 ae3f
000001c0: bae0 36bf 2202 1ebf ec45 fcbd 6362 3340
000001d0: 1e66 bd3e 973d 54bf b37c 3e3e 9f49 c1bf
000001e0: e475 633f b9c2 94be 7573 55bf 9a08 973f
000001f0: ee2a afbd 780e 103d cc0c a0bf d262 c93e
00000200: 11a3 36bf 2716 32be 369d 243f 5476 20bf
00000210: 6b7d 85bf 6bf2 f43f 4382 8f3e bb90 153f
00000220: 6140 363f 20df ce3e d3a8 0dbe f32c 70bf
00000230: a37a 0f3f 7371 53bf 0451 c83e 13bb c1bd
00000240: eb34 44bf a0d5 26bf b26c 9ebe 39f3 b1bf
00000250: fed8 133f 49af 103f 51e9 8ebf 9f88 433f
00000260: 7678 15bf b2e9 ba3e 28e6 883e 553e fdbe
00000270: 2fab 113e a02b 0340 131b 50bf bcbe 23bf
00000280: 4049 9a3f ce2e 8c3f 5371 e73f 265c 3c3c
00000290: 6ad4 023f 4b6f 203f a322 853f 26e5 7e3f
000002a0: 3483 5bc0 fb85 c0bf d8cd c53f e45d ec3d
000002b0: 60ea debe e0e0 03c0 7ec8 1d3f 6ec9 fb3e
000002c0: 15ff 7dbf bc16 95bf 3c0e 1e3f 6022 a1bf
000002d0: 9841 41bf 7fd3 9e3f 0738 3cbe bfff 1cbf
000002e0: 7f0f bbbc 9426 4f3f c5e6 0d3f 662a 9d3f
000002f0: 5314 3f3d a447 b23c 99e2 e43f 64f0 c53c
00000300: 386e 603d f8d2 17bf fd2c 273f c9ee 1fbd
00000310: 160e 02c0 eafe 7a3e 0531 c6be 9af3 7ebe
00000320: 83ba 86be 2fe7 30be 2fd5 123e bb45 c83e
00000330: 77f2 1ebf 7f2b 84bf a189 36bf 5a9a 113d
00000340: d7cb 343f 8043 ae3e 5b87 a1bf 9977 95bd
00000350: 0169 983e 7b53 6dbf d0c3 ba3f b488 6f3f
00000360: 3005 0d3d 7155 0e40 1f86 553f 13ae 20bf
00000370: 9f27 bbbf 9afb 90be dd6d 5f3f bfc5 33bf
00000380: 9c9c 963f 180f 843e b7a3 1b3f cc1d 4cbf
00000390: faea dcbe b61e 5fbe c388 11bf 938b 37be
000003a0: 7cfb 18bf 7235 f0be 22c4 dd3e c067 c0bf
000003b0: 1aa2 3f3f d9fb 243f beb3 793e 2489 513f
000003c0: 79c7 d7bf d19e 483f 48af 9f3e e569 e33e
000003d0: e0cc dbbf 8705 a43f 1adb 31bf 869a 2a3f
000003e0: a3ea 85bf 1662 99bd 3d94 8fbe 5685 20bf
000003f0: 3f3c b53e 48b0 a4bf 590e 003f 3059 0fbe

rnn.weight_ih_l0 f4 [30, 30]
-0.10255722 0.08833151 0.05655275 0.07402307 0.11476611 -0.15213248 0.036681846 0.0050016744
0.015876932 0.08852756 0.0030360543 0.026704533 -0.06963997 0.0976389 -0.13600367 0.16066255
-0.018506099 0.11613025 -0.13620701 0.2115112 -0.032266352 -0.03540721 0.041744113 0.08597595
0.066596694 -0.083028354 0.11427498 -0.030956557 0.10859506 0.08880187 0.21918583 0.04780837
-0.14053902 -0.015410314 0.06282277 0.030488739 -0.10305013 0.16268331 -0.17620125 -0.13473327
-0.03308391 0.24522871 0.07031794 -0.16764806 -0.0409515 0.2907929 -0.11350739 0.028171966
0.0040415213 0.15236281 0.006658668 -0.28788638 -0.10533514 0.097580634 0.042021677 0.017573776
0.13866691 -0.016727678 -0.05712609 0.082321756 -0.09104146 0.11137485 -0.14139627 -0.1372472
0.017158693 0.11603525 0.0030884084 -0.07641644 -0.07724996 0.12553746 0.08193582 0.07941818
-0.18925762 0.11143166 0.010505344 0.13593298 0.10665974 -0.16523942 -0.04557051 0.0012035283
0.042229705 0.11422631 -0.08181088 -0.031972952 -0.14146906 0.0143555105 0.02723334 0.114265285
-0.17618455 -0.08839916 0.05512906 -0.015482038 0.20007153 0.15848228 -0.12983365 -0.16061082
0.19812605 -0.10922775 0.18723473 -0.10737186 0.13689646 -0.06170016 0.112316534 0.00041676644
0.14984156 -0.04715474 0.15441823 -0.21132119 0.0568477 -0.014378979 0.020804128 0.09418767
0.1599794 -0.06322463 0.02128309 0.050740544 0.02468401 0.14361298 -0.009991239 0.058104586
0.03968566 -0.10293659 0.33676597 0.034934096 -0.15763973 -0.0014648227 0.20721978 0.07109186
0.27673566 0.063104026 0.08997492 -0.061369047 -0.07848944 0.041641492 0.073845506 -0.30102196
0.15628546 -0.2910623 -0.042060137 -0.07845646 0.26568964 0.27497306 0.1336666 -0.08022433
-0.024897581 0.14778352 -0.13435295 0.056559086 -0.24129634 0.11717781 0.036415525 0.011915169
-0.29234678 -0.17179073 0.26233432 0.089639165 -0.072105296 0.06580018 -0.2085334 -0.16674303
-0.008100592 0.07700623 0.004989406 0.083803646 -0.04730013 0.23064372 -0.046127666 0.34381452
0.0048360107 0.10005619 -0.10970248 0.098764665 -0.25323015 -0.009558666 0.053296704 -0.10832361
0.18623607 -0.0028950558 -0.009992648 0.055152327 0.034007058 0.22667688 -0.25862345 0.1312766
0.14615178 0.002373595 -0.0865949 0.1413359 -0.052568678 0.03418025 -0.024479387 0.17870724
0.05012262 -0.074580334 -0.023720877 0.0679868 -0.22113697 0.017786037 0.009709436 0.07179473
-0.17214358 -0.2078127 -0.22631097 0.07163654 0.058652036 -0.14954492 0.045604214 -0.14140357
0.049101025 0.05680733 0.004956159 0.0056349696 -0.1255784 -0.007987917 0.2463235 -0.13709693
-0.08434662 -0.11755252 -0.17938665 0.11260118 -0.0753711 0.27276248 -0.15741368 -0.12788968
0.013253709 0.32210076 -0.15120289 0.119851515 -0.0934766 0.11258493 0.022175154 0.021595694
-0.23599744 0.016651457 -0.14616026 -0.18003765 0.22715066 -0.047329757 0.21209586 0.0688064
0.015574883 0.113509536 -0.11268221 -0.098927476 0.090574495 0.06211828 -0.111928664 0.12940589
-0.12771085 -0.043018576 0.04696674 -0.14651759 0.026205761 -0.02656316 -0.09258797 9.7484575e-05
00000000: 8509 d2bd 27e7 b43d dba3 673d 6899 973d
00000010: 7f0a eb3d 9ec8 1bbe b43f 163d 16e5 a33b
00000020: 5710 823c f04d b53d 8af8 463b 77c3 da3c
00000030: 679f 8ebd e7f6 c73d 8c44 0bbe b984 243e
00000040: 1a9a 97bc b2d5 ed3d da79 0bbe 6496 583e
00000050: b929 04bd 2707 11bd e0fb 2a3d 2914 b03d
00000060: d963 883d c50a aabd 0009 ea3d 9b98 fdbc
00000070: 1667 de3d c1dd b53d 4072 603e b6d2 433d
00000080: 76e9 0fbe 8b7b 7cbc 39a9 803d 85c3 f93c
00000090: f20b d3bd 7496 263e 1a6e 34be 85f7 09be
000000a0: fe82 07bd 3c1d 7b3e da02 903d efab 2bbe
000000b0: c3bc 27bd cfe2 943e 9076 e8bd e5c8 e63c
000000c0: bd6e 843b ff04 1c3e f530 da3b d865 93be
000000d0: f3b9 d7bd 5bd8 c73d ec1e 2c3d e1f6 8f3c
000000e0: b3fe 0d3e 7c08 89bc 0cfd 69bd 4f98 a83d
000000f0: f273 babd 7f18 e43d 2fca 10be 888a 0cbe
00000100: 6390 8c3c e4a3 ed3d e566 4a3b 3980 9cbd
00000110: 3a35 9ebd e48c 003e f8cd a73d 00a6 a23d
00000120: c0cc 41be 4836 e43d 9b1e 2c3c 0432 0b3e
00000130: 6c70 da3d 8634 29be 25a8 3abd b5bf 9d3a
00000140: 0ef9 2c3d 7cef e93d 768c a7bd 12f6 02bd
00000150: 44dd 10be 6033 6b3c 7418 df3c eb03 ea3d
00000160: b969 34be 9e0a b5bd 02cf 613d 60a8 7dbc
00000170: 8ddf 4c3e 2e49 223e 1df3 04be 2a77 24be
00000180: 8ee1 4a3e ccb2 dfbd 76ba 3f3e c7e5 dbbd
00000190: 962e 0c3e 4fb9 7cbd 3606 e63d 7281 da39
000001a0: 1170 193e 5425 41bd d01f 1e3e 9564 58be
000001b0: 22d9 683d cf95 6bbc 6b6d aa3c 77e5 c03d
000001c0: a4d1 233e ea7b 81bd e059 ae3c 51d5 4f3d
000001d0: 1f36 ca3c 480f 133e 4bb2 23bc 13ff 6d3d
000001e0: 6e8d 223d 6bd0 d2bd 976c ac3e 0e17 0f3d
000001f0: 4f6c 21be 4bff bfba 6c31 543e 9c98 913d
00000200: 4cb0 8d3e af3c 813d c544 b83d 1c5e 7bbd
00000210: 12bf a0bd 4590 2a3d 503c 973d 8d1f 9abe
00000220: 4c09 203e 1e06 95be 4047 2cbd c8ad a0bd
00000230: 7908 883e 45c9 8c3e e6df 083e a74c a4bd
00000240: 03f6 cbbc 9054 173e d293 09be 80aa 673d
00000250: 6316 77be ebfa ef3d 7228 153d d737 433c
00000260: 7aae 95be e9e9 2fbe af50 863e bd94 b73d
00000270: f1ab 93bd 3fc2 863d c889 55be afbe 2abe
00000280: 58b8 04bc 71b5 9d3d 2c7e a33b 3fa1 ab3d
00000290: c8bd 41bd de2d 6c3e 5df0 3cbd 7508 b03e
000002a0: 6677 9e3b 42ea cc3d b2ab e0bd 2145 ca3d
000002b0: 62a7 81be f39b 1cbc a54d 5a3d c5d8 ddbd
000002c0: abb4 3e3e faba 3dbb 34b8 23bc 68e7 613d
000002d0: fc4a 0b3d fc1d 683e 4b6a 84be 5f6d 063e
000002e0: d0a8 153e 518e 1b3b ab58 b1bd 5cba 103e
000002f0: 4152 57bd 9700 0c3d ff88 c8bc 08ff 363e
00000300: 604d 4d3d 93bd 98bd 4952 c2bc aa3c 8b3d
00000310: bb71 62be 06b4 913c 5414 1f3c 1e09 933d
00000320: 6846 30be dacc 54be 10be 67be 2eb6 923d
00000330: 1e3d 703d 4e22 19be 7ccb 3a3d 19cc 10be
00000340: 281e 493d ceae 683d 4667 a23b 8da5 b83b
00000350: a097 00be c1df 02bc 3a3c 7c3e 2363 0cbe
00000360: ecbd acbd 60bf f0bd 22b1 37be 739b e63d
00000370: 2a5c 9abd 86a7 8b3e 0d31 21be 83f5 02be
00000380: 1626 593c 64ea a43e eed4 1abe b674 f53d
00000390: a970 bfbd ee92 e63d aba8 b53c 74e9 b03c
000003a0: 50a9 71be a368 883c 09ab 15be ca5b 38be
000003b0: 2f9a 683e d9dc 41bd a82f 593e 5fea 8c3d
000003c0: cb2d 7f3c b077 e83d eec5 e6bd 7d9a cabd
000003d0: 1f7f b93d bd6f 7e3d db3a e5bd fa82 043e
000003e0: a2c6 02be 3f34 30bd 3260 403d b508 16be
000003f0: 77ad d63c fc9a d9bc c39e bdbd a270 cc38

rnn.weight_hh_l0 f4 [30, 30]
0.25649354 0.15875414 0.2201316 0.09684624 0.1564391 -0.34873262 -0.24409014 0.18802448
0.029741103 -0.10723947 -0.23157701 0.3668917 -0.20350625 -0.15039045 -0.2634269 0.20341763
0.035876658 0.08202596 0.20149648 -0.08294245 0.06994317 -0.3792616 0.1864861 0.04645186
-0.20622876 0.018929496 0.25822553 -0.365566 0.35369486 0.044983376 0.049171418 0.124176756
-0.03754135 -0.21101081 -0.08445107 -0.05699787 -0.36806303 0.24927291 -0.041849665 -0.22794554
0.17649417 0.34704357 -0.071826756 0.030983647 -0.24635322 0.078189254 0.16104318 -0.0247465
0.35041806 -0.11997613 -0.29665747 -0.12095634 -0.35558212 0.22912638 0.14598788 -0.01107206
0.36615792 -0.063306734 -0.09481417 0.07493287 0.093177654 0.32562476 0.23027961 0.06944041
0.29838702 -0.30491844 -0.19838744 0.19116966 -0.16807698 -0.24718775 -0.11730592 0.113669254
-0.105787374 -0.1979572 -0.20416431 0.27108112 -0.11411261 0.23227298 0.17077963 0.09452615
0.0155394105 -0.18818644 0.009087658 0.28429964 -0.045566708 0.04023318 0.28404912 -0.17748791
0.25716072 0.30564547 0.35704896 -0.03936818 0.36524332 0.29826257 0.15120181 0.10087467
0.028806932 -0.0010920088 -0.2542705 0.044099122 -0.13406102 -0.19109987 -0.35828912 -0.29304346
-0.09211467 0.0031054355 -0.31008998 -0.10015519 -0.019639613 0.124199525 -0.1852559 -0.022047393
0.03739042 -0.25965208 -0.38142613 0.080985166 -0.0147100035 0.2069125 -0.02082031 -0.16267811
-0.17388773 0.112157784 -0.09024234 0.03644751 -0.07967337 0.06890076 -0.20134524 -0.14404556
0.30744517 -0.028968984 0.11776633 0.074016385 0.19131088 0.13634549 -0.09382737 -0.068592444
0.176197 -0.20764604 0.24320747 -0.04311348 -0.42045096 -0.15117958 0.02945083 -0.1158279
-0.1291654 0.03901466 0.19693826 -0.08928793 -0.33682007 -0.04148834 -0.015319966 -0.15571189
0.21081626 0.17327882 0.12224272 -0.024122752 0.17747733 -0.29071444 -0.037602283 0.014175734
-0.14406072 -0.09135504 -0.3202822 -0.21009177 0.10848291 -0.20260625 -0.09908936 0.15946318
-0.14589418 -0.05909078 0.20389752 -0.019987596 0.15013751 -0.1227945 -0.074186854 0.10368235
-0.29349166 0.019769069 0.3836934 0.06455092 0.04196739 0.18018676 0.11152685 0.271829
-0.17562573 -0.0715723 0.1683391 0.08525026 -0.065149106 -0.05907936 -0.36011818 -0.16232222
-0.29580638 0.009189097 0.17061572 -0.19181596 -0.2552236 -0.04150287 -0.25768378 0.23436981
0.24918067 -0.25062603 0.062603615 -0.11818521 -0.19375072 0.02867343 -0.22617953 -0.085506596
-0.07208392 0.20567591 0.20075163 0.30341476 0.10469548 -0.091809124 -0.12538025 -0.23840742
0.039217625 0.19955301 -0.13001096 -0.20115076 -0.086228885 0.09100216 0.09452747 -0.26737845
-0.23772666 0.25383264 0.05985547 0.06442328 0.33080983 -0.1273691 -0.051016774 -0.040468063
-0.13949889 0.307093 -0.17985077 -0.21306783 0.053799536 -0.4022905 -0.08521305 0.16522136
-0.0082919495 0.066772275 0.2590833 -0.15374738 0.27054986 0.03790701 -0.3375227 -0.011457726
0.21321672 -0.28696918 -0.13565834 0.14816578 -0.027321376 0.066843465 0.26054958 -0.20557483
00000000: 1f53 833e 7290 223e 2e6a 613e 5257 c63d
00000010: 9231 203e 158d b2be c4f2 79be 7d89 403e
00000020: 9da3 f33c 5ea0 dbbd 8622 6dbe 3bd9 bb3e
00000030: f163 50be f4ff 19be e4df 86be b64c 503e
00000040: 67f3 123d 3afd a73d 1855 4e3e bbdd a9bd
00000050: 5d3e 8f3d 942e c2be 36f6 3e3e 4e44 3e3d
00000060: a22d 53be 0812 9b3c 2336 843e 772b bbbe
00000070: 7e17 b53e 7d40 383d f867 493d 6250 fe3d
00000080: f5c4 19bd 3813 58be aff4 acbd 9976 69bd
00000090: c272 bcbe 6641 7f3e 8e6a 2bbd 8e6a 69be
000000a0: e3ba 343e b2af b13e e819 93bd 6bd1 fd3c
000000b0: 0544 7cbe b021 a03d 81e8 243e 2cb9 cabc
000000c0: ff69 b33e 0cb6 f5bd 7de3 97be f5b7 f7bd
000000d0: dc0e b6be 1ba0 6a3e d97d 153e 9667 35bc
000000e0: 0d79 bb3e f6a6 81bd ee2d c2bd 6876 993d
000000f0: edd3 be3d 4ab8 a63e 6bce 6b3e c636 8e3d
00000100: 2fc6 983e 451e 9cbe 1426 4bbe fbc1 433e
00000110: 5f1c 2cbe c91e 7dbe 163e f0bd 6dcb e83d
00000120: 0da7 d8bd 4bb5 4abe 7310 51be 25cb 8a3e
00000130: dfb3 e9bd f8d8 6d3e dbe0 2e3e ed96 c13d
00000140: 0399 7e3c f2b3 40be 66e4 143c b98f 913e
00000150: 28a4 3abd 8ccb 243d e36e 913e 64bf 35be
00000160: 92aa 833e 907d 9c3e 1fcf b63e 8740 21bd
00000170: 2c01 bb3e dfb5 983e a6d4 1a3e 6197 ce3d
00000180: 84fc eb3c bc21 8fba be2f 82be 48a1 343d
00000190: 4b47 09be afaf 43be ac71 b7be cb09 96be
000001a0: 9ea6 bcbd 9084 4b3b 1dc4 9ebe 2a1e cdbd
000001b0: 41e3 a0bc 525c fe3d b9b3 3dbe bc9c b4bc
000001c0: b226 193d 1ef1 84be 494a c3be 8ddb a53d
000001d0: 3a02 71bc dfe0 533e 5b8f aabc 1795 26be
000001e0: a00f 32be fbb2 e53d fad0 b8bd fc49 153d
000001f0: cb2b a3bd d71b 8d3d 722d 4ebe ae80 13be
00000200: 7469 9d3e 5d50 edbc 792f f13d e795 973d
00000210: 00e7 433e 279e 0b3e 9028 c0bd 327a 8cbd
00000220: fd6c 343e 2aa1 54be 610b 793e c397 30bd
00000230: 5945 d7be d2ce 1abe de42 f13c 2e37 edbd
00000240: ef43 04be d6cd 1f3d 2faa 493e 97dc b6bd
00000250: ae73 acbe adef 29bd 9800 7bbc f072 1fbe
00000260: 38e0 573e 0170 313e 645a fa3d 149d c5bc
00000270: 9ebc 353e 86d8 94be da04 1abd 5641 683c
00000280: a784 13be 5a18 bbbd 07fc a3be 4c22 57be
00000290: 4a2c de3d 0378 4fbe 5def cabd 514a 233e
000002a0: 4965 15be 2c09 72bd 83ca 503e 07bd a3bc
000002b0: a6bd 193e af7b fbbd 47ef 97bd 6957 d43d
000002c0: 8a44 96be bef2 a13c 7673 c43e 4633 843d
000002d0: ffe5 2b3d e182 383e 3068 e43d 2c2d 8b3e
000002e0: 3bd7 33be 7f94 92bd 1661 2c3e b097 ae3d
000002f0: e56c 85bd 33fd 71bd 6961 b8be cc37 26be
00000300: ef73 97be de8d 163c e3b5 2e3e 676b 44be
00000310: abac 82be eafe 29bd 21ef 83be a4fe 6f3e
00000320: 3829 7f3e 0e52 80be 5336 803d 160b f2bd
00000330: 9766 46be 8be4 ea3c 9b9b 67be 151e afbd
00000340: bca0 93bd b59c 523e d691 4d3e 2e59 9b3e
00000350: 956a d63d 6c06 bcbd ae63 00be 1321 74be
00000360: a9a2 203d a057 4c3e 9821 05be 77fa 4dbe
00000370: c598 b0bd 575f ba3d 9e97 c13d d4e5 88be
00000380: 9e6e 73be 5af6 813e 022b 753d 5af0 833d
00000390: e85f a93e 0c6d 02be f7f6 50bd d7c1 25bd
000003a0: ccd8 0ebe 4b3b 9d3e cd2a 38be 742e 5abe
000003b0: e75c 5c3d 05f9 cdbe 2e84 aebd ca2f 293e
000003c0: f5da 07bc e7bf 883d 91a6 843e f46f 1dbe
000003d0: 8385 8a3e 6244 1b3d c6cf acbe 30b9 3bbc
000003e0: 7c55 5a3e a0ed 92be 05ea 0abe c5b8 173e
000003f0: 14d1 dfbc 3ae5 883d c166 853e 3582 52be

rnn.bias_ih_l0 f4 [30]
-0.101522416 -0.023555394 0.17114311 -0.057777237 0.0057636653 0.14335048 0.08885974 -0.21829884
0.12706028 0.06516103 -0.23344134 0.0063940505 0.083038144 0.049259212 -0.07191274 -0.030436577
0.07591667 0.0949276 0.03660279 0.014044734 -0.1441943 -0.1794162 0.025706269 0.014662407
0.11688024 0.13031152 -0.05978031 -0.22370869 0.2382214 0.18203911
00000000: fcea cfbd 3ef7 c0bc 2440 2f3e d3a7 6cbd
00000010: 21dd bc3b 78ca 123e 18fc b53d bb89 5fbe
00000020: 171c 023e 2573 853d 3f0b 6fbe 2f85 d13b
00000030: e70f aa3d 07c4 493d fd46 93bd 2156 f9bc
00000040: 337a 9b3d 6769 c23d cfec 153d e21b 663c
00000050: aca7 13be e1b8 37be f495 d23c 983a 703c
00000060: e85e ef3d 6270 053e 33dc 74bd e413 65be
00000070: 50f0 733e 7668 3a3e

rnn.bias_hh_l0 f4 [30]
-0.110826485 -0.1282857 0.08143211 0.037835337 -0.056961842 0.13621297 -0.06384793 -0.04599466
0.10249841 -0.10932271 0.10552892 0.0102412 0.06915947 -0.04053953 -0.09244844 0.13357945
-0.16761164 -0.06434396 0.11777007 -0.05695815 0.11840085 0.12660857 -0.046442695 -0.031298973
-0.036102217 0.19794919 -0.010437666 -0.12420343 0.27683944 -0.06746459
00000000: fff8 e2bd 545d 03be e1c5 a63d 3af9 1a3d
00000010: d250 69bd 6a7b 0b3e b4c2 82bd e664 3cbd
00000020: b0ea d13d 96e4 dfbd 8c1f d83d b5ca 273c
00000030: 7ba3 8d3d c70c 26bd 9c55 bdbd 0dc9 083e
00000040: 63a2 2bbe c4c6 83bd 6f31 f13d f34c 69bd
00000050: 257c f23d ada5 013e b23a 3ebd 5a33 00bd
00000060: ebdf 13bd 31b3 4a3e bf02 2bbc 5e5e febd
00000070: e6bd 8d3e e02a 8abd

classify.weight f4 [11, 30]
0.35676843 0.41892385 0.22294526 0.21518335 -0.051995307 0.22035818 0.22832295 0.30787143
0.14486645 -0.1008821 -0.33636114 0.09070099 -0.18798336 -0.14409238 -0.09971139 0.2979972
-0.36094224 0.14547512 0.0879227 -0.018903555 0.26273334 -0.14639902 -0.25702706 -0.25952274
-0.19201656 -0.16096048 -0.2026497 -0.027317569 0.087906465 0.15550616 0.43292487 0.28982082
0.19609454 -0.31613857 0.18274024 -0.066836715 -0.36574626 0.34191698 0.18264157 -0.2907908
-0.41495278 0.14185265 -0.18308987 -0.1355435 -0.28419098 0.18710564 -0.3228634 0.21481141
0.07324141 -0.22170138 -0.30631414 -0.10807439 -0.19545005 -0.16368422 -0.09982097 0.19516969
-0.07375417 0.02541037 -0.030553987 0.24974015 0.3000796 0.27540967 0.34420285 -0.23332445
0.30772248 -0.20046306 -0.31048277 0.41659155 0.003661575 0.033066973 0.19136684 0.03277505
0.40724006 -0.36815894 -0.31706986 0.10267867 0.33420587 0.056495376 -0.03404113 -0.2824742
-0.20559175 -0.1693681 -0.1189912 0.14318633 0.01818927 0.26362777 0.373285 -0.21777534
0.23680262 0.19883798 -0.3612207 0.08049783 -0.04254413 -0.19576645 0.24025111 -0.2589718
-0.26635557 0.0005474961 0.1048757 -0.17589901 0.27570873 0.21763474 0.2221587 0.3064761
-0.13220087 0.0907272 0.19758512 0.3238636 0.122827016 -0.24586289 -0.25565177 -0.17329353
-0.22987407 0.31506094 0.113606125 -0.0077868933 0.11053325 -0.4251134 -0.40644026 -0.050561797
-0.25526795 0.41870084 -0.40088806 -0.075360805 0.1876119 -0.12929471 -0.21787167 -0.21258755
0.16775678 -0.013332454 0.09246006 0.099519126 0.16765335 0.078953266 0.15876125 0.26269442
0.27805915 -0.16112013 0.21128401 0.28362554 -0.32374227 0.3484288 -0.034816965 0.21362515
0.056988176 0.28175443 0.09905622 0.50538987 -0.3102985 -0.27374962 -0.3344266 -0.20489153
-0.18630251 -0.2552657 -0.2996269 0.34561256 -0.069665335 -0.27448162 -0.36616573 0.11222298
0.024025664 0.0432566 0.30507553 0.10187374 0.23171525 -0.3055349 0.27687043 -0.30330348
0.23292924 -0.17147698 -0.33942378 0.11620036 -0.19102156 0.13722397 -0.0069142305 0.21238448
0.35459217 0.3420772 -0.311664 0.154506 -0.03656474 -0.28762886 -0.14165281 -0.28408822
-0.10923732 0.09586699 0.065968424 -0.19795801 -0.2355825 0.342245 0.24039774 -0.007433646
0.27703515 0.120691605 0.3403796 -0.17543499 0.20939977 0.40199798 -0.39958376 -0.32117325
0.28773975 0.30743134 0.17729203 0.32744953 0.04354508 0.28855616 -0.35682398 0.12814954
0.24399668 -0.14273657 -0.20638603 -0.3453623 -0.3901182 0.1951292 0.23220289 0.032302927
0.28040984 -0.2154344 0.19987892 0.35909194 -0.34361786 -0.2829656 0.107168026 0.13034636
-0.20481895 -0.03645954 0.3547915 -0.12613887 -0.096438184 0.14317392 0.026775464 0.19719243
-0.03213959 -0.3048899 0.2947947 -0.32431012 -0.28398487 -0.14296882 0.25262505 0.1727635
0.27812082 -0.13042942 0.15441146 0.119998015 -0.22813204 0.19287182 0.18723772 -0.26257366
0.21633817 0.25300664 -0.0838822 -0.3146104 0.12619953 0.10257921 0.36288956 -0.24668282
00000000: 5aaa b63e 307d d63e c34b 643e 0659 5c3e
00000010: 08f9 54bd 93a5 613e 7ecd 693e 53a1 9d3e
00000020: df57 143e 469b cebd 8737 acbe 71c1 b93d
00000030: b67e 40be f48c 13be 7c35 ccbd 1793 983e
00000040: 6ccd b8be 6ef7 143e d110 b43d a1db 9abc
00000050: fc84 863e a0e9 15be 0d99 83be 2ae0 84be
00000060: fd9f 44be d3d2 24be 6783 4fbe 18c9 dfbc
00000070: 4e08 b43d 023d 1f3e 54a8 dd3e 6563 943e
00000080: 02cd 483e eadc a1be 4220 3b3e b0e1 88bd
00000090: 1843 bbbe be0f af3e 6406 3b3e 88e2 94be
000000a0: b174 d4be d241 113e e97b 3bbe eacb 0abe
000000b0: 7b81 91be 9f98 3f3e 5a4e a5be 86f7 5b3e
000000c0: 98ff 953d b005 63be 35d5 9cbe 1b56 ddbd
000000d0: 0f24 48be d69c 27be f06e ccbd 90da 473e
000000e0: 6d0c 97bd 6929 d03c 5b4c fabc e2bb 7f3e
000000f0: 09a4 993e 7f02 8d3e 5b3b b03e 9bec 6ebe
00000100: cd8d 9d3e 3046 4dbe 99f7 9ebe 7d4b d53e
00000110: 09f7 6f3b 3c71 073d abf5 433e 213f 063d
00000120: c581 d03e 547f bcbe fb56 a2be 3249 d23d
00000130: 081d ab3e b267 673d b66e 0bbd 75a0 90be
00000140: a586 52be d56e 2dbe a9b1 f3bd 709f 123e
00000150: aa01 953c 38fa 863e 361f bf3e 8000 5fbe
00000160: 637c 723e 2f9c 4b3e ebf1 b8be 0cdc a43d
00000170: c142 2ebd 0077 48be 6304 763e f497 84be
00000180: c25f 88be d785 0f3a 12c9 d63d df1e 34be
00000190: b229 8d3e a4db 5e3e 927d 633e 6fea 9c3e
000001a0: aa5f 07be 2fcf b93d c153 4a3e 73d1 a53e
000001b0: bb8c fb3d 7bc3 7bbe cae4 82be dc73 31be
000001c0: 1c64 6bbe ab4f a13e 54aa e83d 3229 ffbb
000001d0: 425f e23d 77a8 d9be f018 d0be e319 4fbd
000001e0: 7bb2 82be f55f d63e 3341 cdbe c456 9abd
000001f0: 551d 403e d565 04be c019 5fbe 8db0 59be
00000200: 6fc8 2b3e 5d70 5abc b35b bd3d afd0 cb3d
00000210: 52ad 2b3e 40b2 a13d 4f92 223e e27f 863e
00000220: c55d 8e3e adfc 24be d65a 583e 5e37 913e
00000230: 8cc1 a5be 4265 b23e 3c9c 0ebd 8dc0 5a3e
00000240: 6f6c 693d 1e42 903e fddd ca3d 3b61 013f
00000250: 72df 9ebe e928 8cbe f739 abbe 16cf 51be
00000260: 16c6 3ebe 30b2 82be b268 99be 21f4 b03e
00000270: b3ac 8ebd db88 8cbe 137a bbbe 29d5 e53d
00000280: 78d1 c43c d52d 313d dc32 9c3e 2ea3 d03d
00000290: c346 6d3e 126f 9cbe f6c1 8d3e 984a 9bbe
000002a0: 0185 6e3e a997 2fbe f4c8 adbe 74fa ed3d
000002b0: 289b 43be 7184 0c3e c590 e2bb 517b 593e
000002c0: 1b8d b53e be24 af3e 6c92 9fbe d236 1e3e
000002d0: e9c4 15bd 1744 93be 6f0d 11be 0374 91be
000002e0: d1b7 dfbd ea55 c43d 741a 873d 81b5 4abe
000002f0: 8a3c 71be bd3a af3e d32a 763e f195 f3bb
00000300: 8dd7 8d3e 292d f73d 3c46 ae3e 3ba5 33be
00000310: e56c 563e aed2 cd3e 3e96 ccbe d270 a4be
00000320: a052 933e a467 9d3e 0b8c 353e 77a7 a73e
00000330: 535c 323d a2bd 933e a2b1 b6be a239 033e
00000340: 44da 793e 8929 12be dc56 53be 54d3 b0be
00000350: 93bd c7be f3cf 473e 98c6 6d3e 1350 043d
00000360: e191 8f3e d69a 5cbe 0fad 4c3e e6da b73e
00000370: aeee afbe dee0 90be e97a db3d 8479 053e
00000380: 0fbc 51be 9956 15bd 3ba7 b53e 8c2a 01be
00000390: 6281 c5bd 2f9c 123e 3858 db3c d0ec 493e
000003a0: cda4 03bd 871a 9cbe 55ef 963e fa0b a6be
000003b0: 7766 91be 6b66 12be 1258 813e eae8 303e
000003c0: da65 8e3e 4a8f 05be 0a1e 1e3e 85c1 f53d
000003d0: 729b 69be 3180 453e 3fbb 3f3e 0e70 86be
000003e0: c187 5d3e 168a 813e 6eca abbd 9d14 a1be
000003f0: 733a 013e 0d15 d23d a9cc b93e 6c9a 7cbe

classify.bias f4 [11]
0.12237329 0.044363767 0.06091439 0.13140416 0.10793771 -0.032384753 0.01549911 0.035498753
-0.10787268 -0.03464651 0.17171367
00000000: d99e fa3d c8b6 353d 5e81 793d d08e 063e
00000010: 720e dd3d e0a5 04bd fbef 7d3c 2467 113d
00000020: 5aec dcbd 80e9 0dbd b5d5 2f3e
