DongKaiwei/Week3/model.pth (torch, 7662 bytes, 7 tensors)

embedding.weight f4 [54, 10]
000000 00 00 00 00 00 00 00 00 00 00 00 00 00 00 00 00
       0.0 0.0 0.0 0.0
000010 00 00 00 00 00 00 00 00 00 00 00 00 00 00 00 00
       0.0 0.0 0.0 0.0
000020 00 00 00 00 00 00 00 00 b8 71 0b 3f 98 11 20 40
       0.0 0.0 0.54470396 2.5010738
000030 f9 1b b9 bf 0d 4c 02 bf 25 f6 0b bd 3a 23 1b 3f
       -1.4461662 -0.50897294 -0.03417029 0.60600626
000040 f3 a5 00 bf b8 aa ea 3f f6 e8 e2 3d 7e 57 87 3f
       -0.5025322 1.8333349 0.1107959 1.0573575
000050 9d de 14 40 99 c6 5b bf b2 02 ba bf 31 38 fa 3f
       2.3260872 -0.8584991 -1.4532073 1.9548398
000060 b1 6d 73 bd 6b db 86 bf ae 1b b2 bf 74 f7 fe 3d
       -0.05943078 -1.0535711 -1.3914697 0.12449542
000070 80 a5 38 be b6 9b 91 bf 59 44 a2 3f ad 16 9c bf
       -0.18031883 -1.1375644 1.2677108 -1.219442
000080 6d a8 d0 bf df 1c bf 3e 10 3b ce bf d3 24 08 40
       -1.63014 0.37326714 -1.6111774 2.1272476
000090 1e 62 9a 3c b6 68 02 3d 58 8c 89 3e e8 36 b4 bf
       0.018845614 0.03183814 0.26864886 -1.4079256
0000a0 8b ac 29 3f c1 99 6d 3e 4c 6a 8a 3f e3 70 9c 3f
       0.66278905 0.23203184 1.0813689 1.222195
0000b0 8f 3d e5 be fa 74 ca 3f bb af 84 bf 6b 04 e1 3e
       -0.44773528 1.5816948 -1.0366129 0.43948683
0000c0 02 6c 73 3e bf 80 bb bf 9c 24 93 3f 15 e1 21 3e
       0.2377167 -1.4648665 1.1495547 0.15808518
0000d0 64 43 9c 3f 66 72 80 bf 1c 2c 49 3f ca 46 a2 3f
       1.2208066 -1.0034912 0.7858293 1.2677853
0000e0 dd f3 5d be 9e 59 aa 3f 81 83 94 bf 9b c4 1c bf
       -0.21675058 1.3308599 -1.1602632 -0.61237496
0000f0 3e 58 be be 59 26 23 bf 45 7a 8c 3d 0a 7b 0f 3f
       -0.37176698 -0.6373039 0.068592586 0.5604712
000100 41 4f e1 bf 27 2a c3 3f e1 b7 a1 3e 3b be e1 3e
       -1.7602311 1.5247239 0.315856 0.44090447
000110 f8 8a 39 bf a6 34 c5 be 38 92 be 3f 9f 92 69 be
       -0.72477674 -0.3851673 1.4888372 -0.22809838
000120 6c 58 15 bf 92 0b 38 bf 54 b5 30 3f ef c7 93 be
       -0.58338046 -0.71892655 0.69026685 -0.28863475
000130 d1 5e e1 3d 3d e5 b7 3f 63 e1 4e bf cb f4 43 be
       0.11004413 1.4366833 -0.8081266 -0.1913635
000140 cd ba 71 3e e1 06 f0 be bf 61 b7 bd 5a 1b e5 3e
       0.23606415 -0.46880248 -0.089541905 0.4474743
000150 6b fe 13 3f 92 90 a7 bf 1d 6d 35 bf 11 a9 be 3f
       0.57810086 -1.3090994 -0.7086962 1.4895345
000160 fc b9 34 3f 36 53 18 3f 5c e9 e2 3f d0 de 96 3f
       0.7059629 0.5950197 1.7727466 1.1786747
000170 94 0b 50 be a1 b3 2a 3e ff 3a f2 3f 11 a0 35 3f
       -0.20316917 0.16670085 1.8924254 0.70947367
000180 9f a1 53 3f 9e 5f 1c 3f 85 a4 37 be 07 65 26 bf
       0.8266849 0.610834 -0.17933853 -0.64997905
000190 26 ba 0a 40 02 2a 08 3f 60 a7 28 bd d6 5d 13 bf
       2.1676116 0.531891 -0.041175246 -0.5756506
0001a0 66 8a c6 be ac cf d9 3f 69 4d ac be 62 e9 5b 3e
       -0.38777465 1.7016501 -0.3365281 0.21475747
0001b0 38 44 77 3f f8 4f 39 3e 08 c4 6e 3f 8e ee 92 bf
       0.9658847 0.18096912 0.9326787 -1.1479051
0001c0 76 3f a6 be 78 08 1d bf 84 77 8f 3d 93 41 9b bd
       -0.32470292 -0.6134105 0.07005218 -0.07580867
0001d0 b3 2b 25 40 4e 30 c5 3e b9 fc e2 3e c3 2e 03 bf
       2.5807922 0.38513416 0.44333437 -0.5124323
0001e0 ad f5 7b 3f 2b 3e be be d4 cf 76 3f b2 b0 8f bc
       0.98421746 -0.37156805 0.9641087 -0.01754031
0001f0 42 9b 69 3f 4c 6a d9 3e b4 f8 cb bf 28 96 8c 3f
       0.9125253 0.4246391 -1.5935273 1.0983324
000200 2c fe 67 bf 59 29 7d 3f 9f 46 5e 3e 5f 2b a4 3e
       -0.9062221 0.98891217 0.21706627 0.3206434
000210 ec e8 e2 3e a7 b2 10 3f cd 54 cc 3e fb ff 55 bf
       0.4431833 0.565226 0.39908448 -0.8359372
000220 84 b2 d0 be 11 18 5f 3f 53 36 ba 3e fa 92 03 40
       -0.40761197 0.871461 0.3636957 2.0558457
000230 cb c1 9d 3f 11 cb 28 3f ca b0 09 40 49 6e 6e 3f
       1.2324766 0.65934855 2.1514153 0.9313703
000240 64 1a 66 3e 4e bb 6f bf 8a c7 b8 be bf ef 1a 3f
       0.22471005 -0.9364518 -0.36089736 0.60522074
000250 7f d7 e4 3e b2 a2 e2 be 8d 6c 4f 3f 7b d3 0b 3f
       0.4469566 -0.44264752 0.8102501 0.5461957
000260 68 54 3c 3f 08 16 cb bd fa de e6 bf 80 bc 1e 3f
       0.73566294 -0.099163115 -1.8036797 0.6200638
000270 77 77 95 3e 35 51 08 3f 1e c8 15 bf e0 a4 e4 bd
       0.29192707 0.5324891 -0.5850848 -0.1116426
000280 83 7f 01 40 3f 21 e7 bf 34 09 a3 be ab b2 35 3d
       2.0234077 -1.8057021 -0.3184296 0.044359844
000290 e9 31 d1 3f e8 9d af bf 37 10 7c 3f 4b c9 d4 3e
       1.6343356 -1.3720064 0.9846224 0.41559824
0002a0 e3 31 80 bf d2 4d a9 3d 63 71 7b be 2e a6 1f 3f
       -1.0015224 0.08266796 -0.24554972 0.62362945
0002b0 3d 8b c4 bf 5a 7f 89 3f ff 8e 2f bf 56 cd bb 3f
       -1.5354992 1.074199 -0.6857757 1.4672039
0002c0 16 d4 dc 3f ff ee 0f 3e 87 b9 50 3e b9 0f 50 be
       1.7252223 0.14056014 0.20383273 -0.20318498
0002d0 c9 d9 14 40 b9 6c df 3f b1 16 22 3f 6d 46 1b 3f
       2.3257926 1.7455055 0.63315874 0.60654336
0002e0 45 7b 8b be 37 fd d3 3f b4 f5 61 bf 7e d6 1b 3c
       -0.27242485 1.656165 -0.8826554 0.009511588
0002f0 ba 82 30 bf 98 7d 0a bf 2c 18 34 40 3f 74 86 3f
       -0.6894947 -0.5409789 2.8139753 1.0504225
000300 c2 49 9e be 29 74 0f 3f 3c 5f 4e 3f 58 1a 28 be
       -0.30915648 0.5603662 0.80614066 -0.164163
000310 f1 2c 8a 3f a7 0b 37 bf 43 be a2 bf 34 e6 b5 3f
       1.0794965 -0.71502155 -1.2714313 1.4210877
000320 14 b1 c0 3e d9 d9 5b bf 11 01 07 bf c5 d0 85 3f
       0.376351 -0.85879284 -0.52736 1.0454336
000330 57 af 1f be 84 f7 da be e6 1a fc 3e 89 fb 96 3e
       -0.1559423 -0.42766964 0.49239272 0.2948878
000340 30 ec 77 3f 45 2f fa 3e 63 d8 f8 3f 42 de 98 bf
       0.9684477 0.4886419 1.9441036 -1.1942828
000350 84 66 e1 be 0e a3 1a 3f 32 0a 7f 3f 75 8c f8 bf
       -0.44023526 0.6040505 0.9962493 -1.9417864
000360 58 74 3e bf 9c 5d 7d 3f c2 92 15 40 13 07 1f bf
       -0.74396276 0.9897096 2.3370824 -0.6212017
000370 53 d9 a4 3f 7d 18 a6 3f 42 0a 1f 3e 3d 5d b2 3d
       1.2878822 1.2976223 0.15531257 0.0870919
000380 a1 66 8b 3d f7 c9 0e 3f ef b8 14 3f 09 98 17 3f
       0.06806684 0.55776924 0.58094686 0.5921636
000390 a6 d0 a5 be 09 5c 8e bb 1a 06 8e 3e dd 9c 53 bf
       -0.3238575 -0.0043444675 0.2773903 -0.8266123
0003a0 ca dd a6 3f 53 ee 4b 3e 1d b3 d5 3f 62 74 8c bf
       1.3036435 0.19915132 1.6695286 -1.0973017
0003b0 80 0b 4b bc d2 6e ce 3f b6 78 af 3f f9 93 85 bf
       -0.0123928785 1.612757 1.3708713 -1.0435783
0003c0 64 3f 74 3e 38 f8 88 bf 70 85 61 3d e2 3e 96 3f
       0.23852307 -1.070075 0.055058897 1.173794
0003d0 47 19 59 bf e4 22 c3 3f 25 75 63 bf f2 79 e1 bd
       -0.84804195 1.5245023 -0.88850623 -0.11009587
0003e0 59 9c e2 bc a3 94 4d 3f 76 c7 1a be 54 98 d6 bf
       -0.027662443 0.80304927 -0.15115151 -1.6765237
0003f0 4a 03 dc be a1 1b a5 3f 1d e6 f0 be 4a 8f 8f bf
       -0.4297126 1.2899057 -0.47050563 -1.1215603

rnn.weight_ih_l0 f4 [20, 10]
000000 5b d5 74 bc 93 9a 1c 3d 05 0d c7 bd 3b 7e 32 be
       -0.014943446 0.03823335 -0.0971928 -0.17430966
000010 96 fc 4b bd 93 a9 28 bc 9b ec b9 bd 20 51 12 be
       -0.04980143 -0.010294336 -0.09078332 -0.14288759
000020 e6 75 f1 bd 02 5b b9 3d 9f 37 a9 3e 43 aa 2f bd
       -0.117900655 0.090505615 0.33050248 -0.042886984
000030 d2 b6 fc 3c c3 52 aa 3e 15 46 61 be c3 aa 70 3e
       0.030848894 0.33266267 -0.2199939 0.2350264
000040 9b dd 83 3e 9b 59 34 3f b3 98 7a bd 9c 23 86 3d
       0.2575501 0.7044923 -0.06118078 0.06549761
000050 3a e8 56 3e 3b bb 0f 3d 1c 16 e7 3d 0f 2b 22 3e
       0.20987025 0.035090666 0.11283514 0.15836738
000060 6d 0c 60 bd fc 3a f9 3d 5d f3 99 3d a9 51 a9 3e
       -0.05469935 0.121694535 0.07517121 0.33070114
000070 70 6d 5c be 87 68 0f 3c 34 f6 5e be a1 a4 5b 3e
       -0.21526122 0.008752949 -0.21773607 0.2144952
000080 18 41 00 3e 6c 75 28 bd 30 20 0c 3e 0e ba c7 bc
       0.12524831 -0.041127607 0.13684154 -0.02438071
000090 a2 14 81 bd b2 c5 63 be 06 3e ee bd 04 e8 0b be
       -0.063027635 -0.22243384 -0.11632924 -0.13662726
0000a0 45 d4 96 bd 2c 72 c0 bd d0 a9 d9 bd 6b a5 98 bc
       -0.07364706 -0.093967766 -0.10628092 -0.018633565
0000b0 9e 1e 02 be 85 0d 2c bd d2 97 9d 3d 8f 33 e8 3c
       -0.12706992 -0.04200508 0.07694973 0.028344898
0000c0 f9 aa 88 3d 8d 57 d2 3d f8 4c 9f 3e a2 72 f7 bd
       0.066732354 0.10270605 0.3111341 -0.12082411
0000d0 f1 a3 97 3c a5 fa 9e 3e b7 aa 67 3d f7 54 4e 3e
       0.01851079 0.31050602 0.05655929 0.20149599
0000e0 88 7c 2d 3e fd 98 6c 3e a5 32 82 3b 12 44 9f 3d
       0.16942036 0.23105235 0.0039733225 0.07776655
0000f0 6d 12 32 3e 28 ae 42 3c 18 b9 21 3d e9 47 3e 3e
       0.17389841 0.011882342 0.03948316 0.18582119
000100 9d dc f5 3b ee 3c f8 3d 24 1e c4 3d db 3d 8d 3e
       0.007503106 0.121209964 0.09576061 0.27586254
000110 dd b8 1c 3e 3b 33 0d 3d f2 f5 e1 bd 7c 6e 74 bd
       0.15304895 0.034472685 -0.110332385 -0.05967568
000120 a9 b9 64 3d b2 88 0f 3a cd cf b4 3d a6 43 88 bd
       0.05584112 0.0005475386 0.08828697 -0.06653528
000130 77 03 83 3d 74 fe 7a 3c 23 c3 33 3d 93 df c3 3d
       0.06397145 0.015319455 0.04388727 0.09564128
000140 06 58 88 3e aa c3 2a bd d2 e8 87 3e a1 29 64 3e
       0.26629657 -0.041690506 0.26544815 0.22281505
000150 e9 75 3d bd 71 b7 89 3d 32 b6 cb 3c 54 68 64 3e
       -0.046255026 0.06724442 0.024867151 0.22305423
000160 06 02 83 3d cd fa 9a bd 4a 30 ae be aa d5 00 3e
       0.0639687 -0.07567368 -0.34021217 0.12581506
000170 0f 52 ff bd 7e 30 b8 be fb 38 e6 3d ed 3f f6 bd
       -0.12466823 -0.35974497 0.11241337 -0.120239116
000180 de 91 59 be b0 53 1e bf 45 b0 35 3d a2 e6 56 be
       -0.2124705 -0.61846447 0.044357557 -0.20986417
000190 a1 c1 de 3c f2 ae 52 bb cc cc 00 3e 78 03 13 bd
       0.027191939 -0.0032147733 0.12578124 -0.03589198
0001a0 9a 52 a2 3c 37 af a5 bc 63 9e 6c 3b f8 b8 db 3b
       0.019814778 -0.02022515 0.0036105148 0.0067053996
0001b0 08 29 af 3c 02 ea 2c be ee a8 1d 3e a5 21 99 bc
       0.02138187 -0.16886142 0.15396473 -0.0186928
0001c0 f5 35 21 3d aa a4 a2 3e a5 1f 3a be 07 6e f0 3c
       0.039358098 0.31766254 -0.18176134 0.02934934
0001d0 54 c7 37 3c 05 f0 e8 3e 8d 16 aa 3d 87 e0 a3 3d
       0.011216957 0.4549562 0.083050825 0.080018096
0001e0 2a a8 09 3e 39 ff b3 3d 5e 6b 83 3d ed af 4a 3d
       0.13443056 0.08788914 0.06416963 0.049484182
0001f0 2b 4b 86 3d 7c 6c 7e 3c db 40 bd bd 33 30 8c 3e
       0.06557306 0.015528794 -0.09240886 0.27380523
000200 f4 19 e7 3c 4c 1d 4d 3d 54 da c4 3c 56 f6 18 bd
       0.028210618 0.050076768 0.024029888 -0.0373443
000210 97 97 00 3d 2f 0e 7e 3e 68 d2 8c bd 56 dc 31 3c
       0.031394567 0.24810098 -0.06876069 0.010855755
000220 4c 32 01 3e 27 7a 78 3e 0c aa 0a bd 30 26 ef 3d
       0.12616843 0.24265347 -0.033853576 0.116772056
000230 04 e0 9f be 4e 77 5d 3c 5b 91 d6 bd 3d 0a 43 be
       -0.31225598 0.013517214 -0.10476943 -0.19046874
000240 3f 7e 23 3e f1 76 39 be 7c ff 6d bd f8 da b7 be
       0.15966128 -0.18111779 -0.058104977 -0.35909247
000250 ce f5 0e be ac 9b 04 bd 16 ff 06 3e 13 bc d9 bd
       -0.13960955 -0.032375023 0.13183245 -0.106315754
000260 f1 d1 2a 3d 2b ef 3a 3e dc 37 77 3c 15 54 36 3e
       0.041704122 0.18255298 0.0150890015 0.17805512
000270 d0 3e 85 3d f8 d0 7d 3e 6d e4 81 3d 79 71 54 3e
       0.06506121 0.24786747 0.06342397 0.20746411
000280 ae 9a 94 be 40 89 f8 3d 6e b0 e2 bd 5b e2 b6 be
       -0.2902426 0.12135553 -0.110688075 -0.3571957
000290 29 2c ae 3c 2f e7 78 be d6 6a 82 be 70 99 0d bf
       0.021261292 -0.2430694 -0.25472134 -0.5531225
0002a0 ba 25 a0 bd 87 22 54 be 16 3f b9 bd 91 02 c3 3c
       -0.07819696 -0.20716296 -0.09045236 0.023804935
0002b0 28 e7 00 3e 67 b0 d5 bd d5 d9 98 bc a2 8e fc bd
       0.12588179 -0.10434037 -0.018658558 -0.123318925
0002c0 9d 62 4b bd ef fa 97 3d 45 81 2a bd 6a cf d4 bd
       -0.04965459 0.07420909 -0.041627187 -0.103911236
0002d0 4f c2 d6 bd 5b 89 0d 3e f6 db 7b 3d ef 19 55 be
       -0.1048628 0.13821928 0.061489068 -0.20810674
0002e0 f1 cf c0 bc e1 f5 88 bd 6a 5b 66 be 92 a8 97 be
       -0.023536654 -0.06687523 -0.22495809 -0.29620796
0002f0 6c 25 84 bd 42 59 c7 bd 78 be aa be 12 25 1c 3e
       -0.0645245 -0.097338215 -0.3334844 0.15248516
000300 99 22 d4 bc fe 1b 54 be 3b 62 d1 3d 56 af ec bd
       -0.025895404 -0.20713803 0.10223814 -0.1155688
000310 0b b7 21 be c8 16 15 bf 25 2d b0 3c 05 50 18 be
       -0.15792482 -0.58237886 0.021505902 -0.14874275

rnn.weight_hh_l0 f4 [20, 20]
000000 80 1a 8c bd 6a 44 fc 3e b8 38 b9 bd 2f 7a c6 bc
       -0.06840992 0.49270946 -0.09044021 -0.024228184
000010 a9 07 6f 3e 96 f2 a3 3d 6a 94 03 be 4f 3e 30 be
       0.23342766 0.08005254 -0.12849584 -0.17211269
000020 12 f2 53 bd 20 85 85 be 26 d4 ca 3e 4e bc 93 3d
       -0.051744528 -0.2607813 0.3961498 0.07213651
000030 ce d9 b7 3e 17 83 48 3e 7d 0b 36 be c7 5b 01 3f
       0.3590836 0.19581257 -0.1777782 0.50530666
000040 2a 68 83 be 44 e6 60 3e 10 eb 4f be 69 3b 8e be
       -0.25665408 0.2196284 -0.20304513 -0.277797
000050 e3 3a 31 bd 6d 99 a6 3e 47 44 cd 3d 83 05 52 be
       -0.04326905 0.3253893 0.100227885 -0.20509915
000060 28 99 b6 3d 3b 0c eb 3c da b0 a2 3e f7 27 8a 3d
       0.08915931 0.028692355 0.31775552 0.06745904
000070 f7 26 d6 bd 5c 79 dc be ea 42 76 3e 8b f0 ba 3e
       -0.10456651 -0.4306134 0.24048963 0.36511645
000080 32 ce 0c bd c5 ec 64 bc aa d8 ec bc a2 f9 d8 bb
       -0.03437633 -0.013972466 -0.028911907 -0.0066215554
000090 06 72 df be 34 28 47 be 28 de bb bc 2b af 85 be
       -0.4364168 -0.1944893 -0.02293308 -0.26110205
0000a0 1a b2 c7 3d 87 8d e9 bd 06 b6 c2 3d 26 ba 71 bd
       0.09750767 -0.11403947 0.095073745 -0.059015416
0000b0 7d 42 70 be 98 0a 8e bd 00 9f 2d 3e 87 ff a7 3e
       -0.23462863 -0.06935614 0.16955185 0.3281214
0000c0 6c aa 15 bd 33 2f 6b be ab 15 69 bd 1d 4e 11 3e
       -0.03653948 -0.22967224 -0.05690543 0.14189954
0000d0 bc 29 83 be ea 96 4c be 5f 8a 81 be 2b c6 84 3e
       -0.25617778 -0.19979444 -0.2530088 0.2593244
0000e0 bd 06 28 be 0c 59 90 be 93 e9 af 3d 8f e4 22 3d
       -0.1640882 -0.28192937 0.085894726 0.03976875
0000f0 fe 42 db 3d 30 44 87 3e c8 9e 9e be fa 5b 97 3e
       0.10706137 0.2641921 -0.30980515 0.2956236
000100 7a 77 df 3e 10 9a 51 3e b9 7c 6e be 52 e9 fb be
       0.4364584 0.20468926 -0.23289765 -0.49201447
000110 7a cd 20 3e 3c 5a 3e 3e ff 5d 5a 3e ae c7 ae bc
       0.15703383 0.18589109 0.21324919 -0.02133545
000120 71 29 02 3e 8c 33 79 3e a3 03 16 3e bd ab eb 3e
       0.12711121 0.2433607 0.14649825 0.46029463
000130 e3 fa 06 3d 23 c3 da 3d 26 11 76 be d3 e3 ef be
       0.032954108 0.106817506 -0.24029979 -0.46853504
000140 79 9b 82 3e 0f 41 1a 3e 9d 20 ec bd ed 61 e5 3e
       0.2550924 0.1506388 -0.11529658 0.44801274
000150 eb 71 0c 3f 90 58 39 be b7 1e 8e be 78 73 02 bf
       0.54861325 -0.1810019 -0.2775781 -0.5095744
000160 30 21 38 3d 4f cc 59 3e 7e 1f 79 3e 2e 4b 2e 3e
       0.044953525 0.21269344 0.2432842 0.17020866
000170 f7 a5 84 3e c7 de 1e 3e 7d a3 19 3d 9f 23 f0 3d
       0.2590787 0.1551467 0.03750943 0.11725544
000180 0b 63 7a be 59 85 ff 3d 51 56 92 be f7 0b cd be
       -0.24451844 0.12476606 -0.2858148 -0.4004819
000190 8c dd 69 3d bb 67 4c be 72 1f 80 be dd b7 fd 3d
       0.05709605 -0.19961445 -0.2502399 0.12388585
0001a0 6a b7 0f bb e8 d4 e1 3e 84 9e 2e 3e e3 eb 17 be
       -0.0021929392 0.44107747 0.17052656 -0.14836077
0001b0 95 28 8d bd 53 b7 a9 be 7c 8c d9 ba a7 35 a8 3d
       -0.06892506 -0.33147678 -0.0016597654 0.08213358
0001c0 76 50 29 3e b2 b9 8e 3e 1e 62 b6 be 2a 1a 16 3e
       0.165346 0.2787605 -0.35621732 0.14658418
0001d0 ea e1 2a bc a9 be 76 3e 37 9b 32 be d0 13 a3 b9
       -0.010429839 0.24096169 -0.17442022 -0.00031104544
0001e0 51 46 a6 bd 99 f7 af 3e 50 12 bf 3e 9d c7 b0 be
       -0.081188805 0.3436859 0.3731866 -0.34527293
0001f0 2c 73 19 be 93 df 77 3e 48 da 7d 3e 6e a7 a3 3e
       -0.14985341 0.2420638 0.24790299 0.31963676
000200 07 f2 7b be 9f 4d 35 be b0 e9 15 be 7d 0e c9 bd
       -0.24604045 -0.17705391 -0.14639926 -0.098172165
000210 22 59 ab bd c2 5d ba 3d dd d5 f6 be ac 6e 9c 3d
       -0.0836661 0.09099914 -0.4821004 0.076382965
000220 7a 00 1b be e6 d4 2f bc 68 5f 84 be 18 3d d0 3d
       -0.151369 -0.010731911 -0.2585404 0.10167903
000230 52 cb b9 be f1 6f d0 be 53 8d 1d 3e dd 98 01 bf
       -0.36287934 -0.40710405 0.15385942 -0.50623876
000240 ca ba c6 be 62 cb 93 3d 80 de 2c be 8b 01 06 3f
       -0.38814384 0.072165266 -0.16881752 0.52346104
000250 b5 c9 8a be 6d a7 8d 3e 25 61 b3 be f3 c3 8b be
       -0.27107015 0.27666798 -0.35035053 -0.27297935
000260 5d ed b7 bd 0a dc de 3c bf 26 59 be 76 e1 1e bf
       -0.0898082 0.027204532 -0.21206187 -0.62062776
000270 30 fb 9d 3e 37 32 e1 3d 30 f0 bf 3e 49 4b ab 3e
       0.30855703 0.10995906 0.37487936 0.33455876
000280 83 58 0a 3d 21 a0 8d 3e ac b8 71 bd 42 c5 a5 bd
       0.033775818 0.2766123 -0.059014007 -0.080942646
000290 56 3f 05 be e3 6a 94 3e 4f ae dd 3e a2 94 b7 bd
       -0.13012442 0.28987798 0.4329705 -0.08963896
0002a0 df 37 f1 bd 3a 10 bb be 88 26 8d 3e d9 33 84 3e
       -0.11778235 -0.36535817 0.2756846 0.25820807
0002b0 c0 ec 2f be c1 b7 96 be 2b 47 f3 3a 7f 77 df 3e
       -0.17180157 -0.29437068 0.0018560638 0.43645856
0002c0 e3 c6 0d bf 46 47 cd be c5 bf a0 be e2 4c 12 be
       -0.553816 -0.4009344 -0.3139631 -0.14287141
0002d0 b9 5f 14 be dd ae 95 3c 2e 2a 46 be 90 b2 8a 3d
       -0.1448964 0.018271858 -0.19352028 0.06772339
0002e0 58 51 2a bd cf d3 10 be 1e 82 45 be ba 87 81 be
       -0.04158148 -0.14143299 -0.19287917 -0.25298864
0002f0 44 e6 1d 3d de bd a1 3e 94 fc 83 3d 7f 29 6e be
       0.038549677 0.3159017 0.0644466 -0.23258017
000300 10 69 05 3e 12 2d 64 be 97 dd a0 3d a7 e8 39 be
       0.1302836 -0.22282818 0.07854765 -0.18155156
000310 de a7 8b 3d 87 b7 5b be de ca 69 3e 01 f4 f8 bd
       0.068191275 -0.21456729 0.22831294 -0.12155915
000320 bc dc d1 3e 89 36 83 3e ac 70 76 be 5f 06 01 3f
       0.4098872 0.25627545 -0.24066418 0.50400347
000330 c2 dd 25 3e b6 b5 02 3e 56 06 2e bd 8d 06 6d be
       0.16197875 0.1276463 -0.04248651 -0.2314703
000340 87 e8 8e 3e 4c 38 97 3e df d2 4c 3e c5 f3 24 be
       0.2791178 0.2953514 0.20002316 -0.16108616
000350 1c 56 e2 3e fa a1 e4 3e 04 ea 38 3e f4 50 e6 39
       0.4420632 0.44654828 0.1805802 0.00043929333
000360 d6 54 27 3e f3 d7 d9 3e 9f 69 b4 be 05 24 90 be
       0.16340956 0.4254757 -0.35236832 -0.2815248
000370 77 7d 7c be 1a a5 b3 3e eb 0e 8b 3e 1d 22 ae be
       -0.24657236 0.350869 0.2715982 -0.340104
000380 ef 6e 8a be 16 60 8f 3e a9 53 06 3e 7a 83 88 3e
       -0.2703776 0.28002995 0.13117851 0.2666281
000390 1a 74 be bd db d4 a5 be 0e 54 dc 3a 72 0a 6c 3e
       -0.09299488 -0.32388958 0.0016809718 0.2305086
0003a0 d5 2c 88 3d 42 52 57 3e bd 4e 63 be 70 c9 1d 3e
       0.06649176 0.21027473 -0.22198005 0.15408874
0003b0 0c 4c 8f be f7 4f 3e 3e 9e 94 e0 bd d8 1c 93 be
       -0.27987707 0.18585192 -0.109658465 -0.28732944
0003c0 33 17 c3 3d d9 c1 1f be 90 50 98 bc 9b 25 a1 3e
       0.09525909 -0.15601291 -0.018593103 0.31474003
0003d0 6e 0b 15 3f 8e cb 0b 3e 75 9b c3 bd 4b 94 41 be
       0.58220565 0.13651869 -0.095511355 -0.18904226
0003e0 66 d1 97 3d de 91 6f 3e e5 ef eb 3e fa 94 00 3e
       0.074129865 0.23395488 0.46081463 0.1255683
0003f0 c1 f9 16 3e 02 87 92 3d 62 71 17 3d b6 4e 58 3e
       0.14743711 0.07154657 0.036973365 0.21123776

rnn.bias_ih_l0 f4 [20]
000000 66 43 ef 3d f8 9e 8d be 33 6e 8c be f4 a6 d3 bd
       0.11682777 -0.27660346 -0.27427825 -0.10334578
000010 36 b7 86 3d b4 09 82 3d 37 44 a1 bd 07 c9 48 be
       0.065779135 0.06349507 -0.07874339 -0.19607936
000020 b7 66 5c be 1e a6 44 3e 09 e5 fd bd c8 8a 8a be
       -0.21523558 0.19203994 -0.123972006 -0.27059007
000030 01 c1 af 3c 4a f6 49 3d d8 0c 4d bc 40 f4 55 bc
       0.021454336 0.049307145 -0.012515269 -0.013058722
000040 af 0f ce 3c d9 69 0e 3e aa ec 8a 3e 91 e2 4d 3e
       0.025153963 0.13907565 0.27133685 0.2010596

rnn.bias_hh_l0 f4 [20]
000000 b4 07 e5 bd 5b 2b 56 3c b3 54 b0 bd 0d 6f 73 3d
       -0.1118311 0.01307186 -0.08609905 0.05943208
000010 1a e6 1c 3e b7 9d 8f 3e 09 9a df 3d a6 c2 5c 3d
       0.15322152 0.28050014 0.10918052 0.05389657
000020 71 56 f4 3c 5c 87 9f 3d 5c ef a0 bb 5d f2 e1 3c
       0.029826375 0.077894896 -0.0049113464 0.027581388
000030 bd 5d 2c 3e e0 f6 44 be 88 88 d7 3d 19 41 ab 3d
       0.16832633 -0.192348 0.10524088 0.08362026
000040 bc df 41 3e 6b 86 44 be d2 88 c6 3d d6 37 ca bd
       0.18933004 -0.19191901 0.09694065 -0.09873931

fc.weight f4 [4, 20]
000000 9f ce 98 3e f4 b6 38 3f 4e 91 01 be d8 19 71 3e
       0.2984514 0.72154164 -0.12653086 0.23545015
000010 d6 f2 22 3e c8 41 86 bc 91 46 0b be d0 76 07 bf
       0.15912947 -0.016388789 -0.13601138 -0.5291567
000020 09 e9 f1 3e 05 81 14 bf 98 5a 03 3f fa ee b5 3e
       0.47248104 -0.5800937 0.5131011 0.35533887
000030 62 80 c1 3e 63 82 aa 3e a7 bc c7 be fe 6b 9d 3e
       0.3779326 0.33302602 -0.39011118 0.30746454
000040 ac 36 4d bf b6 e9 a0 3e 40 37 17 bf 92 68 dc be
       -0.8016155 0.31428307 -0.5906868 -0.4304853
000050 05 1f 8a bd 94 c1 2e bf 6e 1d 0f bf f4 9a 54 3e
       -0.06744198 -0.68264127 -0.5590428 0.20762235
000060 89 67 31 3e 4f 87 91 3e 9f 97 d8 be 0f 64 60 bd
       0.17324652 0.28423545 -0.42303178 -0.054782923
000070 ca 1c 06 bf 6c 6c 2f 3f 5b b3 b8 3e 5d 39 b5 be
       -0.5238768 0.68524814 0.36074337 -0.35395327
000080 b2 4d 95 3e b0 b3 09 3f a4 a2 99 be d5 79 7d be
       0.2916084 0.53789806 -0.30006897 -0.24753506
000090 55 aa 20 3f be fd 89 3e a5 ea 9c 3e ed dd a9 3e
       0.62759906 0.26951402 0.3064777 0.33177128
0000a0 94 04 0d be 9c 70 55 3f 7d e0 eb 3e 6a c8 92 be
       -0.13771278 0.83374953 0.46069708 -0.2866853
0000b0 dd fd 75 be 38 de 60 3e 48 d7 ed 3e fd e4 2a bd
       -0.24022622 0.2195977 0.4645331 -0.041722286
0000c0 76 13 07 3f a9 8e 05 bf 1a 97 cc be cb 1e 21 3f
       0.5276407 -0.5217081 -0.3995903 0.6293761
0000d0 c2 89 d3 3b 9f 1c f1 be 3b 7d 92 3e 89 26 04 3f
       0.006455631 -0.4709215 0.28611168 0.516213
0000e0 00 8c e2 be 7d 66 90 be 42 af 87 bd 8e c8 b6 be
       -0.44247437 -0.28203192 -0.06625225 -0.35699886
0000f0 9e 60 ac be 87 9d 0d bf 1b b0 b0 3b 84 5e d4 be
       -0.33667463 -0.5531849 0.005392087 -0.4147836
000100 20 31 e8 be 9a ce ed be be 69 8a 3d ef 8e 3c 3e
       -0.4534998 -0.46446687 0.0675845 0.184139
000110 11 7d 84 be 1f 11 dd 3e 10 16 01 bf 01 d2 d7 be
       -0.25876668 0.43177125 -0.5042429 -0.42152408
000120 ae 46 f8 be 12 ad 29 bf 02 54 30 3e 35 12 db be
       -0.48491424 -0.6627971 0.17219546 -0.42787328
000130 17 6f 22 3f 65 45 3d be e9 6f b2 3e b8 73 12 3f
       0.6345076 -0.18483503 0.34851006 0.5720782

fc.bias f4 [4]
000000 e6 d5 ec bb 38 ee 83 3e 96 0f ef 3d 30 4b 2f 3e
       -0.007227647 0.25767684 0.11672895 0.17118526
