齐圣友/week13/lora_ner/epoch_20.pth (torch, 176664 bytes, 4 tensors)

base_model.model.embedding.lora_embedding_A.default f4 [8, 4623]
0.0 -0.02327718 0.0 0.12701085 0.0 0.0 0.0 0.13780965
0.0 0.26268905 0.117764324 0.082389995 0.0 0.15935305 -0.046273883 0.30563647
0.0 0.011222578 0.06911233 0.011043495 0.058977157 0.010699359 -0.024765197 0.059681892
0.05317873 0.057712626 -0.06477172 0.079573594 0.06931169 0.0 0.0 0.0
0.0042525525 0.0 0.14960948 0.03923268 0.12645847 0.062195208 0.0 0.103408605
0.0 0.0 0.021562392 0.0 0.0 0.0 0.0 0.0
-0.01994112 0.0 0.0 0.0 0.053694945 0.046174273 0.0 0.007750803
0.0 0.054687705 0.0 0.0 0.0 0.0 0.0 0.0
0.0 0.0 0.0 0.0 0.0 0.0 0.0 0.0
0.0 0.0 0.0 0.0 0.15209956 0.0 0.0 0.0
0.0 0.0 0.0 0.0 0.0 0.0 0.0 0.0
0.0 0.0 0.0 0.0 0.0 0.0 0.0 0.0
0.0 0.05455192 0.0 0.0 0.0 0.0 0.0 0.0
0.0 0.0 0.0 0.32550502 0.0 0.11102864 0.2020028 0.060849752
0.290624 0.0 0.1350811 0.0 0.005197296 0.0 0.0 0.0
0.0 0.0 0.0 0.0 0.0 0.0 0.26182365 0.0
0.0 0.0 0.0 0.0 0.0 0.0 0.0 0.0
0.10239274 0.0 0.0 0.0 0.0 0.0 0.12581776 0.0
0.1497433 0.28999507 0.07172211 0.051928192 0.009253322 0.10178792 0.0 0.0
0.0 0.0 0.0 0.0 0.0 0.026738618 0.046919517 -0.010485598
0.14957698 0.133619 -0.04338926 -0.009965902 0.043448206 0.034146767 0.15401971 0.07247644
0.19601695 0.05661593 0.019737363 0.16276906 0.049390517 0.122572325 0.081767984 -0.15909748
-0.014966714 0.0 0.02780238 0.26768643 0.19125326 0.0 0.0 -0.006456646
0.0 -0.012875538 0.18850361 0.0 -0.06828272 0.051008377 -0.13658123 0.14217769
0.18275556 -0.0031323854 -0.028580666 -0.05060264 -0.039795224 0.07587609 -0.015121918 0.10590973
-0.09851116 0.0 0.14253286 0.11504473 -0.0899828 -0.06618635 -0.02406406 -0.10736395
0.0 0.14166132 -0.017590288 0.013608063 -0.020655543 0.16975647 0.04487495 0.17129593
-0.07978551 0.08509204 0.033191387 0.0 0.19484098 0.10855923 0.124972925 0.09991876
-0.01820565 0.16230696 0.101569384 -0.10370195 0.16358794 -0.05308524 0.08436451 0.0
-0.1186988 0.006788275 0.0 0.09716281 0.0 0.09082163 0.0 0.100245655
0.19806902 -0.19005255 0.20386082 0.033267036 -0.09667476 -0.076331735 0.16083187 0.025893493
0.0 0.048341777 0.22164445 0.082908206 -0.05413546 0.0 0.034890715 0.057186127
00000000: 0000 0000 c9af bebc 0000 0000 220f 023e
00000010: 0000 0000 0000 0000 0000 0000 f91d 0d3e
00000020: 0000 0000 2e7f 863e 6c2e f13d 16bc a83d
00000030: 0000 0000 722d 233e af89 3dbd 627c 9c3e
00000040: 0000 0000 e7de 373c c48a 8d3d c6ef 343c
00000050: 0892 713d 5d4c 2f3c 62e0 cabc 0075 743d
00000060: f1d1 593d 1364 6c3d 09a7 84bd 7bf7 a23d
00000070: 4af3 8d3d 0000 0000 0000 0000 0000 0000
00000080: ff58 8b3b 0000 0000 3a33 193e 72b2 203d
00000090: 547e 013e 67c0 7e3d 0000 0000 e4c7 d33d
000000a0: 0000 0000 0000 0000 9da3 b03c 0000 0000
000000b0: 0000 0000 0000 0000 0000 0000 0000 0000
000000c0: 8f5b a3bc 0000 0000 0000 0000 0000 0000
000000d0: 3bef 5b3d 3c21 3d3d 0000 0000 73fa fd3b
000000e0: 0000 0000 3700 603d 0000 0000 0000 0000
000000f0: 0000 0000 0000 0000 0000 0000 0000 0000
00000100: 0000 0000 0000 0000 0000 0000 0000 0000
00000110: 0000 0000 0000 0000 0000 0000 0000 0000
00000120: 0000 0000 0000 0000 0000 0000 0000 0000
00000130: fdbf 1b3e 0000 0000 0000 0000 0000 0000
00000140: 0000 0000 0000 0000 0000 0000 0000 0000
00000150: 0000 0000 0000 0000 0000 0000 0000 0000
00000160: 0000 0000 0000 0000 0000 0000 0000 0000
00000170: 0000 0000 0000 0000 0000 0000 0000 0000
00000180: 0000 0000 d671 5f3d 0000 0000 0000 0000
00000190: 0000 0000 0000 0000 0000 0000 0000 0000
000001a0: 0000 0000 0000 0000 0000 0000 98a8 a63e
000001b0: 0000 0000 fc62 e33d d2d9 4e3e 973d 793d
000001c0: abcc 943e 0000 0000 b352 0a3e 0000 0000
000001d0: 144e aa3b 0000 0000 0000 0000 0000 0000
000001e0: 0000 0000 0000 0000 0000 0000 0000 0000
000001f0: 0000 0000 0000 0000 c00d 863e 0000 0000
00000200: 0000 0000 0000 0000 0000 0000 0000 0000
00000210: 0000 0000 0000 0000 0000 0000 0000 0000
00000220: 49b3 d13d 0000 0000 0000 0000 0000 0000
00000230: 0000 0000 0000 0000 5fd6 003e 0000 0000
00000240: 4f56 193e 3c7a 943e 0be3 923d a8b2 543d
00000250: 3f9b 173c 2f76 d03d 0000 0000 0000 0000
00000260: 0000 0000 0000 0000 0000 0000 0000 0000
00000270: 0000 0000 f20a db3c ae2e 403d c9cb 2bbc
00000280: b52a 193e 6bd3 083e f0b8 31bd 0648 23bc
00000290: bff6 313d 7bdd 0b3d 58b7 1d3e 876e 943d
000002a0: abb8 483e 1be6 673d 40b0 a13c efac 263e
000002b0: b64d 4a3d 3307 fb3d f975 a73d 73ea 22be
000002c0: f336 75bc 0000 0000 d1c1 e33c 320e 893e
000002d0: e5d7 433e 0000 0000 0000 0000 4692 d3bb
000002e0: 0000 0000 ecf3 52bc 1707 413e 0000 0000
000002f0: d0d7 8bbd 29ee 503d f3db 0bbe 0797 113e
00000300: 4624 3b3e b548 4dbb 0022 eabc b744 4fbd
00000310: 5100 23bd ec64 9b3d ecc1 77bc 33e7 d83d
00000320: 38c0 c9bd 0000 0000 22f4 113e 929c eb3d
00000330: e748 b8bd b68c 87bd fe21 c5bc a1e1 dbbd
00000340: 0000 0000 aa0f 113e 8219 90bc 5af4 5e3c
00000350: d035 a9bc a4d4 2d3e ccce 373d 3368 2f3e
00000360: 9666 a3bd bc44 ae3d b1f3 073d 0000 0000
00000370: 6584 473e 4d54 de3d cef1 ff3d 35a2 cc3d
00000380: 0424 95bc cc33 263e 9c03 d03d b061 d4bd
00000390: 9983 273e e96f 59bd 4dc7 ac3d 0000 0000
000003a0: 5b18 f3bd 2e70 de3b 0000 0000 4cfd c63d
000003b0: 0000 0000 b100 ba3d 0000 0000 984d cd3d
000003c0: 9bd2 4a3e 239d 42be e4c0 503e 0443 083d
000003d0: 6bfd c5bd d053 9cbd 1cb1 243e 971e d43c
000003e0: 0000 0000 0702 463d c3f6 623e c7cb a93d
000003f0: 25bd 5dbd 0000 0000 91e9 0e3d 003c 6a3d

base_model.model.embedding.lora_embedding_B.default f4 [256, 8]
-0.48950687 -1.4514153 1.7756197 1.1402447 0.614835 1.5948628 0.49125293 -1.8110187
-3.280364 0.34836662 1.8633995 1.1612766 -0.17188025 -0.43766493 1.7748833 -0.45791033
0.73696554 0.7251671 -0.70728016 -0.7496611 -0.85197747 2.3159328 0.5583398 -0.37249443
-0.47152188 1.2115257 0.0098681245 -0.8085838 1.2770518 -1.0651016 -1.060038 0.041697167
0.3515684 -0.7502776 0.26928368 0.93322587 0.17399727 -0.44412196 -2.2656531 0.5722439
1.0386319 0.38364893 0.7421045 -0.72906274 -0.87333316 -0.7322691 0.43165153 -0.68695605
0.21143611 0.25012153 -0.35832635 1.3849698 -0.20641673 0.5755148 2.657576 -0.93668664
0.5085389 0.9767963 -0.4149037 0.08778082 -0.89207935 -3.3667328 -0.49497336 -2.6916275
-1.446545 0.02847225 -0.52817976 -0.8871597 -2.3890107 -0.46295595 -0.6732024 0.38359678
-0.36261934 -1.0848106 -0.57384044 1.9876658 1.7223932 -1.6835604 0.28856224 -1.5400562
0.9042964 0.25348857 -0.82699656 -0.57720506 1.5215926 1.3843185 -1.3503702 0.031956818
-2.0308406 0.74998033 1.394631 -0.82218695 1.4001074 0.041037906 0.8319963 0.9705805
0.123473376 0.18151863 1.8142926 -1.2866609 -0.09578995 -0.8357061 1.4212615 -2.7131498
2.3249826 -1.198748 -0.051606048 2.9096756 0.08502062 1.4427674 1.2451657 1.5534817
-0.2818307 0.9311855 -0.49605078 1.0303262 0.046568036 -0.76354676 0.8556464 1.0408876
1.0659001 0.082411334 1.308532 1.5471518 0.6702243 0.5712023 1.6945791 -0.09424247
-0.9044934 -1.628067 0.06871807 -1.1443479 -0.7140563 -1.7260133 -1.5223452 0.8497167
0.39431384 -1.0153855 -0.80393904 2.053789 1.1461537 1.420865 -0.48565513 -0.92578995
1.9377505 -0.20878723 -0.54527605 1.164716 -0.64863956 -0.4549573 -1.3771124 0.45150033
1.9756153 -0.6660926 0.9898559 -1.0375576 -0.28913277 0.84634423 1.3139269 0.07495257
-0.31248805 0.61347145 -2.3922665 -0.7707846 0.26183808 1.6670971 -0.044383205 -0.48982474
-1.5943143 -1.0717422 -1.3511511 1.1759576 1.6017443 0.49677005 -0.6787791 -0.8219196
2.0796857 -0.5842181 0.9916713 0.10127236 0.14895345 -0.74791086 -0.24702191 0.28513706
0.8412732 0.4142173 -1.2904358 1.8869249 0.87550616 0.7651597 -0.71481603 0.61917114
-1.1940356 -1.7133211 0.61410606 1.0226303 -1.7675613 1.5867505 -2.6600106 3.2122147
1.7996103 0.74113214 -0.9278483 0.6505353 -1.580289 -0.88810706 -2.2322326 -0.29034698
-1.7388148 -1.2077392 1.6585324 1.0926117 1.9911891 0.3307934 -0.26869428 -0.7528939
-0.13234171 1.4212917 0.44776306 0.29089424 1.0451419 -0.45305303 1.4750952 -0.32312572
0.9180288 -1.1838237 -0.39282656 -0.1888389 0.42247868 0.20691717 -0.559569 -0.061548285
0.8626841 -1.8694096 0.27297235 1.2936803 0.1932773 1.271653 -0.37375897 -0.6131856
0.49400482 -0.27071226 1.5765696 0.05789059 -1.7095635 -0.98971236 2.3232298 -0.7727675
-1.7699927 0.11955179 0.1337611 1.0598556 0.9657441 1.3751857 0.4068774 0.8078927
00000000: a5a0 fabe fac7 b9bf 8247 e33f 8af3 913f
00000010: d465 1d3f 7724 cc3f 8185 fb3e 76cf e7bf
00000020: 7cf1 51c0 1c5d b23e e083 ee3f b6a4 943f
00000030: 6001 30be 9e15 e0be 602f e33f 3973 eabe
00000040: c6a9 3c3f 8da4 393f 5010 35bf cae9 3fbf
00000050: 321b 5abf 3e38 1440 5bef 0e3f 97b7 bebe
00000060: 516b f1be 4613 9b3f eaad 213c 59ff 4ebf
00000070: 6f76 a33f 4055 88bf 53af 87bf a6ca 2a3d
00000080: c600 b43e 3112 40bf 8ddf 893e e4e7 6e3f
00000090: 572c 323e f463 e3be 7600 11c0 947e 123f
000000a0: e4f1 843f a26d c43e 8ffa 3d3f dba3 3abf
000000b0: c392 5fbf fd75 3bbf 6e01 dd3e 5adc 2fbf
000000c0: b582 583e ee0f 803e 8d76 b7be b146 b13f
000000d0: e85e 53be f054 133f ba15 2a40 b2ca 6fbf
000000e0: 9b2f 023f 530f 7a3f 426e d4be 6ec6 b33d
000000f0: 505f 64bf 8d78 57c0 266d fdbe a043 2cc0
00000100: 6328 b9bf a33e e93c ca36 07bf e61c 63bf
00000110: 8de5 18c0 9008 edbe fe56 2cbf cc66 c43e
00000120: 3ea9 b9be 13db 8abf 35e7 12bf d56b fe3f
00000130: 6177 dc3f e87e d7bf 6ebe 933e 9020 c5bf
00000140: f87f 673f 41c9 813e 0cb6 53bf b6c3 13bf
00000150: 8cc3 c23f 5931 b13f eed8 acbf 27e5 023d
00000160: 4bf9 01c0 b6fe 3f3f 4583 b23f d87a 52bf
00000170: b836 b33f 5d17 283d b6fd 543f f777 783f
00000180: 9cdf fc3d 05e0 393e bd3a e83f 4eb1 a4bf
00000190: 852d c4bd d6f0 55bf e6eb b53f 3fa4 2dc0
000001a0: 84cc 1440 9370 99bf dd60 53bd 2038 3a40
000001b0: 4a1f ae3d 9aac b83f 9761 9f3f 7dd8 c63f
000001c0: 1d4c 90be 2c62 6e3f 5efa fdbe bbe1 833f
000001d0: 20be 3e3d cd77 43bf a40b 5b3f ce3b 853f
000001e0: 6a6f 883f 46c7 a83d fa7d a73f 1209 c63f
000001f0: d293 2b3f 503a 123f f8e7 d83f 3202 c1bd
00000200: e18c 67bf 8064 d0bf 0fbc 8c3d fe79 92bf
00000210: 65cc 36bf 01ee dcbf 35dc c2bf 0987 593f
00000220: 81e3 c93e 27f8 81bf f3ce 4dbf 4771 0340
00000230: 2ab5 923f e8de b53f caa7 f8be 9200 6dbf
00000240: 3508 f83f 52cc 55be 3697 0bbf 6a15 953f
00000250: 3e0d 26bf 2af0 e8be 3845 b0bf 0d2b e73e
00000260: f6e0 fc3f 0b85 2abf 3267 7d3f b0ce 84bf
00000270: 3609 94be 04aa 583f c22e a83f bc80 993d
00000280: 6ffe 9fbe 770c 1d3f e51a 19c0 2452 45bf
00000290: a40f 863e 7063 d53f 2acb 35bd 4fca fabe
000002a0: 7e12 ccbf d92e 89bf 85f2 acbf c785 963f
000002b0: f505 cd3f a558 fe3e 78c4 2dbf 5369 52bf
000002c0: 9219 0540 518f 15bf 2cde 7d3f e267 cf3d
000002d0: 4187 183e 1677 3fbf 50f3 7cbe 7cfd 913e
000002e0: ae5d 573f 4a14 d43e 002d a5bf c186 f13f
000002f0: 2c21 603f 82e1 433f 2ffe 36bf 0082 1e3f
00000300: 29d6 98bf 1b4e dbbf 0e36 1d3f 8de5 823f
00000310: 733f e2bf a41a cb3f 9d3d 2ac0 ed94 4d40
00000320: a159 e63f d6ba 3d3f 7787 6dbf 7b89 263f
00000330: e946 cabf fc5a 63bf e6dc 0ec0 5ca8 94be
00000340: 7c91 debf 3397 9abf ca4a d43f b3da 8b3f
00000350: 49df fe3f c15d a93e 4c92 89be a8bd 40bf
00000360: 9684 07be e3ec b53f 3341 e53e 17f0 943e
00000370: 36c7 853f 91f6 e7be ebcf bc3f bc70 a5be
00000380: ef03 6b3f 8987 97bf 9020 c9be fc5e 41be
00000390: 204f d83e 18e2 533e ea3f 0fbf 0e1a 7cbd
000003a0: ddd8 5c3f d048 efbf 08c3 8b3e 5197 a53f
000003b0: 7cea 453e 87c5 a23f 565d bfbe bbf9 1cbf
000003c0: 33ee fc3e cc9a 8abe 08cd c93f af1e 6d3d
000003d0: fad2 dabf ca5d 7dbf ccaf 1440 17d4 45bf
000003e0: 1f8f e2bf 92d7 f43d abf8 083e 59a9 873f
000003f0: 013b 773f 1606 b03f 3c52 d03e 0ed2 4e3f

base_model.model.classify.weight f4 [9, 512]
-0.08377562 0.15535907 -0.067322865 0.036976106 -0.08547455 0.02302268 -0.20051876 -0.19677906
-0.37933123 -0.06713832 0.02527903 0.35614318 0.3761039 -0.1874227 0.44635785 -0.102024704
-0.002068931 -0.4219401 -0.20222357 0.15368806 -0.17235829 -0.103897706 -0.015543544 -0.031330448
0.083357506 -0.39997938 -0.21523833 -0.062039454 -0.17212057 0.250486 -0.051978216 -0.09463761
0.123007774 0.0056034853 0.12941384 -0.14412113 0.055171475 -0.017527113 0.1839411 0.12553895
0.004537711 -0.0884074 0.30682412 0.060896616 0.18466727 0.57953817 -0.48137414 0.50244254
0.417646 -0.19118263 -0.18502444 -0.26401997 -0.01874039 -0.03121025 0.10784296 0.17565903
0.08959329 0.11573953 -0.48817334 0.07736646 -0.08759021 -0.37106377 -0.07385579 -0.0070157624
0.117054485 -0.17988403 -0.29404962 0.5376131 -0.11798428 -0.076577365 -0.38008773 0.0056330473
0.19712734 0.30379692 -0.14286545 -0.058271512 0.06489735 0.43998298 -0.016981054 0.05396356
0.10021667 0.31180543 -0.06382249 -0.25001788 0.040232457 0.08676951 -0.20285796 0.05288726
-0.022382556 -0.14324296 0.20791493 0.10249067 0.11625024 -0.07197716 -0.06702865 0.11549807
0.2052512 0.5406237 0.24474774 -0.17435104 -0.40187103 0.063768394 -0.21838187 0.08872387
0.027439082 0.031871703 -0.08617052 0.044716846 0.009430021 0.29481977 -0.029424647 -0.31165916
-0.09237941 -0.7789738 -0.28068426 -0.08252727 0.04974141 0.08246571 -8.359789e-05 0.014631331
-0.07783237 0.5396323 0.12793839 0.22633488 0.22667408 -0.15179409 0.0019667828 0.039442502
0.17720734 0.11060646 -0.12336658 0.037915807 -0.0149844345 0.028019572 0.14921069 -0.259779
0.16206346 0.32145643 -0.49757057 -0.10244219 -0.11025659 0.4911958 0.15710998 -0.28981924
0.7424151 -0.21869308 0.15035318 -0.028210577 0.032978635 0.044131506 -0.12877215 0.1210024
0.06612424 -0.0074720006 0.016618215 0.17532055 0.41493958 0.0868479 -0.028292539 -0.55777824
0.13755246 0.09790245 0.054034956 0.1126958 0.07926684 -0.2110892 -0.1008605 -0.16207466
-0.05446115 -0.29508203 -0.1736698 -0.5670324 0.046563994 0.026664067 -0.3211235 -0.22251554
0.13450558 -0.13099821 -0.16358289 -0.24540345 0.30756566 0.16878921 -0.34447628 -0.22389895
-0.1012146 -0.13760373 -0.10356748 -0.17610776 0.29472098 -0.19167873 0.18940698 -0.38671482
0.41106576 -0.0021505388 0.011948475 0.3158513 -0.1318761 0.017466662 -0.3634225 -0.4129279
1.0501294 0.2357944 -0.09853056 0.011305363 0.30043137 0.078132324 0.18431222 0.11870651
-0.12759237 -0.32688126 0.07498438 0.051536042 -0.11062321 0.5263049 -0.016915113 0.31213772
0.083662026 -0.0034941398 -0.06851034 0.15328611 0.17401272 0.02997783 -0.14318061 0.019465055
-0.16938758 -0.24580279 -0.10605549 -0.17347567 -0.11141577 0.23493555 -0.19310144 -0.17366637
0.09842409 0.46121603 0.13723297 -0.15826344 0.08982038 0.1444949 0.1432591 -0.18837282
0.4210841 0.013782501 -0.2782757 -0.16778049 0.09380874 -0.045861453 0.050574493 -0.27386817
0.2068371 0.2275524 0.27018344 -0.24044478 -0.30644223 0.06742003 -0.22341868 -0.2214359
00000000: 8d92 abbd 7316 1f3e 92e0 89bd 4274 173d
00000010: 480d afbd 0f9a bc3c ca54 4dbe 7380 49be
00000020: b437 c2be d17f 89bd f815 cf3c 6658 b63e
00000030: b190 c03e bceb 3fbe 0489 e43e 54f2 d0bd
00000040: e796 07bb 8808 d8be b213 4fbe 6760 1d3e
00000050: b17e 30be 52c8 d4bd 59aa 7ebc 5b54 00bd
00000060: 57b7 aa3d 19ca ccbe 7067 5cbe 151d 7ebd
00000070: 6040 30be b33f 803e 1ce7 54bd 5dd1 c1bd
00000080: 80eb fb3d 719d b73b 1085 043e 7d94 13be
00000090: 7cfb 613d 0595 8fbc 0e5b 3c3e 488d 003e
000000a0: 14b1 943b f00e b5bd 0d18 9d3e bb6e 793d
000000b0: 6b19 3d3e 9d5c 143f ac76 f6be 13a0 003f
000000c0: b2d5 d53e 61c5 43be 0c77 3dbe a02d 87be
000000d0: 7285 99bc a3ac ffbc c5dc dc3d f6df 333e
000000e0: b07c b73d d908 ed3d dbf1 f9be 4e72 9e3d
000000f0: 7f62 b3bd 12fc bdbe b441 97bd 7be4 e5bb
00000100: 43ba ef3d 8533 38be ac8d 96be 03a1 093f
00000110: bea1 f1bd 98d4 9cbd dc9a c2be 6d95 b83b
00000120: c0db 493e 458b 9b3e 524b 12be 1cae 6ebd
00000130: e7e8 843d 7345 e13e da1b 8bbc e508 5d3d
00000140: 663e cd3d f6a4 9f3e 5eb5 82bd 5802 80be
00000150: caca 243d 36b4 b13d ffb9 4fbe 50a0 583d
00000160: 9f5b b7bc 48ae 12be a7e7 543e a1e6 d13d
00000170: 9b14 ee3d c368 93bd 5146 89bd 418a ec3d
00000180: 5f2d 523e 5166 0a3f 279f 7a3e 1489 32be
00000190: 0ac2 cdbe 0199 823d 7f9f 5fbe dcb4 b53d
000001a0: edc7 e03c e78b 023d 2b7a b0bd 0329 373d
000001b0: 6080 1a3c 9ef2 963e f50b f1bc ca91 9fbe
000001c0: 6b31 bdbd d46a 47bf d9b5 8fbe 0f04 a9bd
000001d0: a6bd 4b3d c8e3 a83d 4751 afb8 40b8 6f3c
000001e0: 9466 9fbd 5825 0a3f 4802 033e 55c4 673e
000001f0: 401d 683e e96f 1bbe 24e5 003b 768e 213d
00000200: d775 353e a485 e23d 9ea7 fcbd 9b4d 1b3d
00000210: 4681 75bc 4d89 e53c b0ca 183e c101 85be
00000220: f7f3 253e f095 a43e 92c1 febe 36cd d1bd
00000230: 35ce e1bd 047e fb3e 70e1 203e 3063 94be
00000240: ea0e 3e3f 14f1 5fbe 2ff6 193e de19 e7bc
00000250: 9b14 073d 3dc3 343d d9dc 03be 1bd0 f73d
00000260: 256c 873d afd7 f4bb ec22 883c 3b87 333e
00000270: f672 d43e 50dd b13d c1c5 e7bc 8eca 0ebf
00000280: 8dda 0c3e 1481 c83d c253 5d3d 0ecd e63d
00000290: a756 a23d c427 58be f38f cebd e6f6 25be
000002a0: a812 5fbd fe14 97be 7fd6 31be 0929 11bf
000002b0: e3b9 3e3d 9a6e da3c 4d6a a4be 1ddb 63be
000002c0: d5bb 093e 6524 06be 4682 27be 0b4b 7bbe
000002d0: 3f79 9d3e 14d7 2c3e 325f b0be c445 65be
000002e0: 9a49 cfbd fee7 0cbe 301b d4bd 9855 34be
000002f0: abe5 963e 6e47 44be e7f3 413e 7cff c5be
00000300: 3677 d23e 0ef0 0cbb 89c3 433c 43b7 a13e
00000310: 870a 07be 3f16 8f3c 8412 babe 496b d3be
00000320: a46a 863f 1674 713e 64ca c9bd 213a 393c
00000330: 24d2 993e d703 a03d 58bc 3c3e 661c f33d
00000340: 93a7 02be fb5c a7be 6991 993d 7517 533d
00000350: 6c8e e2bd ebbb 063f 9091 8abc 84d0 9f3e
00000360: ff56 ab3d f0fd 64bb 264f 8cbd 09f7 1c3e
00000370: 6430 323e 1194 f53c f09d 12be 2e75 9f3c
00000380: f073 2dbe bab3 7bbe 9f33 d9bd 9ba3 31be
00000390: f42d e4bd f292 703e 62bc 45be 99d5 31be
000003a0: 9292 c93d 8224 ec3e cd86 0c3e d00f 22be
000003b0: bff3 b73d 79f6 133e 83b2 123e cee4 40be
000003c0: 5698 d73e 00d0 613c 277a 8ebe a6ce 2bbe
000003d0: cc1e c03d 38d9 3bbd 3327 4f3d 7338 8cbe
000003e0: 1bcd 533e 7f03 693e 7c55 8a3e 2837 76be
000003f0: ffe5 9cbe 8313 8a3d dec7 64be 18c0 62be

base_model.model.classify.bias f4 [9]
-0.059313543 -0.09177203 -0.01492293 -0.059362587 -0.06123826 -0.07712576 0.010974772 -0.16438241
0.11525042
00000000: c2f2 72bd f9f2 bbbd 4e7f 74bc 2f26 73bd
00000010: f8d4 7abd 1cf4 9dbd 88cf 333c dd53 28be
00000020: 6a08 ec3d
