刘粤龙/week3/model_rnn.pth (torch, 7529 bytes, 5 tensors)

embedding.weight f4 [27, 20]
0	0xbff74679	-1.9318382
1	0x3f07622d	0.5288418
2	0xbfebfda7	-1.8436784
3	0xbfea8b8d	-1.8323838
4	0xbe5319c6	-0.206153
5	0x3fcffdea	1.6249363
6	0xbfd7a5f4	-1.684752
7	0x3e3c33e6	0.18379173
8	0xbfea92ed	-1.8326088
9	0x4055e493	3.342076
10	0x3fa56ebe	1.2924421
11	0x3f121e60	0.570776
12	0xbff82d76	-1.9388874
13	0xc004b892	-2.0737653
14	0xbe9dadd8	-0.30796695
15	0x3fb1249e	1.38393
16	0xbfe36b88	-1.7767191
17	0xc002a5e2	-2.0413747
18	0xc0543286	-3.3155837
19	0x3ff7311e	1.9311864
20	0x4034928a	2.821444
21	0x4017f891	2.3745463
22	0xbfef94b8	-1.871726
23	0xc04b4713	-3.176213
24	0x4026ee7d	2.6083062
25	0xbf30f047	-0.69116634
26	0x40175ee0	2.3651657
27	0xbfd135f9	-1.6344596
28	0xbf6e2d34	-0.93037724
29	0x404e1fe3	3.2206962
30	0x3f33a365	0.70171195
31	0xbff69d69	-1.9266788
32	0x3f9a0b9e	1.2034795
33	0x3fc6047c	1.5470119
34	0xbff0ca01	-1.8811647
35	0x3e693474	0.22773916
36	0xc0013798	-2.0190182
37	0x3e7ef494	0.24897987
38	0x3eac8263	0.33693227
39	0xbf9f4f60	-1.2446098
40	0xbfbe234a	-1.4854519
41	0xbfaeb41e	-1.3648717
42	0x3ff973e8	1.9488497
43	0x3ee118d8	0.43964267
44	0x3f97e1d6	1.1865795
45	0x3f36cfde	0.7141093
46	0xbf944ded	-1.1586281
47	0xbf0b3048	-0.54370546
48	0x3ffe83ef	1.9884013
49	0xbdb09e0d	-0.08623896
50	0x3faa28aa	1.329366
51	0xbe9fbd2c	-0.31199014
52	0xbf1d9fe9	-0.6157213
53	0x3f639f32	0.8891479
54	0xbed100f8	-0.40821052
55	0xbf21ff17	-0.6327986
56	0x3f5ccfef	0.8625478
57	0xbf87735e	-1.0582082
58	0x3f59de05	0.851044
59	0xbf4321c8	-0.7622342
60	0x3f759ca3	0.95942134
61	0x3f16851a	0.58796847
62	0xbda640bc	-0.08117816
63	0xbfc370af	-1.5268763
64	0xbf6c6cbb	-0.9235341
65	0xbef4f212	-0.47840935
66	0x3e1ab21f	0.1510701
67	0x403bb4ed	2.9329178
68	0xbf8d5e56	-1.1044414
69	0xbf8896b0	-1.0670986
70	0xbe3334e4	-0.17500645
71	0x3e1166e5	0.14199407
72	0xbf75f49d	-0.96076375
73	0x3f368fb8	0.7131305
74	0x3fe0a74c	1.7551055
75	0xbde09113	-0.10965171
76	0x3eedc1e1	0.4643698
77	0x3f861b0b	1.0477003
78	0xbe9ad387	-0.30239508
79	0x3bf323c5	0.0074200355
80	0x3fb1a53e	1.3878553
81	0x3df515f2	0.11967076
82	0x3e8d9401	0.2765198
83	0xbf86aa2b	-1.0520681
84	0xbf1670a8	-0.5876565
85	0xbf0b5483	-0.5442583
86	0x3d9f49cd	0.07777748
87	0x40252d3f	2.5808866
88	0xbe283931	-0.16428067
89	0xbf63453b	-0.8877751
90	0xbf1b4106	-0.6064609
91	0x3f293723	0.66099757
92	0x3f4e87e5	0.8067611
93	0xbeed862f	-0.46391436
94	0xbfa572c7	-1.2925652
95	0xbfe2d475	-1.7721087
96	0x3ecf8ae8	0.40535665
97	0xbea2df7c	-0.3181113
98	0xbf0ccda8	-0.55001307
99	0x3f45c539	0.7725406
100	0xbebd6aa6	-0.3699543
101	0x3ed21333	0.41030273
102	0xbef9192d	-0.4865202
103	0x4002d8cb	2.044482
104	0x3ed69d02	0.41916662
105	0xbe407105	-0.18793114
106	0xbf57b71f	-0.84263796
107	0x3fbefe45	1.4921347
108	0xbd801fc4	-0.06256059
109	0x3ecf8278	0.40529227
110	0xbf8341d9	-1.025447
111	0xbf2afaff	-0.6678924
112	0x3eb9a900	0.3626175
113	0x3ecf074c	0.40435255
114	0x3e95a0c0	0.29224205
115	0xbeac1687	-0.33610937
116	0x3ede6fc7	0.43444654
117	0xbf3b17ae	-0.7308301
118	0x3ee5440b	0.44778475
119	0x3c57c381	0.01316917
120	0x3ed952ca	0.42445976
121	0xbf4123e6	-0.754454
122	0xbeb3a908	-0.35089898
123	0x3e660481	0.22462656
124	0xbf14b685	-0.58091
125	0x3e143fad	0.14477415
126	0x3f702076	0.9379953
127	0xbfaf734a	-1.3707058
128	0xbfafc6ac	-1.3732505
129	0xbf98892a	-1.1916859
130	0xc0082ace	-2.1276126
131	0xbec668b5	-0.3875176
132	0xbf4404fe	-0.7657012
133	0xbee22789	-0.44170788
134	0xbf60c3ea	-0.8779894
135	0x3d736e18	0.059431165
136	0xbe46178d	-0.19344921
137	0x3f01fdd8	0.5077796
138	0x3eb83e82	0.3598519
139	0x3f8892cc	1.0669799
140	0x3eef9bc9	0.46798542
141	0xbf38a6bb	-0.7212941
142	0x3f73f491	0.95295054
143	0xbd901087	-0.07034402
144	0xbe0041a0	-0.12525034
145	0x400cb8bc	2.1987753
146	0x4011d4ba	2.2786088
147	0xbf5e7bf5	-0.86907893
148	0x3fc09e9d	1.5048405
149	0xbfec33fc	-1.8453364
150	0x4018b313	2.3859298
151	0x3fcf91aa	1.6216328
152	0xbfb3fffd	-1.4062496
153	0xbdf096cc	-0.11747512
154	0xbfd02aba	-1.6263039
155	0xbd3fa6f1	-0.046790067
156	0x3f009638	0.50229216
157	0x3f605973	0.8763649
158	0x3f37ba82	0.71768963
159	0x3fa41d3c	1.2821422
160	0x3e716210	0.23572564
161	0xbf03919b	-0.5139405
162	0xbf5ae423	-0.8550436
163	0xbe62b35e	-0.22138736
164	0xbfa94695	-1.3224665
165	0x3d427b13	0.047480654
166	0xbf019917	-0.5062422
167	0x3f8dce2f	1.1078547
168	0xbf8d6980	-1.1047821
169	0xbf01b39d	-0.50664693
170	0xbec28d25	-0.3799831
171	0x3f0ca420	0.54937935
172	0x3fc63360	1.5484428
173	0xbea662af	-0.32497165
174	0xbe871072	-0.26379734
175	0x3f884962	1.0647395
176	0xbefdf00d	-0.49597207
177	0x3fdf15de	1.7428548
178	0x3fbf9638	1.4967718
179	0x3e80f7c4	0.2518903
180	0x3ef0e1be	0.47047228
181	0xbf087ed8	-0.5331855
182	0x3e422a93	0.18961553
183	0x3e5be05f	0.2147231
184	0xc0089466	-2.1340575
185	0xbbfffd2d	-0.0078121633
186	0xbe983b3b	-0.2973269
187	0x3f93548d	1.1510178
188	0xbf1f3550	-0.62190723
189	0x3dc52b07	0.096273474
190	0xbfa09e9b	-1.2548403
191	0xbfb1c349	-1.3887721
192	0xbf9c1eaa	-1.2196858
193	0x3fc011c7	1.5005425
194	0x3f3eeb7e	0.7457808
195	0x3e714ae0	0.23563719
196	0xbf3a96f3	-0.7288658
197	0x400072d1	2.0070078
198	0xbe89117c	-0.26771152
199	0x3f6d2570	0.9263525
200	0x3f8d1d0d	1.102449
201	0xbfac46ab	-1.3459066
202	0x3ec5bc2a	0.3862012
203	0x3fadbc24	1.3573041
204	0x3f120e20	0.57052803
205	0x3fbfbed8	1.4980116
206	0x3fd27a79	1.6443626
207	0xbddb2cce	-0.10701905
208	0xbc3512c5	-0.011051838
209	0xbe45040e	-0.19239828
210	0xbfe7c468	-1.8106813
211	0x3f0e3a31	0.55557543
212	0xbe6a4342	-0.2287722
213	0x3fa0e02e	1.2568414
214	0xbe141369	-0.1446053
215	0x3f42d21f	0.7610187
216	0x3e32f7b7	0.17477308
217	0xbd43fd5f	-0.047849055
218	0x3c29bbcf	0.010359718
219	0x3f947e3b	1.1601022
220	0xbf30e9df	-0.6910686
221	0x3f4841d9	0.78225476
222	0x3e174656	0.14772925
223	0x3efd7b30	0.49508047
224	0xbf4192cb	-0.75614613
225	0x3f37a0ac	0.7172954
226	0xbf31e7d7	-0.69494385
227	0xbee039d3	-0.43794116
228	0xbd0b7d5d	-0.034055103
229	0xbf246708	-0.64219713
230	0x3ff7a8c8	1.9348383
231	0xbf9f1f9c	-1.2431521
232	0xbf4f2204	-0.8091128
233	0xbf8b0d5f	-1.0863456
234	0xbce326d7	-0.027728481
235	0x3eb3e797	0.35137627
236	0x3f8d9bdc	1.106319
237	0x3ebecc50	0.37265253
238	0x3fbfe293	1.499102
239	0xbfdb7504	-1.7145085
240	0xbf2a2cec	-0.66474795
241	0x3dd3899e	0.10328983
242	0x3fa9844d	1.32435
243	0xbff4079c	-1.9064822
244	0xbf227634	-0.63461614
245	0xbebf948a	-0.37418014
246	0xbd71dc7a	-0.059048153
247	0x40844371	4.1332326
248	0x40124d2c	2.2859602
249	0xbec53d66	-0.38523406
250	0xbe5007e4	-0.2031551
251	0xbf75eff6	-0.96069276
252	0x3d58e16f	0.052949365
253	0xbebcb7e9	-0.36859062
254	0xbf5c7167	-0.8611054
255	0xbf38c6ba	-0.7217823

rnn.weight_ih_l0 f4 [20, 20]
0	0x3edadd82	0.42747122
1	0x3e5730cd	0.2101471
2	0x3eed57d9	0.46356085
3	0x3eafc364	0.3432876
4	0x3e359144	0.17731196
5	0xbf3b8635	-0.7325166
6	0x3ee8ac61	0.45444015
7	0xbde8d88a	-0.113694265
8	0x3ea0ba15	0.3139197
9	0xbecfbf3d	-0.4057559
10	0xbe4ed833	-0.20199661
11	0xbe8a070b	-0.26958498
12	0x3ec0c13f	0.37647435
13	0x3efa3ac4	0.4887296
14	0x3d24848e	0.040165477
15	0xbedaa245	-0.42701927
16	0x3e18fc88	0.14940083
17	0x3f0991c1	0.5373803
18	0x3f66b3f0	0.9011831
19	0xbf033c90	-0.51264286
20	0xbf30c01f	-0.69043154
21	0xbe8d94ca	-0.2765258
22	0xbf125677	-0.57163185
23	0xbe8cf63b	-0.2753161
24	0xbe6bb01f	-0.23016404
25	0x3f5d3267	0.8640503
26	0xbf1e6d61	-0.6188565
27	0xbd64f3b5	-0.05589648
28	0xbeb32149	-0.34986332
29	0x3f411df2	0.7543632
30	0x3ea0f39d	0.31435862
31	0x3ee5711d	0.4481286
32	0xbead35f1	-0.33830217
33	0xbea5d21d	-0.32386866
34	0x3dc9fc74	0.09862605
35	0x3e5280d1	0.20556952
36	0xbec9b9b4	-0.39399493
37	0xbec8b733	-0.3920227
38	0xbf2e0ed3	-0.6799137
39	0x3ef84361	0.48488906
40	0x3c3aa551	0.011391954
41	0x3de08a81	0.109639175
42	0xbcf83490	-0.030298501
43	0x3d37af16	0.04484471
44	0x3e945884	0.28973782
45	0xbe8a110e	-0.26966137
46	0xbe00e30a	-0.12586609
47	0xbeb7f529	-0.3592923
48	0xbe66c61c	-0.2253651
49	0xbc4798ed	-0.012182456
50	0x3ea5140c	0.32241857
51	0x3eb26c01	0.34848025
52	0x3ecc28ec	0.3987497
53	0x3f28e452	0.6597339
54	0x3cd3bcd3	0.025846874
55	0x3b821f6a	0.00397103
56	0x3e87ea89	0.26546124
57	0x3e0db142	0.1383715
58	0x3cbb2b45	0.022847781
59	0xbeb2eb74	-0.3494526
60	0xbed41c84	-0.41428006
61	0xbf29917e	-0.6623763
62	0x3ec7d9b2	0.39033276
63	0x3f4144cb	0.75495595
64	0xbf267713	-0.6502544
65	0x3e0efa68	0.1396271
66	0xbe5a4449	-0.21315111
67	0x3ef2663a	0.47343618
68	0x3dfa5c2e	0.12224613
69	0xbf679722	-0.90464985
70	0xbece0f4e	-0.40246052
71	0x3e8e7892	0.27826363
72	0xbdfe072e	-0.12403713
73	0xbf0842f0	-0.5322714
74	0x3eb121cf	0.34596106
75	0xbda155a6	-0.07877664
76	0x3f0d8ad8	0.55289984
77	0xbd04ed6c	-0.032452986
78	0x3dd99291	0.106236584
79	0xbd5ceeba	-0.053938605
80	0xbe6bc682	-0.23024943
81	0xbf1e0377	-0.61724037
82	0x3ed2a163	0.41138753
83	0x3efec8a7	0.4976246
84	0xbf0cc79d	-0.54992086
85	0xbd1d21a3	-0.038362157
86	0xbe47f16b	-0.19525687
87	0x3eb05e09	0.34446743
88	0x3eaf60a5	0.3425342
89	0xbf36ddf1	-0.71432406
90	0xbead68ef	-0.3386912
91	0x3e696680	0.22793007
92	0xbe732299	-0.23743667
93	0xbeeddb81	-0.4645653
94	0x3e8ad21f	0.27113435
95	0x3cce9388	0.025216833
96	0x3f2905a9	0.6602426
97	0x3dfee7c4	0.124465495
98	0x3e3c6c42	0.18400672
99	0xbe414f1d	-0.18877836
100	0x3f08ce2c	0.53439593
101	0x3e17077d	0.1474895
102	0x3ee40116	0.44532079
103	0x3ef59aa4	0.47969544
104	0xbd87d025	-0.06631497
105	0xbeb91488	-0.36148477
106	0x3f09d7ba	0.538448
107	0x3db02a9a	0.086018756
108	0x3e802f89	0.25036266
109	0xbf0ae841	-0.5426064
110	0xbef4c18c	-0.47803915
111	0xbe5d8552	-0.21632889
112	0x3e52ac47	0.20573531
113	0x3e19880c	0.14993304
114	0xbd89f01e	-0.06735252
115	0xbe385c12	-0.18003872
116	0x3ec63683	0.38713464
117	0x3ee57070	0.44812346
118	0x3f3ffcee	0.74995315
119	0xbeb71084	-0.35754788
120	0x3f183740	0.59459305
121	0x3f06c65e	0.52646434
122	0x3d8aef02	0.06783868
123	0xbe4c27e9	-0.199371
124	0x3f194419	0.59869534
125	0xbf3c131e	-0.7346667
126	0x3f0c5a20	0.5482502
127	0xbedf9f15	-0.43676057
128	0x3e811b59	0.25216177
129	0x3e54fb7d	0.2079906
130	0xbd746f34	-0.059676364
131	0xbe856f60	-0.26061535
132	0x3f05f5a7	0.5232796
133	0x3f671c30	0.90277386
134	0xbeaf2ef0	-0.34215498
135	0xbec13ca1	-0.3774157
136	0xbd3a4417	-0.04547509
137	0x3f0e01ed	0.5547169
138	0x3f5ba3a3	0.85796565
139	0xbeff35dc	-0.4984578
140	0x3d0fd5d0	0.035116017
141	0x3eec231f	0.46120545
142	0xbe8bbc20	-0.27291965
143	0xbef4559c	-0.47721565
144	0x3f039f5b	0.5141503
145	0x3e3c70c4	0.18402392
146	0xbc94a9bc	-0.018147342
147	0xbe4527f7	-0.19253527
148	0xbe936d3f	-0.28794286
149	0x3eeea02e	0.46606582
150	0x3e2ca558	0.16859949
151	0x3d0472bc	0.03233598
152	0xbd54f18b	-0.051988166
153	0x3bab29fc	0.005223511
154	0xbea080f3	-0.3134838
155	0x3dd46f0e	0.103727445
156	0xbec6cc71	-0.3882785
157	0xbe27df5a	-0.16393796
158	0xbedd06df	-0.43169305
159	0x3e5da1e0	0.21643782
160	0x3d068726	0.03284373
161	0x3e2499dd	0.16074319
162	0xbeb3b807	-0.3510134
163	0xbe8215c6	-0.25407237
164	0x3ea3d440	0.3199787
165	0x3e6a3785	0.22872742
166	0x3e076c8d	0.13225003
167	0xbe7bcf41	-0.2459078
168	0xbe957960	-0.29194164
169	0x3f292377	0.6606974
170	0x3e7a94b9	0.24470796
171	0x3d76a1ea	0.060213007
172	0xbd459bbb	-0.04824422
173	0x3db3c751	0.08778251
174	0xbe20238c	-0.1563856
175	0x3e0f4f18	0.13995016
176	0xbea10197	-0.31446525
177	0xbc0cb645	-0.008588378
178	0xbe424752	-0.18972519
179	0xbd01716d	-0.031602312
180	0xbe0c4e79	-0.1370181
181	0x3efe1ac1	0.49629787
182	0xbeb392dc	-0.35072982
183	0xbf3f9c85	-0.74848205
184	0x3ed30244	0.41212666
185	0x3ebf273d	0.37334624
186	0xbc93e4bd	-0.018053407
187	0xbe248f64	-0.16070324
188	0xbef46b9c	-0.4773835
189	0x3f66e6c5	0.90195876
190	0x3eb9aa80	0.36262894
191	0xbdb57eee	-0.088621005
192	0xbd8b11ce	-0.06790505
193	0x3d6db680	0.058035374
194	0xbea6c614	-0.32572997
195	0x3decb45f	0.115578406
196	0xbf07add6	-0.5299963
197	0xbe180667	-0.14846192
198	0xbed9001a	-0.4238289
199	0x3e676d3b	0.22600262
200	0xbe2bae15	-0.16765626
201	0xbf3dddb3	-0.7416641
202	0x3e9ab304	0.30214703
203	0x3f559301	0.83427435
204	0xbf226dd8	-0.6344886
205	0x3e47a24c	0.19495505
206	0xbe9bedb2	-0.30454785
207	0x3efc1bef	0.49240062
208	0x3ec4bc7e	0.38425058
209	0xbf87b7fe	-1.0603025
210	0xbeaf2681	-0.34209064
211	0x3e3cfb6f	0.1845529
212	0xbd88c139	-0.06677479
213	0xbeed8c67	-0.4639618
214	0x3ec75e1a	0.3893898
215	0xbe032af6	-0.12809357
216	0x3f1d6360	0.6147976
217	0xbd8e21e6	-0.06940059
218	0x3b027ef2	0.001991209
219	0x3d43cbc0	0.047801733
220	0x3f2394d9	0.63899
221	0x3e558402	0.20851138
222	0x3eab9028	0.3350842
223	0x3e650d1e	0.22368285
224	0x3db903d6	0.09033935
225	0xbf01a940	-0.5064888
226	0x3f0c2d1f	0.5475635
227	0xbd22878f	-0.03968006
228	0x3eb97702	0.36223608
229	0xbec92415	-0.3928534
230	0xbeacfdf0	-0.3378749
231	0xbec31cae	-0.38107818
232	0x3eb61229	0.3556073
233	0x3f0e9490	0.5569544
234	0xbe1fbe8b	-0.1560003
235	0xbebfff30	-0.3749938
236	0x3e9cc87c	0.30621707
237	0x3f071bd0	0.52776814
238	0x3f79e953	0.9762165
239	0xbefc7d48	-0.49314332
240	0xbe92ee69	-0.28697518
241	0xbeefdc53	-0.46847782
242	0xbd182b27	-0.03715053
243	0xbe4cb7a2	-0.19991925
244	0x3e7dabb3	0.2477253
245	0xbebd12cd	-0.36928406
246	0xbec7335b	-0.3890637
247	0xbef9bd95	-0.48777452
248	0xbc8377ab	-0.016048273
249	0xbcf6c9c7	-0.030125512
250	0x3de43b93	0.111441754
251	0x3f078d8a	0.52950346
252	0x3e619c2c	0.22032231
253	0x3ecfabfb	0.40560898
254	0x3e3153d1	0.1731713
255	0x3ed40fc5	0.4141828

rnn.weight_hh_l0 f4 [20, 20]
0	0x3e40c829	0.18826355
1	0x3db8f965	0.09031943
2	0x3e1424dc	0.14467186
3	0x3d018f52	0.03163082
4	0xbd6c2965	-0.057656664
5	0xbc7b9bda	-0.015356982
6	0xbe037477	-0.12837397
7	0xbb06c2a8	-0.0020562802
8	0xbe159eb9	-0.14611329
9	0x3e114e97	0.14190136
10	0x3de59d61	0.11211658
11	0x3e851df6	0.2599942
12	0xbd9655ad	-0.0734056
13	0xbdc00734	-0.09376374
14	0xbd25060f	-0.04028898
15	0xbe051b7f	-0.1299877
16	0xbcc02d63	-0.023459142
17	0xbd8cf3ae	-0.06882416
18	0x3da7e426	0.08197813
19	0x3d80f706	0.06297116
20	0x3cc5c1d9	0.024140285
21	0xbdc7b512	-0.09751333
22	0x3df36b59	0.11885709
23	0x3de4908c	0.11160383
24	0xbc02bacc	-0.007979106
25	0x3d97da18	0.07414645
26	0xbdd9c86b	-0.1063393
27	0xbcea7057	-0.028618021
28	0xbe0755f2	-0.1321638
29	0xbdf7c3dd	-0.12097905
30	0xbd949236	-0.0725445
31	0x3ce6d2d5	0.028176704
32	0x3cd6bd9d	0.026213462
33	0xbddf61b2	-0.10907306
34	0x3de95728	0.11393577
35	0x3dde912b	0.10867532
36	0x3e079065	0.13238676
37	0x3d7830ef	0.06059354
38	0x3dc025d6	0.09382217
39	0x3e6d4af2	0.2317312
40	0xbe5b5383	-0.21418576
41	0x3e77b40c	0.24189776
42	0x3ed514bf	0.4161739
43	0xbe808270	-0.25099516
44	0x3e017f7f	0.12646292
45	0x3d798127	0.060914185
46	0x3dcc7df2	0.0998496
47	0x3d771f70	0.060332716
48	0x3e2baea3	0.16765837
49	0xbe1ee4f4	-0.15517026
50	0xbd66d926	-0.056359433
51	0xbe6c24d3	-0.23060922
52	0x3e9ff410	0.31240892
53	0xbcae878f	-0.021304874
54	0x3ee278b3	0.4423271
55	0x3e483511	0.19551493
56	0xbe018b86	-0.1265088
57	0x3dd9a5a2	0.10627295
58	0xbc85d2b2	-0.016335819
59	0xbe0f3bc2	-0.1398764
60	0xbd2cb769	-0.0421671
61	0x3dca0612	0.09864439
62	0xbcdfd138	-0.027321443
63	0x3d82d06c	0.063874096
64	0x3d9760a0	0.07391477
65	0x3d3c86e5	0.046027083
66	0xbaeedf73	-0.0018224552
67	0xbda97800	-0.08274841
68	0x3e1f7541	0.15572073
69	0xbe3904ad	-0.1806819
70	0x3cc7048c	0.02429416
71	0x3e2f4867	0.17117463
72	0x3d8a4ecb	0.0675331
73	0xbe510ada	-0.20414296
74	0xbc4c1e3b	-0.012458379
75	0xbe13d9bd	-0.1443853
76	0xbda07be8	-0.07836133
77	0x3e2d3e25	0.16918238
78	0xbb5490d7	-0.0032434964
79	0x3dd4a3e3	0.103828214
80	0xbcce72ed	-0.025201285
81	0x3dd5765e	0.104229674
82	0x3de3cddc	0.11123249
83	0xbd30ee2b	-0.043195885
84	0x3cde9f2a	0.027175505
85	0x3e59d59a	0.21272889
86	0xbd73df04	-0.059538856
87	0xbddf6a0b	-0.10908898
88	0xbcfe32a7	-0.031030012
89	0x3e3ea1b6	0.18616375
90	0x3d7a6dc4	0.061139837
91	0x3d64daf3	0.05587287
92	0xbda13eca	-0.07873304
93	0xbe23d4ce	-0.15999147
94	0x3e25241d	0.16127057
95	0xbe5092ac	-0.20368451
96	0x3d2f974c	0.042868897
97	0x3dd0f28b	0.102025114
98	0xbd625926	-0.0552608
99	0xbe32673f	-0.17422198
100	0xbbe5f4ba	-0.007017699
101	0xbba7d783	-0.0051221265
102	0x3d9836c2	0.07432319
103	0x3e1168a3	0.14200072
104	0xbe43ca08	-0.19120038
105	0xbdd7c280	-0.10535145
106	0xbe0c7f1d	-0.13720365
107	0xbcd900c6	-0.026489627
108	0xbde0d0f4	-0.10977355
109	0xbdf54db9	-0.11977715
110	0xbc3fece8	-0.011714198
111	0x3e048632	0.12941816
112	0x3d8715b3	0.06595936
113	0xbcf6e5b7	-0.030138833
114	0xbe4c5f46	-0.19958219
115	0xbe759238	-0.2398156
116	0xbd6939a6	-0.056939743
117	0x3d88d555	0.06681315
118	0xbe73354f	-0.23750804
119	0x3dca9e91	0.098935254
120	0xbd94d469	-0.072670765
121	0xbc934f02	-0.01798201
122	0x3e8b25f2	0.27177387
123	0x3db5c6ad	0.08875785
124	0x3cafcf63	0.021461194
125	0xbda463fd	-0.08026884
126	0x3d52415b	0.05133186
127	0x3d512c35	0.05106755
128	0x3d424d64	0.047437087
129	0x3df0ebce	0.11763726
130	0xbda6e450	-0.08149016
131	0x3cdb29e8	0.02675338
132	0xbcce3400	-0.02517128
133	0x3d6148bd	0.05500101
134	0x3ebbdf04	0.36693585
135	0x3d950286	0.07275872
136	0xbd426eee	-0.047469072
137	0xbcfa106c	-0.030525409
138	0xbe0eacda	-0.13933125
139	0xbc9da4b6	-0.01924358
140	0x3da4cf8e	0.080474004
141	0xbb10d718	-0.0022100862
142	0x3ddf2ffa	0.10897823
143	0x3de72452	0.112862244
144	0xbdc5f45e	-0.0966575
145	0xbdbfb461	-0.093605764
146	0xbdc53e1e	-0.096309885
147	0x3e2987e2	0.16555741
148	0xbdbd9889	-0.092576094
149	0xbe7ae004	-0.24499518
150	0xbdf79cca	-0.12090452
151	0xbe6e04aa	-0.23243967
152	0xbe08f953	-0.1337636
153	0x3e2eb490	0.17061067
154	0xbd734b83	-0.059398185
155	0xbe1e3e4f	-0.15453456
156	0xbdec1cf0	-0.11528957
157	0xbe017d54	-0.12645465
158	0xbda4c9fd	-0.08046339
159	0x3deb8653	0.1150023
160	0x3e43b4cf	0.19111942
161	0xbe582825	-0.21109064
162	0xbd8af9bb	-0.067859136
163	0x3d4dfe2d	0.05029123
164	0x3e5338c7	0.20627128
165	0xbcd789db	-0.026310852
166	0xbe181d3e	-0.14854905
167	0xbc8f4aa1	-0.01749164
168	0x3dbba9aa	0.0916322
169	0xbe5fee2f	-0.21868204
170	0x3d5c03fd	0.05371474
171	0xbdcef7e2	-0.10105874
172	0x3ded15a5	0.11576394
173	0x3d91aead	0.07113395
174	0x3de80ce2	0.11330582
175	0xbe3ff0d4	-0.18744212
176	0x3e0894f8	0.13338077
177	0xbe8f1b55	-0.2795054
178	0x3e82895d	0.25495425
179	0x3e6a5cf5	0.22887023
180	0xbe1103c8	-0.14161599
181	0x3df91422	0.12162043
182	0xbe687bfd	-0.22703548
183	0xbdca31f5	-0.0987281
184	0x3c210519	0.0098278755
185	0xbd84049a	-0.0644619
186	0x3dd91b4b	0.10600909
187	0x3c555ab0	0.01302211
188	0x3d6ec1b8	0.058290213
189	0xbe0500eb	-0.12988631
190	0x3d88b2f4	0.066747576
191	0x3dcf0ff6	0.10110466
192	0x3d384118	0.044983953
193	0x3dd96c12	0.10616316
194	0xbe395d52	-0.18102005
195	0xbd92ab84	-0.0716162
196	0xbdcf40e0	-0.10119796
197	0xbc621dcf	-0.013801052
198	0x3c93ee8f	0.01805809
199	0xbd3f2a03	-0.046670925
200	0x3c14404b	0.009048532
201	0x3de778e6	0.113023564
202	0x3df86872	0.12129296
203	0xbdcb0e61	-0.09914852
204	0xbd42ebad	-0.04758804
205	0x3d3de1f7	0.046358075
206	0x3e511b71	0.20420624
207	0x3e1a31d0	0.15058064
208	0xbde7f017	-0.113250904
209	0x3d9e2dbe	0.077235684
210	0x3e28e880	0.16494942
211	0xbe32569e	-0.17415854
212	0xbcdaaa15	-0.02669243
213	0x3cabb2e9	0.020959334
214	0x3e17974a	0.14803806
215	0xbd2b11bf	-0.04176497
216	0xbe0e4bf1	-0.13896157
217	0xbd1ab4df	-0.03777015
218	0xbe3278e3	-0.17428927
219	0xbbf94186	-0.007606688
220	0x3e43f839	0.19137658
221	0x3d405e00	0.046964645
222	0xbd27f732	-0.04100723
223	0x3c8efde7	0.017455054
224	0xbcbdd728	-0.023173884
225	0xbe3c5ea9	-0.18395485
226	0x3d6e5452	0.058185883
227	0x3d96b409	0.07358558
228	0x3e0ad717	0.13558613
229	0x3e046822	0.12930349
230	0x3e0266ff	0.12734602
231	0xbe21769f	-0.15767907
232	0x3e24df60	0.16100836
233	0x3e489d47	0.19591247
234	0x3d7f7c01	0.06237412
235	0x3deb2cd4	0.1148316
236	0x3d08442a	0.03326813
237	0x3cc5b7cc	0.024135493
238	0xbe85e7ed	-0.26153508
239	0x3e0244ea	0.12721601
240	0xbc1c51b7	-0.009540967
241	0x3e52e741	0.20596029
242	0x3f23b61b	0.63949746
243	0xbd562735	-0.052283484
244	0x3db86d4f	0.09005224
245	0x3d8c4f47	0.068510585
246	0x3da7cb9a	0.08193131
247	0xbd89130e	-0.066930875
248	0x3dbe1f0c	0.092832655
249	0xbd3cba35	-0.04607602
250	0x3df8f2c5	0.121556796
251	0xbdacb814	-0.084335476
252	0x3e81b754	0.2533518
253	0xbde099d3	-0.1096684
254	0x3f112100	0.5669098
255	0xbd77558b	-0.060384315

classify.weight f4 [3, 20]
0	0xbf8afdca	-1.08587
1	0x3f8f233c	1.1182628
2	0x3ee2bef3	0.44286308
3	0xbe18632b	-0.1488158
4	0xbe200928	-0.15628493
5	0xbf68e120	-0.90968513
6	0xbf5bc20a	-0.85842955
7	0x3e710403	0.23536687
8	0x3dfba89e	0.122880206
9	0x3f1aa96f	0.60414785
10	0x3de4a1b3	0.11163654
11	0xbf8d9c32	-1.1063292
12	0x3f260562	0.64851964
13	0xbf8d1384	-1.1021581
14	0x3e884c54	0.26620734
15	0xbe2c0ac3	-0.1680098
16	0x3eb8421a	0.3598793
17	0xbe9096c2	-0.2824002
18	0x3f16c6db	0.5889718
19	0x3f12dcfc	0.57368445
20	0x3f479d2e	0.7797421
21	0xbf307d0f	-0.68940824
22	0x3f81b04a	1.0131924
23	0xbf751a5b	-0.9574334
24	0xbf559e5a	-0.8344475
25	0x3e5e1c88	0.21690571
26	0x3f88f7a6	1.0700576
27	0x3e2388b9	0.15970124
28	0x3dbc347b	0.09189697
29	0x3ef51f6f	0.47875544
30	0xbf5a815d	-0.8535364
31	0x3f80d437	1.0064763
32	0x3f2b154a	0.6682936
33	0x3f417cb7	0.75580925
34	0x3ef1270a	0.47100097
35	0xbbb57528	-0.0055376478
36	0xbcb7183e	-0.022350427
37	0x3fa7aac4	1.3098989
38	0x3f017f45	0.5058482
39	0x3e46472d	0.19363089
40	0x3ee65e7c	0.4499396
41	0xbe801dd4	-0.25022757
42	0x3e818a90	0.25301027
43	0x3f39fbe5	0.72649986
44	0x3f6188b5	0.88099223
45	0x3f2906e3	0.66026133
46	0xbf2634de	-0.6492442
47	0xbf0e5537	-0.5559878
48	0xbedda569	-0.4329026
49	0xbf824a4c	-1.0178924
50	0x3f637c45	0.88861495
51	0x3ec6f121	0.38855842
52	0x3ed5417c	0.41651523
53	0x3f3ba162	0.73293126
54	0x3daaa80f	0.08332836
55	0x3f27275d	0.6529444
56	0xbf33f559	-0.70296246
57	0xbee6c49b	-0.45071873
58	0xbf773659	-0.965673
59	0xbf6a4c69	-0.9152284

classify.bias f4 [3]
0	0xbe2e16b0	-0.17000842
1	0xbf19320d	-0.59841996
2	0xbd4e30d7	-0.050339546
