黄雨石/week1/model.pth (torch, 4422 bytes, 3 tensors)

embedding.weight f4 [28, 5]
-0.7385608 -1.253021 -0.73317903 0.30959296 0.12140869 -0.30850336 -1.4754505 0.26523036
-1.0122278 1.3108064 -0.370653 0.16931139 0.34632793 -0.43025938 0.437308 -0.009528454
-1.8348805 -0.13132912 -1.6912687 -1.0361578 -0.87590647 -0.7871902 -0.68987536 -0.17589058
-0.5264218 0.02272281 0.4806962 -1.4397122 0.60701466 -0.88310236 0.53761643 1.3945007
-0.41326866 -0.21567273 0.6192146 -0.2485307 -0.060132578 -0.6892228 -0.2975103 -0.8478722
0.93201715 -0.096573785 0.9601129 -0.38913772 -0.3206301 0.20035508 0.4693337 0.07741625
-0.91592807 -0.3509996 -1.1297559 -1.0932119 0.8464864 -1.2806848 -0.4204954 -0.34367895
-0.17325053 -0.7574036 -0.5956056 -0.7885815 -0.9537284 -0.29758286 -1.4703741 2.4436758
-0.1572119 -0.32949975 -1.6573032 -0.21572126 -1.4140105 -0.45515433 -0.37377667 0.9037104
-1.415324 0.21817224 -0.9543917 -1.047483 1.7604057 -1.1899899 -2.437605 0.21481818
-0.8287807 0.8955865 -0.6463481 0.6449722 -1.5720612 1.5390954 0.5285141 0.33390367
1.3962218 -0.7705595 0.07811299 -1.3123267 -1.1170849 -0.14375128 -0.78244656 1.9671519
-0.3148381 -1.4045832 -1.1759881 -0.1119827 0.39379266 0.84445 1.0039628 -0.6236096
-0.81736135 0.59656984 0.88597035 -0.6942034 0.84611386 0.36243433 -0.22835863 -0.8862014
-0.081131354 -0.11642963 -0.95255226 -0.062140007 0.79989195 0.085459314 -1.0456728 0.09317164
-1.1423335 -0.7546003 -1.2212642 -0.99722016 -1.1116991 0.122500576 -0.6605851 0.61772543
-1.6476474 -0.8010634 0.8261092 0.3116448 -2.0766108 0.8627823 -1.550958 -0.03730096
1.2406299 -0.2422746 -1.5952727 0.7700222
00000000: 5212 3dbf fe62 a0bf 9fb1 3bbf f882 9e3e
00000010: 1fa5 f83d 27f4 9dbe 90db bcbf 46cc 873e
00000020: ae90 81bf 81c8 a73f 3bc6 bdbe f75f 2d3e
00000030: e551 b13e f54a dcbe d6e6 df3e 3c1d 1cbc
00000040: 5ddd eabf 247b 06be 7e7b d8bf d2a0 84bf
00000050: 683b 60bf 4c85 49bf ac9b 30bf a91c 34be
00000060: 94c3 06bf 3025 ba3c d01d f63e 7d48 b8bf
00000070: 5065 1b3f ff12 62bf 3ba1 093f 007f b23f
00000080: f397 d3be 50d9 5cbe d984 1e3f d57e 7ebe
00000090: 944d 76bd e870 30bf 4553 98be 270e 59bf
000000a0: ad98 6e3f 7ac8 c5bd f6c9 753f 0f3d c7be
000000b0: a129 a4be e229 4d3e 824c f03e 698c 9e3d
000000c0: 437a 6abf 38b6 b3be d79b 90bf 5eee 8bbf
000000d0: 55b3 583f 7bed a3bf 2c4b d7be b0f6 afbe
000000e0: 9668 31be 34e5 41bf 9c79 18bf 7ae0 49bf
000000f0: 8b27 74bf c85c 98be 3835 bcbf 2f65 1c40
00000100: 28fc 20be 31b4 a8be 8322 d4bf 09e6 5cbe
00000110: 4cfe b4bf fd09 e9be a85f bfbe 9159 673f
00000120: 5629 b5bf 8b68 5f3e 0453 74bf ec13 86bf
00000130: f954 e13f 9751 98bf b801 1cc0 4cf9 5b3e
00000140: f92a 54bf 2845 653f 1277 25bf e61c 253f
00000150: 4d39 c9bf 1401 c53f b34c 073f 6cf5 aa3e
00000160: 65b7 b23f 6343 45bf b4f9 9f3d 52fa a7bf
00000170: a3fc 8ebf 8933 13be 6b4e 48bf a2cb fb3f
00000180: 7632 a1be 62c9 b3bf c786 96bf 3057 e5bd
00000190: 319f c93e e02d 583f da81 803f e1a4 1fbf
000001a0: 983e 51bf cdb8 183f f4ce 623f 50b7 31bf
000001b0: eb9a 583f fe90 b93e d8d6 69be 18de 62bf
000001c0: 3228 a6bd a872 eebd 77da 73bf 8586 7ebd
000001d0: b8c5 4c3f 4b05 af3d 9bd8 85bf c6d0 be3d
000001e0: fc37 92bf 7c2d 41bf 6352 9cbf d249 7fbf
000001f0: 284c 8ebf 95e1 fa3d 1b1c 29bf 4123 1e3f
00000200: 1ce6 d2bf 7e12 4dbf e47b 533f e88f 9f3e
00000210: 31e7 04c0 4ddf 5c3f cb85 c6bf e4c8 18bd
00000220: f6cc 9e3f d516 78be e531 ccbf 2d20 453f

rnn.weight_ih_l0 f4 [21, 5]
-0.026654793 0.01972668 -0.07459033 -0.014557655 -0.019853866 -0.10652768 0.044509795 -0.10281391
-0.08559575 0.060192864 0.06025145 -0.03325728 -0.092057295 -0.02151068 -0.08380063 -0.0044063963
0.08154767 -0.08586757 0.09693786 -0.07495485 -0.05273526 0.0742381 -0.001433624 -0.057810195
-0.1026058 0.029333504 0.035872072 -0.030923232 -0.08362091 -0.08982232 -0.033790283 -0.014690477
0.07325838 -0.024057912 0.07606189 0.03070333 0.03509298 0.020672474 -0.011350751 0.06274021
-0.058077518 0.0026009856 -0.06623766 0.068733 -0.14055005 -0.06204623 0.14836833 0.028880166
-0.014110995 -0.09378789 -0.06901168 0.025831424 0.113526486 0.10353415 -0.07063912 0.050722606
0.05766526 0.024498567 0.041064993 0.042505868 0.0047064694 0.099006124 0.07205514 0.06836619
0.120873354 0.00661969 0.11564195 0.068273365 0.03428355 0.09585855 -0.071488395 0.028527187
0.10817598 -0.04370988 0.12924199 -0.017601011 -0.09661793 0.07157971 0.031079872 0.0683881
-0.11727028 -0.060372088 0.09910928 -0.035397325 -0.11054592 -0.04406415 0.0873776 0.25015756
0.16220047 0.31584767 0.023813173 0.10555981 0.2854434 0.27118465 0.11153602 -0.07011848
-0.12842433 0.2716529 0.08616864 0.6287631 0.13894942 0.06751507 -0.05726132 0.0042766086
-0.19357993
00000000: 275b dabc d999 a13c d1c2 98bd 3b83 6ebc
00000010: 93a4 a2bc 2f2b dabd e74f 363d 1990 d2bd
00000020: d34c afbd cb8c 763d 39ca 763d c938 08bd
00000030: 8988 bcbd 2a37 b0bc aa9f abbd 8863 90bb
00000040: 7702 a73d 56db afbd 5b87 c63d ee81 99bd
00000050: ee00 58bd 250a 983d 70e8 bbba 62ca 6cbd
00000060: fd22 d2bd d14c f03c 98ee 123d b852 fdbc
00000070: 7141 abbd c4f4 b7bd ae67 0abd 54b0 70bc
00000080: 7d08 963d 1915 c5bc 56c6 9b3d 8d85 fb3c
00000090: a8bd 0f3d 5259 a93c 80f8 39bc f07d 803d
000000a0: b1e2 6dbd 4c75 2a3b 9ca7 87bd e3c3 8c3d
000000b0: 5aec 0fbe 3024 7ebd deed 173e 1996 ec3c
000000c0: ce31 67bc de13 c0bd ff55 8dbd 6c9c d33c
000000d0: 9380 e83d b609 d43d 3eab 90bd 82c2 4f3d
000000e0: 6832 6c3d 38b1 c83c c433 283d a21a 2e3d
000000f0: ba38 9a3b b9c3 ca3d a591 933d 9303 8c3d
00000100: 738c f73d fce9 d83b b0d5 ec3d e8d2 8b3d
00000110: e86c 0c3d 7d51 c43d 8268 92bd d9b1 e93c
00000120: 5e8b dd3d 2209 33bd 0358 043e ff2f 90bc
00000130: 9fdf c5bd 6298 923d 379b fe3c 0f0f 8c3d
00000140: 672b f0bd b948 77bd cef9 ca3d c9fc 10bd
00000150: e665 e2bd 9c7c 34bd 07f3 b23d a714 803e
00000160: e117 263e c9b6 a13e d813 c33c be2f d83d
00000170: a325 923e b7d8 8a3e ff6c e43d 479a 8fbd
00000180: ab81 03be 1716 8b3e 2f79 b03d 9ef6 203f
00000190: c248 0e3e 5745 8a3d d98a 6abd cb22 8c3b
000001a0: d139 46be

rnn.weight_hh_l0 f4 [21, 21]
0.3903003 0.27570316 0.06739018 0.2003232 0.20816709 0.01021607 -0.05174949 -0.19835743
0.09962894 0.06963249 0.044820033 -0.20399916 -0.13920854 0.04525154 -0.38388005 -0.26360446
0.064636 -0.30723104 -0.3545535 -0.20482914 0.33906376 0.20178214 0.08120951 0.080640614
-0.095784955 0.14407024 -0.053663928 0.0074355314 -0.1550971 -0.120909646 0.03232039 -0.20987487
-0.29036 -0.13429128 -0.009514492 -0.1759532 -0.11123614 -0.069213785 0.0446502 -0.3017239
-0.3039838 0.2136911 0.087336905 0.21530798 -0.056058 0.021823319 0.045384545 0.0076230345
-0.12253437 0.08308065 -0.009029605 0.046211943 0.11071419 -0.14873382 0.15111583 0.09494581
-0.06359897 -0.14320135 -0.30616796 -0.263901 -0.035950102 -0.31519338 -0.012565003 0.08889058
0.14225222 -0.05393612 -0.21212654 0.22268094 0.2231808 -0.15529566 -0.06972605 0.033149935
0.21735324 0.1877587 0.029604899 -0.08944972 -0.13247657 -0.11985725 0.03192889 -0.02983448
0.049853034 -0.24197109 -0.23424791 0.07021486 -0.15545423 0.23311307 0.057869364 0.05864978
-0.030910075 -0.15500791 -0.0717377 0.17137371 0.16060764 -0.02453289 0.14321962 0.07037521
-0.1448821 0.040958166 -0.22945103 -0.13499208 0.13589488 -0.06911001 -0.13268557 -0.121829845
0.019748868 0.038880378 0.003996145 -0.05247906 -0.13086797 0.11088188 -0.20127007 0.12739329
0.019281171 0.12137394 0.09729349 -0.19679055 -0.050492 -0.11450047 -0.044345245 -0.024175057
-0.2241437 -0.05451715 -0.11603163 -0.12235254 -0.0045051416 0.059527215 -0.02945524 -0.037550498
0.06725429 0.1422335 -0.04459819 0.12745316 0.06838433 0.1571227 0.065165155 0.076390855
0.009870928 -0.21713258 -0.1024844 0.020884018 -0.11054392 -0.31646502 -0.26408526 0.14656891
0.09674811 0.030347697 0.008438349 0.0763296 -0.050831243 0.070614256 0.021501949 -0.21202876
0.04470274 -0.17981389 -0.11807714 0.33631197 0.06801553 0.24589832 0.07800032 0.06085034
-0.0011383032 -0.17180608 0.16380146 -0.17850474 0.12271104 0.09586549 0.113716856 0.00010331467
-0.10327874 0.17815077 0.06204539 0.07337559 0.020267725 -0.07907686 0.05167816 -0.18201618
-0.45386437 -0.07438246 -0.03207078 -0.105789706 0.07164448 -0.0027065522 -0.019999709 0.0050128847
0.018929398 -0.013363388 -0.061892286 0.0013587176 -0.000552083 -0.108397864 0.12826489 -0.11217183
0.07299731 0.15851618 0.010331533 0.099218994 -0.015911013 -0.035622828 -0.29479393 -0.06496692
-0.086241856 0.01672992 0.13335772 -0.13568895 0.094877295 0.09874698 0.17124274 -0.015692024
0.08836996 -0.012452317 -0.30242482 0.03161385 -0.05890249 -0.08732648 -0.21875985 -0.096622445
0.2542434 0.011557826 0.0636217 0.1687467 -0.068583876 0.01624053 -0.07638347 -0.1269279
-0.051199343 -0.032676794 0.28373116 0.01791012 0.089493535 -0.06937316 0.09412989 -0.08464983
0.111465916 0.22894225 -0.1670629 0.07267603 -0.05949809 0.35644758 -0.06290142 -0.047835287
0.04514658 -0.07834748 -0.2885451 0.06116566 0.0485527 0.20945929 0.11857109 -0.25222766
0.031774215 -0.032253366 0.04665551 0.01362978 0.07883114 -0.3629092 -0.024416769 0.031771738
00000000: 71d5 c73e f728 8d3e dd03 8a3d 8621 4d3e
00000010: c129 553e 4e61 273c 46f7 53bd 361e 4bbe
00000020: 420a cc3d 7b9b 8e3d 3695 373d 28e5 50be
00000030: af8c 0ebe ae59 393d ed8b c4be 2af7 86be
00000040: e15f 843d 634d 9dbe 0988 b5be bbbe 51be
00000050: c499 ad3e fa9f 4e3e 2c51 a63d e826 a53d
00000060: e72a c4bd 2687 133e b5ce 5bbd c2a5 f33b
00000070: c6d1 1ebe 7a9f f7bd 6362 043d 70e9 56be
00000080: 11aa 94be a783 09be ace2 1bbc 132d 34be
00000090: c6cf e3bd f5bf 8dbd 21e3 363d 8e7b 9abe
000000a0: c4a3 9bbe d7d1 5a3e b1dd b23d b279 5c3e
000000b0: 139d 65bd d1c6 b23c 25e5 393d a6ca f93b
000000c0: 4df3 fabd 3026 aa3d e9f0 13bc bc48 3d3d
000000d0: 1fbe e23d ae4d 18be 1cbe 1a3e f372 c23d
000000e0: 2d40 82bd 60a3 12be 0cc2 9cbe 081e 87be
000000f0: 6a40 13bd 0761 a1be 71dd 4dbc 440c b63d
00000100: 91aa 113e 1fec 5cbd b337 59be 7906 643e
00000110: 8289 643e d305 1fbe 88cc 8ebd 3ac8 073d
00000120: d991 5e3e d143 403e f985 f23c 6a31 b7bd
00000130: f0a7 07be b877 f5bd dec7 023d 7067 f4bc
00000140: b232 4c3d 45c7 77be afde 6fbe cfcc 8f3d
00000150: 652f 1fbe 31b5 6e3e 6d08 6d3d c03a 703d
00000160: 2037 fdbc 65ba 1ebe 37eb 92bd 977c 2f3e
00000170: 5476 243e 33f9 c8bc 2aa8 123e e120 903d
00000180: f95b 14be c0c3 273d 36f5 6abe 5d3b 0abe
00000190: 0728 0b3e 8d89 8dbd bade 07be ed81 f9bd
000001a0: 61c8 a13c 0841 1f3d 18f2 823b 48f4 56bd
000001b0: 4102 06be 0a16 e33d be19 4ebe 6373 023e
000001c0: 8cf3 9d3c e692 f83d cf41 c73d 7683 49be
000001d0: b3d0 4ebd 397f eabd 5ca3 35bd c50a c6bc
000001e0: ed85 65be 604d 5fbd fea1 edbd f893 fabd
000001f0: de9f 93bb cfd2 733d 1e4c f1bc 8dce 19bd
00000200: 9ebc 893d a9a5 113e 97ac 36bd 1583 023e
00000210: 150d 8c3d c6e4 203e 4f75 853d cf72 9c3d
00000220: acb9 213c 0158 5ebe 57e3 d1bd f614 ab3c
00000230: da64 e2bd b407 a2be 2f36 87be 2916 163e
00000240: e023 c63d bc9b f83c 0041 0a3c b152 9c3d
00000250: 6c34 50bd 359e 903d db24 b03c 111e 59be
00000260: 381a 373d 2221 38be 6dd2 f1bd 1531 ac3e
00000270: ba4b 8b3d c5cc 7b3e a2be 9f3d 353e 793d
00000280: 1e33 95ba efed 2fbe 92bb 273e f2c9 36be
00000290: ed4f fb3d 2055 c43d 62e4 e83d a4aa d838
000002a0: ce83 d3bd 286d 363e 4f23 7e3d f145 963d
000002b0: 8008 a63c 0cf3 a1bd 7aac 533d 7362 3abe
000002c0: e960 e8be d555 98bd a65c 03bd 46a8 d8bd
000002d0: 57ba 923d 6960 31bb 6ed6 a3bc 2043 a43b
000002e0: d311 9b3c 1df2 5abc c482 7dbd ff16 b23a
000002f0: aab9 10ba b3ff ddbd df57 033e 58ba e5bd
00000300: 9d7f 953d 1152 223e 9745 293c 5433 cb3d
00000310: d057 82bc 3ee9 11bd 3bef 96be 600d 85bd
00000320: 929f b0bd 2f0d 893c ed8e 083e 0bf2 0abe
00000330: 074f c23d db3b ca3d 425a 2f3e 8f8c 80bc
00000340: 4ffb b43d ce04 4cbc 6dd7 9abe 867d 013d
00000350: bd43 71bd 3ad8 b2bd 9502 60be fde1 c5bd
00000360: 312c 823e 095d 3d3c 184c 823d efcb 2c3e
00000370: b475 8cbd dc0a 853c f06e 9cbd 63f9 01be
00000380: 67b6 51bd 1ad8 05bd 3645 913e 3eb8 923c
00000390: 6348 b73d 8413 8ebd 2cc7 c03d e45c adbd
000003a0: 3e48 e43d d66f 6a3e 8912 2bbe 2cd7 943d
000003b0: 45b4 73bd 4c80 b63e 76d2 80bd efee 43bd
000003c0: 9feb 383d a574 a0bd 2fbc 93be d888 7a3d
000003d0: 32df 463d 7f7c 563e 66d5 f23d fc23 81be
000003e0: ae25 023d 1b1c 04bd d919 3f3d 714f 5f3c
000003f0: 3972 a13d 3ccf b9be ad05 c8bc 1523 023d
