chenenze/week2/model.pth (torch, 1183 bytes, 2 tensors)

linear.weight f4 [5, 5]
0	0x4083f90f	4.1241527
1	0xc00af15f	-2.1709821
2	0xc021bee4	-2.527276
3	0xc0262b58	-2.5963955
4	0xc029f66c	-2.6556654
5	0xc01b8780	-2.4301453
6	0x409120c7	4.535251
7	0xc01ab504	-2.4172983
8	0xc01ce19e	-2.4512706
9	0xc02c22e0	-2.6896286
10	0xc01e41d8	-2.4727688
11	0xc008b47a	-2.1360154
12	0x40888a54	4.2668858
13	0xc01f6281	-2.4903872
14	0xc02afc3a	-2.6716447
15	0xc01ae6f1	-2.4203455
16	0xc0074ae0	-2.113945
17	0xc01d22b1	-2.4552424
18	0x408a8248	4.3284035
19	0xc02cb4f6	-2.698545
20	0xc014c5b4	-2.3245668
21	0xc00da77d	-2.2133477
22	0xc01c7596	-2.4446769
23	0xc0233264	-2.5499506
24	0x4085645c	4.168501

linear.bias f4 [5]
0	0x3e7e4ba7	0.24833547
1	0x3d8cf29c	0.068822116
2	0x3d7ae274	0.06125112
3	0xbd1ea45d	-0.038730968
4	0xbd877998	-0.06614989
