邓一飞/week13/ner_peft/model_output/epoch_1.pth (torch, 626952 bytes, 26 tensors)

base_model.model.bert.encoder.layer.0.attention.self.query.lora_A.default.weight f4 [8, 768]
00000000: af44 8cbb c80d 393c bf81 1a3c 00da 03bd
00000010: a1a7 ebbc c0f8 53b9 8684 173d b3da d4bb
00000020: 7751 4cbd c4bf 233c 7d4b cabc 25bd 85bc
00000030: 7452 28bd 9152 04bd 9114 70bc 2a07 bf3c
00000040: e4e0 e8bc 65ab a63b eee0 6f3b 864b 9a3c
00000050: d6b9 b33b 4fd4 46bd 1ec1 6aba 0ef0 5c3c
00000060: 362b e33c d517 9b3a e355 72bc 32e1 233d
00000070: c1ee 343c d025 bdbc 51dd 223d d123 27bd
00000080: 11a4 913c 374e 6a3c 73ad 463d 1ae3 c03c
00000090: 8235 0bba 5caa 293d b630 94bc a345 763c
000000a0: f07d cc3b 9087 ac3c 9e08 7bbc edb9 b1bc
000000b0: 6ff4 783c 65f9 843c 4f42 06bd 4a97 21bc
000000c0: eeef c1bb 7753 bd3c 351c 1d3d d4a9 913c
000000d0: ab60 a33c 2544 b53c c330 103d 74eb 5abc
000000e0: 5247 693c dde7 d3bc 87e4 5d3d c821 953c
000000f0: 6cbf 5c3c fe47 42ba ef10 8bbc a773 f33c
00000100: f131 bdbc f19c 83bc 7c2f d9bc 471f d03c
00000110: 9096 07bb f9d7 073d d9b9 45bc 03b6 023d
00000120: 7aa8 e6bc 922c 0aba 6e59 8cbb e104 dcbc
00000130: 6ea7 99bc a395 75bc c9cf 293b ef37 4ebb
00000140: f2ae 31bc 9372 efbb c8a9 de3c e5a0 1dbc
00000150: 8711 7cbc d118 18bc 1e91 c63c 6163 9a3c
00000160: 56de c4ba b344 af3b 0767 99bc b533 3f3c
00000170: 479b 9e3c 4a61 c1bc 1d92 643c 6ae9 e03b
00000180: 7e6d ea3c 0c9f 0a3d f846 863c 5706 313c
00000190: 74f1 47bc fc49 7fbc 4529 e63a 9f86 7abb
000001a0: 1e09 68ba 4b8b f33c e548 ba3c 2761 be3c
000001b0: be39 f73c cba6 d4bc bd2f 0dbc 6821 df3c
000001c0: f214 0cbd 3494 7d3c eb71 56bd f59a abbb
000001d0: c0c4 8dbc b701 f8bb 6577 a0bc 681f 3cbd
000001e0: 9f91 013d a4e4 e7bc 5e75 16bd 6de4 793c
000001f0: 6d9a 44bb d7be 1b3c 8684 10bc 52a2 1e3d
00000200: 979e 35bd dd55 3e3b 92e4 3c3c 7257 18bd
00000210: 2921 1b3d 991b 963c 6d06 8e3c 0b5a 413c
00000220: 5ee3 e7bb c6eb fabc 51ac ce3b 0d20 25bd
00000230: 8502 e53c f999 65bb c819 c13c 8edb de3c
00000240: 17a7 11bc 8d11 983b 2e59 9d3c 2dfe c0bb
00000250: 0737 8bbc cc1a 2aba 793c adbc d031 253d
00000260: 4859 063b d9e4 843b 9772 ccbb c43e 893c
00000270: 6ad4 90bc 5990 e8bc 5d06 0ebd c74a acbb
00000280: a10c 7fbb 01b1 b93c f448 58bc 4ac6 a2ba
00000290: 1709 a4bc 1047 b1bc dd1b 0c3d 8e25 c63b
000002a0: 8eb3 ee3a 05ff c5ba 5890 873b 943c 823c
000002b0: 9ed4 1dbd c2ec f1bb 09a7 cf3b 79f9 c0bc
000002c0: 812f e93a ee15 403c c4a1 82bc 6d4f 8aba
000002d0: 3204 9fbb ccb3 bb3b 2b41 3cbc 5062 a8bc
000002e0: e006 3c3b dad6 0f3d ed21 083d 1654 253d
000002f0: 5b4b 1fbd 62f3 32bd df38 293d 2f59 19bc
00000300: 1f2b 2e3c ae9b 0f3c 8f7f 4c3c e817 b53c
00000310: 988b 38bd 661e d83c 15c8 de3b adda 85bc
00000320: da91 92bc e00f 043d 8898 37bc 33a6 af3c
00000330: 88e4 ef3b 3f98 423c ae3f ca3c f36d dfbb
00000340: a86b 8f3c 72ea 613c dc71 ffbc bcf0 5abc
00000350: c8f5 2fbd 34e4 cd3c f3bb dabc b570 6b3c
00000360: d3f4 2c3c cf3f 3fbc b921 09bc ac29 df3b
00000370: d830 cabb db82 d83c 6a32 0ebc 8ce4 88bc
00000380: 6d6f 583c f752 a1bb c8fa 683c ce13 003c
00000390: 21f6 d13c b259 b23c e01a 9c3c d67c f13c
000003a0: b699 6ebc c99c de3c 564b c7bc b307 48bc
000003b0: b3e6 0bbd a9e0 53bc 07e7 14bd bafa 423c
000003c0: f7b3 003d e002 e2bc 0abf 22bd 2a2f c8bb
000003d0: 2f19 f0bb b2ce 773b 351a c1bc a64d 8cbc
000003e0: 41b2 8bbb dab8 0a3d d29d f63c 89e8 bb3c
000003f0: 94ed 66bc b197 e8bc d3cc 56bd fa64 afbb
-0.0042806487 0.01129479 0.009430348 -0.032190323 -0.028766455 -0.00020215195 0.03699162 -0.0064957975
-0.04988238 0.009994451 -0.024694199 -0.016325543 -0.04109426 -0.032305304 -0.014653341 0.023318846
-0.028427549 0.00508635 0.0036602574 0.01883484 0.0054848 -0.048542317 -0.00089551683 0.013484968
0.027730566 0.0011832664 -0.014790985 0.040009685 0.0110432515 -0.02308932 0.039761845 -0.04080564
0.017778428 0.014300874 0.048505258 0.02354579 -0.00053104025 0.041422233 -0.018089633 0.015031251
0.006240599 0.021060735 -0.015321879 -0.021695102 0.015194996 0.016232202 -0.03277808 -0.00986273
-0.0059184944 0.023111088 0.03835698 0.017781176 0.019943556 0.02212722 0.035202753 -0.0133618
0.0142381955 -0.025867397 0.05417302 0.018204585 0.013473373 -0.00074112404 -0.016975848 0.029718233
-0.023095103 -0.016066046 -0.0265119 0.02540554 -0.0020689107 0.033164952 -0.012068235 0.03191186
-0.028156508 -0.0005270924 -0.004283122 -0.026857795 -0.018756595 -0.014989289 0.0025911203 -0.0031466444
-0.010844933 -0.0073073595 0.027180567 -0.00962088 -0.015385038 -0.00928326 0.02423912 0.018846216
-0.0015019875 0.0053487658 -0.018725885 0.011670043 0.019361151 -0.023605961 0.013950852 0.0068637626
0.028616663 0.033843085 0.016391262 0.010804734 -0.012203563 -0.015581604 0.0017559907 -0.0038227213
-0.0008851456 0.029729506 0.022739837 0.023239685 0.0301789 -0.02595844 -0.008617339 0.027237609
-0.034199663 0.015477229 -0.052354734 -0.005236978 -0.017305732 -0.007568564 -0.019588182 -0.04592839
0.031633016 -0.028307267 -0.036733024 0.015252215 -0.0029999272 0.009505949 -0.008820659 0.03872902
-0.044340696 0.0029042878 0.011529105 -0.03719277 0.03787342 0.018323706 0.017337048 0.011801253
-0.007076665 -0.030630004 0.006307163 -0.04031377 0.027955303 -0.0035034402 0.023571864 0.027204301
-0.008889935 0.004640764 0.019207563 -0.005889675 -0.016994013 -0.00064889784 -0.021147 0.040330708
0.0020499993 0.004055601 -0.006239246 0.016753562 -0.017679412 -0.028389143 -0.034674037 -0.0052579376
-0.003891744 0.02266741 -0.013200987 -0.0012418714 -0.020023866 -0.02164033 0.03420626 0.0060469573
0.001821147 -0.0015105909 0.00413708 0.015898027 -0.038532846 -0.00738296 0.006337051 -0.023556458
0.0017790647 0.011723978 -0.015946276 -0.0010552235 -0.004852795 0.0057282206 -0.011490147 -0.020554692
0.0028690621 0.035117008 0.03323548 0.040363394 -0.038890224 -0.04368914 0.041314002 -0.009359642
0.010630398 0.008765144 0.012481584 0.022106126 -0.045055002 0.026381683 0.006798754 -0.016339624
-0.017891813 0.032241702 -0.0112058 0.021441555 0.007320944 0.011877119 0.024688568 -0.006818527
0.01750739 0.013788806 -0.031182222 -0.01336306 -0.042959005 0.02513323 -0.02670095 0.014370133
0.0105564175 -0.011672928 -0.0083698565 0.0068103876 -0.0061703734 0.026429584 -0.008679012 -0.016710542
0.01321016 -0.0049232203 0.014219947 0.007817222 0.025630059 0.021771286 0.019055784 0.029478472
-0.014563015 0.02717437 -0.024327915 -0.012208867 -0.03415556 -0.012931981 -0.036353137 0.011900598
0.031421628 -0.027589262 -0.03973297 -0.006109138 -0.007327221 0.003781241 -0.023572067 -0.01712687
-0.004263193 0.033867694 0.030104551 0.02293803 -0.014094729 -0.028392645 -0.05244143 -0.0053526135

base_model.model.bert.encoder.layer.0.attention.self.query.lora_B.default.weight f4 [768, 8]
00000000: 1083 2dbc 0182 48bc b2c5 01bc 2645 29bc
00000010: ee23 65bc e934 163c 2584 3ebc 9bbf 1c3c
00000020: e1a5 39bc dc6a 8abc 103a 6dbc 27d3 40bc
00000030: c882 51bc 00ac 0a3c 14fd 7dbc 2f47 c63b
00000040: 5b62 1abc 344f 63bc e556 2ebc 642c 2dbc
00000050: 77c1 91bc 4452 d63b aa2e 3ebc 4eb5 d23b
00000060: b15f 6bbc 9954 80bc c825 5fbc 45d7 8ebc
00000070: 9d36 a7bc 2421 473c 5c51 8dbc 7b32 a93c
00000080: 10f2 883c 2aa6 563c 212e c33b 541a 1e3c
00000090: 34f6 963c ab27 72bc 777a 453c 041d 28bc
000000a0: d99d 093c 0db8 523c 5b83 193c c07f 253c
000000b0: 3909 5d3c 4807 f3bb a02d 7b3c a418 20bc
000000c0: f3e1 973b 6464 223c b9dc 873b b757 fe3b
000000d0: 2281 533c 24b5 55bb 4d1e eb3b d49f f8b8
000000e0: 9054 383b cb66 c53b d7ab 033c 0b1d e63b
000000f0: 4310 363c 7472 823a d1a2 113c b843 d5ba
00000100: 5270 e43b 4531 7f3b c0b7 b03b 3a94 7eb9
00000110: 7ec7 df3a a8d1 55bb 70ba 06bc 9e65 04bb
00000120: 9b8b 36bb 8010 dcbb 48dc 543b 7901 07bb
00000130: a999 a3ba 93fb 9f3b aa39 0bbc 8f0f 56bb
00000140: 1073 8a3c ce07 ad3c 2b4f 563c cbd7 513c
00000150: 6973 a53c cc76 91bc b089 913c 7cb6 9cbc
00000160: ba3e 113a 80cf a8bb d1a2 5fbc 901c 2dba
00000170: d8fe 44bc 2eb3 613a 9123 a1bb a0ff 063c
00000180: f1da 32bc df3c 62bc 3617 8fbc 0662 6abc
00000190: 82a5 84bc 2107 a13c adc4 12bb a700 843c
000001a0: d6a5 2b3c 9afe 613c 97c3 ee3b fc48 423c
000001b0: 8457 913c 8067 09bc b765 863c 6aa0 0bbc
000001c0: 87a1 72bc 924f 20bc 6fd5 d5bb 097d aabc
000001d0: 4e1d 83bc 22c7 883c b757 9ebc 8842 6d3c
000001e0: 7e55 a8b8 9af3 3bbb 7319 9e3b c029 6eb8
000001f0: 4fab 00bc de7a df3b 741f 02b9 1ff4 593b
00000200: d54a 84bc 9e96 73bc 0f54 41bc d76e 7ebc
00000210: f89e 93bc 2e01 643c 9695 98bc a48b 573c
00000220: 9099 54bc 5603 7ebc 1705 02bc 9252 3dbc
00000230: 3385 92bc d9ca 1f3c 1dc4 6cbc 0966 353c
00000240: 3298 293c 5113 053c b773 e13b dbd9 0f3c
00000250: d82c 4b3c 9fdb f9bb 9b26 5e3c 44d0 c8bb
00000260: 6c42 7dbb d4a9 40bc f92a 20bb 9cf7 d1bb
00000270: e460 42bc 4637 b13b d238 2ebc 7ae2 353b
00000280: 32de 03bc fff6 9dbb c4c9 163b dbbb 9dbb
00000290: 2476 87bc e85a 513b 681f 18bc 7d5a e23b
000002a0: a787 fe3b 4827 8f3b 60be cebb a522 1d3c
000002b0: a505 3f3c cc29 23bc 98d9 523c fb24 2ebc
000002c0: 2257 573c f5f6 5f3c b0c0 303c 2d08 353c
000002d0: be34 933c 5393 47bc cbc6 803c 846a 3bbc
000002e0: 6719 1b3c 0ae3 ad3b 0b88 f33b 41c6 0e3c
000002f0: 0766 4b3a 89fb f2bb 85b0 233c ca20 56bc
00000300: 3351 29bc b648 17bc b732 0fbc b8af 0dbc
00000310: e1e0 85bc cf74 e93b cebf 49bc 8d26 9b3b
00000320: c992 c33c 3ff4 cf3c fe7b b03c e554 b53c
00000330: c16b d13c 95c3 afbc da7d da3c b1b0 bdbc
00000340: 7630 e9b9 e221 153c bfad 5d3b ed32 a93a
00000350: ffe8 083c 25f8 b1ba b499 f13b 7eb1 3f3b
00000360: aa7e 003c fbff 423c 2435 703b 9006 c03b
00000370: 6231 9f3c 903f dabb 06dd 383c 12ed bcbb
00000380: 0bc6 2e3b 93ea d43b e24a d939 4611 ea3b
00000390: 67d5 433c 3005 b839 aa7d af3b a8f9 463b
000003a0: ce7d a83c af9d 9a3c 4701 7c3c 4ba4 6e3c
000003b0: 55cb a53c d70b bcbc 7490 b43c dcf9 99bc
000003c0: b420 753c c221 4c3c 75ef 383c f344 4f3c
000003d0: d2a9 883c 4b86 5cbc 9c7b 333c c9bc 67bc
000003e0: a6da 91ba fdd5 91ba f011 fcbb 50bf c5ba
000003f0: 18e7 dcbb 9fa9 81bb c0a7 d33b 8d1e cbbb
-0.01059033 -0.012238027 -0.007920669 -0.010331428 -0.013985617 0.009167888 -0.011628185 0.009567167
-0.0113310525 -0.016896658 -0.014479175 -0.011769093 -0.012787528 0.00846386 -0.015502233 0.006050966
-0.009422864 -0.013873864 -0.010640834 -0.010569666 -0.017792447 0.0065405685 -0.011607805 0.0064303046
-0.014366076 -0.01566534 -0.013619848 -0.017436633 -0.020411784 0.012153897 -0.01725071 0.020653954
0.016716987 0.01310114 0.0059564267 0.009649832 0.018427946 -0.014779965 0.012053124 -0.010260824
0.00839945 0.012861264 0.0093696965 0.010101259 0.013490968 -0.0074166395 0.015330702 -0.0097715
0.0046350895 0.00991163 0.0041461852 0.0077619213 0.012909206 -0.003260919 0.007175243 -0.00011855332
0.0028126575 0.006024217 0.008036575 0.007022505 0.0111122755 0.0009952323 0.008888916 -0.0016270792
0.0069713974 0.003893928 0.0053929985 -0.00024278546 0.0017073003 -0.0032626186 -0.008223161 -0.002020217
-0.0027854207 -0.006715834 0.003247993 -0.0020600243 -0.0012481707 0.004882285 -0.008497635 -0.0032663082
0.01690057 0.021121886 0.013080399 0.012807797 0.020196633 -0.017756842 0.01776585 -0.019129984
0.0005540658 -0.005151689 -0.013649658 -0.00066036824 -0.01202365 0.00086097687 -0.00491757 0.008239657
-0.0109164575 -0.013808458 -0.017467123 -0.014305597 -0.016192202 0.01965672 -0.002239506 0.016113592
0.01047655 0.013793612 0.0072864997 0.011858221 0.017741926 -0.008386493 0.016405923 -0.008522132
-0.014809019 -0.009784596 -0.0065256874 -0.020811575 -0.016005185 0.016696516 -0.019328935 0.014481194
-8.0267884e-05 -0.0028679133 0.004824811 -5.6782505e-05 -0.007853343 0.006820067 -0.00012409483 0.003325708
-0.016148964 -0.014867453 -0.011799826 -0.015529356 -0.018020138 0.013916297 -0.018626016 0.0131558515
-0.012976065 -0.015503725 -0.007935784 -0.011555331 -0.01788578 0.0097529525 -0.014451054 0.01107169
0.010351228 0.008122281 0.0068802494 0.008779968 0.012400828 -0.007625058 0.013559009 -0.006128343
-0.0038644327 -0.01175924 -0.0024439676 -0.006407691 -0.011863921 0.0054082004 -0.010633664 0.0027753399
-0.008048581 -0.004820704 0.0023008445 -0.004813654 -0.016535826 0.0031945053 -0.009284832 0.0069077597
0.007767636 0.0043686964 -0.0063093156 0.009590779 0.011659061 -0.009958696 0.012869261 -0.010628934
0.013143333 0.013669719 0.010788128 0.011049313 0.017969485 -0.012181121 0.015719792 -0.0114389695
0.009466506 0.005306606 0.007431989 0.00871426 0.00077590387 -0.0074152392 0.009990816 -0.013069341
-0.010334301 -0.009233644 -0.008740119 -0.008647852 -0.016342582 0.0071245204 -0.012313796 0.00473482
0.023873704 0.02538502 0.0215435 0.022135207 0.025564076 -0.021455565 0.026671339 -0.023155542
-0.0004447733 0.009102317 0.0033825485 0.0012908854 0.008356332 -0.0013577981 0.007373059 0.002925008
0.007842699 0.011901851 0.0036652768 0.0058601573 0.019432727 -0.0066604093 0.011283165 -0.0057655657
0.0026668336 0.00649769 0.00041445257 0.0071431724 0.011952735 0.0003509908 0.0053555565 0.003036121
0.0205678 0.018874018 0.015381164 0.014565538 0.020238558 -0.022954864 0.022041537 -0.0187959
0.01496141 0.01245922 0.01128756 0.012650716 0.01668254 -0.013459752 0.010954764 -0.014144131
-0.0011127784 -0.0011126396 -0.007692568 -0.0015086923 -0.0067414157 -0.003956988 0.0064592063 -0.0061987103

base_model.model.bert.encoder.layer.0.attention.self.value.lora_A.default.weight f4 [8, 768]
00000000: 4be7 b53c 98de b93c cc79 96bb faf0 e33c
00000010: 0367 97ba a691 16bd 522d 6fbc b103 003d
00000020: 48e2 4a3b ddf7 04bd c079 ef3b 96eb 6fbc
00000030: 24a5 753c f5a6 ac3c b68b 51bc d4f6 753c
00000040: cf91 aabb 3cb7 1c3d 4c7c 6cbc 8148 b0bc
00000050: 6d34 903c ebd7 343b e6d5 ce3c 23d5 8c3c
00000060: a713 a4bb 3ce6 973c 62d2 073d 6c72 133d
00000070: cbb2 413c d0d1 f93c b316 2fbc 7cf9 8f3b
00000080: 3855 613b 56af 893c 7167 efba 37e0 13bc
00000090: c37b 303d 4ad5 05bd a39c 4cbd a553 9dbc
000000a0: 4be4 a0bc a1a0 e4bc f3f5 d4bc e24d 533c
000000b0: ce7b d83c 03ec 88bc 8d5f a3bc 4953 c3ba
000000c0: 28e5 dbbc c359 ac3b 3cc5 8cbb 9f8c 18bc
000000d0: d0bd 853c 013b f9bc 3eca 6bbc 8730 403a
000000e0: 8031 95bc 8f34 8c3c 2825 113c 7585 84bc
000000f0: e7e2 d8bc fa95 9fba 42cd c0bc 0987 d2bc
00000100: 966d c43c b476 11bd c268 233c 0bc6 b73c
00000110: 65f1 b5bc e523 c53c a79a 563b 5220 abbc
00000120: 2e89 0f3d 3e76 003d f208 56bc 8df8 263b
00000130: 01c7 24bc fd2a e1bb b9ad 873c 5671 c4bc
00000140: 0686 c63c e4d6 9a3b 9626 db3c ebd2 46bb
00000150: ad21 3dbc 94f9 64bc 2434 a3bc 2e04 f0bb
00000160: 9006 30bb 1645 60bc 2fae 583b 08ba a53b
00000170: 0624 debc 292c 943c e132 8bbc bf6a cd3c
00000180: 1670 eabc 3bc3 103d 6b96 9cbb 991e 503c
00000190: 41fc 0abd 2914 13bc bd42 d9bc c3f1 e13c
000001a0: 6774 c5bc fd43 01bd 1c9d efbc 14f6 d73c
000001b0: 5206 9d3c d96c 003c fcb3 c1ba 0b8a 87bb
000001c0: 7d3e f9bc 0769 18bd 58ef 2f3c 5e0a 0cbc
000001d0: 9e29 11bb 1113 d9bc 3d66 a53c 1341 14bd
000001e0: 04ea 623c c01a 0b3c 8afb ffbc 2928 a1bc
000001f0: e559 abbc b977 74bb e2fe f93c d0f5 f8bc
00000200: bbd8 57bc c87f c43b d7be b5bc dc75 e5bc
00000210: bd4c d73c f758 26bd 837b 1bbd 27c6 83bc
00000220: f7a2 03bd 68ce de3c 716a 64bb 8d32 00bc
00000230: 8533 983a ffc0 893c a59a 833b d809 bebb
00000240: 77f1 95bc 2fd1 b63c 1f94 5d3c c8e9 253b
00000250: 1044 d3bb a499 c1bc 5202 0c3d 8bf4 b2bc
00000260: 2130 b9bc 475c 2d3c 4b06 b1bc e2e7 d5bc
00000270: d0b6 8e3b 3b0d e13c 3223 d93c 3259 733c
00000280: afb9 56bc 80f3 dfbc 909e 253c 7932 b63c
00000290: a543 3fbc a8b4 f7bc 6939 89bb 2d29 96bc
000002a0: 83b3 82ba cef9 143d b712 133b a903 883b
000002b0: 0363 0bbd 9f20 38bd 92dc fb3c 731b 123d
000002c0: 90b4 8b3c a420 923c 6772 163c 68de adbc
000002d0: 9279 91bc 330e 86bc f8bb c6bb 7a19 d23c
000002e0: cdb1 c2bc ae12 373c a204 e0bc fe53 833c
000002f0: 9bdb b9bb 1cd2 073d d228 97bb 372c 58bc
00000300: e188 febc e8f6 b33c ec82 89bb 9d10 fabc
00000310: a505 debb cd49 6e3c e0ef c03a f9d8 d1ba
00000320: b12e c73b cd38 d83c 097a 133d ec30 0b3d
00000330: 54bb fa3c 071c 99bc 0e17 e83b c6bb f4bc
00000340: 8027 0dbd d553 b3bc 6c1b 253c 2ecf b83c
00000350: 4f86 df3c 8b2a bcbb 62cb 7b3b 4743 b8bb
00000360: cdb1 4d3a de09 273c 3671 123d 2256 9d3b
00000370: 123b b43c b412 d03c 74f6 b7bc 5a4e bdbc
00000380: 525b 57bc 0477 e33b 7a3b 6b3b 349f 4cbc
00000390: 8316 71bb 7e43 1dbd fd59 10bd 5b6b 8ebc
000003a0: 834f af3b ab9d 573b c7b8 87bb 8884 d7bc
000003b0: cf54 093d 027d 1b3b a1ab 19bd bf9a 38bc
000003c0: 5343 b8bc 1afb 463c 96a9 533c 3d10 f6bb
000003d0: 1be1 0c3d d7ff 20bd d181 20bb 2e23 69bc
000003e0: e419 ca3c 79eb a33b bd64 213d 0bf5 ea3b
000003f0: 5cfd 0bbd cb32 32bc e7d0 78bb 5f16 a03c
0.022205016 0.022689149 -0.004592156 0.027824868 -0.0011551086 -0.036759995 -0.014598208 0.03125352
0.0030957628 -0.032462943 0.007308215 -0.01464357 0.014992986 0.021075705 -0.012789657 0.015012462
-0.00520537 0.038260683 -0.014433932 -0.021518948 0.017603124 0.0027594517 0.02524848 0.017191475
-0.0050072256 0.018542401 0.03315962 0.035997793 0.011822413 0.030495554 -0.010686564 0.0043937545
0.003438307 0.01680724 -0.0018265081 -0.009025625 0.04308678 -0.03267411 -0.049954068 -0.019204924
-0.019640109 -0.027908625 -0.025996184 0.012896987 0.026426222 -0.016714102 -0.019943023 -0.001490214
-0.026842669 0.005259724 -0.004295973 -0.00931087 0.016325861 -0.030423643 -0.01439148 0.000733145
-0.01821208 0.017114906 0.008858956 -0.016176919 -0.026475383 -0.0012175434 -0.023535375 -0.025699155
0.023978036 -0.035513595 0.009973707 0.022433301 -0.022209832 0.024064967 0.0032745989 -0.020889435
0.035042934 0.031362765 -0.013063656 0.0025477738 -0.010057212 -0.0068715797 0.01656233 -0.023979824
0.02423383 0.004725324 0.026751798 -0.003033812 -0.011543673 -0.01397552 -0.019922324 -0.007324717
-0.002685938 -0.013688346 0.0033062806 0.005057577 -0.027116787 0.018087463 -0.016992034 0.025075315
-0.0286179 0.035342436 -0.0047786734 0.012702608 -0.033931974 -0.0089769745 -0.026521081 0.027581101
-0.024103357 -0.03155898 -0.02924972 0.026362456 0.019168053 0.007838451 -0.0014778371 -0.004136329
-0.030425305 -0.037209537 0.010738216 -0.008547394 -0.002215005 -0.02649835 0.020190353 -0.036194872
0.013849739 0.008490264 -0.031247873 -0.01967247 -0.020916888 -0.0037302806 0.030517045 -0.03039065
-0.013174231 0.005996678 -0.022185726 -0.028010301 0.026281709 -0.040612187 -0.037959587 -0.016085697
-0.032137837 0.027198032 -0.0034853483 -0.007824552 0.0011612034 0.01681566 0.004016238 -0.0057995133
-0.018303616 0.022316543 0.013524084 0.0025316346 -0.0064473227 -0.023632832 0.0341819 -0.021845123
-0.022605957 0.010581083 -0.021609446 -0.026111547 0.004355289 0.02747213 0.02650604 0.014852809
-0.013105794 -0.02733779 0.010108605 0.022240864 -0.011673843 -0.03023751 -0.004187752 -0.018330181
-0.0009971712 0.036371045 0.0022441575 0.004150827 -0.03402997 -0.044952985 0.030744825 0.03567071
0.017053872 0.01783783 0.009182549 -0.021224216 -0.017758165 -0.016364193 -0.006064888 0.025646914
-0.023766423 0.011173887 -0.02734596 0.016031262 -0.005671931 0.03315936 -0.0046130205 -0.013194135
-0.031071128 0.02196832 -0.0041965153 -0.0305255 -0.006775575 0.014543963 0.0014719926 -0.0016010097
0.006078564 0.026394272 0.036005054 0.033982202 0.030606903 -0.018690122 0.0070828265 -0.029874694
-0.0344615 -0.02189056 0.010077339 0.022559728 0.027285723 -0.005742376 0.0038420786 -0.0056232545
0.0007846624 0.010195224 0.035752498 0.0048015276 0.022000823 0.025399543 -0.022456385 -0.02310865
-0.013144331 0.006941678 0.0035893605 -0.012489129 -0.00367871 -0.038394444 -0.03524207 -0.017385175
0.0053500547 0.0032900374 -0.0041419 -0.026308313 0.033528145 0.0023725634 -0.037517194 -0.011267363
-0.02249304 0.012144828 0.01291885 -0.00750926 0.034394365 -0.039306488 -0.002449144 -0.014229579
0.024670549 0.0050024358 0.039402712 0.0071703247 -0.03417717 -0.010876368 -0.0037966312 0.019541917

base_model.model.bert.encoder.layer.0.attention.self.value.lora_B.default.weight f4 [768, 8]
00000000: 9587 3b3c b406 4b3c d755 30bc 8097 5bbc
00000010: 17b4 5abc 44e3 92bc 231b 65bc 75a9 0b3c
00000020: 5c44 1dbb b62a 40bb 7d05 b03b 1f1e ac3b
00000030: f9ce a93b 8f2a c83a 7609 2e3b be74 45bb
00000040: 35c8 c73b bc29 a93b b7d7 37bb 3c71 06bb
00000050: 3403 02bb 847b 8fbb 6a8e c4bb bc84 c53b
00000060: 3ae0 0f3b 9955 5b3b 792f a3ba ff9f c3ba
00000070: eb5d dfba f265 26bb ce47 9bbb 353b 643b
00000080: f46b a33c e436 a53c cd14 b9bc 8a20 c3bc
00000090: f7fb b4bc be9d b9bc 7c20 a0bc 29c6 9d3c
000000a0: 311e 96bb ab39 d6bb fafa ba3b 4013 9b3b
000000b0: 9c66 d13b 86ce 293c 308c bb3b 7b18 bcbb
000000c0: 3447 3b3c b536 653c 58b1 6abc 4410 5bbc
000000d0: 5609 7cbc 9466 21bc d4ea 4cbc 3de2 5e3c
000000e0: e08e 18bc 050a 23bc 1d53 143c b717 fa3b
000000f0: 02e7 043c 09ee c33b 59fa 443c 6dcc bebb
00000100: 5de5 36bc 3a40 3fbc eb61 563c 4eee 5e3c
00000110: 9105 523c 700a 433c 9c59 2b3c c886 73bc
00000120: c84d 1f3b c93d 623a 6041 04bb df3d 0cba
00000130: 7de5 f5b8 3616 00b9 da6e 0cba de6b 803b
00000140: 960f d9bb 37b6 f4bb b711 b93b 5492 353b
00000150: 2bb3 743b 485f 38ba 4a04 573b 2ca2 ecbb
00000160: dd74 20bc 90e5 38bc b89b 283c 9789 703c
00000170: 8ed9 563c ff29 ae3c c38b 3d3c 188e 20bc
00000180: 55a4 b1bb 3667 c2bb 4ea2 713b 8f5a 623b
00000190: cb2a 923b 8406 113c d08a b33b d8b2 debb
000001a0: be01 81bb 311c bbbb 48d4 ce3b da64 d43b
000001b0: 30a5 ce3b 11e6 0d3c f671 bc3b 9cfd 8cbb
000001c0: 605f 81bc 879e 97bc 943a 993c ce79 a43c
000001d0: 1548 ad3c 794c b53c e764 8d3c 13fc 7bbc
000001e0: ebff 87bc cdaa 82bc de8e 8e3c c8ba 823c
000001f0: 2208 813c 50dc 433c 8f5e 773c 8a3a 61bc
00000200: 4b44 5ebc df29 57bc 6fad 683c c029 643c
00000210: d795 543c ed4c 593c 3895 5f3c c95a 9ebc
00000220: cbc8 993c 4336 923c fecb 90bc 21cc 92bc
00000230: 2094 93bc c25b 6cbc 1d98 9fbc 7a0c b63b
00000240: 08e9 3f3c 6da2 193c 5c24 1bbc a795 11bc
00000250: 9015 eebb ac36 48bc df39 0ebc 3548 8a3c
00000260: 8c7d dd3b afb8 d03b dae5 c5bb 4060 b0bb
00000270: 5e76 b3bb a07a 0abc 6629 e7bb b552 3c3c
00000280: 1c2b 70bc b6df 77bc da66 803c 2df8 7a3c
00000290: dd8c 833c a3c8 453c 6148 833c b7cb 8abb
000002a0: b82a b53c f46f a03c a39f 8abc 91ab 28bc
000002b0: 2103 3fbc cf89 4ebc 2a68 b0bc 8774 693c
000002c0: 12f7 75bb 7f16 aaba f122 d63a b8ec 6a3a
000002d0: 4e99 c439 a285 ebb8 adcb 923a 4a37 2bbb
000002e0: a31d ef3b 934e f33b c563 11bc 98fa 09bc
000002f0: 169d 09bc 617b 8bbb 5799 cebb 8673 e33b
00000300: 1692 45bc 97a0 43bc d90d 553c 7f96 633c
00000310: fee2 463c 690c 3d3c e26d 473c b073 43bc
00000320: 36f7 d3ba 75aa 0ebb bfa0 0b3b b466 143b
00000330: f816 663b 66fd a93a 2d86 4e3b 316d 013b
00000340: 0d56 193c 02d7 463c b3c6 42bc 54df 54bc
00000350: c515 67bc c0c5 50bc 10b1 42bc 23d2 8f3a
00000360: 9639 8f3b 2dd7 af3b 15a2 dabb ea3c ddbb
00000370: a769 06bc e531 2fbb 43d1 c0bb 0b72 b5bb
00000380: ac71 6aba 428b efba 7860 1a3b 174e a33b
00000390: 77e4 5c3b c325 043c 22d8 573a fa1b f9bb
000003a0: ae64 063b 081b 533b a7fb 7bbb 05c8 5dbb
000003b0: f2ec 9fbb 097d 56bb 2ddb 58bb a7b5 613b
000003c0: 76f6 d93b b2f6 2c3c 123f 0abc ca23 2bbc
000003d0: a166 37bc f0cf 69bc dcc8 10bc 6e62 d83b
000003e0: 910e 473c a46d 323c 42b1 35bc e431 96bb
000003f0: b2a2 0bbc 5047 a2bb 13d7 1cbc 8b36 813c
0.0114458995 0.012391735 -0.010762653 -0.01340282 -0.013348601 -0.017930634 -0.013983521 0.008524288
-0.0023997044 -0.0029322333 0.005371748 0.005252614 0.0051821438 0.0015271473 0.0026555932 -0.0030129398
0.0060968646 0.005162446 -0.002805216 -0.002051427 -0.0019838335 -0.004378738 -0.0059984224 0.006027786
0.0021953718 0.0033467768 -0.0012450061 -0.0014925002 -0.001704154 -0.0025390354 -0.0047387844 0.003482533
0.019948937 0.020167775 -0.022592926 -0.023819227 -0.022092802 -0.022658225 -0.01954674 0.01925953
-0.004581236 -0.0065376363 0.0057061883 0.0047325194 0.006390406 0.01036418 0.0057234988 -0.005740223
0.01143055 0.013990094 -0.014324509 -0.013370577 -0.015383085 -0.009851117 -0.012507159 0.013603744
-0.009311408 -0.009951119 0.009053019 0.0076322216 0.008111717 0.0059793037 0.012022578 -0.0058227093
-0.011163083 -0.011673028 0.013084869 0.013606621 0.01281871 0.011904344 0.010458376 -0.014863677
0.0024307836 0.00086304225 -0.0020180568 -0.00053497957 -0.00011725256 -0.00012215305 -0.00053570943 0.003919109
-0.0066241724 -0.0074680108 0.0056478637 0.0027705627 0.0037338238 -0.0007033241 0.0032808953 -0.007221481
-0.009793487 -0.011285201 0.0102910325 0.0146812415 0.0131133925 0.02126026 0.011568966 -0.009799503
-0.005421201 -0.005932714 0.0036870423 0.003453884 0.0044606677 0.008851651 0.005479194 -0.006796222
-0.0039369753 -0.005710148 0.006311927 0.006481749 0.006306313 0.008660809 0.00575089 -0.0043026935
-0.015792549 -0.018508209 0.01870469 0.020077612 0.021152535 0.022131192 0.017260028 -0.015379923
-0.016601523 -0.015950585 0.017402109 0.015958205 0.015750948 0.011954382 0.015098228 -0.013746867
-0.013566087 -0.013132541 0.014201506 0.01392597 0.012975178 0.013262969 0.013646416 -0.0193304
0.018772503 0.01784814 -0.017675396 -0.017919602 -0.018014967 -0.014426174 -0.019481713 0.0055556865
0.011713274 0.009377104 -0.009469118 -0.008885778 -0.007265754 -0.012220066 -0.00868079 0.016880134
0.006759351 0.0063696723 -0.0060393633 -0.0053825676 -0.005476757 -0.008452088 -0.0070544956 0.011494328
-0.014658716 -0.01512902 0.015674043 0.015317959 0.01605838 0.012071761 0.016025724 -0.0042357105
0.022115096 0.019584633 -0.016921824 -0.010294811 -0.011658461 -0.012606098 -0.021534044 0.014248974
-0.0037531299 -0.0012976675 0.0016337318 0.00089616654 0.00037498254 -0.00011230564 0.0011199616 -0.0026125484
0.007297234 0.0074251383 -0.008873885 -0.008421563 -0.008399269 -0.0042566513 -0.0063049006 0.0069412617
-0.012058755 -0.011940143 0.01300379 0.0138908615 0.01213908 0.011538603 0.012172194 -0.0119294375
-0.0016171697 -0.002176908 0.002130553 0.0022644224 0.0035108905 0.0012969195 0.003151308 0.001974892
0.009358895 0.012136223 -0.011888194 -0.012992699 -0.014104311 -0.01274246 -0.011883035 0.001097266
0.0043708785 0.005366227 -0.0066721537 -0.0067516463 -0.0082039 -0.002673262 -0.005884321 -0.0055372766
-0.000894333 -0.0018275755 0.0023556035 0.0049836743 0.0033705512 0.008065644 0.00082338054 -0.007602212
0.0020506787 0.0032212157 -0.0038449557 -0.0033841145 -0.004880541 -0.0032728335 -0.0033089623 0.0034440549
0.006651695 0.010556864 -0.008437889 -0.0104455445 -0.011193902 -0.014270768 -0.008836951 0.0066035306
0.012149469 0.010890398 -0.011089625 -0.004583584 -0.008522676 -0.004952349 -0.009572762 0.015773078

base_model.model.bert.encoder.layer.1.attention.self.query.lora_A.default.weight f4 [8, 768]
00000000: aa34 b03c 674f 66bc 5b0d e83c a932 653c
00000010: 43eb 0c3d 0d5d 01bd 08c6 08bd 4088 c2bc
00000020: 3788 3ebd 7ebc 2bbc 0ab3 003d f67c 21bd
00000030: d31a 0d3c c1b7 fe3c bde4 22bc 92a2 15bd
00000040: 7d57 d93b 78b3 edbc c63f a83c 1c4b 8d3b
00000050: bda3 c1bc e114 4bbc 96e1 e8bb 86ee adbc
00000060: c608 68bc 58e1 0ebd 462d e7bc c4cf 9c3c
00000070: 5d67 ce3b 3182 b2bc 9219 a4b9 cc9f 1c3c
00000080: 3b5c abbc cbfc 22bd 8122 4ebb 8c87 ae3b
00000090: 89c1 d53b 7d58 90bc 6c90 c33b 981f 213d
000000a0: c59a 0cbb a77f 56bc c873 753c ce3f b8bc
000000b0: 0417 963b 77a9 623c ef33 27bb 319f 89bc
000000c0: bb11 c6bc 4159 e3bc ce5f aebc 8999 033d
000000d0: 36fc 8c3c 7efa a1bc 0c65 a53c 4d47 293b
000000e0: 8a84 eebc 937a b6bc 5e55 f1bc 27f4 c9bc
000000f0: 6843 56b8 c542 f33c f460 163c 215f 18ba
00000100: 975d 2c3c fb26 b8bc 48d7 3d3c 78d7 793b
00000110: 5c73 073c 67fb a2bc 23e9 b2bc df59 dfbc
00000120: edee c9bc ee52 bfbb 23bf 1b3d 39cc 6ebb
00000130: 2b4e e13c b9b5 ba3c 114d a5bc 33e2 e3bc
00000140: bf4c 0c3d 020d 68bc 2c23 d0bb 5c66 f73b
00000150: 20a4 bb3a c60a a13c 4a60 cabb 3703 9b3c
00000160: 94ad 193d fe16 483a c36e 8dbb b4e5 cd3b
00000170: b435 113a 659e c5bc a8c8 e73c ad69 853b
00000180: 2975 dcbc 20df 143d dbd9 febb 6f4d 4a3b
00000190: b8b8 b03b cbf8 4c3c ae97 b53c d7c8 04bd
000001a0: 0399 9c3c 847c 123d 7927 c5bc 19fe f2bc
000001b0: e0cf e23b 6bc8 e0bb bb20 15bd 23cc c03b
000001c0: 6039 6e3c a9ef ea3c 2f4a 13bd db6e 1cba
000001d0: b4be 57bc d14c a4bb f7b5 e4ba 0073 c63b
000001e0: f02c 3b3d 1639 b63c a588 d53b 951d 903c
000001f0: be03 c53c 6de0 a5bc 7148 fbbc 2a7b dabc
00000200: 2d52 b0bc 576b ce3b 83ae 68bb 6d2c 96bb
00000210: fea0 6f3a 10a7 0abd e7f5 8e3b fda2 ec3c
00000220: 4127 c43c 0e26 fc3c 8f29 08bd 7c71 a8bc
00000230: 8450 ec3c f3f3 263a f3d4 0b3d f5ac b53c
00000240: 5f06 d2bc 13b5 e53a 0ce1 9fbb 0e0a ed3c
00000250: e396 de3b 42e4 6e3c 5a79 88bc 0245 ae3c
00000260: c9a4 573c f05d 013d f664 f83c 79c4 d5bc
00000270: a780 91bb 1169 54bc 3603 9ebb 53c1 a63c
00000280: a95c d8bb 6a4c 0a3c a5dd 6a3d c800 0d3c
00000290: d9a0 e73c 5e68 2d3a 436a 99bc 3366 253b
000002a0: 0e6c 41bb c9ab a73c ce4a c33c 013b 613c
000002b0: c290 b53c 314f 953c 4e2b 5a3c 6860 e03c
000002c0: aa43 263a 020b c03c fb09 34bb 6f7d dabb
000002d0: e859 b3bc 2beb 783c c888 d13c 87df b33c
000002e0: 4dc4 f33b 4f91 89bc 4b12 963c 93fa f03c
000002f0: fb78 8d3b 595f e8bc c058 19bc a422 88bc
00000300: 6f79 d23c 3d0f 1abc f51c 74bb 1bd3 04bc
00000310: bfed 423c 0687 063c 1b9c c23c 1955 033d
00000320: 2605 893c 92b7 dabc 6dff 39bc a218 44bc
00000330: dce1 1b3d e255 26bc a7b0 e1bc 67f9 86bc
00000340: 14df 473c 5e41 063d eca5 7cbc 7720 c3bc
00000350: 8d44 51bc 7e32 f53c f805 9cbc dde2 473c
00000360: 4880 b63c e09c dfbc 3e92 17bc ba25 0fbc
00000370: f189 7bbc 912d 2a3c a289 403d 082b 9c3c
00000380: ae82 99bc 3ecf f2bc e0e2 3e3d a54e 15bd
00000390: 72c0 22bb d317 d1bb 2791 023d 8875 663c
000003a0: 53d0 db3b 71fa 4c3c bd3c bc3c 5376 143d
000003b0: 79b3 1cbd 9b84 d6bc bb19 893c 262c b4bb
000003c0: 8fa1 fd3c 59e9 1dbc 28e5 6a3d e5e7 cb3b
000003d0: 1c1a f4bc 2e5f 7bb9 6959 2d3c e2c6 95bc
000003e0: fa54 0f3d 35af 28bc f6e3 aabc 2edd a43c
000003f0: 569e da3c b2a0 74ba 2ce7 01bb 64e9 aa3b
0.021509487 -0.014057017 0.02832668 0.013989129 0.03440405 -0.03158288 -0.033391982 -0.02374661
-0.046516623 -0.010481952 0.031420745 -0.039425813 0.008612352 0.03109348 -0.009942231 -0.036531992
0.006632744 -0.029016241 0.020538222 0.0043119323 -0.023637647 -0.012395115 -0.00710697 -0.0212319
-0.014162248 -0.034882873 -0.02821983 0.01914204 0.006298943 -0.021790596 -0.0003129957 0.009559583
-0.020918002 -0.039791863 -0.0031453671 0.005326217 0.0065233153 -0.01762032 0.005968144 0.03933677
-0.0021454555 -0.013091958 0.014981218 -0.022491362 0.0045803804 0.013834349 -0.0025513133 -0.016799541
-0.024178376 -0.02775252 -0.021285918 0.032128844 0.017210107 -0.019772764 0.020189784 0.0025829852
-0.029115934 -0.022275245 -0.029459652 -0.024652554 -5.1084353e-05 0.029694924 0.009178389 -0.0005812515
0.01052036 -0.022479525 0.011586972 0.0038122814 0.00826725 -0.019895269 -0.021839684 -0.027264534
-0.024650062 -0.0058387434 0.03802408 -0.0036437644 0.027503094 0.02279173 -0.02017835 -0.027817821
0.03425288 -0.014163258 -0.006351849 0.007550044 0.0014315881 0.019658457 -0.0061760293 0.018922431
0.037519053 0.00076328206 -0.0043161823 0.0062834863 0.00055393134 -0.02412338 0.028293923 0.0040714354
-0.026911335 0.0363456 -0.0077774352 0.0030868908 0.005393114 0.012510489 0.022167053 -0.0324181
0.01911593 0.03576328 -0.024066674 -0.029662179 0.0069217533 -0.006859829 -0.036408167 0.00588371
0.014540046 0.028678732 -0.03595942 -0.00059674465 -0.013168026 -0.00501404 -0.0017449249 0.0060561895
0.045697153 0.022244018 0.0065165334 0.01759223 0.024049636 -0.020248616 -0.030674191 -0.026670057
-0.02152356 0.006299417 -0.0035504408 -0.0045829327 0.0009141116 -0.03385073 0.00436281 0.028886313
0.023944499 0.030779865 -0.03324276 -0.020561926 0.028846987 0.0006368749 0.03413863 0.022177199
-0.025637804 0.0017525278 -0.0048791226 0.028935459 0.0067928894 0.014580788 -0.016659427 0.02127314
0.013161846 0.031583726 0.03032158 -0.026094662 -0.0044403854 -0.012964503 -0.00482216 0.020355856
-0.006602843 0.00844107 0.057340283 0.008606143 0.02827494 0.0006614978 -0.018727427 0.0025237917
-0.0029513869 0.020467656 0.02383938 0.013746978 0.022163752 0.018226238 0.013315989 0.02738972
0.000634248 0.023442749 -0.002747177 -0.006667785 -0.021893457 0.015192787 0.025577918 0.021957172
0.0074391724 -0.016792921 0.01831927 0.029416358 0.0043174005 -0.028365778 -0.009359539 -0.01661808
0.02569267 -0.009403047 -0.0037248705 -0.008106972 0.011897503 0.008210903 0.023756078 0.032063577
0.016726088 -0.026698861 -0.011352402 -0.011968764 0.038057193 -0.010152312 -0.027550055 -0.016476346
0.012199182 0.032777183 -0.015420418 -0.023819191 -0.012772691 0.029931303 -0.019045815 0.0122000845
0.022277966 -0.027296484 -0.009251175 -0.008737022 -0.015352712 0.01038684 0.047006257 0.019063488
-0.01873907 -0.029639836 0.046603084 -0.036451954 -0.0024833945 -0.006381014 0.03187671 0.014066108
0.006708184 0.012510882 0.022978181 0.036245655 -0.038257096 -0.026186278 0.016735902 -0.005498427
0.030960826 -0.009638154 0.057347447 0.0062227123 -0.029797606 -0.00023972683 0.010580399 -0.018283311
0.03499315 -0.010295679 -0.020860653 0.020124998 0.026686829 -0.0009331807 -0.0019821627 0.0052158106

base_model.model.bert.encoder.layer.1.attention.self.query.lora_B.default.weight f4 [768, 8]
00000000: ebc8 9a3c c895 4fbc dce4 d0b9 fd27 8ab9
00000010: b0b4 07bc 98a6 31bc cf19 c53b 3b64 3e3c
00000020: 25f8 03bc 7523 1d3c 7bf1 41bc 58ec f93b
00000030: cfd8 08bb 2a59 b13a 0d8a 5c3c 4b09 97bc
00000040: b0d4 79ba e185 803c f184 a7bb af52 633c
00000050: ab57 34bc 53ac 293a ce57 3ebc f8b9 f2bb
00000060: e5db 36bc fcbc 383b b620 a93b 42a1 7b3b
00000070: b7e1 33ba 41fd 333c 7180 88bc ef1c 843b
00000080: 94d6 f2b9 ec92 1dba b90e 8f3c 866d dfbb
00000090: 6b05 623b f42d e9bb f7fe 143a 2ebf 313c
000000a0: 6bd3 b3b9 e727 dfbb 3509 aa3c 0846 27bc
000000b0: 5377 11bc 5aa6 09bb 8b36 81bb 21ac 17bb
000000c0: 63d0 acbb d0b4 31ba 89e8 d1ba f1a4 103c
000000d0: 1dd8 08bc 8a35 d73b 53ba babc a3d1 643c
000000e0: 6a19 a73b 41f4 fd3b 69ee 28bc 0e2d 6a3c
000000f0: 130a c1bb d618 4b3b 217b 203a 1cc3 2dbc
00000100: 8ee6 f23b 53b2 22bb 7730 bd3b c01b e9bb
00000110: 6161 25bc 8221 f4bb de61 03bc 9f81 563c
00000120: 268c 98bc 2be8 c23b 53ef cebb 082b 1cbc
00000130: eace ba3b f455 823c cb49 313b 50e4 0fbc
00000140: 9379 c33a 277d a83b 4c37 393b b695 b4b9
00000150: 2d29 46bc 2d17 01bc 47b7 8e3b dee4 413b
00000160: 76f4 463b 5526 b63a 8663 55ba 60a8 1fbc
00000170: 8bdc a03c f822 993b 8f21 923c e41d 17bc
00000180: 0b0f 1dbb 22da 093c 5f50 62bb 9197 b93b
00000190: de2b 183a a201 673a ac98 4cbc ae3d aeb9
000001a0: 9170 2cbc 4479 1f3c 820a 6fb9 4e51 813c
000001b0: 64b7 18bc 51d0 533b afa9 80bc 5796 273c
000001c0: 9b5e 8cba 120e 20bc 6174 e13b e6b7 353b
000001d0: c5ca 9cbb bf11 52bb cc2e 80bc 4df9 22bc
000001e0: d927 3a3a 87bb 0ebb 4c9f 96bb ad97 243b
000001f0: 1506 2b3c 697b 323c 8f92 b73b cd83 15bb
00000200: 15f9 81bb a992 463c f4b1 c03b 4565 9f3b
00000210: 0328 e2bb 128e c63b 6bf1 92bc 9d88 433c
00000220: 0ae4 1cb9 90f4 bf39 36c7 70ba 7180 17bc
00000230: 0313 17bc 19c3 b5ba b2b3 ff3b f76d 033b
00000240: c3fa 093d 92fd b7bc 2b19 e73a ffb5 28bc
00000250: 358b 5b3c a3d1 a8bc c792 bebb 4abe 9f3c
00000260: d542 96bc 4351 0b3c a90c 923b 81ce 9f3a
00000270: 2615 e73c 225e 2f3c a9dd b2bc 2ee9 1abb
00000280: c0aa d7bb 2e8d 2a3c f0e5 b1ba c447 a83a
00000290: c146 05bc 3436 9d3b 34f3 7e3b 837b 50bb
000002a0: 32aa a9bb d27e f53b 5367 39bc fabc 653c
000002b0: 4c8d e4b9 ac18 1c3c 57cc a8bb 0fa3 bdbb
000002c0: 511c 35bc c9a2 ab3a a4ea a0bb 5237 7c3c
000002d0: 515d 70bc 9875 553b 3506 09bb 52b6 fe39
000002e0: 20f1 9dbb 7d1e 85bb 1f7d 2f3b a140 88bc
000002f0: 90a1 3b3c 4dce 3bbc 2a7b 1b3b 1a20 ba3b
00000300: 7f7f 683b 7c37 f03a 7de8 75bc 43b8 c5bb
00000310: 0d80 37bb f67c 533b 8270 243c 03ba 9fbb
00000320: fad2 303c 1583 4ebc fd87 43bc 2452 713b
00000330: c7bb 8c3c 8e7a 18bc 5bf4 4e3b 3aa5 493c
00000340: 0a21 e4bb ff6d 3d3c e907 323a 5229 153c
00000350: 1d7c febb 7805 e83b 630e 56bc fe7b 843b
00000360: 00e9 3c3c 73b0 66bc b016 eb3b b148 4bbc
00000370: 6697 b73c 2975 80bb ffb7 5fbc 7f19 843b
00000380: f86c e1bb bc25 2b3c f275 30ba 1834 bc3b
00000390: f30d 4ebc 1c66 05bb ce21 2bbc 0d8b 373c
000003a0: dcb6 0c3c 2df9 f6bb 6087 6a3b a554 26bb
000003b0: a1d6 043b 11a1 c23b beca 9e3b 1436 5b3a
000003c0: 815d fe3b 23af 45bc a2df 13bc 49af 1dbc
000003d0: 1e6d 8c3b 66b4 b5bb 5771 523c d252 3cbc
000003e0: 40b9 ee3a adaf f33a b9ab 48bc 2ec8 a3bb
000003f0: 068a 81bb 775a 053c ca9c d73c 16e9 6ebc
0.018894633 -0.012669988 -0.00039843365 -0.00026351205 -0.008282825 -0.010842942 0.0060150395 0.0116205765
-0.008054768 0.009590973 -0.011837359 0.0076270513 -0.002088118 0.0013530601 0.013460648 -0.018437048
-0.0009530289 0.015688838 -0.0051122834 0.013874694 -0.01100723 0.00064725167 -0.011617614 -0.007407423
-0.011160825 0.0028188815 0.00516137 0.0038395678 -0.0006861942 0.010985673 -0.016662808 0.0040317695
-0.0004631771 -0.0006010968 0.017463075 -0.006818476 0.0034488093 -0.0071160737 0.00056837447 0.010848803
-0.0003429906 -0.0068101767 0.020756343 -0.010209568 -0.008878547 -0.0021003694 -0.0039432696 -0.0023143368
-0.005273865 -0.00067789573 -0.0016014735 0.008828388 -0.008352307 0.0065676617 -0.022793924 0.013965997
0.005099465 0.0077500646 -0.010310748 0.014292968 -0.0058910935 0.0030990145 0.0006121863 -0.0106056
0.007412738 -0.0024825528 0.0057735997 -0.0071139038 -0.010094018 -0.0074502835 -0.008018939 0.0130924275
-0.018621515 0.0059480867 -0.0063151508 -0.009531744 0.0057009356 0.015910126 0.002705204 -0.008782461
0.0014913551 0.0051418724 0.002826172 -0.0003444382 -0.012094778 -0.007879061 0.0043553445 0.0029585878
0.0030358112 0.0013896922 -0.00081401353 -0.009744734 0.019636413 0.004673358 0.017838268 -0.009223435
-0.0023965265 0.008413823 -0.0034532768 0.00566382 0.00058048766 0.0008812194 -0.012487572 -0.0003323382
-0.010524885 0.009733502 -0.0002279673 0.01578584 -0.0093210675 0.0032320211 -0.015705911 0.010228715
-0.0010709347 -0.00976898 0.0068803285 0.002772802 -0.004784914 -0.0032054035 -0.015647314 -0.009947133
0.00071012747 -0.0021779255 -0.0045966264 0.002511482 0.010438462 0.010893681 0.005602188 -0.0022814155
-0.0039664605 0.012119927 0.0058805887 0.004864367 -0.0069017424 0.0060594166 -0.017937383 0.011934427
-0.0001496227 0.00036612572 -0.0009184958 -0.009246931 -0.009220841 -0.0013867348 0.007803404 0.0020054558
0.03368641 -0.022459779 0.0017631402 -0.0102972975 0.013399889 -0.020607775 -0.005815837 0.019499917
-0.018342415 0.008503261 0.0044570756 0.001219228 0.028208327 0.010703595 -0.021834211 -0.002363752
-0.0065816343 0.010409636 -0.0013572555 0.0012838771 -0.008134545 0.0047977213 0.0038902285 -0.00318119
-0.0051777596 0.007491925 -0.011316138 0.014022106 -0.00043592823 0.009527367 -0.0051513123 -0.0057872604
-0.011054114 0.0013094778 -0.004910784 0.015394049 -0.014670686 0.0032571312 -0.002090824 0.00048582494
-0.004820004 -0.0040624724 0.002677746 -0.01663238 0.011452094 -0.01146276 0.0023724535 0.0056800963
0.0035476384 0.0018327083 -0.015009043 -0.0060339286 -0.0027999908 0.0032270527 0.01003659 -0.0048744692
0.010792488 -0.012604495 -0.011934278 0.0036822641 0.017179383 -0.009306563 0.0031578753 0.0123074595
-0.0069619464 0.01156187 0.000679134 0.00910409 -0.0077662603 0.00708073 -0.0130649535 0.0040431013
0.011530161 -0.014080155 0.0071743354 -0.012407468 0.02241106 -0.0039202166 -0.013654708 0.0040313597
-0.006879445 0.010446008 -0.00067314424 0.0057435147 -0.012576568 -0.0020355051 -0.010445071 0.011202586
0.008588519 -0.0075370283 0.0035786256 -0.0025380042 0.002026953 0.005939611 0.004845946 0.0008362245
0.0077626114 -0.012065682 -0.009025486 -0.009624311 0.0042854687 -0.005545187 0.012844405 -0.011494355
0.0018213168 0.0018591784 -0.012247973 -0.0049982285 -0.0039532213 0.008139244 0.02631988 -0.014581939

base_model.model.bert.encoder.layer.1.attention.self.value.lora_A.default.weight f4 [8, 768]
00000000: 075a ac3c 0703 eb3b 1ba8 1f3d 3be4 41bd
00000010: 8932 82bb 05b7 523c 9f9e 01bd 766e 0ebd
00000020: df19 c0bc c771 043d 6611 2dbd 2f50 023c
00000030: bb32 653b 9b99 b3bb a4eb 7e3c eb6f 15bd
00000040: 4e93 0d3b 0852 a7ba 3973 2e3c 858e d23b
00000050: 485b 59bc c605 6d3c af4b dc3c 26c0 d83c
00000060: d4a9 9bbc 1fe2 09bd 2d96 663c c404 b53c
00000070: 3858 953c d69b 64bc 58c0 aa3c ddf2 52bc
00000080: 67c8 2fbc 61e9 263d 7de5 d1bb 17b5 813c
00000090: 8302 01bd 31f0 093c 6331 d93c 0136 8f3c
000000a0: 8d92 673c 0524 17bd 4375 823b 6369 e0bb
000000b0: d870 82bc 3814 bfbc 45e3 d5bc d823 163d
000000c0: 834e 1fbc 433f ecbc 3c97 7ebc 92a9 3abb
000000d0: 8684 833c 448b e13a bab2 a6bc 333e 05bd
000000e0: daeb b33b 6d3f 7f3a aa30 dabb 4415 7b3c
000000f0: 1195 28bd e61c a33c 2d8f 663c e981 ec3c
00000100: 8a7e 26bd 6d09 86bc d82d 323c 152a abba
00000110: 70ef 2ebd fb87 533c 0c00 603c 5842 f2bc
00000120: f506 05ba 7d16 54bd 96c2 283d 2fc0 6c3c
00000130: 8ef8 a93c 477b 0abd ab35 3fbc fbd0 123d
00000140: 0d22 e9bc 9e4c 16bd 1cd9 263c f997 9e3c
00000150: 276f e13c 1230 f63c f685 5d3c 9fff 7e3c
00000160: be78 43bc 7afb 31ba 49ae 93bb 9c98 603c
00000170: da16 29bc ea3f e4bc 263a 3abd 9e9c 313d
00000180: d650 07bb 1f0c 993c 8737 ea3c 2850 a5bb
00000190: e01a 3c3d d405 ce3c d9bc bb3c d100 24bd
000001a0: db17 c3bb e5ea b13c 3887 dbbc 65ff 2ebb
000001b0: 3aa6 833c d83d 903c 462e 1ebd 012c b33c
000001c0: 3fcf af3c 2adc 793c 6a6d 6f3c 2a36 13bd
000001d0: 9579 2b3d 49cf df3c e28f 1fbd 3319 0e3c
000001e0: fc59 08bd f153 403c ba88 58bd b339 633c
000001f0: aa66 6abc 7131 763c 7274 fdbc 563e fa3c
00000200: fc5a 3fbc 36b9 dabc 7db3 153d 6753 25bb
00000210: c3d1 983c 7f30 403c 65a8 9bbc 9ff3 163d
00000220: a0db 3a3c f3ee 90bc 49a6 b53c d71d 243c
00000230: 9ec3 323c d456 a13b 8311 253d 3481 1a3c
00000240: 0616 e33c 00ed 8039 03f3 2d3d c820 fb3b
00000250: 0257 413c de41 1bbd 7dc3 c93c bda3 a33b
00000260: 119f 5e3c 4957 92bc 1fe2 a0b9 8aa1 c43b
00000270: ea68 25bc 9b64 a73b e77c aebc 616a de3c
00000280: ea80 813c 295a 943c 8ec4 553d 510b 01bd
00000290: e5a4 84ba 7bd4 69bc 6e68 c5bc ba4a 263d
000002a0: ea26 e5bc 2739 f3bc 994c 0e3d eac6 ddbb
000002b0: 88e2 483c 96bf bc3c 75c8 48bc de66 8abc
000002c0: 3ed2 4c3d bc62 6cbc 33ed a0bb 0f9e 253c
000002d0: 10e0 ee3c 40cb 13bd 6c9c 763c 4270 60bc
000002e0: aee3 28bc 71b6 693c 3fcf 0f3d d244 babb
000002f0: 216b 43bc 9cf3 983c ee9b 9a3b d02f d03c
00000300: 67e5 c0bc 82d2 abbc 5c28 b5bc 6f75 2c3d
00000310: f6d8 bc3b a03b 5cbd 8af0 b2bb 1cb7 ba3c
00000320: 8156 103d dde1 23bc c0f7 4c3b 5944 15bd
00000330: 2a63 873b 82fe 003d 43e6 cb3c aeea cc3c
00000340: 1e03 c63b 56c4 1cbd faee 9e3c dd4c 023d
00000350: e641 8f3b ca8d 81bb 5e4b ccbc 1b19 713c
00000360: 4e3b d7bc d7e6 90bc 64ed 0abc 873b 12bc
00000370: f572 efbc 35b8 ba3c e6cc 0c3d afa6 56bc
00000380: 385a 35bd 4f45 d93c 4733 983c 2aa3 ff3c
00000390: 9d8b ae3b 6093 b4bc bde6 0a3d e6c8 dbbc
000003a0: 235d fb3c f511 0139 2e83 153d 5414 d93c
000003b0: 4214 d43b ac2c 04bd e687 9e3c 6d88 573c
000003c0: 0144 e63c 8616 ec3c 9984 28bb 514d cebb
000003d0: ae91 0abd 9638 ffbc b253 0d3b 2870 f5bc
000003e0: 2db9 35bc 2fc5 573c 3f4f 9d3c 9739 a7bc
000003f0: 6be2 183d 7db7 9d3c c9ed fbbb 82fb 05bd
0.021039022 0.0071719917 0.038978677 -0.0473368 -0.0039733094 0.012861018 -0.031645413 -0.034773313
-0.023449836 0.03233507 -0.04225292 0.007953688 0.0034972865 -0.0054809577 0.015559111 -0.036483686
0.0021602693 -0.0012765536 0.010647588 0.006425681 -0.013266392 0.0144667085 0.026891557 0.026458811
-0.019001879 -0.03366291 0.014073891 0.022096999 0.018230543 -0.01395317 0.02084367 -0.012875286
-0.010728932 0.04074991 -0.006405531 0.01583342 -0.031496536 0.0084190825 0.026512807 0.017481806
0.0141340615 -0.036899585 0.003981264 -0.0068485006 -0.015922949 -0.02332507 -0.026109347 0.036655277
-0.0097233085 -0.02883876 -0.015538987 -0.002848242 0.016054403 0.0017207642 -0.020348895 -0.03253002
0.005490762 0.0009736929 -0.0066586332 0.015324894 -0.041157786 0.01991124 0.014072222 0.02887054
-0.04064802 -0.016361916 0.010875188 -0.0013058806 -0.042708814 0.012910838 0.013671886 -0.02957265
-0.0005074584 -0.05177926 0.041201197 0.014450117 0.020748403 -0.033808973 -0.01167051 0.03584383
-0.02845862 -0.03669416 0.010183599 0.019359576 0.027518822 0.030052219 0.013520708 0.0155638745
-0.011930643 -0.0006789487 -0.0045068604 0.01370826 -0.01032039 -0.027862508 -0.04546561 0.043362252
-0.0020647547 0.018682538 0.02859093 -0.0050449558 0.045924067 0.025149263 0.022917198 -0.04003984
-0.0059537715 0.021718452 -0.026797876 -0.002670252 0.016070474 0.017607614 -0.03861835 0.021871569
0.021461127 0.015250245 0.014613489 -0.035940327 0.041863997 0.027320521 -0.038955577 0.008673
-0.03328894 0.011738763 -0.052864768 0.013868737 -0.014306704 0.015026436 -0.030939315 0.030547302
-0.011679407 -0.026699644 0.036548126 -0.0025226714 0.01865471 0.011730312 -0.019001195 0.03685343
0.011404902 -0.017692065 0.022174018 0.01001688 0.010910897 0.004923681 0.040299904 0.0094302185
0.027720463 0.0002459064 0.042468082 0.00766382 0.011800529 -0.037904613 0.024629349 0.0049938844
0.013587729 -0.017863886 -0.00030686051 0.0060007023 -0.010095814 0.0051084287 -0.021299792 0.027150335
0.015808541 0.018109398 0.052189402 -0.031504933 -0.0010119943 -0.014271851 -0.024097648 0.04059861
-0.027972657 -0.029690338 0.034741018 -0.006768097 0.0122610405 0.023040574 -0.012254824 -0.016894754
0.05000519 -0.014427837 -0.004911089 0.010108485 0.029159576 -0.036082506 0.015051942 -0.013698639
-0.010308189 0.014264689 0.035109755 -0.0056844736 -0.011927397 0.01867085 0.0047182953 0.025413424
-0.023546888 -0.020974401 -0.022113971 0.04210418 0.0057631684 -0.0537678 -0.0054608034 0.022792391
0.035238747 -0.0100025805 0.00312756 -0.036442135 0.0041316943 0.031492718 0.02489007 0.025014248
0.006042852 -0.038273178 0.019401062 0.031811584 0.0043718694 -0.00395367 -0.024938282 0.014715458
-0.026273396 -0.017688198 -0.00847945 -0.008925325 -0.02922962 0.022792915 0.034375094 -0.013101264
-0.044275492 0.026522307 0.018579138 0.031205732 0.005326702 -0.02204293 0.033911455 -0.026829194
0.03068406 0.00012309088 0.036502056 0.026498951 0.0064721415 -0.032269165 0.01935191 0.013155085
0.028108599 0.028819334 -0.00257138 -0.006295838 -0.033830337 -0.031154912 0.002156478 -0.029960707
-0.011091513 0.013169571 0.019202827 -0.020413203 0.037325304 0.019252533 -0.0076882583 -0.03271056
