敖宏柱/week2/model.pt (torch, 2240 bytes, 4 tensors)

linear.weight f4 [5, 10]
000000 b4 93 38 bf 51 f4 dc 3e a2 42 17 3f 70 a1 b3 3e
       -0.7210038 0.4315515 0.5908605 0.35084105
000010 e9 83 19 3f 4f 42 31 3f 6a 02 29 3f 4d d3 1f 3f
       0.59966904 0.69241804 0.6601931 0.62431794
000020 aa ab 0b 3f d3 73 89 3e fa 18 83 3f 60 e9 51 b9
       0.54558814 0.2684618 1.0241997 -0.00020018732
000030 79 c3 78 3e 4f 59 9d 3e 9e 9a 44 bf 86 be 85 bd
       0.24293317 0.307322 -0.7679843 -0.0653048
000040 14 da 84 3e 2b f8 92 3e d8 89 1b 3e 38 27 13 3e
       0.2594763 0.28704962 0.15189302 0.1437043
000050 2b 7d 8e 3f d3 7b 8c 3e 9a 20 70 3e 97 2c ef 3d
       1.1131948 0.2743822 0.23449937 0.11678427
000060 65 cd 86 bf 05 d5 e6 3e f4 55 c7 3e 44 dc a2 3e
       -1.0531431 0.45084396 0.38932765 0.31808674
000070 3b 77 eb 3e 51 0d 9c 3e 44 fd 87 bf 0c 79 3b 3e
       0.45989403 0.3047891 -1.0624166 0.18307894
000080 18 62 8b 3e 57 1f be 3e 39 7c 9d 3f 74 d0 46 3e
       0.27223277 0.37133285 1.2303535 0.19415456
000090 1a cd 04 3f 01 0d 02 3f 22 d0 1c 3f 11 24 01 3f
       0.5187546 0.5080109 0.61255085 0.5044566
0000a0 98 17 45 bd 60 f2 5e 3c 93 dd 0a be 70 88 c0 bc
       -0.048118204 0.013607591 -0.13561086 -0.023502558
0000b0 00 dd a7 ba 8d fd 89 be 30 db 9a bc 22 8c 91 be
       -0.0012806952 -0.26951256 -0.018903345 -0.28427225
0000c0 b8 80 18 3e 1b 91 82 3e
       0.14892852 0.25501332

linear.bias f4 [5]
000000 c3 3c 57 3e 4d 76 01 3e bb f4 bf 3e 50 27 32 3f
       0.21019273 0.12642784 0.37491402 0.69591236
000010 f6 1a 8b be
       -0.27169007

layer2.weight f4 [3, 5]
000000 80 d0 4a 3d e1 9a 8e 3f 12 42 99 3f 59 50 71 bf
       0.049515247 1.1141015 1.1973288 -0.94263226
000010 c8 bd b8 3d 11 81 0d bf a1 b9 bf bc c9 8d 01 bf
       0.09020573 -0.55275065 -0.023403944 -0.5060697
000020 88 df 68 bf 3c 9e 09 3e 5f 73 7b 3f df 50 15 bf
       -0.9096608 0.13439268 0.9822292 -0.58326524
000030 a3 ea 8e bf 84 9c ff 3e 4d 7a 67 be
       -1.1165355 0.499241 -0.22605248

layer2.bias f4 [3]
000000 22 c1 52 3e 4d 3d 90 be bd e9 ef 3d
       0.20581487 -0.2817177 0.11714504
