洪伟/week3/model_for_rnn.pth (torch, 12806 bytes, 7 tensors)

embedding.weight f4 [11, 30]
0	0xbf19ce19	-0.60080105
1	0xc001bdfc	-2.0272207
2	0xbfbd5dd3	-1.4794258
3	0xbe2cdc25	-0.16880853
4	0x3f21f372	0.63262093
5	0x3f2a985c	0.6663873
6	0x3e939941	0.2882786
7	0xc00c9023	-2.1962974
8	0xbf58b00e	-0.8464364
9	0x3f9a3056	1.2046001
10	0x3fbf1bde	1.4930379
11	0xbe9d6040	-0.30737495
12	0xbf2eee50	-0.68332386
13	0x3f3efa2b	0.74600476
14	0x3fd7d2cd	1.6861206
15	0x3e37e55c	0.17958587
16	0xbf98cde5	-1.1937834
17	0x3fc551db	1.5415605
18	0x3f2ac930	0.6671324
19	0x3fe46051	1.7841893
20	0xbd7c227f	-0.061556336
21	0xbe159c87	-0.14610492
22	0x3f6200a2	0.88282216
23	0x3f2a4f4f	0.66527265
24	0xbf0e5da9	-0.55611664
25	0xbd98c4d9	-0.07459421
26	0x3f86ba58	1.0525618
27	0xbe8e2965	-0.27765957
28	0x3f9c7e3a	1.2226021
29	0x3fa9ffde	1.328121
30	0x3faa681c	1.3313022
31	0xbf91b03f	-1.1381911
32	0xbf2c94a8	-0.6741433
33	0x3dd3ffe6	0.10351543
34	0xbec986d5	-0.3936068
35	0xbef1bfb4	-0.4721657
36	0x3f4e7caf	0.80659
37	0x3d8703ed	0.06592546
38	0x3ed50250	0.41603327
39	0x3fcbb0c9	1.5913326
40	0x3f86c4eb	1.0528845
41	0x3f74b9be	0.9559592
42	0x403cd7b4	2.9506655
43	0x3e4a206f	0.19738935
44	0xbf689f3f	-0.9086799
45	0x3f6e30b5	0.9304307
46	0x3d2f25d6	0.042760693
47	0x3ee7867f	0.452198
48	0xbfb71b8c	-1.4305282
49	0x3fb8ad33	1.4427856
50	0xbd581018	-0.052749723
51	0x3fae09b6	1.3596714
52	0xbfa09ffd	-1.2548825
53	0x3f264622	0.64950764
54	0xbee8c748	-0.4546454
55	0x3fb91f85	1.4462744
56	0xbd1f58b5	-0.038902957
57	0xbf242cfb	-0.64131135
58	0x3f4a8ea6	0.79123914
59	0x3fd26bf7	1.6439198
60	0x3c584579	0.013200157
61	0xbf1b850d	-0.60749894
62	0x3ff17e66	1.8866699
63	0x3d8a9e17	0.067684345
64	0xbf0317de	-0.51208293
65	0xbf865001	-1.0493165
66	0xbff0bc1c	-1.8807406
67	0xbf7493ef	-0.9553823
68	0xbee2c5e7	-0.44291613
69	0xbf6f9d22	-0.9359914
70	0x3ffc3fea	1.9707005
71	0xbf989db7	-1.1923131
72	0x3f5abc52	0.85443604
73	0x3f9b5014	1.2133813
74	0xbe118c7f	-0.14213751
75	0xbfbe6075	-1.4873186
76	0x3f363dd6	0.71188104
77	0xbee0a780	-0.43877792
78	0x3e8a8ee1	0.27062133
79	0xbd6a768d	-0.057241965
80	0x3ef6d2b8	0.4820764
81	0xbf534cf0	-0.8253927
82	0xbfa8f832	-1.3200743
83	0xbeb278a9	-0.3485768
84	0xbf8418d4	-1.0320077
85	0x3fc06791	1.5031606
86	0x3faa2d25	1.3295027
87	0xbeb537c0	-0.35394096
88	0x3f68aae6	0.9088577
89	0xbfa4244a	-1.2823575
90	0x3f875896	1.0573909
91	0xbf5e394a	-0.86806166
92	0xbeffda1b	-0.4997109
93	0x3f281d2f	0.6566953
94	0x3f219e78	0.6313243
95	0xbf8a8621	-1.0822183
96	0x3d426731	0.047461692
97	0x3f8a5b2d	1.0809075
98	0xbdb174a2	-0.08664824
99	0x3ee396a0	0.44450855
100	0x3f857ea4	1.0429273
101	0xbfc4ee98	-1.5385313
102	0xbfb5e0cd	-1.4209229
103	0xbfb99525	-1.449864
104	0xbe01c572	-0.12672976
105	0xbf543439	-0.82892185
106	0xbf599975	-0.8499978
107	0xbe967a00	-0.29389954
108	0xbe3c2c1b	-0.183762
109	0x3eaf932e	0.34291977
110	0xbe448e6d	-0.19194956
111	0x3eb26d3f	0.34848973
112	0x3fe22aac	1.7669272
113	0x3fb28c6c	1.3949103
114	0xbeb29d33	-0.34885558
115	0x3e137126	0.14398631
116	0x3f940135	1.1562868
117	0xbf9d8ec9	-1.23092
118	0xbf0aea28	-0.54263544
119	0x3f8184e0	1.0118675
120	0x3e86a746	0.26299495
121	0xbf272867	-0.65296024
122	0x3fac9db3	1.3485626
123	0xbe9fd9a9	-0.3122075
124	0x3ea8528a	0.32875472
125	0xbf0c5e1b	-0.54831094
126	0xbeadfb4e	-0.33980793
127	0x3f6650c5	0.89966995
128	0x3f5d2293	0.8638088
129	0x3fbff79f	1.4997443
130	0xbf8af0c8	-1.0854731
131	0x3f6f83f2	0.9356071
132	0xbf9f8579	-1.2462608
133	0xbfd2152b	-1.641271
134	0x3f12443b	0.5713536
135	0x3ec61491	0.38687566
136	0xbe299225	-0.16559656
137	0x3f517d39	0.818317
138	0xbe2e43d7	-0.17018066
139	0xbda05525	-0.0782874
140	0x3f073653	0.5281727
141	0x3eabea11	0.33577016
142	0x3fc2ed14	1.52286
143	0xbfb3acd4	-1.4037118
144	0x3f1b1f7b	0.6059491
145	0xbf66fc9b	-0.90229195
146	0x3d180147	0.037110593
147	0x3f1749ab	0.59096783
148	0xbf138e4d	-0.5763901
149	0xbee62759	-0.44951895
150	0xbf91c6e2	-1.1388819
151	0x3f76f937	0.9647402
152	0xbfa6c40f	-1.3028582
153	0x3fbd6859	1.4797469
154	0x3fa933d1	1.3218938
155	0xbebddee5	-0.37084118
156	0xbe5a745d	-0.21333452
157	0xbf0e248d	-0.5552452
158	0x3f2de71f	0.6793079
159	0x3e3ea0ce	0.1861603
160	0xbf42c071	-0.7607489
161	0x3eab9e80	0.33519363
162	0x3e04255d	0.12904878
163	0x3f69f651	0.91391474
164	0xc00682fe	-2.1017451
165	0xbe9eca5f	-0.31013772
166	0xbd2acd05	-0.041699428
167	0xbf83e47b	-1.0304102
168	0xbf7b288a	-0.9810873
169	0x3e1a0f36	0.15044865
170	0xbfc97b13	-1.5740684
171	0xbf717e62	-0.9433347
172	0x3ccd15c8	0.0250348
173	0x3f3ba775	0.73302394
174	0x3f84b70f	1.0368365
175	0xbe8c8817	-0.27447578
176	0x3f2e90e7	0.68189853
177	0xbe611217	-0.21979557
178	0x3cc1edea	0.023673017
179	0xbf90643e	-1.1280591
180	0x3f35d19e	0.71022975
181	0x3ffa1e3c	1.9540477
182	0x3dfa05b6	0.122081205
183	0x3fc8b589	1.56804
184	0x4049ed04	3.1550913
185	0x3fe54761	1.7912408
186	0x4010e329	2.2638648
187	0xbfb3f45e	-1.405895
188	0xbfa18bb8	-1.2620764
189	0x3e857244	0.2606374
190	0xbdd42b42	-0.10359813
191	0xbe3ce29d	-0.18445821
192	0x3f2eb6af	0.68247503
193	0xbfc30e18	-1.5238676
194	0x3f9772b4	1.183188
195	0x3f2771a0	0.65407753
196	0xbd4d5b43	-0.050135862
197	0x3da3bcc7	0.07994991
198	0x3f83b7b2	1.0290434
199	0x3bf3f12a	0.0074445205
200	0xbfbb3e27	-1.4628342
201	0xbfd40346	-1.6563499
202	0xbfd75aeb	-1.6824621
203	0x3f704c3d	0.9386633
204	0xbfea65ab	-1.8312277
205	0x3c9996c5	0.01874865
206	0x3f0f85b8	0.56063414
207	0xc0058b20	-2.0866165
208	0x3d3c7736	0.046012126
209	0xbf677ca1	-0.90424544
210	0x3d102343	0.03518988
211	0xbf9b9807	-1.215577
212	0x3fd1e818	1.6398954
213	0xbf2c6018	-0.6733413
214	0xbf98e6bc	-1.1945415
215	0x3f22539c	0.6340883
216	0x3efaf876	0.49017686
217	0xbe3fffae	-0.18749878
218	0xbea6ad15	-0.32553926
219	0xbf727c6d	-0.9472111
220	0x3f1ea7cb	0.6197478
221	0x3e1c9236	0.1529015
222	0xbe34fdfb	-0.17675011
223	0xbce7369f	-0.028224288
224	0x40390c35	2.89137
225	0xbed2f1f7	-0.4120023
226	0xbf14aa31	-0.5807219
227	0xbe1aef54	-0.15130359
228	0x3f4114cf	0.75422376
229	0x3dfa32fe	0.12216757
230	0xbe9f2064	-0.310794
231	0x3f612e61	0.87961394
232	0x3f0933dc	0.53594756
233	0xbf22f462	-0.6365415
234	0xbd99e59d	-0.075144984
235	0x3f04372c	0.51646686
236	0xbf92f3d8	-1.1480665
237	0x3ee4c639	0.44682482
238	0xbd87f188	-0.06637865
239	0x3f1415f8	0.5784602
240	0x3f2b4319	0.6689926
241	0x3fa91246	1.3208702
242	0x3e961d03	0.2931901
243	0x3fff18fc	1.99295
244	0xbfdccf73	-1.7250808
245	0x3c84090a	0.016117591
246	0xbfd69188	-1.6763163
247	0x3f8be4cb	1.0929197
248	0x3ef599d9	0.4796894
249	0xbeba27c5	-0.36358467
250	0xbd83cede	-0.06435941
251	0x3e939275	0.28822675
252	0xbfabe9d8	-1.3430738
253	0x3e778055	0.24170049
254	0xbe59c3a4	-0.21266037
255	0xbdc133f6	-0.09433739

rnn.weight_ih_l0 f4 [30, 30]
0	0xbc9e9e58	-0.019362614
1	0xbe258941	-0.1616564
2	0xbde3c378	-0.11121267
3	0x3d4d713d	0.05015682
4	0xbdd63228	-0.10458785
5	0x3d01d1ac	0.0316941
6	0xbe1447d4	-0.14480525
7	0x3d924874	0.071427256
8	0x3cef756c	0.029230796
9	0xbe2d41bc	-0.16919607
10	0x3caeb2cf	0.021325497
11	0xbd19b164	-0.03752269
12	0x3df01630	0.11722982
13	0x3cce6c26	0.025198054
14	0xbe31d0ae	-0.17364761
15	0xbdc17f96	-0.09448163
16	0xbe049203	-0.12946324
17	0x3dd56126	0.1041892
18	0x3cb64d79	0.022253739
19	0x3de9c288	0.11414057
20	0x3dd76a61	0.10518337
21	0xbdaa277c	-0.08308312
22	0x3dfbf29c	0.123021334
23	0x3a732b5b	0.0009276175
24	0x3d85ec65	0.06539229
25	0xbd4cc24b	-0.04998998
26	0xbe2515c3	-0.16121583
27	0x3e0147ed	0.12625094
28	0xbdcf649e	-0.10126613
29	0x3ca3199f	0.019909678
30	0xbd914f78	-0.070952356
31	0xbe1333fa	-0.14375296
32	0x3d2cd89d	0.042198766
33	0xbe213684	-0.15743452
34	0xbe3a026e	-0.1816499
35	0x3bc7dba6	0.006099182
36	0x3bcbad1e	0.0062157055
37	0x3d19a6af	0.037512477
38	0xbd99093b	-0.07472464
39	0xbde1097b	-0.109881364
40	0x3c9661ec	0.01835724
41	0x3b9ae683	0.004727186
42	0xbd71254f	-0.05887347
43	0x3df74acd	0.12074814
44	0xbe3a7a85	-0.182108
45	0xbc98b408	-0.018640533
46	0x3c682a1f	0.014170199
47	0xbe00208b	-0.12512414
48	0xbe011369	-0.1260506
49	0x3e206b45	0.1566592
50	0xbad2e7a8	-0.0016090767
51	0x3d1ce4cb	0.03830413
52	0x3e541b9e	0.2071366
53	0xbd1f9167	-0.038957026
54	0x3e37047c	0.17872804
55	0xbc38b095	-0.011272569
56	0x3d2e0735	0.042487342
57	0x3d98a25a	0.07452841
58	0x3d8aef40	0.067839146
59	0x3cce55e5	0.025187442
60	0x3d26aeb1	0.040693942
61	0xbd0063fc	-0.031345353
62	0x3d8039ce	0.06261025
63	0xbcd2b624	-0.025721617
64	0xbdd7a795	-0.105300106
65	0xbe0f7f00	-0.1401329
66	0x3dd0ffee	0.10205065
67	0x3da57d1d	0.08080504
68	0xbe08260e	-0.13295767
69	0xbdddaff0	-0.10824573
70	0x3cd4bc0c	0.025968574
71	0xbb78d3f3	-0.0037968128
72	0xbcf3b981	-0.029751541
73	0x3e808d7f	0.25107953
74	0xbe319530	-0.17342067
75	0x3dac2663	0.08405759
76	0x3d8557d2	0.06510891
77	0xbd6269d9	-0.055276725
78	0x3cbc4ac9	0.02298488
79	0x3bda0b08	0.006654147
80	0x3e1f4a34	0.1555565
81	0xbdb0c233	-0.086307906
82	0x3e1ebc65	0.15501554
83	0x3c90a325	0.017655918
84	0x3df64ebf	0.120267384
85	0xbde72519	-0.11286373
86	0xbe0838b4	-0.1330288
87	0x3d861341	0.06546641
88	0xbd144dbb	-0.036206942
89	0x3e0c16af	0.13680528
90	0xbe4a247a	-0.19740477
91	0xbe1d268a	-0.15346733
92	0x3e079bd6	0.1324304
93	0x3e23c39a	0.15992585
94	0xbddc8585	-0.10767654
95	0xbe45fbc2	-0.19334319
96	0xbe1546a2	-0.14577726
97	0xbdb32488	-0.08747202
98	0x3e5be140	0.21472645
99	0x3b1264e4	0.0022337968
100	0x3e25ccb2	0.16191366
101	0x3d02aa65	0.031900782
102	0x3d74a9e0	0.059732318
103	0x3d87bb1e	0.06627487
104	0xbdc464e9	-0.095895596
105	0xbe0a5355	-0.13508351
106	0xbe561346	-0.2090579
107	0xbd524493	-0.05133493
108	0xbe03ecc9	-0.12883295
109	0x3d92cb41	0.07167674
110	0x3da19834	0.078903586
111	0x3bac385a	0.005255741
112	0x3e47c7af	0.19509767
113	0xbb7bed56	-0.0038441024
114	0x3de17fe7	0.110107236
115	0xbdc61c5e	-0.09673379
116	0xbe3f6307	-0.1869012
117	0xbc35695b	-0.011072482
118	0x39f18d70	0.0004607248
119	0x3e25e191	0.16199328
120	0xbe3f9ff5	-0.18713363
121	0x3d9b6096	0.07586782
122	0xbe602c7d	-0.21891971
123	0x3da04ff9	0.078277536
124	0xbd52b7ad	-0.051444698
125	0xbdecc24b	-0.11560496
126	0xbcf958c7	-0.03043784
127	0x3d87ce85	0.06631187
128	0x3e0a4003	0.13500981
129	0x3e142491	0.14467074
130	0x3e1132fe	0.14179608
131	0xbe2aca08	-0.16678631
132	0xbc54b3b2	-0.012982296
133	0xbd37eb6c	-0.04490225
134	0x3dfc5960	0.123217344
135	0x3c4bd2a4	0.012440357
136	0x3b8fd0a0	0.0043888837
137	0x3d513411	0.051075045
138	0x3d527520	0.05138123
139	0xbcb4113f	-0.02198088
140	0x3d9e8bf7	0.0774154
141	0x3e0d7a6f	0.13816236
142	0xbe04b391	-0.12959124
143	0xbe142e93	-0.14470892
144	0x3da54147	0.08069091
145	0x3d12a71d	0.035803903
146	0x3cbc2062	0.02296466
147	0x3df6c721	0.120496996
148	0xbbdb4f1b	-0.0066927797
149	0xbd8ac342	-0.06775524
150	0xbe0dfda2	-0.13866284
151	0x3c505cf6	0.012717476
152	0x3d2262d2	0.039645024
153	0x3e3017f0	0.17196631
154	0xbca6fa8c	-0.020383142
155	0xbe45c682	-0.19314006
156	0xbd07d2e9	-0.033160124
157	0xbc175127	-0.009235657
158	0x3de41539	0.111368604
159	0x3cea72da	0.028619219
160	0x3e5067a6	0.20352039
161	0x3d69a788	0.057044536
162	0xbca4434a	-0.020051617
163	0x3b7637be	0.0037569846
164	0x3d4f30e5	0.05058374
165	0xbd95de84	-0.07317832
166	0xbe09250e	-0.13393041
167	0x3d55ea2b	0.052225273
168	0xbe272b70	-0.16325164
169	0x3df7934c	0.120886415
170	0xbd366c43	-0.04453684
171	0xbdf4f34e	-0.11960469
172	0x3d5f4cba	0.05451653
173	0xbd8f05f8	-0.0698356
174	0xbda65441	-0.08121539
175	0xbd62e2e9	-0.05539218
176	0xbe4d1c86	-0.20030412
177	0xbd52bcc8	-0.051449567
178	0x3bcb610a	0.0062066363
179	0x3d4690a8	0.0484778
180	0x3c8b191a	0.016979743
181	0xbcd87a23	-0.026425427
182	0x3d0da285	0.03457882
183	0xbd4e2ef2	-0.05033774
184	0x3e057c65	0.13035734
185	0x3de4fc3c	0.111809224
186	0xbda87cb1	-0.08226908
187	0x3d038e1e	0.032117955
188	0x3dd721b9	0.10504479
189	0x3d66b8e4	0.05632867
190	0xbc358ae8	-0.011080481
191	0x3b6aacc2	0.0035808538
192	0x3d9304b8	0.071786344
193	0xbd27bef3	-0.040953588
194	0x3d210d3b	0.03931926
195	0x3c9c9b46	0.019117009
196	0xbcf625f2	-0.03004739
197	0xbcb38236	-0.021912675
198	0x3cb434e7	0.021997882
199	0xbca3a34f	-0.019975333
200	0xbdd1078a	-0.10206516
201	0x3ce53c83	0.027982956
202	0x3d21a137	0.039460387
203	0x3dd261aa	0.10272534
204	0xbe6305af	-0.22170137
205	0xbd5aa2e4	-0.053378
206	0xbd9132a7	-0.07089739
207	0xbd3ca13c	-0.046052203
208	0xbb8d7cea	-0.0043178694
209	0xbe0ebbc8	-0.1393882
210	0xbd9cf9df	-0.07664847
211	0x3df26b3f	0.11836862
212	0x3d4d7a03	0.050165188
213	0xbdb5de8f	-0.0888034
214	0xbe0c6ac5	-0.13712604
215	0xbe3c0931	-0.18362881
216	0x3cdcc3ff	0.026948927
217	0xbcbdb52f	-0.023157684
218	0x3c7b2ad5	0.015330036
219	0x3e044985	0.1291867
220	0x3d828008	0.06372076
221	0x3cb6f3a2	0.02233297
222	0x3d76141f	0.060077783
223	0x3dbb90a6	0.09158449
224	0x3c9a4330	0.018830866
225	0xbe343f55	-0.17602284
226	0xbc9dc1f3	-0.019257521
227	0x3c495ebd	0.012290654
228	0xbdc0d9d2	-0.09416546
229	0x3e28f3f8	0.16499317
230	0xbcd15ffc	-0.025558464
231	0xbdadab55	-0.084799446
232	0x3e3f2305	0.18665703
233	0xbd0f0fb2	-0.034927078
234	0x3dcb8d22	0.09939028
235	0x3d1f8bfb	0.038951855
236	0xbd4164e5	-0.04721536
237	0x3cf2a5af	0.02962002
238	0xbd6f2106	-0.058381103
239	0x3ab7898c	0.0014002784
240	0x3e3decc5	0.18547352
241	0x3df19ec4	0.1179786
242	0xbd1fb8ac	-0.038994476
243	0x3db9f775	0.09080402
244	0xbda725f1	-0.081615336
245	0x3da8d6fa	0.082441285
246	0x3db3d933	0.08781662
247	0xbbe251d4	-0.0069067273
248	0xbda9474d	-0.08265553
249	0x3da46c8e	0.08028518
250	0x3e1a6650	0.15078092
251	0x3df4c20c	0.11951074
252	0x3d479efa	0.048735596
253	0xbe19e132	-0.15027311
254	0x3e005dd3	0.12535791
255	0xbdc50169	-0.096194096

rnn.weight_hh_l0 f4 [30, 30]
0	0xbebdad40	-0.37046242
1	0xbd3488e0	-0.044075847
2	0xbeccd31a	-0.40004808
3	0xbd9333ea	-0.07187636
4	0x3c58bc73	0.013228524
5	0xbe90b724	-0.28264725
6	0x3cb8b996	0.022549432
7	0xbe979712	-0.29607445
8	0x3e1011aa	0.14069238
9	0x3e6b9367	0.23005448
10	0xbc413551	-0.011792497
11	0xbeb15d5e	-0.34641546
12	0xbe50960e	-0.20369741
13	0x3e00e26f	0.12586378
14	0xbe7aeda2	-0.24504712
15	0xbe26208c	-0.16223353
16	0x3d72fa17	0.059320536
17	0xbe13f144	-0.14447504
18	0x3d54090e	0.051766448
19	0xbee77cc4	-0.45212376
20	0xbe7571ea	-0.23969236
21	0x3b5d798d	0.0033794374
22	0x3edb23b4	0.42800677
23	0x3f0b6c48	0.544621
24	0x3cd40980	0.025883436
25	0xbe35e5f8	-0.17763507
26	0x3d50f10e	0.051011138
27	0x3e721b40	0.23643208
28	0x3da305ef	0.07960116
29	0x3ecbd467	0.39810488
30	0xbd8a134f	-0.06741964
31	0xbf09835e	-0.53716075
32	0xbb4a2d06	-0.003084959
33	0xbe9fbba1	-0.31197837
34	0x3d747564	0.059682265
35	0x3d03e10b	0.03219704
36	0x3e24ab9d	0.1608109
37	0x3e6206e1	0.22072937
38	0xbdf8da14	-0.1215097
39	0x3e190e3e	0.14946839
40	0x3d64f291	0.05589539
41	0x3e9f880e	0.3115849
42	0xbe397ddb	-0.18114416
43	0x3e4df02e	0.20111153
44	0xbdcedf2b	-0.1010116
45	0x3c8fad1c	0.0175386
46	0xbe4e9b81	-0.20176508
47	0x3e3a0701	0.18166734
48	0x3e815378	0.25258994
49	0x3e00666c	0.12539071
50	0xbdf847dd	-0.12123082
51	0x3e41605b	0.18884413
52	0xbdc30ff5	-0.09524528
53	0xbddad0bb	-0.106843434
54	0xbc31bd10	-0.010848299
55	0x3ee37752	0.44426972
56	0xbe6dfd00	-0.23241043
57	0x3e1992f0	0.14997458
58	0x3d90b156	0.07065074
59	0xbb3f3876	-0.002917794
60	0xbde16dd9	-0.1100728
61	0x3da68c38	0.08132213
62	0x3e3384ba	0.175311
63	0x3cf19d25	0.029493878
64	0xbe6ad965	-0.22934492
65	0x3ecab054	0.39587653
66	0x3e53b343	0.20673852
67	0xbc3a967c	-0.011388417
68	0x3f000d3d	0.500202
69	0x3e49a30e	0.19691107
70	0xbe94f8e6	-0.29096144
71	0xbdf7e531	-0.12104262
72	0x3e9c9310	0.3058095
73	0x3d532d41	0.05155683
74	0x3df58306	0.11987881
75	0x3d82e90e	0.06392108
76	0xbe8121b9	-0.2522104
77	0x3e52ec5f	0.20597981
78	0x3e057ea5	0.13036592
79	0x3e854cc1	0.2603512
80	0x3dd3ecbf	0.1034789
81	0x3db23576	0.08701603
82	0xbe427b4e	-0.1899235
83	0xbe212c45	-0.15739544
84	0xbddb1e36	-0.10699122
85	0x3ca3e868	0.02000828
86	0x3c83a12e	0.016068067
87	0xbe8ecfff	-0.27893063
88	0x3d7780b5	0.06042548
89	0x3d3de477	0.04636046
90	0xbea31632	-0.3185287
91	0xbdaceda5	-0.084437646
92	0xbc5b48a4	-0.013384018
93	0xbe919a73	-0.28438148
94	0xbf01f26a	-0.5076052
95	0x3d819f42	0.06329204
96	0x3eb73204	0.35780346
97	0xbb1a2779	-0.0023522063
98	0x3d86da56	0.06584613
99	0xbe051499	-0.12996139
100	0xbd4efa75	-0.050531823
101	0x3e591c71	0.21202256
102	0xbe9918c6	-0.29901713
103	0x3ee60871	0.44928315
104	0xbe2ece55	-0.17070897
105	0xbda94cf1	-0.082666285
106	0xbeb821c6	-0.35963267
107	0xbda5fedf	-0.081052534
108	0x3e3d2961	0.18472816
109	0x3e93598d	0.2877926
110	0x3e3b4bfe	0.18290707
111	0x3ed4ec9c	0.4158677
112	0x3e0101f0	0.12598395
113	0xbe8d1d27	-0.27561304
114	0x3dbd774a	0.09251268
115	0x3e1dbab2	0.1540325
116	0x3e22a57a	0.15883437
117	0xbe8b8062	-0.27246386
118	0xbe226fc9	-0.15862955
119	0x3deddde8	0.11614591
120	0xbe94cd63	-0.29062948
121	0xbe06e496	-0.13173136
122	0xbef6c838	-0.4819963
123	0xbe802268	-0.2502625
124	0xbdbeb001	-0.09310914
125	0xbe82e610	-0.2556615
126	0x3e860461	0.26175216
127	0xbe374a3f	-0.17899416
128	0xbe2f9587	-0.17146884
129	0x3d16c4ee	0.0368089
130	0x3e3704e4	0.1787296
131	0xbe0fdcb8	-0.14049041
132	0xbebb3245	-0.3656179
133	0x3ebc611f	0.36792848
134	0xbf07b129	-0.530047
135	0x3d367c4f	0.044552144
136	0x39e9e887	0.0004461447
137	0xbe8aa510	-0.27079058
138	0x3c9456ef	0.01810786
139	0xbe86d1be	-0.26331896
140	0x3e785d59	0.2425436
141	0x3ea4f8ec	0.32221162
142	0x3e22cf35	0.15899356
143	0x3ea726ec	0.32646883
144	0xbe356476	-0.17714104
145	0xbe4597b1	-0.19296147
146	0x3dede24d	0.11615429
147	0x3d061f19	0.0327445
148	0xbd95bdb3	-0.07311573
149	0x3ed23515	0.41056123
150	0xbe48c0e5	-0.19604833
151	0x3de997ba	0.11405893
152	0x3e4aeeb7	0.19817625
153	0x3d9e0130	0.0771507
154	0x3ddf0141	0.10888911
155	0x3eda4577	0.42631122
156	0x3dff4b70	0.124655604
157	0xbed266d8	-0.4109409
158	0x3eed51fc	0.46351612
159	0xbdefc984	-0.11708358
160	0xbe93ba55	-0.28853098
161	0x3dc0a37c	0.09406182
162	0x3e7d489f	0.24734734
163	0xbd87acd6	-0.06624763
164	0x3e193f4f	0.14965557
165	0x3df22ab6	0.11824553
166	0xbe1140ce	-0.14184877
167	0x3e3c730c	0.18403262
168	0xbe14426a	-0.1447846
169	0x3db62c2b	0.08895143
170	0x3d95ec1f	0.07320427
171	0xbe92700e	-0.28601116
172	0xbe871288	-0.26381326
173	0xbd2698bb	-0.040673
174	0xbd83bda0	-0.064326525
175	0xbea9a7c7	-0.33135816
176	0x3e8980a1	0.2685595
177	0xbef187b5	-0.4717385
178	0xbd6cd804	-0.057823196
179	0x3e11b922	0.14230779
180	0x3e094c1b	0.13407938
181	0x3e76e3d8	0.24110353
182	0x3ea9e302	0.33181006
183	0x3e7162f4	0.23572904
184	0x3ead50e4	0.33850777
185	0x3df6391d	0.12022612
186	0x3e4324eb	0.19057052
187	0x3e396284	0.18103987
188	0x3d9678ea	0.07347281
189	0x3da34976	0.07972996
190	0xbe801978	-0.2501943
191	0xbe436021	-0.19079639
192	0x3edca99f	0.4309816
193	0xbde8aa73	-0.113606356
194	0x3dfef70d	0.12449465
195	0x3eb42dc6	0.35191172
196	0xbd428c5f	-0.04749715
197	0x3eb91664	0.36149895
198	0xbe3902bd	-0.18067451
199	0xbe1d2a2f	-0.15348123
200	0x3e19fa96	0.15036997
201	0x3e4e7b8f	0.20164321
202	0xbe4321ac	-0.19055814
203	0x3e70d2be	0.23517892
204	0xbe91683c	-0.28399837
205	0xbd858297	-0.06519049
206	0x3df739fe	0.12071608
207	0xbe8d9a9c	-0.2765702
208	0xbd6b253e	-0.057408564
209	0xbe820a85	-0.2539865
210	0xbd9008d0	-0.07032931
211	0x3ea93dd6	0.3305499
212	0xbece9128	-0.4034512
213	0x3dc309e8	0.09523374
214	0x3cda4988	0.02664639
215	0xbe19c705	-0.15017326
216	0xbd6a19b1	-0.057153407
217	0xbe01912f	-0.1265304
218	0xbe5be541	-0.21474172
219	0x3e9e307f	0.30896375
220	0x3dd928c8	0.106034815
221	0xbde12bed	-0.10994706
222	0x3e59419c	0.21216434
223	0x3da5d598	0.080973804
224	0xbead1dd3	-0.33811817
225	0xbe9fb8ea	-0.31195766
226	0x3e28e922	0.16495183
227	0xbeba7bdc	-0.36422622
228	0xbe44f3b8	-0.19233596
229	0xbeaeb169	-0.34119728
230	0x3ca66649	0.020312445
231	0xbe37f3fe	-0.1796417
232	0x3e582e2a	0.2111136
233	0x3e73fbe9	0.23826565
234	0x3c7a7d4e	0.015288664
235	0xbebcc006	-0.36865252
236	0xbd7fcf4a	-0.062453546
237	0x3e9e03ef	0.30862376
238	0x3dd493a4	0.10379723
239	0x3eb40961	0.35163406
240	0xbe44c917	-0.19217335
241	0x3e4a4497	0.19752727
242	0x3ea1dbd0	0.31613016
243	0x3d7c5745	0.061606664
244	0x3e7dd229	0.24787201
245	0x3e69e8a4	0.22842652
246	0x3e1a05f9	0.15041341
247	0xbe4b438a	-0.19849983
248	0x3e3d52be	0.18488595
249	0x3d10e792	0.035377093
250	0xbef3e06f	-0.47632167
251	0xbeac93b6	-0.33706445
252	0x3e525688	0.20540822
253	0x3d1fc5ce	0.039007
254	0x3e7906e2	0.24319032
255	0x3eeb2dd1	0.45933393

rnn.bias_ih_l0 f4 [30]
0	0xbd582921	-0.0527736
1	0x3d260836	0.040535174
2	0xbe08c07f	-0.13354681
3	0xbc9bea90	-0.019032747
4	0x3d0274bf	0.03184962
5	0x3e777b95	0.24168237
6	0x3cb58f8b	0.022163173
7	0xbd899fb9	-0.06719918
8	0x3cc1a517	0.023638291
9	0x3d62d6ff	0.055380818
10	0x3e12b3da	0.1432642
11	0x3d4e2918	0.05033216
12	0x3d790c7c	0.06080292
13	0xbe0b7fcf	-0.13622974
14	0x3db53231	0.08847464
15	0x3e5ea413	0.21742277
16	0xbdff4293	-0.1246387
17	0xbe316d22	-0.17326787
18	0x3d203070	0.039108694
19	0x3cc3c65d	0.023898298
20	0xbd5851c9	-0.05281237
21	0x3cd4c5b3	0.025973177
22	0x3ca36139	0.01994382
23	0x3dcda236	0.10040705
24	0xbe0290f8	-0.12750614
25	0x3c5223a5	0.012825881
26	0xbd53fda6	-0.05175557
27	0xbdc62ad0	-0.096761346
28	0xbd960d7c	-0.07326791
29	0xbbcb5b52	-0.0062059546

rnn.bias_hh_l0 f4 [30]
0	0xbdd03f1e	-0.10168289
1	0xbb23d6ad	-0.0024999783
2	0xbe87be80	-0.26512527
3	0x3d650b29	0.055918846
4	0xbe071979	-0.13193311
5	0xbd94c509	-0.07264144
6	0x3d217b48	0.03942421
7	0xbca36f25	-0.019950459
8	0xbe2d677b	-0.16934006
9	0x3e2d71b8	0.16937912
10	0x3e352e6c	0.1769349
11	0x3e0407f9	0.12893666
12	0x3dea2049	0.11431939
13	0x3e0ebf3c	0.13940138
14	0x3dd5c7c1	0.10438491
15	0xbcb36f35	-0.021903614
16	0xbe51915a	-0.20465603
17	0xbd0edac6	-0.034876607
18	0xbe61191f	-0.21982239
19	0xbd0d60c0	-0.034516096
20	0xbd900aaa	-0.07033284
21	0x3c99a2e8	0.018754438
22	0x3d794a8e	0.060862117
23	0x3e087cd2	0.13328865
24	0xbe11c0e5	-0.1423374
25	0xbe04766f	-0.12935804
26	0xbdd1174f	-0.10209524
27	0xbdafcec5	-0.0858436
28	0xbdba2228	-0.09088546
29	0xbe795ff8	-0.24353015

classify.weight f4 [11, 30]
0	0xbe2e686c	-0.17032021
1	0x3e7d9f48	0.24767792
2	0x3e5df94c	0.2167713
3	0xbef11582	-0.47086722
4	0xbed25e15	-0.41087404
5	0x3e126286	0.14295396
6	0x3d0d14cd	0.034443665
7	0xbeba2f98	-0.36364436
8	0x3e1bcd52	0.15215042
9	0x3c723e95	0.0147854285
10	0xbe2a5715	-0.16634782
11	0xbeacf36f	-0.33779475
12	0xbda99052	-0.0827948
13	0xbe2706f9	-0.16311254
14	0x39b77ae2	0.00034996035
15	0x3e8753f2	0.26431233
16	0xbdc96ef3	-0.09835615
17	0xbccf28eb	-0.025288066
18	0xbe758699	-0.23977126
19	0x3f04e953	0.51918525
20	0x3ea7c546	0.32767695
21	0x3e6511e7	0.2237011
22	0x3bdf835e	0.00682108
23	0xbef60674	-0.48051798
24	0xbe23cd35	-0.15996249
25	0xbec37d9e	-0.38181776
26	0x3eb977bf	0.36224172
27	0xbe5028a2	-0.20328
28	0xbdc3151f	-0.09525513
29	0x3e9c4957	0.30524704
30	0x3f0348ae	0.51282775
31	0xbea0ba7b	-0.31392273
32	0x3eb2d2cf	0.3492646
33	0x3e9f9824	0.31170762
34	0x3ea2bd92	0.31785256
35	0x3dc7498a	0.09730823
36	0x3e474b5e	0.19462344
37	0x3ec55b2e	0.38546127
38	0x3d76467e	0.06012582
39	0x3e92c0d3	0.28662738
40	0xbe73d788	-0.23812687
41	0x3e61b86b	0.22043006
42	0x3e934c58	0.28769183
43	0xbeacc21f	-0.33741853
44	0x3d01c57f	0.031682488
45	0x3e15c759	0.14626826
46	0xbe8ad6dd	-0.27117053
47	0x3e8c520d	0.2740635
48	0xbe6003c4	-0.21876436
49	0x3d95e63d	0.07319305
50	0xbe75204c	-0.23938102
51	0xbcc70dd3	-0.024298584
52	0xbe45128a	-0.19245353
53	0x3e46b8bb	0.19406407
54	0xbd974015	-0.073852696
55	0x3ea9f24b	0.33192667
56	0xbdba3bf8	-0.090934694
57	0x3deed786	0.116622016
58	0x3f0b1275	0.5432504
59	0xbe8f2f09	-0.27965572
60	0x3cdafca8	0.026731804
61	0x3e778519	0.24171866
62	0x3e9fcb3d	0.31209746
63	0x3eb46042	0.3522969
64	0xbebf095b	-0.37311825
65	0x3e68c9ad	0.22733183
66	0x3e783c37	0.2424172
67	0xbe9752f9	-0.2955549
68	0x3d9b0921	0.075701006
69	0x3e7eb246	0.24872693
70	0xbd776d7c	-0.060407147
71	0xbe2cdcd2	-0.16881111
72	0x3e79a115	0.24377854
73	0x3e9a8dfc	0.3018645
74	0xbeb1d56f	-0.3473315
75	0xbe8257d5	-0.25457636
76	0xbe95421d	-0.29152003
77	0xbecb1b12	-0.3966909
78	0xbe4eee2b	-0.20208041
79	0xbf01a14c	-0.50636744
80	0x3e8dc74f	0.27691123
81	0x3ec55c05	0.38546768
82	0xbe809eec	-0.25121248
83	0x3f00379b	0.5008485
84	0xbe1c4058	-0.1525892
85	0xbe75df2b	-0.24010913
86	0x3e45d57a	0.19319716
87	0xbe580c62	-0.21098474
88	0xbdabae5a	-0.08382864
89	0x3e09ca1a	0.13456002
90	0x3e576a26	0.21036586
91	0xbe077cac	-0.13231152
92	0xbe755692	-0.23958805
93	0xbed37400	-0.41299438
94	0x3eb95ca6	0.36203498
95	0x3e8eab94	0.2786528
96	0x3d02b4b3	0.03191061
97	0x3e9ac7ac	0.30230463
98	0x3ddaba2f	0.10680043
99	0xbe901f7a	-0.28149015
100	0xbe8a5bde	-0.27023214
101	0x3e02d8cb	0.12778012
102	0x3d98c95f	0.074602835
103	0x3ecd1a76	0.4005925
104	0x3ea9d7c6	0.33172435
105	0x3e1c02df	0.1523547
106	0xbdbb87eb	-0.09156784
107	0x3ebbfe6d	0.3671755
108	0x3ed58375	0.41701856
109	0x3e681d1a	0.22667351
110	0x3ea7f71b	0.32805714
111	0x3df8769f	0.12132
112	0xbecb3a1d	-0.39692774
113	0xbdd8ca37	-0.105854444
114	0xbe6d056f	-0.23146604
115	0x3e984220	0.2973795
116	0xbe386cf1	-0.18010308
117	0xbe9e381d	-0.30902186
118	0xbd8f795b	-0.070055686
119	0xbea0bef4	-0.31395686
120	0xbeb3e05f	-0.3513212
121	0x3ea3950f	0.3194966
122	0xbed1c9fe	-0.4097442
123	0x3e471093	0.19439916
124	0x3e8c2c6b	0.27377638
125	0xbf073a1e	-0.52823055
126	0xbef3a4bd	-0.47586623
127	0xbeacea81	-0.33772662
128	0xbe595aac	-0.21225995
129	0x3e43fce8	0.19139445
130	0xbe0fa398	-0.1402725
131	0xbe9a256e	-0.30106682
132	0x3ec3d070	0.38244963
133	0xbdae63de	-0.08515142
134	0xbe1740d9	-0.14770831
135	0x3ea3fe14	0.32029784
136	0x3e0a306d	0.13495035
137	0xbe695a70	-0.22788405
138	0xbdccc661	-0.09998775
139	0xbe8ba78d	-0.2727627
140	0x3e43a528	0.19105971
141	0xbe0eb982	-0.13937953
142	0x3df970a0	0.12179685
143	0x3eb6981c	0.35662925
144	0x3cadb11b	0.021202615
145	0xbeb3ef73	-0.35143623
146	0x3e453a2b	0.1926047
147	0xbebab8af	-0.36469027
148	0xbe0e0450	-0.13868833
149	0x3e0c50c9	0.13702692
150	0x3e561365	0.20905836
151	0xbe8b4db4	-0.2720772
152	0xbe9ebd06	-0.31003588
153	0xbe911de5	-0.2834312
154	0xbe28fffa	-0.16503897
155	0xbedd18d7	-0.43183014
156	0xbc25deed	-0.01012395
157	0x3de68281	0.112553604
158	0xbee25eeb	-0.44213042
159	0xbead8490	-0.338902
160	0x3ed85020	0.4224863
161	0x3e9d8e88	0.30772805
162	0xbe95e23d	-0.2927417
163	0x3e51e0ab	0.2049586
164	0xbebc1242	-0.3673268
165	0x3e644927	0.2229353
166	0x3e43c006	0.1911622
167	0xbe99d130	-0.3004241
168	0x3e417888	0.18893635
169	0x3ea868b0	0.3289237
170	0x3e64deed	0.22350664
171	0x3e907458	0.28213763
172	0x3ce5ae72	0.028037284
173	0xbdd3b482	-0.103371635
174	0x3e1a2f36	0.15057072
175	0x3e993deb	0.29930052
176	0xbe03f597	-0.12886654
177	0xbe749194	-0.23883659
178	0xbebe4771	-0.3716388
179	0xbe95f350	-0.29287195
180	0x3ed13bf9	0.40866068
181	0x3e6f8792	0.2339156
182	0xbe83f8a0	-0.25775623
183	0x3e58e80d	0.2118227
184	0x3e1501c2	0.14551452
185	0xbec62bde	-0.38705343
186	0xbec99dc9	-0.39378193
187	0x3e08247b	0.13295166
188	0xbebe3391	-0.37148717
189	0x3e7470b0	0.23871112
190	0x3eb39d8d	0.3508114
191	0xbe969b99	-0.29415587
192	0xbd086403	-0.033298504
193	0xbe8d23bb	-0.27566323
194	0x3e16ead0	0.14738011
195	0x3e181859	0.14853038
196	0x3e9617ec	0.29315126
197	0x3e994a18	0.29939342
198	0xbc41db8d	-0.01183213
199	0xbe75488e	-0.23953459
200	0xbed6f51a	-0.41983873
201	0xbec720f0	-0.38892317
202	0x3e5930ec	0.21210068
203	0x3ec6b8d0	0.38812876
204	0xbe0668ef	-0.13125966
205	0xbcec69ce	-0.028859045
206	0xbe544b53	-0.20731859
207	0x3e926332	0.28591305
208	0x3ee69fba	0.45043737
209	0xbea701dc	-0.32618606
210	0xbec20b22	-0.3789912
211	0xbe84d18c	-0.25941122
212	0xbec08b15	-0.3760611
213	0xbe9a7e77	-0.3017461
214	0xbecc6820	-0.3992319
215	0x3e218717	0.15774189
216	0xbe3b7075	-0.18304618
217	0x3e00eae8	0.1258961
218	0xbea20223	-0.31642255
219	0x3dce18ef	0.100633495
220	0x3eb741a0	0.35792255
221	0x3dbba372	0.09162034
222	0xbeaf1db0	-0.34202337
223	0x3db185cf	0.086681
224	0xbeb8c27d	-0.36085883
225	0xbedb78fb	-0.42865738
226	0xbe0e4880	-0.13894844
227	0xbda3cda8	-0.0799821
228	0x3e2337d0	0.1593926
229	0xbee85bd0	-0.45382547
230	0xbdc548d2	-0.0963303
231	0x3eadc4b2	0.3393913
232	0x3e117c08	0.1420747
233	0xbe50191c	-0.20322078
234	0xbe6cd8cb	-0.23129575
235	0x3eb37cec	0.35056245
236	0xbe8b830f	-0.27248427
237	0x3ef122a2	0.47096735
238	0x3d20ba47	0.039240148
239	0x3eeb6261	0.45973495
240	0x3ebdd9a9	0.37080124
241	0x3e4e034f	0.2011845
242	0xbc28c065	-0.010299777
243	0x3e8fc67b	0.28081116
244	0x3e095123	0.13409857
245	0x3ea96dcb	0.33091578
246	0xbea87d19	-0.32907942
247	0x3db45326	0.08804922
248	0xbead4d1e	-0.33847898
249	0xbedea198	-0.4348266
250	0x3e82a10e	0.255135
251	0x3ed11cc0	0.40842247
252	0x3d1c4d43	0.03815962
253	0xbe783686	-0.24239549
254	0x3ead3fcf	0.33837745
255	0xbed0d608	-0.40788293

classify.bias f4 [11]
0	0xbd1ed7d3	-0.038780045
1	0xbd43e9b1	-0.047830287
2	0xbe2d11d7	-0.16901337
3	0xbd8ed5da	-0.06974383
4	0xbdb9807a	-0.09057708
5	0x3ded7492	0.115945
6	0xbd8e8726	-0.06959371
7	0xbd02827b	-0.031862717
8	0x3c20b240	0.009808123
9	0x3d9af293	0.075657986
10	0x3cf95140	0.03043425
