刘洋/week3/model_work3.pt (torch, 45424 bytes, 7 tensors)

emb.weight f4 [32, 64]
0	0x00000000	0.0
1	0x00000000	0.0
2	0x00000000	0.0
3	0x00000000	0.0
4	0x00000000	0.0
5	0x00000000	0.0
6	0x00000000	0.0
7	0x00000000	0.0
8	0x00000000	0.0
9	0x00000000	0.0
10	0x00000000	0.0
11	0x00000000	0.0
12	0x00000000	0.0
13	0x00000000	0.0
14	0x00000000	0.0
15	0x00000000	0.0
16	0x00000000	0.0
17	0x00000000	0.0
18	0x00000000	0.0
19	0x00000000	0.0
20	0x00000000	0.0
21	0x00000000	0.0
22	0x00000000	0.0
23	0x00000000	0.0
24	0x00000000	0.0
25	0x00000000	0.0
26	0x00000000	0.0
27	0x00000000	0.0
28	0x00000000	0.0
29	0x00000000	0.0
30	0x00000000	0.0
31	0x00000000	0.0
32	0x00000000	0.0
33	0x00000000	0.0
34	0x00000000	0.0
35	0x00000000	0.0
36	0x00000000	0.0
37	0x00000000	0.0
38	0x00000000	0.0
39	0x00000000	0.0
40	0x00000000	0.0
41	0x00000000	0.0
42	0x00000000	0.0
43	0x00000000	0.0
44	0x00000000	0.0
45	0x00000000	0.0
46	0x00000000	0.0
47	0x00000000	0.0
48	0x00000000	0.0
49	0x00000000	0.0
50	0x00000000	0.0
51	0x00000000	0.0
52	0x00000000	0.0
53	0x00000000	0.0
54	0x00000000	0.0
55	0x00000000	0.0
56	0x00000000	0.0
57	0x00000000	0.0
58	0x00000000	0.0
59	0x00000000	0.0
60	0x00000000	0.0
61	0x00000000	0.0
62	0x00000000	0.0
63	0x00000000	0.0
64	0xbfcd02e2	-1.6016505
65	0x3f03f882	0.5155107
66	0x3f584462	0.84479344
67	0xbd2301ef	-0.039796766
68	0xbfa45f54	-1.2841592
69	0xbff98c57	-1.9495953
70	0xbf6b1f56	-0.9184469
71	0x3f4dc250	0.8037462
72	0xbff2c0f1	-1.8965131
73	0xbe0a6233	-0.13514023
74	0x3ebd0b39	0.36922625
75	0x3f42a213	0.76028556
76	0xbd89ab90	-0.06722176
77	0x3f9dddc0	1.2333298
78	0x3eb9fd69	0.3632615
79	0x3e5077b4	0.20358163
80	0xbf525af0	-0.8217001
81	0xbe6c2551	-0.2306111
82	0xbeab6c57	-0.33481094
83	0xbf87f47e	-1.0621488
84	0x3f3e5670	0.74350643
85	0xbfa97707	-1.3239449
86	0xbf2457a4	-0.6419623
87	0x3f93be0a	1.154237
88	0xbf0b6a94	-0.544595
89	0xbe81d5a7	-0.25358316
90	0x3ecc2a94	0.39876235
91	0x3f06b8da	0.5262581
92	0x3f21d6fb	0.6321866
93	0xc00b4660	-2.1761703
94	0xbeede595	-0.4646422
95	0xbe9bc7a9	-0.30425766
96	0xc025aced	-2.5886796
97	0x3f1c4773	0.6104652
98	0x3fad324c	1.3530974
99	0xbe0000e6	-0.12500343
100	0x3d45587e	0.048180096
101	0xbe3434e8	-0.17598307
102	0x3e931c15	0.28732362
103	0x3fbcd2db	1.4751848
104	0x3fa4c336	1.2872074
105	0xbe95fed5	-0.29295984
106	0xc00416b1	-2.063885
107	0x3f8017ef	1.0007304
108	0xbe7fa687	-0.24965869
109	0xbfdef076	-1.7417133
110	0xbe5899ec	-0.21152467
111	0x3db747ea	0.089492634
112	0x3f99706f	1.1987437
113	0x3f8e19cf	1.1101626
114	0x3f1108b8	0.5665393
115	0xbe5bc477	-0.21461664
116	0xbeb84b12	-0.35994774
117	0xbf130631	-0.5743132
118	0x4091c560	4.5553436
119	0x3f8a13f3	1.0787338
120	0xbd851c08	-0.06499487
121	0x3f9e694a	1.2375882
122	0xbf5bdea1	-0.8588658
123	0xbef17941	-0.47162822
124	0x3f995051	1.1977636
125	0x3f4aee98	0.79270315
126	0x3fd35088	1.6508951
127	0x3d1ab7d8	0.037772983
128	0x3fbfd424	1.4986615
129	0x3eb8bce8	0.36081624
130	0x3dab2323	0.08356311
131	0xbf659fa0	-0.89696693
132	0xbf721861	-0.9456845
133	0xbf7afa9e	-0.9803866
134	0xbf289beb	-0.6586291
135	0xbe51747c	-0.20454592
136	0xc021a98a	-2.5259728
137	0xbec175b2	-0.37785107
138	0xbfca0337	-1.5782231
139	0xbf3b677f	-0.732048
140	0xbc012141	-0.0078814635
141	0xbf9d2e1b	-1.2279695
142	0xbeccba2f	-0.39985797
143	0x3f5bfe17	0.85934585
144	0x3faaae91	1.3334523
145	0xbebc5add	-0.36788073
146	0xbf8cd6c9	-1.1003047
147	0x3ff02a88	1.876298
148	0x3f91d40e	1.1392839
149	0x3f9c231a	1.2198212
150	0x3eea0532	0.4570709
151	0xbe80e3c5	-0.25173774
152	0x40031052	2.047871
153	0x3f2648d9	0.64954907
154	0xbe832f99	-0.25622252
155	0xbf94d16f	-1.1626414
156	0xbd48782c	-0.04894273
157	0x3e705c1b	0.23472635
158	0xbf8d1c5c	-1.102428
159	0xbe31b775	-0.1735514
160	0xbf1d38af	-0.6141462
161	0xbf7534fa	-0.9578396
162	0xbe61a5a9	-0.2203585
163	0xbf7d5509	-0.9895788
164	0x3f17e771	0.59337527
165	0x3f3b14d9	0.73078686
166	0x3f6178ef	0.88075155
167	0x3f447c7e	0.7675246
168	0xbffae755	-1.9601847
169	0x3fc3cffd	1.5297848
170	0xbbaf3ca5	-0.0053478056
171	0x3f8961d6	1.0732982
172	0x3fc2b628	1.521184
173	0x3f029fc3	0.5102503
174	0x3fc121ff	1.50885
175	0x3f0ace13	0.54220694
176	0xbee12410	-0.43972826
177	0x3f6595be	0.89681613
178	0x3e2639dc	0.16233009
179	0xbf3cac74	-0.7370064
180	0x3da5bebe	0.08093022
181	0x3b7c34d7	0.0038483643
182	0xbed3733c	-0.41298854
183	0xbf2a73e3	-0.6658308
184	0xbfcab05d	-1.5835072
185	0xbf5cb7d2	-0.8621799
186	0xbf0e4238	-0.5556979
187	0x3e555369	0.208326
188	0xbf8b961e	-1.0905187
189	0xbf137fa5	-0.57616645
190	0x3ee3f238	0.44520736
191	0xbd621faf	-0.055205997
192	0xbe894c30	-0.2681594
193	0x3f0641fb	0.5244443
194	0x3edcd424	0.431306
195	0xbfbd4117	-1.4785489
196	0xbf839ed4	-1.0282845
197	0xbe683b08	-0.22678769
198	0x3f2b5a47	0.6693463
199	0x3dea831b	0.11450788
200	0xbce87283	-0.028374916
201	0xbe24a9cc	-0.16080397
202	0xbf46c8f0	-0.77650356
203	0xbf258b6e	-0.6466588
204	0x3f38ae81	0.7214127
205	0xbdd9e62b	-0.10639604
206	0xbe9ae8c8	-0.30255723
207	0xbf31bdd7	-0.694303
208	0xbe2f4061	-0.17114402
209	0xbf8cf836	-1.1013248
210	0xbf16e966	-0.5894989
211	0xbf4d7216	-0.80252206
212	0xbeab2114	-0.33423674
213	0xbfc2dd81	-1.5223848
214	0xbf1df822	-0.61706746
215	0xbd899159	-0.06717176
216	0x3f25b616	0.64730966
217	0xbe5229a0	-0.20523691
218	0x3e0ee8f2	0.13956049
219	0xbf3e4914	-0.7433026
220	0xbf9fa875	-1.2473284
221	0x3f3270e4	0.6970351
222	0xbe929579	-0.28629664
223	0xbfbe7715	-1.4880091
224	0x3f1865ea	0.5953051
225	0x3f8655d8	1.0494947
226	0x3e957a3a	0.29194814
227	0x3f3d50de	0.7395152
228	0xbf2707c8	-0.6524625
229	0xbf04ba69	-0.5184694
230	0x3fc40569	1.5314151
231	0xbf907a9f	-1.1287421
232	0x3f33c34d	0.7021988
233	0xbf7f65ab	-0.9976451
234	0x3f947860	1.1599236
235	0xbe1975e7	-0.14986382
236	0x3ec4d453	0.3844324
237	0x3fbfbe30	1.4979916
238	0x3fa64845	1.2990805
239	0x3f7237de	0.94616497
240	0xbfabcda0	-1.3422127
241	0x400ca2d2	2.1974378
242	0x3e5523e4	0.20814472
243	0x3dd1d960	0.10246539
244	0x3f69d044	0.91333413
245	0x3e79125c	0.2432341
246	0x3fe39474	1.7779679
247	0x3db83532	0.08994521
248	0xbf228a85	-0.63492614
249	0x3eb1a09d	0.3469285
250	0xc0205097	-2.5049188
251	0x3ea77b8f	0.32711455
252	0xbfb314bb	-1.3990701
253	0xbf917f67	-1.1367005
254	0x3f329436	0.697574
255	0xbedddfed	-0.43334904

rnn.weight_ih_l0 f4 [64, 64]
0	0x3d05f181	0.03270102
1	0x3d2ecb8a	0.04267458
2	0xbda9e6a3	-0.082959436
3	0xbc10838e	-0.008820428
4	0xbd4d4fdb	-0.050124984
5	0xbb70fec2	-0.0036772941
6	0x3d0415b3	0.032247256
7	0x3d2b035c	0.04175125
8	0xbde092d7	-0.109655075
9	0xbd55cc2a	-0.05219666
10	0xbe28f553	-0.16499834
11	0x3dc364ab	0.09540685
12	0xbd717f3d	-0.058959235
13	0x3d6ae559	0.05734763
14	0xbabf8ae2	-0.0014613534
15	0xbe58767d	-0.2113895
16	0x3e1a70fd	0.15082164
17	0xbc8019f3	-0.015637374
18	0x3d1cc395	0.03827246
19	0xbd22ead5	-0.039774735
20	0xbdf07a94	-0.1174213
21	0x3d7bf232	0.061510272
22	0xbcacfe70	-0.021117419
23	0xbe076f5a	-0.13226071
24	0x3c3ecd85	0.011645679
25	0xbd334d76	-0.043775044
26	0x3d07df4a	0.03317193
27	0xbd1d2dd8	-0.038373798
28	0x3d0451a3	0.032304417
29	0x3b46012f	0.0030213108
30	0x3e05898a	0.13040748
31	0xbd583f43	-0.052794706
32	0x3e286c78	0.16447628
33	0x3db037fd	0.08604429
34	0xbc9551a1	-0.0182274
35	0x3d88e6eb	0.06684669
36	0xbd23d131	-0.039994422
37	0xbddd8de4	-0.10818079
38	0xbdfbebec	-0.12300858
39	0xbd85dca0	-0.065362215
40	0xbcaa8a7b	-0.020817986
41	0xbdfdcc0b	-0.12392434
42	0xbd95e5f2	-0.07319249
43	0xbdb70039	-0.08935589
44	0xbe030c2f	-0.12797616
45	0x3dba121e	0.09085487
46	0xbc85f0fd	-0.016350264
47	0x3e415efb	0.18883888
48	0x3d85017e	0.06494425
49	0xbcb42274	-0.021989085
50	0x3ddc3302	0.107519165
51	0x3dbaccc9	0.09121091
52	0x3d0f2782	0.034949787
53	0x3e1bf3ae	0.15229675
54	0xbdce2207	-0.10065084
55	0x3e090161	0.13379432
56	0x3e8b1b1c	0.2716912
57	0xbca340e2	-0.0199284
58	0x3e4aeff2	0.19818094
59	0xbd089d8b	-0.03335337
60	0x3dba4248	0.090946734
61	0x3e11d5a4	0.14241654
62	0x3dc4f0a2	0.096162096
63	0xbe09d94d	-0.134618
64	0xbd5ee2ca	-0.0544155
65	0x3db79c27	0.089653306
66	0xbdd62a46	-0.10457282
67	0x3c8e2f4d	0.01735654
68	0x3e3d60e0	0.18493986
69	0x3db39c4a	0.08770044
70	0xbd9eb88d	-0.07750044
71	0xbda3fe38	-0.08007473
72	0x3ce2dbfb	0.027692785
73	0x3d27f64c	0.04100637
74	0x3d9e48f7	0.07728761
75	0x3e428f19	0.189999
76	0xbe138a75	-0.14408286
77	0x3d2877f9	0.04113004
78	0xbd98dd1e	-0.0746405
79	0x3da123a6	0.078681275
80	0xbdaeba81	-0.085316665
81	0xbe027fbf	-0.12744044
82	0x3e24fa96	0.16111216
83	0xbbf17e42	-0.0073697874
84	0x3db245e5	0.087047376
85	0x3cacde14	0.021101989
86	0xbdd7c5a8	-0.10535747
87	0xbb96c586	-0.0046011833
88	0xbe0f3cee	-0.13988087
89	0x3c8aaac9	0.01692714
90	0xbdee7ff8	-0.11645502
91	0x3d9ab9c8	0.07554966
92	0xbc4cb89f	-0.012495189
93	0x3d8afe48	0.067867815
94	0xbd99a49a	-0.075020984
95	0x3c10df83	0.008842352
96	0x3e275743	0.16341881
97	0x3ced1b9d	0.028943831
98	0x3e3dad7a	0.18523207
99	0x3d633074	0.05546613
100	0x3d631fd0	0.05545026
101	0x3de886c1	0.11353827
102	0xbe200c6a	-0.15629736
103	0xbdd60a0a	-0.104511335
104	0x3d85ba41	0.06529666
105	0xbdf22bb1	-0.1182474
106	0xbdfad603	-0.12247851
107	0x3dfc9fca	0.12335165
108	0x3d3e863d	0.04651474
109	0x3e6050fa	0.2190589
110	0xbe2f76fc	-0.17135233
111	0x3d7ccfc3	0.061721575
112	0xbe1315c1	-0.14363767
113	0xbdcea2c0	-0.10089636
114	0xbe17dc93	-0.14830236
115	0x3e0a2e8a	0.13494316
116	0xbe2c8534	-0.16847688
117	0x3e0ada8e	0.13559934
118	0xbe3b7440	-0.18306065
119	0x3c8a5762	0.01688737
120	0xbe0d96e4	-0.13827091
121	0xbe23b08b	-0.15985315
122	0x3cb66084	0.02226282
123	0x3d26a0de	0.04068076
124	0x3e01f76d	0.12692042
125	0xbe17af02	-0.14812854
126	0x3e2cd276	0.1687716
127	0xbb39bb93	-0.0028340563
128	0xbd3ba307	-0.045809772
129	0x3c93ebe9	0.018056827
130	0xbdad802e	-0.08471714
131	0x3dfc6273	0.12323465
132	0xbcf76d8c	-0.030203603
133	0x3bb8002a	0.005615254
134	0x3d36ae84	0.044600025
135	0x3e0792c3	0.13239579
136	0xbd36e3d2	-0.04465086
137	0xbd4e069c	-0.050299272
138	0xbd580baa	-0.0527455
139	0x3df2f13d	0.11862419
140	0xbbff0c70	-0.007783465
141	0x3d8d9b97	0.06914442
142	0xba87549e	-0.00103249
143	0x3c2de648	0.010613985
144	0x3cff11a6	0.031136345
145	0xbd9a959b	-0.07548066
146	0x3d30f9da	0.043207027
147	0xbd8ce6e6	-0.06879978
148	0xbe3a01f9	-0.18164815
149	0x3dc0d164	0.09414938
150	0x3de4853a	0.111582235
151	0xbe3388b5	-0.17532618
152	0x3df20550	0.118174195
153	0x3d84ce41	0.06484652
154	0xbddab3f2	-0.10678853
155	0x3ddb4e5b	0.107083045
156	0xbe2b6347	-0.1673709
157	0x3bff4c1c	0.0077910554
158	0x3da28d91	0.07937158
159	0x3d84716a	0.064669445
160	0x3cc7e8ec	0.024403058
161	0xbb390e3c	-0.0028237244
162	0xbdc79306	-0.09744839
163	0x3e278fa6	0.16363391
164	0xbdad3222	-0.08456828
165	0x3bfdae70	0.007741742
166	0xbe287e85	-0.16454513
167	0xbdcc7828	-0.099838555
168	0xbe028e6a	-0.12749639
169	0xbd01d819	-0.031700227
170	0x3da00ecf	0.078153245
171	0xbdb62c3e	-0.08895157
172	0x3c591e3c	0.013251837
173	0x3ca59b24	0.020215578
174	0x3d9eba58	0.07750386
175	0x3e6561e6	0.22400627
176	0x3cb3dc26	0.02195556
177	0xbce24fec	-0.027626
178	0x3c886d7e	0.016653772
179	0xbc4ed13b	-0.012623127
180	0xbd2e95fb	-0.0426235
181	0x3dfaa856	0.12239139
182	0xbd0ef356	-0.034900032
183	0x3dc8eeb7	0.09811156
184	0x3e13d025	0.1443487
185	0xbd937317	-0.07199686
186	0x3e221263	0.15827326
187	0x3cbe6b35	0.02324448
188	0x3d908cb0	0.07058084
189	0x3e2120e9	0.1573521
190	0x3dc984ce	0.098397836
191	0xbd84ad11	-0.06478322
192	0x3ddfbe9c	0.10925028
193	0xbd8f63d3	-0.07001462
194	0x3d042915	0.03226574
195	0x3e0bb84e	0.13644525
196	0xbe18e7a7	-0.14932118
197	0x3dacb586	0.0843306
198	0x3da21dcb	0.07915839
199	0x3e1f9d40	0.1558733
200	0x3e8bdba7	0.2731602
201	0x3e4af7a1	0.19821025
202	0xbd78ede6	-0.060773753
203	0x3bd23f08	0.0064162053
204	0xbd2860a5	-0.041107792
205	0x3cdbd419	0.026834534
206	0xbdbf120e	-0.093296155
207	0x3dd955a3	0.10612037
208	0x3d1d6b91	0.03843266
209	0x3de1511a	0.11001797
210	0x3de0ae39	0.1097073
211	0x3dd84531	0.10560072
212	0xbdacebec	-0.08443436
213	0x3e2a8ebc	0.16656011
214	0xbd408275	-0.046999414
215	0xbdc76b67	-0.09737282
216	0xbd8454de	-0.064615
217	0x3d2a685c	0.04160343
218	0xbd471316	-0.048602186
219	0x3cda3399	0.026635932
220	0x3ddb44d5	0.10706488
221	0x3d466ff1	0.0484466
222	0xbc46a4e9	-0.012124279
223	0x3c2edd13	0.010672825
224	0x3c074369	0.008255818
225	0x3c632209	0.013863095
226	0xbd7a0025	-0.061035294
227	0x3ddb5410	0.10709393
228	0x3d754b35	0.059886176
229	0xbe0202ac	-0.12696332
230	0xbd5a514f	-0.0533002
231	0x3d2345fe	0.03986167
232	0x3d0ab07a	0.033859707
233	0x3d6cc761	0.05780733
234	0xbe07b2a1	-0.13251735
235	0x3db478ce	0.08812104
236	0xbe594be2	-0.21220353
237	0x3db8a2b9	0.09015412
238	0xbd43f0e4	-0.047837153
239	0x3d404380	0.046939373
240	0xbcf92bb7	-0.030416353
241	0xbcb20e0d	-0.021735216
242	0xbd268a1d	-0.04065906
243	0x3da9bab0	0.08287561
244	0xbe01737e	-0.12641713
245	0x3e8b4a1a	0.27204973
246	0xbde43456	-0.11142795
247	0x3cfeaafd	0.031087393
248	0x3dda7eaf	0.10668694
249	0xbd59e53f	-0.05319714
250	0x3d3ba25c	0.045809135
251	0xbc9aa435	-0.018877128
252	0x3dd129c7	0.102130465
253	0x3da43c9f	0.08019375
254	0x3d3c43cb	0.04596309
255	0xbbf7d4ed	-0.0075632245

rnn.weight_hh_l0 f4 [64, 64]
0	0xbdf1b386	-0.118018195
1	0x3e5eb4cc	0.21748656
2	0xbde7afff	-0.113128655
3	0xbd8c555c	-0.068522185
4	0x3b8c6baa	0.0042852955
5	0xbe1e9b2c	-0.15488881
6	0x3cec3558	0.02883403
7	0x3e354594	0.17702323
8	0xbca70a22	-0.020390574
9	0xbd13533e	-0.035968058
10	0x3ddcf798	0.10789412
11	0xbdad2d36	-0.08455889
12	0x3e152eeb	0.14568679
13	0x3d99eed8	0.07516259
14	0xbda7568b	-0.08170804
15	0x3b42fa2f	0.0029751172
16	0x3e281dff	0.16417693
17	0x3c09c2c0	0.008408248
18	0x3c3ff42e	0.011715932
19	0xbdf4e6ff	-0.119581215
20	0x3d6d4e9e	0.057936303
21	0xbe07c538	-0.13258827
22	0x3d87a563	0.06623342
23	0xbe22c2f0	-0.15894675
24	0xbe049d10	-0.1295054
25	0xbd718009	-0.058959994
26	0x3daf15da	0.0854909
27	0x3dcac58f	0.099009626
28	0xbda3b806	-0.07994084
29	0xbdabf88d	-0.08397017
30	0x3d235530	0.039876163
31	0xbe178749	-0.14797701
32	0x3d79c406	0.06097796
33	0xbe338754	-0.17532092
34	0x3da3bf2d	0.07995448
35	0xbdf6d708	-0.12052733
36	0xbc4b0349	-0.01239092
37	0x3df51474	0.11966792
38	0xbbe13eaa	-0.006873925
39	0xbc27b215	-0.010235329
40	0x3d5a3cc6	0.053280614
41	0xbb14dd74	-0.0022715004
42	0x3e2028cb	0.15640561
43	0x3d75ddac	0.060025856
44	0x3e0565d6	0.13027129
45	0x3b27fa3f	0.0025631336
46	0xbcf5204b	-0.029922625
47	0xbe5ebc37	-0.21751486
48	0x3dce7d1a	0.10082455
49	0x3e0754d1	0.13215949
50	0xbc845694	-0.016154565
51	0xbd504e11	-0.0508557
52	0x3c880c31	0.016607376
53	0xbc12d468	-0.008961774
54	0x3d4b6f0d	0.049666453
55	0x3d3b7484	0.045765415
56	0xbd76ae2a	-0.06022469
57	0x3d86dd8b	0.06585225
58	0x3b047588	0.0020211656
59	0x3e2833f5	0.1642607
60	0x3d93a69a	0.07209511
61	0x3da29a0f	0.079395406
62	0xbcf71e85	-0.03016592
63	0x3d768f76	0.06019541
64	0xbd4d143c	-0.050068125
65	0x3e259724	0.16170937
66	0x3d792eed	0.060835768
67	0xbddf07fd	-0.108901955
68	0x3d34b0ef	0.04411405
69	0x3d4ef6fe	0.05052852
70	0xbd331f73	-0.043731164
71	0x3e1ffc1b	0.15623514
72	0xbcd6aecc	-0.026206397
73	0x3cf262cb	0.029588124
74	0xbca1c08e	-0.019745138
75	0x3e208ef8	0.15679538
76	0x3e4df348	0.20112336
77	0x3dde67b4	0.108596236
78	0xbe1cba9d	-0.15305562
79	0x3e01ce7a	0.12676421
80	0x3d4d3c4d	0.050106335
81	0x3cce616c	0.025192939
82	0x3e2626e3	0.16225772
83	0xbd85abfa	-0.065269426
84	0xbe3aee9c	-0.18255085
85	0xbd9d499d	-0.07680056
86	0xbbfe8ea7	-0.0077684703
87	0xbdc2a364	-0.095038205
88	0xbe1bd3a3	-0.15217452
89	0xbdf34d23	-0.11879947
90	0x3c972302	0.01844931
91	0x3d1eba2a	0.03875176
92	0xbd1f2371	-0.03885216
93	0x3d709596	0.058736406
94	0x3e0798d9	0.132419
95	0x3c36fce8	0.011168696
96	0x3d92dd5f	0.071711294
97	0xbdd3e29d	-0.103459574
98	0xbd1cf64b	-0.03832082
99	0xbe139482	-0.1441212
100	0x3e0abadf	0.13547848
101	0x3d0f4dc8	0.034986287
102	0xbd87d41d	-0.06632254
103	0xbd8892b5	-0.06668607
104	0x3e087620	0.13326311
105	0x3e139a3f	0.14414309
106	0x3e4d62ce	0.20057222
107	0x3c11baac	0.008894604
108	0x3af04e0a	0.0018333804
109	0x3da11422	0.07865168
110	0xbcc2873d	-0.023746127
111	0xbe13bf5c	-0.14428467
112	0xbd855726	-0.06510763
113	0x3dda579e	0.10661243
114	0xbdf9ffd1	-0.12206996
115	0xbdbb5f9a	-0.09149094
116	0x3dc1b68d	0.09458647
117	0x3d367b73	0.044551324
118	0xbdbb18a4	-0.09135559
119	0x3db1cf5d	0.086821295
120	0x3d7fc6de	0.062445514
121	0xbc0482d9	-0.008087837
122	0x3c96bb50	0.018399864
123	0x3e007efa	0.12548438
124	0xbde8dfb0	-0.1137079
125	0xbbfe0417	-0.0077519524
126	0x3cfcb962	0.030850116
127	0xbdb65fb1	-0.089049704
128	0xbb25b388	-0.002528401
129	0xbd9a9a3c	-0.07548949
130	0x3e071b09	0.13193907
131	0xbdb1ba00	-0.08678055
132	0xbe079f45	-0.1324435
133	0x3c277693	0.010221141
134	0x3d912e47	0.07088905
135	0xbe16ccb2	-0.14726523
136	0x3d6fbe38	0.058531016
137	0xbdbf7dfc	-0.093502015
138	0xbdde8a65	-0.108662404
139	0x3e048654	0.12941867
140	0xbd8376a8	-0.06419116
141	0xbdda9e19	-0.10674686
142	0x3e3415c5	0.1758643
143	0x3d5b42e9	0.053530607
144	0x3c1eee54	0.009700377
145	0x3d40c63d	0.047064055
146	0xbd8f788d	-0.07005415
147	0x3e36468e	0.17800352
148	0x3e11a314	0.14222366
149	0xbda313ff	-0.07962798
150	0xbc987caa	-0.018614132
151	0xbd4245fa	-0.047430016
152	0x3e0acc21	0.13554431
153	0x3de95bc7	0.11394458
154	0xbddd4513	-0.108041905
155	0x3d20e579	0.039281342
156	0xbd34b077	-0.044113602
157	0xbdf5d61a	-0.12003727
158	0x3db09970	0.08623016
159	0x3d8864e9	0.06659872
160	0x3d0cf44c	0.034412667
161	0x3e482994	0.19547111
162	0x3cf1c41c	0.029512458
163	0x3d877b0e	0.06615268
164	0x3d90ee64	0.070767194
165	0xbe3dcb27	-0.18534528
166	0x3e377d82	0.17918971
167	0x3e143204	0.14472204
168	0x3e2368ff	0.15958022
169	0x3e13db11	0.14439036
170	0xbd82ed68	-0.06392938
171	0xbdd8f796	-0.10594098
172	0xbce2c84e	-0.027683403
173	0xbd9ecea3	-0.077542566
174	0x3cbeb24e	0.023278382
175	0x3d90e902	0.07075693
176	0x3db4f89d	0.08836482
177	0xbe04f6a2	-0.12984708
178	0x3e272f5d	0.16326661
179	0xbd3ff6a9	-0.046866093
180	0x3d916e41	0.071011074
181	0xbd6abf46	-0.05731132
182	0x3b1a7c95	0.0023572792
183	0x3cae60fc	0.02128648
184	0xbd23bab8	-0.03997299
185	0x3e009f0f	0.12560676
186	0x3dd67557	0.104715995
187	0xbd101fd3	-0.0351866
188	0x3d77ccd3	0.06049807
189	0xbd728eaf	-0.059218105
190	0xbdbb585a	-0.09147711
191	0x3db1f6ef	0.08689677
192	0x3d7fd447	0.062458303
193	0x3c7a1fa2	0.015266331
194	0xbd81c37e	-0.06336115
195	0x3df05cbb	0.11736437
196	0x3c99b283	0.018761879
197	0xbcbce70c	-0.02305939
198	0x3e07fb2b	0.13279407
199	0x3d4e5dba	0.050382353
200	0x3e189edc	0.1490435
201	0xbd4ca1ef	-0.04995912
202	0xbcdf7afb	-0.027280321
203	0xbc4a1442	-0.012333931
204	0x3dcbdaa8	0.09953815
205	0x3d837765	0.06419257
206	0x3d98354b	0.0743204
207	0xbbe453fc	-0.0069680195
208	0xbd3509ef	-0.044198927
209	0xbd84c058	-0.06481999
210	0x3e17eaef	0.14835714
211	0xbc3f9ddb	-0.0116953505
212	0xbddc058b	-0.10743245
213	0x3d7761f6	0.060396157
214	0x3d1893fc	0.037250504
215	0xbdb549df	-0.088519804
216	0x3dc029b4	0.09382954
217	0x3df7d6e9	0.12101538
218	0xbd9c4269	-0.07629854
219	0x3dd37797	0.10325544
220	0x3d5fcd92	0.054639407
221	0xbd035e94	-0.03207262
222	0x3c956506	0.018236648
223	0xbd23503b	-0.039871436
224	0x3dd75889	0.105149336
225	0xbd90a255	-0.070622124
226	0xbd149da9	-0.03628317
227	0xbcde463d	-0.027133102
228	0x3e047539	0.12935342
229	0x3e40171e	0.18758819
230	0x3d00845a	0.03137622
231	0xbd837922	-0.064195886
232	0xbb08b407	-0.0020859258
233	0xbdb24c6b	-0.08705982
234	0x3c5298a1	0.012853772
235	0xbdbf8860	-0.09352183
236	0xbb2d748a	-0.0026467168
237	0x3d00a99f	0.031411763
238	0x3daacaa5	0.083394326
239	0x3de312ad	0.110875465
240	0xbd025eca	-0.03182868
241	0xbdad3f53	-0.08459344
242	0xbbaf001c	-0.005340589
243	0x3d455181	0.04817343
244	0xbc3db24c	-0.011578154
245	0x3d989278	0.07449812
246	0xbd8b6bdb	-0.06807681
247	0xbc277400	-0.010220528
248	0x3ddcef4f	0.10787832
249	0x3d345922	0.044030316
250	0x3d68f6ff	0.05687618
251	0xbdc1dedd	-0.09466336
252	0x3d5c3b9b	0.05376778
253	0xbd4dfb13	-0.05028827
254	0x3e0dc203	0.13843541
255	0xbd60b2ee	-0.05485814

rnn.bias_ih_l0 f4 [64]
0	0xbe567bca	-0.2094566
1	0xbe912476	-0.2834813
2	0xbe914a21	-0.28376868
3	0xbe8ed7f4	-0.27899134
4	0xbe3257be	-0.17416283
5	0x3cbf3321	0.02333981
6	0xbe01db34	-0.12681276
7	0xbe073435	-0.13203509
8	0xbe758518	-0.23976552
9	0xbec999f9	-0.39375284
10	0xbe8ececa	-0.27892143
11	0xbecbd973	-0.39814338
12	0xbe869076	-0.2628209
13	0xbd8defe9	-0.06930525
14	0x3de679db	0.11253711
15	0xbe8d6cc8	-0.27622056
16	0xbe8ea20b	-0.27858004
17	0xbe9f25ec	-0.3108362
18	0xbec90c73	-0.3926731
19	0xbe88f504	-0.26749432
20	0x3de67b81	0.11254025
21	0x3dd9e981	0.106402405
22	0xbe717047	-0.23577987
23	0x3d90081c	0.07032797
24	0x3e08f5d9	0.13375033
25	0xbe9d072f	-0.30669543
26	0x3cf64d60	0.030066192
27	0xbe9ede0e	-0.3102879
28	0xbd7ca6f4	-0.061682656
29	0xbe5e09cf	-0.21683429
30	0xbe94d040	-0.29065132
31	0xbd3b2278	-0.04568717
32	0xbe9a3c24	-0.3012401
33	0xbe2e4a74	-0.17020589
34	0x3d0cb073	0.034347963
35	0xbe9781c5	-0.29591194
36	0xbe9df960	-0.3085432
37	0xbec4dab3	-0.38448104
38	0xbe782b55	-0.2423528
39	0xbe56814c	-0.2094776
40	0xbeb209f6	-0.34773225
41	0xbd7d664f	-0.061865147
42	0xbe463d81	-0.193594
43	0xbe68667b	-0.22695343
44	0xbe8450f1	-0.25843003
45	0xbe4e5d54	-0.2015279
46	0xbe809a5f	-0.25117776
47	0xbe8b3fd8	-0.27197146
48	0xbe87875b	-0.26470456
49	0xbd16032f	-0.03662413
50	0xbead539e	-0.33852857
51	0xbe690fea	-0.22759977
52	0xbea96ae7	-0.33089373
53	0x3bb09ca9	0.005389769
54	0xbe294fc3	-0.16534333
55	0x3e2810d3	0.16412668
56	0xbe11c5df	-0.14235638
57	0xbe7994cd	-0.24373169
58	0x3d09dc83	0.033657562
59	0x3dd088c4	0.10182336
60	0xbe8513d2	-0.25991684
61	0xbe759e10	-0.23986077
62	0xbeec9748	-0.46209168
63	0xbe5d21ae	-0.21594879

rnn.bias_hh_l0 f4 [64]
0	0xbea0020e	-0.31251568
1	0xbe910b67	-0.28329012
2	0xbeaf9a8c	-0.34297597
3	0xbe5a0c54	-0.21293765
4	0xbd7610ae	-0.0600745
5	0x3d6f2ce2	0.058392413
6	0xbdac7ada	-0.084218696
7	0xbe2e3a54	-0.17014438
8	0xbee39ed0	-0.44457102
9	0xbec2a2d9	-0.38014868
10	0xbe94b779	-0.2904623
11	0xbed6ada5	-0.41929355
12	0xbece2642	-0.40263563
13	0x3d4a080f	0.04932409
14	0x3e0b06be	0.1357679
15	0xbeab41af	-0.3344855
16	0xbea0303e	-0.31286806
17	0xbe84f29f	-0.25966355
18	0xbecffc06	-0.40621966
19	0xbea0bd22	-0.31394297
20	0x3cbb732b	0.022882065
21	0x3d3b3584	0.045705333
22	0xbeb5f73e	-0.35540193
23	0xbc3d85aa	-0.0115675125
24	0xbd496ae2	-0.049174197
25	0xbea9a8ab	-0.33136496
26	0x3ce778db	0.02825587
27	0xbeb58df0	-0.35459852
28	0x3c73b1c6	0.014873927
29	0xbce1ab58	-0.027547523
30	0xbe5c9f01	-0.2154503
31	0xbb4a74e7	-0.0030892433
32	0xbe540534	-0.2070511
33	0x3cf0e578	0.029406294
34	0xbd7a36c4	-0.061087385
35	0xbeabba81	-0.3354073
36	0xbe9168df	-0.28400323
37	0xbe4a4eba	-0.19756594
38	0xbe9671a4	-0.29383576
39	0xbe252688	-0.1612798
40	0xbea50d26	-0.32236594
41	0x3d0e0f20	0.034682393
42	0xbe387f5d	-0.18017335
43	0xbed82bcd	-0.42220917
44	0xbe843637	-0.25822613
45	0xbe125bf0	-0.14292884
46	0xbeae4335	-0.3403565
47	0xbdc207e8	-0.09474164
48	0xbe547455	-0.20747502
49	0x3d85b00e	0.065277204
50	0xbe430de2	-0.19048265
51	0xbe01b37d	-0.12666126
52	0xbe1da50b	-0.1539499
53	0x3e10898b	0.14114968
54	0xbc4c1485	-0.012456064
55	0x3e094cba	0.13408175
56	0xbdc502aa	-0.09619649
57	0xbe81734f	-0.25283286
58	0xbdb61fb1	-0.088927634
59	0x3c4cfd01	0.012511493
60	0xbe8b250c	-0.27176702
61	0xbe8169c5	-0.25276008
62	0xbecf788f	-0.40521666
63	0xbe730194	-0.23731071

fc.weight f4 [4, 64]
0	0xbdc5dce0	-0.09661269
1	0xbde5e4c0	-0.11225271
2	0xbdec64e9	-0.115426846
3	0xbe578131	-0.21045376
4	0xbe13462c	-0.14382237
5	0xbd938552	-0.07203163
6	0x3d90683d	0.07051132
7	0xbdb633b4	-0.0889658
8	0xbea1f912	-0.31635338
9	0xbeb843c4	-0.359892
10	0xbe6490a8	-0.22320807
11	0xbed05382	-0.4068871
12	0xbede86a2	-0.43462092
13	0x3db87cb5	0.09008161
14	0x3e045a17	0.12924992
15	0xbe2dcbfb	-0.16972344
16	0xbdf21985	-0.11821274
17	0xbc97f823	-0.018550938
18	0xbec47c6c	-0.38376176
19	0xbd742e10	-0.05961424
20	0x3df34099	0.118775554
21	0x3e0507e9	0.12991299
22	0xbe99deac	-0.30052698
23	0x3cc4a991	0.024006637
24	0xbc3b4f75	-0.011432518
25	0xbe8eeaf4	-0.2791363
26	0x3d1cf4c6	0.03831937
27	0xbdb33cb5	-0.08751813
28	0x3d5591e2	0.052141078
29	0xbc676c0e	-0.014124883
30	0xbe9480b8	-0.29004455
31	0x3e0dcff1	0.13848855
32	0xbeb7921c	-0.3585366
33	0x3d66fe79	0.056395028
34	0x3d743621	0.059621934
35	0xbeb61fbf	-0.35571095
36	0xbe87166d	-0.26384297
37	0xbe9cce60	-0.30626202
38	0xbe4f12c7	-0.20222007
39	0xbe57f188	-0.2108823
40	0xbe9bec91	-0.30453923
41	0x3d99e074	0.07513514
42	0xbe64f615	-0.22359498
43	0xbee3ba6c	-0.44478166
44	0xbe6ce84b	-0.23135488
45	0xbd21fa02	-0.039545067
46	0xbeca73f3	-0.39541587
47	0xbdfc7c3d	-0.12328384
48	0xbe280eef	-0.16411947
49	0x3e038ebd	0.12847419
50	0xbdd63419	-0.104591556
51	0xbd6cdbfc	-0.05782698
52	0xbdccfbf5	-0.100089945
53	0x3c576cd9	0.01314851
54	0x3d344ff2	0.044021554
55	0x3dd3aa3a	0.103352025
56	0xbc9381c5	-0.018006215
57	0xbe193434	-0.1496132
58	0x3d5faa98	0.05460605
59	0xbccea47d	-0.025224918
60	0xbe8d9d8b	-0.27659258
61	0xbe196130	-0.1497848
62	0xbeb6987b	-0.35663208
63	0xbeb01be2	-0.34396273
64	0x3e1e87ce	0.15481493
65	0x3edb6f09	0.4285815
66	0xbca8687d	-0.020557636
67	0xbd316d16	-0.043316923
68	0x3dbef684	0.09324363
69	0x3e3c4537	0.18385778
70	0xbdebf386	-0.11521058
71	0x3ed33f58	0.41259265
72	0xbdebc7c0	-0.11512709
73	0x3e9f92c0	0.3116665
74	0x3ebc610d	0.36792794
75	0x3d848a66	0.0647171
76	0x3e996e1c	0.2996682
77	0x3db7bdf2	0.08971776
78	0x3d2b43c6	0.04181268
79	0x3ea45975	0.320995
80	0x3e8df631	0.27726892
81	0x3ed0a7a6	0.40752906
82	0x3e9a9ba9	0.30196884
83	0xbdd597a3	-0.10429313
84	0x3d93de37	0.072201185
85	0x3c9cf387	0.019159092
86	0x3e63b8c0	0.22238445
87	0x3e4398cd	0.19101258
88	0x3cbd93e5	0.02314181
89	0xbde6953a	-0.112589315
90	0x3d81cb5a	0.06337614
91	0x3ea0e93d	0.31427947
92	0x3db10322	0.08643176
93	0x3e09ddd1	0.13463522
94	0x3ea77904	0.32709515
95	0x3b85a37f	0.004078328
96	0xbd98290f	-0.07429706
97	0xbd2cba73	-0.04217
98	0x3e0fa25b	0.14026777
99	0x3d534f97	0.051589575
100	0x3d6e5e44	0.058195367
101	0x3dc7282f	0.09724461
102	0x3e38b344	0.18037134
103	0xbd554a20	-0.052072644
104	0x3ea4641d	0.3210763
105	0x3e29c450	0.16578794
106	0x3ea13f09	0.31493405
107	0x3e2a15be	0.16609856
108	0x3ed08277	0.40724537
109	0x3e5b35b0	0.21407199
110	0xbe0d66f5	-0.13808806
111	0xbc29f2fd	-0.010372874
112	0x3e5d19e8	0.21591914
113	0x3cf60610	0.030032188
114	0xbdeeacb8	-0.11654037
115	0xbdf903c9	-0.12158925
116	0x3ed7ad32	0.42124325
117	0x3e13eff8	0.1444701
118	0xbd9e7875	-0.07737819
119	0x3d2578ab	0.04039828
120	0xbd246ca4	-0.04014267
121	0x3b4da447	0.0031378435
122	0xbc9a5248	-0.018838063
123	0x3d1b6286	0.037935756
124	0x3e0be629	0.13662018
125	0x3ec64ba7	0.38729593
126	0x3cc5bbe9	0.024137454
127	0x3d7a8fa7	0.061172154
128	0x3ecb1e64	0.39671624
129	0xbe8f9be2	-0.28048617
130	0x3e63e5c3	0.22255616
131	0xbd57e7c5	-0.052711267
132	0x3d819908	0.063280165
133	0xbe51419a	-0.20435181
134	0x3ccb8109	0.024841802
135	0xbe86c13f	-0.2631931
136	0x3dd5ff14	0.10449043
137	0x3e45a6bc	0.19301885
138	0xbe9fcf75	-0.31212965
139	0x3df83600	0.12119675
140	0xbe08b048	-0.13348496
141	0xbe1b2840	-0.15152073
142	0x3d5dc5b8	0.054143637
143	0xbeb4e992	-0.3533445
144	0xbe971795	-0.2951018
145	0xbeaa7036	-0.33288735
146	0xbe5b4c1e	-0.21415755
147	0x3ebf709d	0.37390605
148	0xbe02195a	-0.12704983
149	0x3a992a68	0.0011685612
150	0x3e96ba4a	0.29439002
151	0xbe22e7c1	-0.1590872
152	0xbdc3e90e	-0.09565936
153	0x3e88243a	0.2659014
154	0xbe3ce737	-0.18447576
155	0xbe8e3b2b	-0.27779517
156	0xbe349dba	-0.17638293
157	0xbe7f08cc	-0.249057
158	0x3e7d3ca4	0.24730164
159	0xbd4d023a	-0.05005095
160	0x3da1dbbf	0.07903241
161	0x3e5a79a4	0.21335465
162	0xbe2fbc6b	-0.1716172
163	0x3d3f83a3	0.046756398
164	0x3eb98275	0.36232343
165	0xbe887372	-0.26650578
166	0x3eb02266	0.34401244
167	0x3e42ae88	0.19011891
168	0x3ecc5c36	0.399141
169	0xbdc6aac4	-0.0970054
170	0x3ec6e9b1	0.38850167
171	0x3d51b1cf	0.051194962
172	0xbe3b939a	-0.18318024
173	0xbe0a7864	-0.13522488
174	0x3e695fad	0.22790404
175	0x3d97dd86	0.07415299
176	0xbeb2a866	-0.34894103
177	0xbe3840cf	-0.17993473
178	0x3e899784	0.2687341
179	0x3ddad061	0.10684276
180	0xbe540529	-0.20705093
181	0x3d7ebe3c	0.06219314
182	0x3e33c616	0.17556033
183	0xbe10ebcf	-0.14152454
184	0xbe10a428	-0.1412512
185	0x3ede6d9f	0.4344301
186	0x3e3444ae	0.17604324
187	0xbdcfc9a5	-0.101458825
188	0x3eb732d4	0.35780966
189	0xbed4afd0	-0.41540384
190	0x3d3e10aa	0.04640261
191	0x3e21fce7	0.15819131
192	0xbe9114fc	-0.28336322
193	0xbdd5ee34	-0.10445824
194	0xbe282bba	-0.1642293
195	0x3e9011be	0.28138536
196	0xbe67860a	-0.22609726
197	0xbdde9e1d	-0.108700015
198	0xbd7a8a39	-0.061166976
199	0xbe4ac2a1	-0.19800808
200	0x3e72b515	0.2370189
201	0x3ea632eb	0.32460722
202	0xbd6cda9c	-0.05782567
203	0x3e592851	0.21206786
204	0x3e943fda	0.28954965
205	0xbe62b059	-0.22137584
206	0xbdd3d0a4	-0.103425294
207	0xbdaa0bea	-0.08303054
208	0xbe32ba46	-0.1745387
209	0xbe117c17	-0.14207493
210	0x3eb16ab2	0.34651715
211	0xbe5ff375	-0.21870215
212	0x3d2a4eec	0.041579172
213	0xbe32aa16	-0.17447695
214	0xbe6005cd	-0.21877213
215	0x3d025a9f	0.031824704
216	0xbdd7460b	-0.105114065
217	0x3e89e404	0.26931775
218	0xbe311af9	-0.17295446
219	0xbd5e4eeb	-0.05427448
220	0x3d8568b8	0.06514114
221	0x3d1d1b16	0.03835591
222	0xbed3cba0	-0.4136629
223	0xbd69f388	-0.057117015
224	0x3e99ac8a	0.3001445
225	0xbe369a57	-0.17832313
226	0x3bd6c7bd	0.0065545724
227	0x3e4a9129	0.19781937
228	0xbea6f9e4	-0.32612526
229	0x3ea196ce	0.31560367
230	0xbe7cb770	-0.24679351
231	0x3e4ce6c3	0.20009904
232	0xbef62b3f	-0.4807987
233	0xbd63b758	-0.055594772
234	0xbeb50d93	-0.3536192
235	0x3e8d5f63	0.27611837
236	0xbe16c23d	-0.14722534
237	0xbde9d9fe	-0.11418532
238	0x3e99009d	0.2988328
239	0x3e854082	0.26025778
240	0xbdd45f92	-0.10369791
241	0xbe348367	-0.17628251
242	0xbe3cd03b	-0.18438809
243	0xbe0cc887	-0.1374837
244	0xbe5aa2f7	-0.21351229
245	0xbdf800a0	-0.12109494
246	0x3d48058c	0.048833415
247	0xbde1a5f9	-0.11017985
248	0xbe1bdf4c	-0.152219
249	0xbeaa780f	-0.33294722
250	0xbe55089c	-0.20804065
251	0xbe53758e	-0.20650312
252	0xbe9e9e20	-0.30980015
253	0xbe162cb1	-0.14665486
254	0x3e822136	0.25415963
255	0x3e1641fc	0.14673609

fc.bias f4 [4]
0	0xbdc1e3a1	-0.09467245
1	0x3e04f8c7	0.12985526
2	0xbdfbbd3e	-0.122919545
3	0xbe3a1689	-0.18172659
