邓家骏/week3/model.pt (torch, 4932 bytes, 7 tensors)

embedding.weight f4 [28, 10]
000000 8c a7 c0 3e 73 47 19 3e f2 72 63 bf 17 03 ef be
       0.37627828 0.14968662 -0.8884727 -0.46682045
000010 53 3f 67 3d 98 c1 9d 3f 3a 67 75 3f c7 69 c5 be
       0.056456875 1.2324705 0.95860636 -0.38557264
000020 c8 e5 9c bf 16 bf d5 be fb 03 d9 3e 73 c3 3c 3f
       -1.2257624 -0.4174735 0.4238585 0.7373573
000030 3b f9 a9 bf dd 67 c3 3f 91 7a 77 3f a4 16 ac 3f
       -1.3279184 1.5266072 0.96671396 1.3444409
000040 8a e4 00 c0 33 b0 e6 3f 5f 50 55 bf 37 c9 a6 bf
       -2.013949 1.8022522 -0.8332576 -1.3030156
000050 31 8d 2d 3e b5 01 ae bf d3 43 03 bf 18 f6 d9 bf
       0.16948391 -1.3594271 -0.51275367 -1.7028227
000060 f9 a9 23 bf e2 52 b6 3d 1e c0 28 be ca d9 db 3e
       -0.6393123 0.089025274 -0.16479537 0.42939597
000070 e4 bc 9f 3f 51 7f cf bf c3 11 d6 3f 17 2e d1 be
       1.247952 -1.6210729 1.672417 -0.40855476
000080 21 ec 0a 3f 98 be 63 3d 37 8b 3d bf 85 94 23 3f
       0.54266554 0.055601686 -0.7404055 0.638985
000090 16 42 b4 3d c1 af bc bf 4a 1d 6a be 59 19 0a bf
       0.088016674 -1.4741136 -0.22862735 -0.5394493
0000a0 0d 58 62 3f 65 fd 33 bf a8 38 2f bf 1c 6c cf 3e
       0.88415605 -0.70308524 -0.68445826 0.40512168
0000b0 a2 b1 3e 3d d3 d9 87 bf 8b 5e 99 3e 8d bc 22 3f
       0.046556123 -1.061335 0.29954943 0.63568956
0000c0 69 50 e5 3f c6 20 a2 3f a7 a8 82 3e 43 b2 ba bf
       1.7915164 1.2666252 0.25519297 -1.4585651
0000d0 46 0b d8 ba 9a 1e c1 bf d9 63 21 be f1 97 60 bf
       -0.0016482852 -1.5087464 -0.15760745 -0.87731844
0000e0 18 ab 29 c0 fb 2c 59 3f 2a 23 f5 be 7c 3b e6 3e
       -2.6510677 0.8483426 -0.4787839 0.44967258
0000f0 7e 70 58 be e8 65 ed 3d e7 a2 b3 bf b1 5f e0 bf
       -0.21136662 0.11591703 -1.4034089 -1.7529203
000100 84 77 cf be 7e a0 ac 3f 25 fb 2b 3f bc 2b 24 3f
       -0.4052087 1.3486478 0.6718009 0.64129233
000110 11 52 45 3f 1c b0 d5 3f 46 fb 86 3f 1f d6 30 3f
       0.7707835 1.6694369 1.0545433 0.6907672
000120 71 7c 29 bf 38 40 1d bf 87 3c 4a bf 33 03 d2 bf
       -0.6620551 -0.61426115 -0.7899861 -1.6407226
000130 73 18 3b 3f a8 c7 0b 3f e6 6f d8 be dd ea 57 3e
       0.7308418 0.54601526 -0.42272872 0.21085687
000140 17 bd 02 40 c1 52 55 bf 1c c3 27 3f a8 80 91 bf
       2.0427911 -0.833294 0.6553209 -1.1367388
000150 c5 af 17 3e f4 6f d3 3e f0 9b 1f c0 12 46 1f be
       0.14813145 0.4129635 -2.4938927 -0.15554073
000160 d2 52 36 3f 97 f3 42 3f 06 3a 54 3e 6a 35 75 bf
       0.71220124 0.7615294 0.20725259 -0.9578463
000170 c3 b8 a2 be d8 4e 02 bf 31 81 4d bf 46 3f 50 3e
       -0.31781587 -0.50901556 -0.80275255 0.20336637
000180 c6 c7 2f be 87 85 86 bf 19 4b 10 40 7c c7 d2 bf
       -0.17166051 -1.0509499 2.2545836 -1.6467128
000190 9b a2 91 bf 23 2d 32 3f de 16 78 3e 8b b8 33 3e
       -1.1377748 0.69600123 0.24227473 0.17550866
0001a0 b8 51 d1 bf 26 37 02 bf 27 61 b7 bd 54 6a 89 be
       -1.6353064 -0.508654 -0.08954077 -0.26838934
0001b0 3a 0d 7b bf e2 0f 45 3f f4 62 c5 bd 4b de a7 bf
       -0.9806706 0.7697736 -0.096380144 -1.3114713
0001c0 8f 92 2d 3d 52 c0 a9 be 04 ab 5b bf 09 6f 99 be
       0.042376097 -0.3315454 -0.85807824 -0.29967526
0001d0 ee bd 5d bf c0 d0 48 3e 0a 46 6e bf a8 13 e5 3e
       -0.86617935 0.19610882 -0.9307562 0.4474156
0001e0 87 44 01 3f fe 91 35 3e ea 0c 43 3f 81 f3 fe 3e
       0.5049519 0.17731473 0.7619158 0.49795154
0001f0 07 03 cd bf 60 ea 79 bf 68 da 35 3f 5d 78 12 3f
       -1.6016549 -0.9762325 0.71036386 0.5721491
000200 5d 80 02 bf bb b2 c9 3d f6 79 cb 3f 60 b5 a4 be
       -0.50977117 0.09848543 1.5896595 -0.32169628
000210 c7 a5 84 3f eb 38 9e bf bd 01 3f bf 83 7f 07 3f
       1.0363091 -1.236112 -0.7461203 0.5292894
000220 d5 9a 5c 3f e8 2f 90 3f 6b 06 b6 3e d8 40 93 bf
       0.86173755 1.126462 0.35551772 -1.1504164
000230 78 bf 02 40 cf 64 94 bf 14 ec 84 3e 1e 8a 42 3f
       2.0429363 -1.1593264 0.25961363 0.75992
000240 35 4d 36 3f df a3 1c bd 5b d4 f2 3f b5 7a d2 3e
       0.7121156 -0.038242217 1.8971056 0.41109243
000250 6f 6f 0b bf da 24 5b 3f 9c d7 51 3f 2b d3 b7 3e
       -0.5446691 0.85603106 0.8196962 0.35903296
000260 4d 14 9a bd 9a 9b 7b 3d 6a 53 5d 3f ca 54 cf be
       -0.07523403 0.06142769 0.86455405 -0.40494376
000270 83 83 0c 3f 8e 5b bd 3e 17 6e b9 3f 74 de b1 3f
       0.5488817 0.36983913 1.4486722 1.3896012
000280 7a ca 47 3f 53 ef 22 3e 1d d5 a9 3f ca bb 66 3c
       0.7804333 0.15911607 1.3268162 0.014082858
000290 a6 2a 86 3f 93 6a 21 3e 5e 5d ee be 76 ba de 3e
       1.0481765 0.15763311 -0.4655561 0.43501633
0002a0 c6 92 19 bf 53 e2 d7 3f 14 97 eb 3e 8b fd 7d be
       -0.59989583 1.6865944 0.460137 -0.2480375
0002b0 e8 ad 18 40 f1 f4 4c 3f fd ab 6a bf e6 a7 3a 3f
       2.3856144 0.8006125 -0.91668683 0.7291244
0002c0 55 1e 6e 3f 9d 30 db 3f 04 09 a7 bd 15 ae 8e 3f
       0.93015033 1.7124211 -0.081560165 1.1146876
0002d0 b0 28 a0 3e 2c e3 cb be d3 00 54 3f 8e e9 dd bf
       0.31281042 -0.39821756 0.8281376 -1.73369
0002e0 64 00 30 be 1c af 63 3e 6e a2 c3 bf 11 b2 01 3f
       -0.17187649 0.22234768 -1.5283945 0.5066233
0002f0 e6 32 09 c0 dd 5f 5b 3e 9a 0a 88 be ed b9 58 bf
       -2.1437316 0.21423288 -0.26570588 -0.846587
000300 bd f4 3d 3f 1e da cd 3a 77 44 98 bf ee a0 78 3e
       0.74201566 0.0015705263 -1.1895894 0.2428014
000310 3c 47 8c be e9 a9 c0 3d ac 13 fc 3d fb 5b 0d be
       -0.27398098 0.09407408 0.123084396 -0.13804619
000320 43 2f 8e 3f c4 9d 9e 3d d9 86 7a bf b6 38 d5 be
       1.1108173 0.07744935 -0.9786201 -0.4164483
000330 e9 32 91 be 1b 1e 25 bf 3d 36 4f 3f 44 b5 9c bb
       -0.28359154 -0.6449906 0.80942136 -0.0047823507
000340 79 0e bd 3f 07 18 8b 3e 77 80 47 bf b4 1a 61 be
       1.4770042 0.2716677 -0.77930397 -0.21982843
000350 35 4d 2e 3f 26 4d 22 3e c9 29 b4 bf d7 81 47 3f
       0.6808656 0.15849742 -1.4075252 0.77932495
000360 ee b6 8c bd 1c 31 f9 be 8d 18 f2 bc 2d 58 96 3e
       -0.068708286 -0.4867028 -0.029552722 0.29364148
000370 3d a1 63 3f 7b b5 a3 3e ae b5 2d bf 9e b0 01 be
       0.88917905 0.31974396 -0.67855346 -0.1266503
000380 a3 ee 97 3d 21 b7 b4 bf 68 0c 81 be 08 c2 eb bf
       0.07418563 -1.4118387 -0.25204778 -1.8418589
000390 e0 a7 86 3e 29 1e 6d bf 6a 4d c3 3f eb e1 a1 be
       0.26299953 -0.92624146 1.5258 -0.31617674
0003a0 2a db f6 be 9f 29 4f bf 29 06 25 bf 4c 05 4e 3f
       -0.48214084 -0.80922884 -0.64462525 0.8047683
0003b0 3f d7 5c 3f e1 4e 98 be 8a 76 c9 3f 25 b2 85 be
       0.8626594 -0.2974768 1.57393 -0.26112476
0003c0 37 51 b2 3e 01 53 07 bf a6 8a 82 bf 77 ba 9c be
       0.34827587 -0.5286103 -1.0198562 -0.3061101
0003d0 cb 12 61 bf c8 0b 2d bf e6 80 ef be e8 50 80 be
       -0.879193 -0.675961 -0.4677803 -0.25061727
0003e0 10 f8 87 3f 7a f7 1b 3f ba c1 02 40 8b f0 8e bf
       1.0622578 0.60924494 2.0430741 -1.1167158
0003f0 45 7d c3 be 0f cc e3 bf 33 a3 01 bd 2e a6 e0 be
       -0.3818151 -1.7796649 -0.03164978 -0.43876785

layer.weight_ih_l0 f4 [10, 10]
000000 78 f1 bc 3d f1 9b b7 bd 2e b6 6f 3e ab 22 83 be
       0.09225744 -0.0896529 0.2340934 -0.25612387
000010 9f 1e 3a be 40 1b 37 be fa 78 79 3d 65 06 23 be
       -0.18175744 -0.17881489 0.060906388 -0.15920408
000020 7d 5c d3 3d aa 88 5a 3e 8b 8c c9 bb c1 93 fa 3c
       0.10320375 0.21341196 -0.006150787 0.030588033
000030 e1 33 28 be 5d 3c 99 3d 25 6c 77 3d be d4 c1 3d
       -0.1642604 0.074822165 0.06040587 0.094644055
000040 f5 b2 0b 3b 34 bd 79 3d a0 ab cf bd 38 f1 ae bd
       0.0021316383 0.060971454 -0.10140157 -0.085421026
000050 c9 57 d3 3d 78 82 d5 3e f5 d6 ac be 06 8d 11 3f
       0.10319478 0.41701102 -0.3375775 0.5685581
000060 bc 06 1d 3e a7 23 a6 3e e5 e0 c9 be fc ae dc 3e
       0.153346 0.32449076 -0.39429393 0.43102252
000070 d1 3c 0a bd a3 65 bc be 91 12 1e 3d a4 5a de bd
       -0.033749405 -0.36796293 0.038591925 -0.10857132
000080 ea a8 ef 3d 1f 1e f6 bd 7f fa e6 bd 04 6f d3 bd
       0.1170214 -0.12017464 -0.11278247 -0.10323909
000090 12 c8 41 3d 96 8f d8 bd 88 e5 6e 3d 75 40 0a 3e
       0.047309943 -0.10574262 0.058324367 0.13501151
0000a0 e8 c6 b6 bd 3a 33 5b be 9c fa af 3e d7 f4 d8 be
       -0.08924657 -0.2140626 0.34370887 -0.42374298
0000b0 0b 8e 85 bd 8b 0d 8f be 87 a1 76 3e 60 ac 88 be
       -0.06521233 -0.2794002 0.24085055 -0.26694012
0000c0 73 ca de 3d ab 24 70 3e 14 9c 5b 3d b6 5c 39 3d
       0.10878458 0.23451488 0.053615645 0.04525443
0000d0 d6 7c 81 3c 4c 4f ad bc 49 9c d5 bc c0 65 7e bc
       0.015806597 -0.021155976 -0.0260755 -0.015527189
0000e0 49 52 8d bc cc e8 4d bd be fe 1f 3c ea 5b 43 3d
       -0.01725115 -0.05027084 0.009765325 0.047695078
0000f0 22 7a b9 3d df fe 30 be fe 93 2b 3e db 9c 3f be
       0.09056498 -0.17284726 0.16755673 -0.1871218
000100 b1 85 33 be 9e f5 29 be 32 d2 a9 3d 55 3b 48 be
       -0.17531468 -0.16597602 0.08292045 -0.19553883
000110 ab f9 a0 3d ce d8 68 3e de 2f a9 3c 77 b7 a9 3d
       0.078601204 0.22738954 0.020652708 0.08286946
000120 cc 89 9d 3c ca c8 bf bc a9 80 98 bd 2d ab 03 b8
       0.019230746 -0.023411173 -0.07446415 -3.1392254e-05
000130 c5 28 8e bd 46 01 08 3d f4 d6 9d 3d 18 2b 34 3d
       -0.0694137 0.03320434 0.07707015 0.04398641
000140 ca ce 82 3c 15 7f 07 3c 2f 0a 3c 3e 7c 5e 0c be
       0.015967745 0.008270045 0.1836326 -0.13707918
000150 b9 15 bd 3c 12 f9 eb bd 44 18 5c 3d 6b a8 28 be
       0.023081647 -0.11522116 0.05373408 -0.16470496
000160 80 45 2f 3d 3f 61 b5 3d 9b f9 40 be eb 86 3d 3e
       0.04279089 0.08856439 -0.18845217 0.18508498
000170 11 dd 56 be 33 7c 7d 3e 02 83 a8 3e d4 84 3b 3e
       -0.20982768 0.2475441 0.3291245 0.18312389
000180 b9 2a 9f bd cc fc d2 3d d1 46 cd bd 57 dc 93 be
       -0.077718206 0.103021234 -0.10023273 -0.28879043

layer.weight_hh_l0 f4 [10, 10]
000000 86 f6 9d bf a7 81 6d 3e 44 f1 73 3f 80 33 19 3f
       -1.2340858 0.2319399 0.9529002 0.5984421
000010 82 aa 7d be 74 6e 4e bf 80 e0 08 bf 4a 25 10 3f
       -0.24772075 -0.8063729 -0.5346756 0.563069
000020 2d cd 39 be 96 4d 55 bf a8 e4 58 3d b2 59 13 3f
       -0.18144675 -0.8332151 0.05295244 0.5755874
000030 2a 95 23 3d 43 d5 96 3f c2 cd 2d 3f f3 da a2 3e
       0.039937176 1.1783832 0.67892087 0.3180767
000040 ea 6d 7a bf 3e 0f 5a bf 1b 14 ec 3d e2 9f 24 bf
       -0.97823966 -0.8517951 0.11527272 -0.6430646
000050 bc bf 56 3f 7f 9b ed 3e b8 7f cb 3d ce 32 ba bd
       0.83886313 0.46407697 0.0993647 -0.090917215
000060 19 dc ae be 6c 42 40 3e 4a 03 c1 be 8e ab 69 bf
       -0.34152296 0.18775338 -0.37697822 -0.91277397
000070 47 e8 e2 be 07 f2 c3 3d f7 fa 73 3c 88 3a 4c bf
       -0.4431784 0.095676474 0.014891378 -0.7977681
000080 75 e9 43 be 17 00 e7 be d1 ad 7d 3f 13 b6 83 3f
       -0.19132026 -0.45117256 0.9909335 1.028994
000090 ad 45 41 be 2e 88 38 be 4c 2f c5 be 30 e9 a3 3e
       -0.18874235 -0.18020698 -0.38512647 0.32013845
0000a0 00 3c b5 3f a2 2d 54 be 0b b3 19 bf d1 0d 65 bf
       1.4158936 -0.20720533 -0.6003882 -0.8947421
0000b0 1f 0e 23 be e2 59 16 3f 74 66 49 3f 68 ec f2 be
       -0.15923356 0.587309 0.78671956 -0.4744599
0000c0 12 f7 85 bd e4 b0 62 3e cc 3a 01 3f ef 3b 67 3f
       -0.065412655 0.22137791 0.5048034 0.90325826
0000d0 6e a4 32 3f e4 6e e8 be 0c 93 b0 bf 84 24 10 bf
       0.6978215 -0.45397103 -1.3794875 -0.5630572
0000e0 b4 e9 54 3f 32 3a fa be 65 67 4c bf f4 11 ed 3e
       0.831691 -0.48872524 -0.7984527 0.4630276
0000f0 42 a7 2b be 8f 1d 99 3f 90 45 9d 3e c4 76 09 3f
       -0.16763023 1.1962146 0.30717134 0.53696847
000100 e9 5b 04 bf a3 d6 96 bf 31 fe 4f 3e d5 f0 02 3f
       -0.51702744 -1.1784252 0.2031181 0.5114873
000110 03 6a ec 3e a2 24 b9 bc b6 a2 9b 3f a0 47 7e 3f
       0.4617463 -0.022600476 1.215903 0.9932804
000120 e4 08 5e bf 1e cf 44 3f ed d8 07 3e 23 61 f0 be
       -0.86732316 0.76878536 0.13266344 -0.4694911
000130 b0 c2 0d 3e b1 b4 8b 3d 4a 36 21 3f dc f9 63 bf
       0.13843799 0.068215735 0.62973464 -0.8905313
000140 e3 a3 01 be a3 8a bc be 84 9b 5d bf 89 00 30 3e
       -0.12660174 -0.3682452 -0.86565423 0.17187704
000150 10 fa 47 3f 03 ac eb bd 2b eb 83 be 04 1c 05 3f
       0.7811594 -0.11507418 -0.25765356 0.51995873
000160 18 aa 3e 3f 1e c1 aa be 89 b1 92 bf c7 d1 db 3e
       0.7447829 -0.33350462 -1.146043 0.42933485
000170 06 af c7 3e 72 f0 bc be 01 54 9c 3c 8c 4a 23 bf
       0.3900072 -0.36902195 0.019083025 -0.63785625
000180 e5 c4 ff 3e 71 a3 39 3f ab d9 29 3f cb f6 22 3f
       0.49954906 0.72515017 0.6634776 0.63657826

layer.bias_ih_l0 f4 [10]
000000 fb cb 30 3f 77 7a 01 3d c5 b2 97 3e c3 6a 52 3b
       0.6906125 0.031610932 0.29628578 0.0032107092
000010 6c b5 65 be 82 16 a3 be e4 95 ce 3e da 0e 1b 3d
       -0.22432488 -0.3185311 0.40348732 0.03785596
000020 f6 dd 9b be e0 e8 25 bf
       -0.3044278 -0.64808464

layer.bias_hh_l0 f4 [10]
000000 ab b0 1a 3f 03 72 0b be 68 85 47 be 5f d4 ab 3e
       0.60425824 -0.13617711 -0.19484484 0.33560464
000010 b1 64 5d 3e b2 3a 2e bd 07 f5 c8 3e e9 95 2f be
       0.21620442 -0.042536445 0.3924944 -0.1714703
000020 46 d5 a3 bd 5c ca 0f bf
       -0.07999663 -0.5616815

classify.weight f4 [6, 10]
000000 14 53 02 3f 8e ec c6 3f a0 c2 4c 3f 60 fc a8 bf
       0.5090802 1.5540941 0.79984474 -1.3202019
000010 98 12 a6 be c0 4d a6 3f 0e f2 5a 3f 6d b7 a7 3f
       -0.3243606 1.2992477 0.85525596 1.3102852
000020 57 fe f6 be 5f 8c 95 bf 94 1e 87 3f f9 33 b9 3f
       -0.4824092 -1.1683463 1.0556207 1.4468986
000030 a0 9c 2f be d5 3b ac 3f 34 da 9a bf 57 3b b4 bf
       -0.17149591 1.3455759 -1.209784 -1.4080609
000040 0b e2 8a bf 06 60 a1 bf 1e 07 1b be 10 94 10 bf
       -1.0850233 -1.2607429 -0.15139434 -0.56475925
000050 3d a0 ca bf 6f fe 63 bf 7f 7d 45 3e 98 d5 3f 3f
       -1.5830151 -0.8906011 0.19286154 0.74935293
000060 87 b3 8f 3f db 32 a8 3f 85 9b 87 bf 4a 9c 56 bf
       1.1226662 1.314052 -1.0594336 -0.8383223
000070 97 e7 82 bf f7 15 16 bf 27 2c 69 3f b0 cc bc bf
       -1.0226926 -0.58627266 0.91082996 -1.4749966
000080 60 48 56 bf ff 35 54 bf 3c 29 88 bf c5 78 8a 3f
       -0.83704185 -0.8289489 -1.0637584 1.0818106
000090 e0 18 5b 3f 0f 11 bd bf 17 03 6b bf 7e 14 ef 3f
       0.8558483 -1.4770831 -0.9180159 1.8678129
0000a0 e2 68 ce bf 9f 37 06 bf da 82 a7 3f c9 8e 48 bf
       -1.6125758 -0.5242862 1.3086808 -0.7834287
0000b0 52 a7 ad bf 7f d0 95 bf f8 3c da be fa 3d 7f 3f
       -1.3566687 -1.1704253 -0.4262464 0.99703944
0000c0 d9 bf 8c 3f 95 0d 9e 3f da b6 73 3e bb a2 62 bf
       1.0996047 1.2347895 0.23800221 -0.88529557
0000d0 b2 e5 c1 bf 86 a8 93 3e 56 80 d8 3f 02 e1 82 bf
       -1.5148222 0.2883951 1.6914165 -1.0224917
0000e0 cb f2 82 3f 71 e9 83 3f 5c c3 ae 3f d1 e0 5e bf
       1.0230345 1.0305616 1.3653369 -0.8706179

classify.bias f4 [6]
000000 41 b0 10 3d 81 b1 00 3e 60 8d 2e 3e 0e 2f 59 be
       0.03532434 0.12567712 0.17046118 -0.21209356
000010 98 4d 98 be 15 28 68 3e
       -0.297467 0.2267154
