王婷/week3/model.pth (torch, 8750 bytes, 7 tensors)

embedding.weight f4 [28, 20]
0	0x00000000	0.0
1	0x00000000	0.0
2	0x00000000	0.0
3	0x00000000	0.0
4	0x00000000	0.0
5	0x00000000	0.0
6	0x00000000	0.0
7	0x00000000	0.0
8	0x00000000	0.0
9	0x00000000	0.0
10	0x00000000	0.0
11	0x00000000	0.0
12	0x00000000	0.0
13	0x00000000	0.0
14	0x00000000	0.0
15	0x00000000	0.0
16	0x00000000	0.0
17	0x00000000	0.0
18	0x00000000	0.0
19	0x00000000	0.0
20	0xbf84f04f	-1.0385836
21	0xbf3400c4	-0.7031367
22	0xbf3e59c0	-0.743557
23	0xbe47c651	-0.19509245
24	0x401eda41	2.4820712
25	0x3f3a740b	0.7283332
26	0xbf3e7c29	-0.74408203
27	0x4012eeee	2.295833
28	0x3ff41c0f	1.9071063
29	0xbff5d700	-1.9206238
30	0xbe91658e	-0.28397793
31	0x3f7bbfca	0.9833952
32	0xc007ed4e	-2.123859
33	0x3f692a5a	0.9108025
34	0xbf60bc94	-0.8778775
35	0x3fa12e19	1.2592193
36	0xbf48886c	-0.78333163
37	0xbfb9f9a7	-1.4529313
38	0x3ed15aff	0.40889737
39	0x3f5b2640	0.8560524
40	0x3f43b41c	0.764467
41	0x3f888048	1.0664148
42	0xbe4e5472	-0.20149401
43	0xbed9f889	-0.4257243
44	0xbf1c903d	-0.6115759
45	0x3fbdc0c6	1.4824455
46	0xbf3a73df	-0.72833055
47	0xbe8eb661	-0.2787352
48	0xbb707a39	-0.0036693944
49	0xbc4d2b29	-0.012522497
50	0x3f1713a5	0.5901435
51	0xc01c1119	-2.4385436
52	0xbebad8cf	-0.36493537
53	0xbefceadf	-0.49397942
54	0xbed690a9	-0.41907242
55	0xbef9a43a	-0.48758107
56	0x40125f3d	2.287063
57	0x3fa35ff0	1.2763653
58	0xbfa2eb55	-1.2728068
59	0x3f488b32	0.78337395
60	0xc00cc977	-2.1997964
61	0x3f3b44d9	0.7315193
62	0xbf67725a	-0.9040886
63	0xbfbcafd7	-1.4741162
64	0xbfbec026	-1.4902389
65	0xbf863433	-1.048468
66	0xbf278539	-0.65437657
67	0xbf8428a8	-1.0324907
68	0xbf401ba2	-0.75042164
69	0xbf97d532	-1.1861937
70	0x3f2697d0	0.650754
71	0x3f71cdfb	0.94454926
72	0x3dec9153	0.11551156
73	0x3f45fd13	0.77339286
74	0x3eb39030	0.35070944
75	0x3f4c083e	0.79700077
76	0xbe55cb1e	-0.20878264
77	0xbf385f0b	-0.72020024
78	0xb9f60008	-0.000469208
79	0x3dee1974	0.116259485
80	0x3f08a105	0.53370696
81	0x3f793e3d	0.97360593
82	0xbf210bfd	-0.6290892
83	0xbea18ae9	-0.31551293
84	0x3db838ff	0.08995246
85	0xbfe24639	-1.767768
86	0xbe8f243d	-0.27957335
87	0xbfb84800	-1.4396973
88	0x3ef04ce7	0.46933672
89	0xbf6cf46a	-0.92560446
90	0x3f6dea69	0.92935807
91	0x3fa2859c	1.2697024
92	0x3d07489a	0.033028223
93	0xbd59edf0	-0.05320543
94	0x3e90cdd0	0.28282022
95	0xbfbcff9b	-1.4765505
96	0x3f0f93ff	0.560852
97	0xbeb0ebc3	-0.34554872
98	0x3fb85b53	1.440287
99	0x3e71f645	0.236291
100	0xbf747f00	-0.95506287
101	0x3f82704f	1.0190524
102	0xbfe7fa05	-1.8123175
103	0xbefadf15	-0.48998323
104	0xbfb88ef6	-1.4418628
105	0x3b51e6cf	0.0032028442
106	0x3e8dc0e7	0.27686235
107	0x3fe329e4	1.7747159
108	0x3f24e1d5	0.6440709
109	0x3eabec3e	0.33578676
110	0x3f6521e5	0.89504844
111	0xbfe924f1	-1.8214399
112	0xbf39528c	-0.7239158
113	0xbf1d5e8f	-0.6147241
114	0xbd049805	-0.03237154
115	0x3e617369	0.22016682
116	0xbe881cc7	-0.26584455
117	0x3f8d2503	1.102692
118	0x400cf6f0	2.2025719
119	0xbef40b0f	-0.47664687
120	0xbfeb940a	-1.8404553
121	0xbf02304b	-0.5085494
122	0xbd270191	-0.04077298
123	0x3fdb2eb6	1.712363
124	0x3effbc8e	0.49948543
125	0xbf77b416	-0.96759164
126	0xbf4899a4	-0.78359437
127	0xbf77e031	-0.96826464
128	0x3c5d1d7f	0.013495802
129	0x3e0507af	0.12991212
130	0x3f97af03	1.1850284
131	0xbf084c8f	-0.5324182
132	0x3f3dd556	0.7415365
133	0x3f349d91	0.7055293
134	0x4000a789	2.0102255
135	0x3f37a1ed	0.71731454
136	0xbee9f9c2	-0.45698363
137	0xbf49f948	-0.78896
138	0x3e40d523	0.18831305
139	0xbfc15c8a	-1.5106366
140	0x3eda4445	0.4263021
141	0x3fdc7f0d	1.7226273
142	0xbf60cfb2	-0.8781692
143	0x40036200	2.0528564
144	0x3ef5bfb0	0.47997808
145	0xbea0912c	-0.31360757
146	0x3f236434	0.6382477
147	0xbe5071d3	-0.2035592
148	0x3f710432	0.94147027
149	0xbecc8e4d	-0.39952317
150	0xbf9af7ec	-1.210691
151	0xbeabc4fc	-0.33548725
152	0x3e3d2d5c	0.18474334
153	0xbfd903ea	-1.695432
154	0x401dadb5	2.4637272
155	0xbf1f9a34	-0.6234467
156	0xbce1f57a	-0.027582873
157	0x3eabc7af	0.33550784
158	0xbe114276	-0.14185509
159	0xbf290cad	-0.66034967
160	0xbe5af0c1	-0.21380903
161	0x3e0f2bb1	0.1398151
162	0x3f6653c3	0.8997156
163	0xbf87d1b6	-1.0610874
164	0xbefe3852	-0.49652344
165	0x3ddbcd3c	0.10732505
166	0xbf032042	-0.51221097
167	0xbe9d5677	-0.3073003
168	0xbe601067	-0.21881257
169	0xbf485247	-0.78250545
170	0x3fe67bf8	1.8006582
171	0xbeab28d1	-0.33429578
172	0x400cf0a6	2.202188
173	0x3e93249e	0.28738874
174	0xbf88020b	-1.0625623
175	0x3faf839f	1.3712043
176	0x3f473c3a	0.77826273
177	0xbf869863	-1.0515255
178	0xbe030d66	-0.1279808
179	0x3e9043b2	0.28176647
180	0xbf8731eb	-1.0562109
181	0xbf901920	-1.1257668
182	0xbebf8423	-0.374055
183	0xbe16e7d1	-0.14736868
184	0xbff9c699	-1.9513732
185	0x3e978f71	0.29601625
186	0x3f20d15d	0.62819463
187	0xbd33b0fe	-0.043869965
188	0x3ea625ca	0.32450706
189	0x3ebea4c8	0.37235093
190	0x3f214ce6	0.6300796
191	0x3f8d9cce	1.1063478
192	0xbf8ece87	-1.1156777
193	0xc01677e5	-2.3510678
194	0x3ed82a31	0.4221969
195	0xbfcc2bee	-1.5950906
196	0x3e374efa	0.17901221
197	0xbf12f77a	-0.5740887
198	0x3e77ee69	0.2421204
199	0xbf58a708	-0.8462987
200	0xbf447b66	-0.7675079
201	0xbe58e16c	-0.21179742
202	0x3f5d7cfd	0.8651884
203	0x3d7493c0	0.059711218
204	0xbf9c9222	-1.2232096
205	0xbf61fcbb	-0.8827626
206	0xbfde6405	-1.7374274
207	0x3cfe7f65	0.031066606
208	0x3f8af4c4	1.0855947
209	0xbf60762a	-0.87680304
210	0x3fbb7760	1.4645805
211	0xbdb5db31	-0.08879698
212	0x3ff20e49	1.891061
213	0xbef02591	-0.4690366
214	0xbf25729c	-0.64628005
215	0x3f28169f	0.6565952
216	0x400007fa	2.0004869
217	0xbf9bb78b	-1.2165388
218	0x3faee173	1.3662552
219	0x3f18de4b	0.5971419
220	0xbe7e2200	-0.24817657
221	0x3b8f858d	0.004379934
222	0xbee874ad	-0.45401517
223	0x3e837d4e	0.25681537
224	0xbe889ae5	-0.26680675
225	0x3f3c308d	0.7351158
226	0xbf7af547	-0.98030514
227	0x3eda7cd7	0.4267337
228	0xbe62b030	-0.22137523
229	0xbf862fc4	-1.0483327
230	0xbfe23483	-1.7672275
231	0xbdac274e	-0.08405934
232	0x3eef5f4d	0.46752396
233	0x3e9e66da	0.30937845
234	0x3e9c0209	0.30470303
235	0xbeaf9385	-0.34292236
236	0x40029b5d	2.0407326
237	0x402085e2	2.5081716
238	0xbd34bf6f	-0.044127878
239	0xbf2b6531	-0.6695128
240	0x3e9cfa85	0.3065988
241	0x3f85fc1b	1.0467561
242	0xbef5c34f	-0.4800057
243	0xbf5b692c	-0.85707355
244	0x404a6e33	3.162976
245	0x3f342ed3	0.7038395
246	0xbf658c6d	-0.896674
247	0xbfd1e63a	-1.6398385
248	0xbf97e7ca	-1.1867611
249	0x3f3f215c	0.7466028
250	0x3f820226	1.0156906
251	0xbefaf993	-0.49018535
252	0x3f4d2e2b	0.8014857
253	0xbf23f6a5	-0.64048225
254	0xbf91af21	-1.138157
255	0x3dcfcb04	0.10146144

rnn.weight_ih_l0 f4 [20, 20]
0	0xbd950366	-0.07276039
1	0x3c51ca27	0.0128045445
2	0xbd822680	-0.063549995
3	0x3d4e7300	0.05040264
4	0x3d1e6998	0.03867492
5	0xbda3eb86	-0.08003907
6	0x3d0b4f5a	0.034011222
7	0x3d23f7b3	0.040031146
8	0x3d839a3f	0.064259045
9	0xbdf410cd	-0.11917267
10	0x3b8e2ecc	0.0043390747
11	0xbdb11c5f	-0.086479895
12	0x3d15b966	0.036553763
13	0xbe0b4d1c	-0.13603634
14	0x3c592ac6	0.013254827
15	0x3d87e156	0.06634776
16	0x3d9eccd6	0.07753913
17	0xbd6d97ba	-0.058006026
18	0x3d27c3c8	0.040958196
19	0x3e5485ab	0.20754115
20	0xbe017912	-0.12643841
21	0x3d93a5a3	0.07209327
22	0xbe5665d6	-0.20937285
23	0x3d8071f1	0.062717326
24	0x3c2cc38c	0.010544669
25	0xbe44c711	-0.19216563
26	0xbe208bd1	-0.15678336
27	0x3e3e6e93	0.18596868
28	0x3e29641d	0.16542096
29	0x3d761f39	0.06008837
30	0x3e108262	0.14112237
31	0xbc989862	-0.01862735
32	0xbd6c33e6	-0.05766668
33	0x3da88c3d	0.08229873
34	0xbd44a004	-0.048004165
35	0xbcdee920	-0.027210772
36	0x3dafcee1	0.08584381
37	0xbd58904e	-0.052871995
38	0x3dd38b32	0.10329284
39	0xbd35e8d8	-0.04441151
40	0x3dbb5f90	0.091490865
41	0xbb0a1fa4	-0.0021075988
42	0xbe408fd7	-0.1880487
43	0xbc2c8bcc	-0.010531377
44	0x3e634619	0.22194709
45	0x3e632e17	0.2218555
46	0x3da56687	0.08076196
47	0x3eb11a0f	0.34590194
48	0x3d75e841	0.060035948
49	0xbe3bf6e2	-0.18355897
50	0xbe40f005	-0.1884156
51	0x3e76d2fc	0.24103922
52	0xbeb1091f	-0.3457727
53	0x3e250008	0.16113293
54	0xbdec7707	-0.1154614
55	0x3de6244d	0.112373926
56	0xbdf30ffc	-0.11868283
57	0xbec746c7	-0.38921186
58	0x3be7b167	0.0070707086
59	0x3dd82a0b	0.10554894
60	0x3d18a3f0	0.037265718
61	0x3db34118	0.0875265
62	0x3e105aef	0.14097188
63	0x3c937e88	0.01800467
64	0xbd21c217	-0.03949174
65	0xbe67fd45	-0.22655208
66	0xbe4210f5	-0.18951781
67	0xbd868815	-0.06568924
68	0x3be6e738	0.0070466064
69	0x3d0e9480	0.03480959
70	0xbd0831d2	-0.033250637
71	0xbe3c4206	-0.18384561
72	0x3e552192	0.20813587
73	0x3db4b929	0.08824379
74	0xbd74451c	-0.05963622
75	0x3e2054ee	0.15657398
76	0x3c9c2fd8	0.019065782
77	0x3e3737e0	0.17892408
78	0x3cd5a4b5	0.026079515
79	0xbe22ed49	-0.1591083
80	0x3c288760	0.010286182
81	0xbe3d7782	-0.1850262
82	0xbe85cf3f	-0.2613468
83	0x3baa13c0	0.0051903427
84	0x3e4c0a30	0.19925761
85	0x3e617304	0.22016531
86	0x3dac77d9	0.084212966
87	0x3e7f6eb5	0.24944575
88	0x3e0135ff	0.12618254
89	0xbe266c12	-0.16252163
90	0xbe6e71e4	-0.23285633
91	0x3e96ca4d	0.29451218
92	0xbe26e49a	-0.16298142
93	0x3e40afbb	0.18817036
94	0xbe58e88b	-0.21182458
95	0xbcd74271	-0.026276799
96	0xbdaaefe0	-0.08346534
97	0xbe535b25	-0.20640238
98	0x3db4ec41	0.08834124
99	0xbd461d2f	-0.048367675
100	0x3de268ff	0.11055183
101	0x3d860b1a	0.06545086
102	0x3bc68fd9	0.0060596284
103	0x3db4c8c0	0.088273525
104	0x3c9e1dec	0.019301377
105	0x3e5f1343	0.21784692
106	0x3e381c1f	0.17979477
107	0xbd25a146	-0.040437005
108	0xbcdf3947	-0.027248992
109	0xbe69178e	-0.22762892
110	0xbe0adb6a	-0.13560262
111	0x3dc9d992	0.09855951
112	0x3df30048	0.11865288
113	0xbd5d1b4a	-0.053981103
114	0x3dc53d38	0.09630817
115	0x3e10bff5	0.14135726
116	0xbd1b25ea	-0.037877955
117	0xbe30b206	-0.1725541
118	0xbd735b41	-0.0594132
119	0xbd78e303	-0.06076337
120	0xbc2b917b	-0.010471697
121	0xbd85f815	-0.065414585
122	0xbd9b379c	-0.07578966
123	0x3cfe228e	0.031022336
124	0x3d34ca48	0.044138223
125	0xbd3f21ed	-0.046663214
126	0xbd4c7452	-0.04991562
127	0xbcbda51c	-0.02315002
128	0xbdb583f6	-0.0886306
129	0x3db6166a	0.08890994
130	0x3cb42370	0.021989554
131	0x3e11a086	0.14221391
132	0xbdaba530	-0.083811164
133	0x3d563339	0.052294943
134	0x3e2ef581	0.1708584
135	0x3ccaf5b0	0.024775356
136	0x3c3c5cb2	0.01149671
137	0xbb4e042d	-0.0031435594
138	0xbe08abac	-0.13346738
139	0x3d82dea0	0.063901186
140	0xbd0902f5	-0.033450086
141	0x3dab36d4	0.08360067
142	0xbda8211b	-0.08209439
143	0xbc38ebdc	-0.011286702
144	0x3e15b652	0.14620331
145	0xbd77408a	-0.060364284
146	0xbb970cec	-0.0046096947
147	0x3db3572a	0.087568596
148	0xbe0076d8	-0.12545335
149	0xbcc8bb40	-0.02450335
150	0x3e85a0be	0.260992
151	0x3be5903e	0.0070057204
152	0xbd35e840	-0.044410944
153	0x3e04c6b4	0.12966424
154	0x3e245c9b	0.16050951
155	0xbcc94463	-0.024568742
156	0xbcdf1b0d	-0.027234579
157	0x3e21d6ea	0.1580464
158	0x3dd5b6e9	0.10435278
159	0xbd18080c	-0.03711705
160	0x3d7cf5e0	0.061757922
161	0xbd3053fa	-0.043048836
162	0x3e8c1df1	0.27366593
163	0xbe86951f	-0.26285645
164	0xbe1f364c	-0.15548056
165	0xbeb33d47	-0.35007688
166	0x3d539577	0.051656213
167	0xbe9e0dc5	-0.3086988
168	0xbe93cdc9	-0.2886794
169	0x3d6f79e9	0.058465872
170	0xbdbae968	-0.0912655
171	0xbe16ba23	-0.14719443
172	0x3decab30	0.11556089
173	0xbdf44fc9	-0.1192928
174	0x3dc989df	0.0984075
175	0xbe8a060d	-0.2695774
176	0xbd643239	-0.05571196
177	0x3bdf8019	0.0068206904
178	0x3d7233e1	0.059131507
179	0xbdecb3ab	-0.115577064
180	0xbe26d0ad	-0.16290541
181	0xbc9cfdaf	-0.019163935
182	0xbcc23b4c	-0.023709916
183	0x3cd5b46d	0.02608701
184	0x3e619884	0.22030836
185	0x3e031624	0.12801415
186	0x3d50c8c8	0.05097273
187	0x3e9a9453	0.30191287
188	0x3e620caa	0.22075143
189	0xbec2d850	-0.38055658
190	0xbb8a8d04	-0.004228236
191	0x3e09a2ad	0.13440962
192	0xbe635b12	-0.2220271
193	0xbdb94381	-0.090460785
194	0xbd20845f	-0.03918874
195	0x3d15f0ab	0.036606472
196	0xbd4b76b5	-0.049673755
197	0xbe02fa01	-0.12790681
198	0x3e125d47	0.14293395
199	0x3e402659	0.18764628
200	0xbd16c928	-0.03681293
201	0xbdce7678	-0.1008119
202	0xbe0ea3ca	-0.13929668
203	0xbd9f286b	-0.07771381
204	0x3eabea92	0.335774
205	0x3e83ed65	0.25767055
206	0xbcba7ce4	-0.02276463
207	0x3e02c1c7	0.12769233
208	0x3d31fe08	0.043455154
209	0xbddd7f92	-0.10815348
210	0xbca8a89e	-0.020588215
211	0x3e727f96	0.23681483
212	0xbe11bf58	-0.14233148
213	0x3d35208e	0.0442205
214	0x3bc64a4e	0.0060513383
215	0x3d83867e	0.06422137
216	0x3db2c233	0.08728447
217	0xbe9369c3	-0.28791627
218	0xbd508690	-0.05090958
219	0x3e296d3e	0.16545579
220	0x3d255020	0.040359616
221	0x3b57e61b	0.003294355
222	0x3d0fa600	0.03507042
223	0x3d5f75a2	0.054555543
224	0x3d95ed80	0.0732069
225	0x3da4bef0	0.08044231
226	0x3e283429	0.16426148
227	0xbdc98f8f	-0.09841835
228	0x3d5d828a	0.05407957
229	0x3cf8edb1	0.030386778
230	0x3d8d4d14	0.06899467
231	0xbdb1b451	-0.08676971
232	0xbce1551a	-0.0275064
233	0x3df39eed	0.11895547
234	0xbdfdad1a	-0.12386532
235	0xbde50219	-0.11182041
236	0xbda6fa1a	-0.08153172
237	0xbdc2716e	-0.09494291
238	0xbdd1ab7c	-0.10237786
239	0xbe3930cb	-0.1808502
240	0x3e1941a3	0.14966445
241	0x3e3a6db0	0.18205905
242	0x3c86a64b	0.016436717
243	0xbdb58117	-0.088625126
244	0xbe964914	-0.2935263
245	0xbe0d8b99	-0.13822784
246	0xbd3fc911	-0.04682261
247	0xbe7a0cf4	-0.24419004
248	0xbe2ab61a	-0.16671029
249	0x3e329527	0.1743971
250	0xbcfc9984	-0.03083492
251	0xbecf0e6d	-0.40440693
252	0x3eb52427	0.35379145
253	0xbe59d4b6	-0.21272549
254	0x3ddc8b14	0.107687145
255	0xbde3d941	-0.11125422

rnn.weight_hh_l0 f4 [20, 20]
0	0x3d51e9bd	0.0512483
1	0x3ecfb332	0.40566403
2	0x3cbde1d3	0.02317897
3	0xbe4bc51c	-0.1989941
4	0xbe01322a	-0.12616792
5	0xbe304e97	-0.1721748
6	0xbe36c8fa	-0.17850104
7	0xbe553a2a	-0.20822969
8	0x3e520ed1	0.20513465
9	0xbee80031	-0.45312646
10	0xbed099c5	-0.40742317
11	0x39f5e81b	0.00046902974
12	0x3e71acf1	0.23601128
13	0x3f024983	0.5089342
14	0xbe443745	-0.19161709
15	0x3cf798f2	0.030224297
16	0xbe864a7f	-0.2622871
17	0xbdaf437a	-0.08557792
18	0xbe6defa7	-0.23235951
19	0x3f5768c1	0.84144217
20	0xbdcb71cc	-0.099338144
21	0x3eb574f6	0.35440797
22	0x3e06bf92	0.13159016
23	0xbe2d9502	-0.16951373
24	0x3eb2f2e0	0.34950924
25	0xbe5c4b38	-0.21513069
26	0xbec3859a	-0.38187867
27	0x3f383ad7	0.7196478
28	0x3e315ab8	0.17319763
29	0x3e826253	0.2546564
30	0xbf432c02	-0.76239026
31	0xbeba296c	-0.36359727
32	0x3eb03d6d	0.34421864
33	0x3e87af14	0.26500762
34	0x3e05ce7e	0.13067052
35	0x3eda8c86	0.42685336
36	0xbc02d982	-0.007986428
37	0xbe6c82c1	-0.23096754
38	0x3eb2d858	0.34930682
39	0xbd1c6f42	-0.03819204
40	0xbeb538dc	-0.35394943
41	0x3e3351ef	0.17511724
42	0x3ea14a3f	0.31501958
43	0xbebfdb23	-0.37471876
44	0x3f142515	0.5786908
45	0x3c93d887	0.018047584
46	0x3d789d17	0.060696688
47	0x3f1ca81b	0.6119401
48	0xbeb9d9c2	-0.3629895
49	0xbd2a3af0	-0.041560113
50	0xbca5db17	-0.020246072
51	0xbe152396	-0.14564356
52	0xbeb9481a	-0.36187822
53	0x3d7ca9cb	0.061685365
54	0x3e80ca90	0.25154543
55	0x3e3a9e41	0.18224432
56	0x3d86611c	0.06561491
57	0x3c44612c	0.011986058
58	0x3e4d6b3a	0.20060435
59	0xbc34fde5	-0.011046861
60	0x3d3bef12	0.045882292
61	0x3da0d7ac	0.07853636
62	0xbe537855	-0.20651372
63	0x3ecf8769	0.40532997
64	0xbf273e2a	-0.6532923
65	0x3e7231f9	0.23651876
66	0x3e8b7e5e	0.27244848
67	0xbef86e5e	-0.48521703
68	0x3e05f7fb	0.13082878
69	0xbe31ff70	-0.17382598
70	0x3ea9ee97	0.33189842
71	0x3de6e912	0.112749234
72	0x3e22ba80	0.15891457
73	0x3e4bc7fd	0.19900508
74	0x3e2a6b56	0.16642508
75	0xbe868820	-0.2627573
76	0xbdea06fe	-0.11427115
77	0xbdabccb6	-0.08388655
78	0xbe87c607	-0.2651827
79	0x3b9cd72f	0.004786394
80	0x3e9b329f	0.30312058
81	0xbe34f221	-0.1767049
82	0x3d9ff943	0.07811215
83	0xbe21bdf6	-0.1579512
84	0x3e8b7a45	0.27241722
85	0xbe8b6323	-0.27224073
86	0xbe8b603e	-0.27221864
87	0x3e0c6f24	0.13714272
88	0xbe2b0e40	-0.16704655
89	0x3dd281ad	0.1027864
90	0x3dc15309	0.09439666
91	0x3dea86d7	0.114515
92	0xbe8aeef7	-0.2713544
93	0xbee11a65	-0.4396545
94	0x3c36a420	0.011147529
95	0x3f093334	0.53593755
96	0x3d859a5c	0.06523582
97	0x3e062ab5	0.13102229
98	0x3e876649	0.26445225
99	0xbe9ec7c6	-0.3101179
100	0x3dd8366d	0.10557256
101	0xbe2e0b38	-0.16996467
102	0x3def932b	0.11697992
103	0xbea8b22e	-0.3294844
104	0x3e3cdff8	0.18444812
105	0x3e8c4605	0.2739717
106	0xbde3831a	-0.1110899
107	0x3e03c4d0	0.12868047
108	0xbf269f66	-0.6508697
109	0xbdf6d10d	-0.12051592
110	0x3e81bc5e	0.25339025
111	0x3ce6a96e	0.028156962
112	0xbe3ffd0c	-0.18748873
113	0x3e8d6c21	0.27621558
114	0x3d062a72	0.032755323
115	0xbeadf607	-0.33976766
116	0x3f13425e	0.57523143
117	0x3d6bd451	0.057575528
118	0xbf49cdd7	-0.7882971
119	0x3e8b63d4	0.272246
120	0xbd9520cf	-0.07281648
121	0xbe04d519	-0.12971915
122	0x3eed56e4	0.46355355
123	0xbe32e2f1	-0.17469384
124	0x3e41339c	0.18867344
125	0x3e54467f	0.20730017
126	0x3e863c3e	0.26217836
127	0xbe49c799	-0.19705047
128	0xbf230429	-0.6367822
129	0x3e7ee381	0.24891473
130	0x3f09963b	0.5374486
131	0xbe5e9c45	-0.217393
132	0xbeb26e33	-0.348497
133	0xbe41032f	-0.1884887
134	0x3e967a6c	0.29390275
135	0xbea62020	-0.32446384
136	0x3e7a6fc0	0.24456692
137	0x3e3e818e	0.18604109
138	0x3d6e33f3	0.05815501
139	0xbe1a41f9	-0.15064229
140	0x3f47ce81	0.78049475
141	0x3ecc4267	0.3989441
142	0xbdb04f59	-0.08608884
143	0x3e149c9c	0.14512867
144	0xbe3b6795	-0.18301232
145	0xbdb9c52d	-0.090708114
146	0xbf3d8b32	-0.7404052
147	0x3d96d6b0	0.07365167
148	0x3db11299	0.08646125
149	0xbddf42af	-0.10901391
150	0x3d526515	0.05136593
151	0xbebb4c6a	-0.36581737
152	0xbe690607	-0.22756205
153	0x3d23324f	0.0398429
154	0xbe5bbc56	-0.21458563
155	0x3ef4dd0e	0.478249
156	0xbdb7e590	-0.089793324
157	0xbf27d84c	-0.6556442
158	0x3e95bcf2	0.29245716
159	0xbe5bb733	-0.21456604
160	0xbca6ca77	-0.020360215
161	0xbe81bf67	-0.2534134
162	0xbf0412f3	-0.51591414
163	0x3e954ac5	0.29158607
164	0xbeffa548	-0.49930787
165	0xbe073d94	-0.13207084
166	0xbbd3d9ea	-0.0064651864
167	0x3e4159ae	0.18881866
168	0x3e30a2aa	0.17249551
169	0xbceafe33	-0.028685665
170	0xbe093e1a	-0.13402596
171	0x3d422589	0.047399078
172	0x3ec2fb6e	0.3808245
173	0xbe4f9855	-0.20272954
174	0xbd04f4dc	-0.03246008
175	0xbe20b210	-0.15692925
176	0xbe4243d6	-0.1897119
177	0x3e9f1c7a	0.31076413
178	0x3df0dcc6	0.11760859
179	0xbec8062d	-0.39067212
180	0xbe176ef7	-0.14788423
181	0xbd2ba0f5	-0.041901547
182	0x3ea839c1	0.32856563
183	0x3ddc1ffb	0.10748287
184	0xbc8df7fa	-0.017330159
185	0x3e7b2bf3	0.24528484
186	0x3d58f6cc	0.05296974
187	0xbdc2a5c4	-0.095042735
188	0xbe99d2c8	-0.30043626
189	0xbbc52b3b	-0.0060171164
190	0x3dcbd7c9	0.09953267
191	0xbd337465	-0.043812174
192	0xbea7ab8e	-0.32748073
193	0xbe0ba409	-0.13636793
194	0x3d358c44	0.04432322
195	0xbe625b88	-0.22105229
196	0x3e9e1bb1	0.30880502
197	0xbd8bac05	-0.068199195
198	0x3ea6e200	0.325943
199	0xbe434443	-0.19069009
200	0xbc958bf8	-0.018255219
201	0xbddcb6ac	-0.107770294
202	0xbdae84b8	-0.08521408
203	0xbe074f66	-0.13213882
204	0x3daa0fcb	0.083037935
205	0x3e19b5d5	0.1501077
206	0x3ecdde20	0.4020853
207	0xbe587350	-0.21137738
208	0xbedc7bde	-0.43063253
209	0xbd93a67c	-0.07209489
210	0xbebb1f25	-0.365472
211	0xbd686110	-0.05673319
212	0x3dcae2f5	0.0990657
213	0x3f1cd0d6	0.6125616
214	0x3e278d9b	0.16362612
215	0xbecc15cf	-0.3986039
216	0x3d269c05	0.040676136
217	0x3e4f3a03	0.20236973
218	0xbf3557c4	-0.70837045
219	0x3ee11193	0.4395872
220	0xbe9aaab9	-0.30208376
221	0xbf098f65	-0.5373443
222	0xbe1da6f0	-0.15395713
223	0xbe0bb022	-0.13641408
224	0x3e5f35f9	0.21797933
225	0x3d2fa43a	0.042881228
226	0x3eb58a41	0.35457042
227	0x3f113404	0.56719995
228	0xbe84e9fd	-0.2595977
229	0x3c8e699d	0.017384345
230	0xbe2798b4	-0.16366845
231	0xbf1042d6	-0.56351984
232	0x3dd00d94	0.1015884
233	0x3e4ae170	0.1981256
234	0x3d8702c7	0.065923266
235	0xbea02f86	-0.31286258
236	0x3e7b2a2f	0.2452781
237	0x3e6f5369	0.23371662
238	0xbec0b0c5	-0.37634864
239	0xbe6bca06	-0.23026285
240	0x3e5cac0e	0.21550009
241	0x3d64ae5a	0.055830337
242	0xbde14010	-0.10998547
243	0x3cce4112	0.025177512
244	0xbeed2042	-0.46313673
245	0xbe9efa3b	-0.31050286
246	0xbecd7e21	-0.4013529
247	0xbedfc3ff	-0.4370422
248	0x3e2951bc	0.16535085
249	0xbdcdc029	-0.10046417
250	0x3e91e5fd	0.2849578
251	0x3d71b747	0.059012678
252	0x3dee710d	0.116426565
253	0xbe6abf2e	-0.22924492
254	0x3d385c13	0.045009684
255	0x3db3a4b4	0.08771649

rnn.bias_ih_l0 f4 [20]
0	0x3bdd7d5e	0.0067593297
1	0x3e842d9d	0.2581605
2	0xbd3bb401	-0.045825962
3	0x3ea427b8	0.32061553
4	0xbe7a689e	-0.24453971
5	0x3d719fe7	0.058990385
6	0xbd3516e7	-0.044211295
7	0x3da0253c	0.07819602
8	0x3daa7290	0.08322632
9	0x3e2c3809	0.1681825
10	0xbddea77a	-0.10871787
11	0xbe443a6f	-0.19162916
12	0x3ea8add6	0.32945126
13	0x3e9cc745	0.3062078
14	0x3da98e08	0.082790434
15	0x3e41f60a	0.18941513
16	0xbe36078a	-0.17776313
17	0xbe4bcbda	-0.19901982
18	0x3e5efbc2	0.21775725
19	0xbd5f5739	-0.05452654

rnn.bias_hh_l0 f4 [20]
0	0x3e817e98	0.25291896
1	0xbbf8de7d	-0.007594882
2	0xbebe339f	-0.3714876
3	0x3dd8c8ea	0.10585196
4	0xbf0bd203	-0.5461733
5	0x3d5fb7f1	0.05461878
6	0xbe5122c8	-0.20423424
7	0xbd4c9587	-0.049947288
8	0xbe37fd3c	-0.17967695
9	0x3dc6ee3e	0.0971341
10	0x3d170b11	0.036875788
11	0xbebb8b71	-0.36629823
12	0x3e85d530	0.26139212
13	0xbb35b581	-0.0027726593
14	0x3d6312ce	0.055437855
15	0x3d8269cf	0.06367838
16	0xbe996f98	-0.29967952
17	0xbe42ed7a	-0.19035903
18	0x3dbe43f5	0.092903055
19	0xbd3cf73b	-0.046134215

classify.weight f4 [7, 20]
0	0xbf055c43	-0.52093905
1	0xbea71ab7	-0.3263757
2	0xbde6dbad	-0.112723686
3	0x3e0a55f5	0.13509353
4	0xbe3645f4	-0.17800122
5	0xbef7074b	-0.48247752
6	0x3e0a6175	0.1351374
7	0xbed48eab	-0.41515097
8	0x3e0ade4b	0.1356136
9	0x3e8d350f	0.27579543
10	0xbdfec6c8	-0.12440258
11	0xbe120e13	-0.14263181
12	0xbe78c6d3	-0.24294595
13	0xbebe8c12	-0.3721624
14	0xbf2d1f8c	-0.6762626
15	0x3e521a12	0.20517758
16	0xbdbadc77	-0.091240816
17	0x3ef7c849	0.48394993
18	0x3ecf38a8	0.40472913
19	0xbf014e81	-0.5051041
20	0xbed81bfb	-0.42208847
21	0xbefacddc	-0.48985183
22	0xbe4414d6	-0.19148573
23	0x3e61df71	0.22057892
24	0xbd0a815a	-0.033814766
25	0x3f0e8f28	0.5568719
26	0x3ee726a1	0.4514666
27	0xbdc99ffd	-0.098449685
28	0x3d453a9f	0.04815161
29	0x3e51ecf0	0.2050054
30	0x3f0f148f	0.55890745
31	0x3f0972d4	0.5369084
32	0xbead2917	-0.33820412
33	0xbefe10a5	-0.49622074
34	0x3e9bb8cf	0.30414435
35	0xbe943a18	-0.28950572
36	0xbe9fc9db	-0.3120869
37	0x3e15f0b5	0.14642604
38	0x3ee3a330	0.4446044
39	0xbefb82e1	-0.4912329
40	0x3e490df5	0.1963423
41	0xbf00fcf0	-0.5038595
42	0xbd4898c3	-0.04897381
43	0x3eb5f994	0.35541975
44	0xbe4c59ad	-0.19956084
45	0x3eee9764	0.46599877
46	0x3e6bab26	0.23014507
47	0x3df2c0d5	0.11853186
48	0xbf1ec5a5	-0.6202033
49	0x3e8d68e1	0.2761908
50	0x3ec0950b	0.3761371
51	0xbef31270	-0.47475004
52	0x3de6da68	0.112721264
53	0x3d24390b	0.040093463
54	0x3d9a715f	0.07541155
55	0xbed99485	-0.42496124
56	0x3ee5f7eb	0.4491571
57	0x3f03d6a2	0.5149938
58	0xbf032674	-0.5123055
59	0xbe643acf	-0.22288059
60	0x3e12e583	0.14345364
61	0x3ecf9dbc	0.4055003
62	0x3ebbe8db	0.36701092
63	0xbe8bb02e	-0.27282852
64	0xbe795f16	-0.24352679
65	0x3e900031	0.28125146
66	0x3e1e447c	0.15455812
67	0xbf0d82fb	-0.55277985
68	0xbe77ee56	-0.24212012
69	0x3da7e170	0.08197296
70	0x3f031294	0.5120022
71	0x3f02d9da	0.51113665
72	0xbf17b20b	-0.59256047
73	0x3e38a481	0.18031503
74	0xbe3293f3	-0.1743925
75	0xbe9a6a3d	-0.30159178
76	0x3ea6a68c	0.3254894
77	0xbe0d9c97	-0.13829266
78	0xbf23ef4d	-0.6403702
79	0x3f09af6d	0.53783303
80	0xbf07b8d4	-0.530164
81	0x3e823ac1	0.2543545
82	0x3f07d2cc	0.53056026
83	0xbf1eb4f1	-0.61994845
84	0x3f319860	0.6937313
85	0x3e056547	0.13026915
86	0x3ed5718c	0.41688192
87	0x3ef1b5bd	0.47208968
88	0xbea060f9	-0.31323984
89	0x3ea17128	0.31531644
90	0xbed62ee4	-0.4183265
91	0xbda5da57	-0.08098286
92	0x3e2675e3	0.16255908
93	0xbb104b4e	-0.0022017541
94	0x3df79e30	0.12090719
95	0xbe55ffd5	-0.20898373
96	0x3e4e5b33	0.20151977
97	0x3e94f9d5	0.29096857
98	0xbedf53cc	-0.4361862
99	0x3ee8f212	0.45497185
100	0x3dd48b2c	0.103781074
101	0x3edeba98	0.43501735
102	0x3f2c2ac1	0.6725274
103	0xbee080b3	-0.4384819
104	0x3eea44f7	0.4575574
105	0xbe68d22c	-0.22736424
106	0xbe3be3bd	-0.18348594
107	0x3ebc876f	0.36822078
108	0xbe8645ff	-0.26225278
109	0x3e467bb4	0.19383126
110	0x3e677702	0.22603992
111	0xbd083fd1	-0.033263985
112	0xbf1c1b44	-0.60979104
113	0xbf0963a7	-0.5366768
114	0xbd48597d	-0.048913468
115	0x3ecbad99	0.39780882
116	0x3edb1d88	0.42795968
117	0xbe50f4b3	-0.20405845
118	0x3ee48d1d	0.4463891
119	0xbefd5b22	-0.4948359
120	0x3ed9194d	0.42402115
121	0x3ede87b6	0.43462914
122	0xbeb41997	-0.35175774
123	0x3c0d8435	0.008637478
124	0xbeb21796	-0.3478362
125	0xbe9bd489	-0.3043559
126	0xbe91027e	-0.28322214
127	0x3ec8ac18	0.39193797
128	0x3e82f128	0.25574613
129	0xbece4ce8	-0.4029305
130	0xbe61aead	-0.2203929
131	0xbedc0e46	-0.4297964
132	0x3e62a1a0	0.22131968
133	0x3e948093	0.29004344
134	0x3e87d4cb	0.26529536
135	0x3eb14345	0.34621635
136	0xbed63c09	-0.41842678
137	0xbedf5ab4	-0.43623888
138	0x3e862f75	0.26208082
139	0x3e07f25a	0.13276044

classify.bias f4 [7]
0	0xbdd1688b	-0.10225018
1	0xbe13595d	-0.14389558
2	0xbe74dc6d	-0.23912211
3	0xbe069119	-0.13141288
4	0xbe32fc13	-0.17478971
5	0xbec38656	-0.38188428
6	0xbd6205d6	-0.055181347
