chenenze/week3/model.pth (torch, 6291 bytes, 7 tensors)

embedding.weight f4 [28, 10]
0	0xbee8d815	-0.45477358
1	0xbf657a9b	-0.89640206
2	0xbeab3b58	-0.33443713
3	0xbecab101	-0.39588168
4	0x3dd14736	0.102186605
5	0xbd961238	-0.07327694
6	0xbfc6bb40	-1.5525894
7	0xbed8f3be	-0.4237346
8	0x3e883d9e	0.2660951
9	0xbfa0245e	-1.2511098
10	0x400c872b	2.19575
11	0x3fc21192	1.5161612
12	0x3f0df94e	0.55458534
13	0x3f67447e	0.90338886
14	0xc0105e43	-2.2557533
15	0xc0693313	-3.6437423
16	0x3fe96cdc	1.8236346
17	0x3ff481a9	1.9102069
18	0xbfce6d63	-1.6127132
19	0xbf2cecbd	-0.67548734
20	0xbfe95213	-1.8228172
21	0xbe21ba77	-0.15793787
22	0x3f1a1b98	0.60198355
23	0xbdfe301f	-0.12411522
24	0xc00e2bb6	-2.221418
25	0xbf401836	-0.7503694
26	0x3e7dcd26	0.24785289
27	0xbd8e8242	-0.069584385
28	0x3e936322	0.2878657
29	0xbcda2623	-0.026629513
30	0x3e8e042b	0.27737555
31	0xbfaf9f71	-1.3720533
32	0x3f0e3ada	0.5555855
33	0xbf5b258c	-0.85604167
34	0xbf8c271c	-1.0949435
35	0xbf6c7621	-0.9236775
36	0xbeb31564	-0.34977257
37	0xbd7810bd	-0.060562838
38	0xbf5b3dfc	-0.85641456
39	0x3c8b734b	0.01702275
40	0x3fff515f	1.9946707
41	0x3ee33352	0.44375092
42	0xbf0c5669	-0.5481935
43	0xbec127df	-0.37725732
44	0xbe26ee23	-0.1630178
45	0xbe979eb4	-0.29613268
46	0xbe21b8ad	-0.15793104
47	0xbf4d3d48	-0.8017163
48	0x3fc1651d	1.5108982
49	0xbf39b06d	-0.7253483
50	0xbf6e72ac	-0.93143725
51	0x3f6bb83f	0.9207801
52	0x3f323abc	0.6962087
53	0xbed723b0	-0.42019415
54	0xbf1d79d8	-0.61514044
55	0x3ebab3ab	0.364652
56	0x3ebd9733	0.37029418
57	0xbc4e3827	-0.01258663
58	0x3f81577a	1.0104821
59	0xbdf5724a	-0.119846895
60	0xbee2bb76	-0.44283646
61	0x3f994657	1.1974591
62	0x3f80eee1	1.00729
63	0x3fce1fc6	1.6103446
64	0xbf35a084	-0.7094805
65	0x3f4a8f3a	0.79124796
66	0xbf843332	-1.0328124
67	0x3deecf48	0.116606295
68	0xbf06ee2b	-0.52707165
69	0xbf9dea9b	-1.2337221
70	0x3e1894ea	0.14900556
71	0xbeb9f7d2	-0.36321884
72	0x3f8dc1a4	1.107472
73	0xbdecbc6f	-0.11559378
74	0x3f99be46	1.2011192
75	0xbf901b4a	-1.1258328
76	0xbfabe3b9	-1.342887
77	0x3fb70843	1.4299396
78	0x3f1604f7	0.58601326
79	0xbea6e4ae	-0.32596344
80	0xbe732931	-0.23746182
81	0xbf8e2407	-1.1104745
82	0xbe24233d	-0.16029067
83	0x3ed459f9	0.41474894
84	0xbfa9c9b8	-1.3264685
85	0x3e62ac93	0.22136144
86	0xbc8737ee	-0.016506162
87	0x3fcfd476	1.6236713
88	0x3f7f582d	0.9974392
89	0xbf42f61a	-0.7615677
90	0xbef38287	-0.47560522
91	0xbf961b46	-1.1727073
92	0xbfafac21	-1.3724405
93	0xbe529771	-0.20565583
94	0x3fb9bba4	1.4510388
95	0xbe677cfa	-0.22606269
96	0x3f0bdb77	0.5463175
97	0x3f2e55d9	0.68099743
98	0xbef11f37	-0.47094128
99	0x3e12e810	0.14346337
100	0xbe3c7461	-0.1840377
101	0x3fb1160a	1.3834851
102	0x3fdd08dc	1.7268329
103	0xbd1737d9	-0.036918495
104	0x3f6d7078	0.9274974
105	0x3f87730b	1.0581983
106	0xbdd6afc8	-0.10482746
107	0xbf576c59	-0.841497
108	0xbf6d87a1	-0.9278508
109	0x3f23de24	0.64010835
110	0x3ed0448d	0.406773
111	0xbf5adb9a	-0.85491335
112	0x3e877b55	0.26461282
113	0xbfa6f135	-1.304236
114	0x3f8c759a	1.0973389
115	0xbf418833	-0.7559845
116	0xc00dc8fb	-2.2153919
117	0xbfde1471	-1.7349988
118	0xbe3357c5	-0.1751395
119	0x3f417572	0.7556983
120	0x3e0415ad	0.12898894
121	0xbfb83446	-1.4390953
122	0xbfe677d9	-1.8005325
123	0x3f16e413	0.58941764
124	0xbf5a99da	-0.8539101
125	0x3ee51628	0.44743466
126	0xbf40bac1	-0.75284964
127	0xbf87b5e3	-1.0602382
128	0x3f4906d6	0.78526056
129	0x3ede3662	0.43400866
130	0xc01089b0	-2.2584038
131	0x3d502927	0.050820496
132	0xbe36ffde	-0.17871043
133	0x3eb51751	0.35369352
134	0x3e143abd	0.14475532
135	0x3f30dbf5	0.6908563
136	0xbf9b5ec9	-1.2138301
137	0x3f7c68ae	0.9859723
138	0xc0194d27	-2.395334
139	0xbf060a64	-0.52359605
140	0xbdb302d4	-0.08740774
141	0xbf8b0fbc	-1.0864177
142	0x3cf34550	0.029696137
143	0x3eaec551	0.34134915
144	0xbf689180	-0.90847015
145	0xbee73fdc	-0.45165908
146	0xbf9d3c7a	-1.2284081
147	0x3f7a180a	0.9769293
148	0x3f2b6e49	0.66965157
149	0x3eaf3d41	0.3422642
150	0xbe0494f5	-0.12947448
151	0xbe4c188d	-0.1993124
152	0xbdfff765	-0.12498359
153	0x3f54865e	0.8301753
154	0xbf38bf9a	-0.7216736
155	0x3fa5f6c9	1.2965938
156	0x3e81f42f	0.2538161
157	0xbf9b5736	-1.213599
158	0x3f801c43	1.0008625
159	0xbf768583	-0.9629747
160	0x3f286201	0.6577454
161	0x3fa88ede	1.31686
162	0x3fed668d	1.8546921
163	0xbe695b88	-0.22788823
164	0xbebd03d2	-0.36916977
165	0xbe8c95d0	-0.27458048
166	0x3ea37d9b	0.31931767
167	0x3fb8496c	1.4397407
168	0x3e8b3e29	0.27195862
169	0xbe7cfcc7	-0.24705802
170	0x3ee4103b	0.44543633
171	0xbf5b5479	-0.8567577
172	0x3f9d80fd	1.2304989
173	0x3fb12c9c	1.3841739
174	0xbe03d176	-0.12872872
175	0xbec4e0d4	-0.3845278
176	0x3dfa2235	0.12213556
177	0xbfad3929	-1.3533069
178	0xbf9d90e0	-1.2309837
179	0xbe599c17	-0.2125095
180	0xbe2002c0	-0.15626049
181	0x3f9d6e39	1.2299262
182	0xbe47b291	-0.19501711
183	0xbf9809cf	-1.1877993
184	0x3f7a5d1a	0.9779831
185	0xbf9f9196	-1.2466304
186	0x3f0bd6ab	0.5462443
187	0xbc9311bf	-0.017952798
188	0x3f4ed5ad	0.80794793
189	0xbe939f4b	-0.28832468
190	0xbf598d8e	-0.8498162
191	0x3f6c8c2a	0.92401373
192	0xbd627630	-0.055288494
193	0xbf363e2c	-0.71188617
194	0xbd880355	-0.066412605
195	0xbf047a0e	-0.5174874
196	0x3da88f03	0.08230402
197	0x3ee565e3	0.44804296
198	0x3ec4d20d	0.38441506
199	0x3f94c558	1.1622725
200	0x3f562fc2	0.8366662
201	0x3f8adee0	1.0849266
202	0xbe37ceeb	-0.17950027
203	0xbedd3383	-0.43203363
204	0xbe9c1095	-0.304814
205	0xbfb10b0a	-1.3831494
206	0xbf491dba	-0.78560984
207	0xbed99bdd	-0.42501727
208	0x3f6fcb21	0.93669325
209	0x3f17089d	0.5899752
210	0xbe267f7b	-0.16259567
211	0xbf391def	-0.723113
212	0x3e6386f1	0.22219445
213	0x3f14c638	0.5811496
214	0xbf83fad7	-1.0310925
215	0xbf86b729	-1.0524646
216	0x3fe76aa7	1.8079423
217	0x3c6a3376	0.014294496
218	0xbfc3bb33	-1.5291504
219	0x3fcb7f17	1.589816
220	0xbfcd6496	-1.6046321
221	0x3fc6cf3b	1.5531992
222	0xbf7b4120	-0.9814625
223	0xbf3f9d5d	-0.7484949
224	0xbf1dd062	-0.6164609
225	0xbf7fa1e9	-0.9985643
226	0xbf3864b3	-0.72028655
227	0x3e9fa6e5	0.31182018
228	0xbf009726	-0.50230634
229	0x3f8f83ac	1.1212058
230	0x3f232011	0.63720804
231	0x3ef3bb1f	0.476037
232	0x3e679f15	0.22619279
233	0x3fb99adc	1.4500384
234	0x3d617db0	0.055051506
235	0xbe7ab0e8	-0.24481547
236	0xc000fb8a	-2.0153527
237	0xbde798f4	-0.1130847
238	0x3fd017a9	1.625722
239	0xbec797b4	-0.38982928
240	0xbf8711a8	-1.0552263
241	0xbd0f7e52	-0.035032578
242	0xbfd5cad8	-1.6702528
243	0xbf2f5ed5	-0.6850408
244	0xbf00225c	-0.5005243
245	0xbc80572d	-0.015666569
246	0x3f1939bc	0.5985372
247	0x3e589207	0.21149455
248	0x3ff0b4e1	1.88052
249	0xbfc3520d	-1.5259415
250	0x3f456624	0.7710898
251	0xbf79ea37	-0.9762301
252	0xbf091cff	-0.5355987
253	0xbf4a9905	-0.7913974
254	0xbfb1715b	-1.3862718
255	0x3ec8872f	0.39165637

rnn.weight_ih_l0 f4 [20, 10]
0	0xbe827007	-0.25476095
1	0xbdf2f6e9	-0.118635006
2	0xbe325e05	-0.17418678
3	0xbda50877	-0.08058255
4	0xbca33229	-0.01992138
5	0x3f0b3f6d	0.54393655
6	0xbf36800a	-0.7128912
7	0xbe0fcfae	-0.14044067
8	0x3e879c45	0.26486412
9	0x3e53793c	0.20651716
10	0x3e6fc75e	0.23415896
11	0x3e23bae4	0.15989262
12	0xbd4e407a	-0.05035446
13	0x3de78c38	0.113060415
14	0xbdb276fc	-0.08714101
15	0xbe7272db	-0.23676626
16	0x3ea91963	0.3302718
17	0xbcd928d1	-0.02650872
18	0xbe749ee9	-0.23888744
19	0x3dc08644	0.09400609
20	0x3e9e6fa3	0.30944547
21	0xbdb6c2cc	-0.08923873
22	0x3ea966d7	0.33086273
23	0x3e01d765	0.12679823
24	0xbe97c334	-0.29641116
25	0x3d10e6c0	0.03537631
26	0x3e62cb38	0.22147834
27	0xbd0378a7	-0.032097485
28	0x3d056b1b	0.032572847
29	0xbeb130e0	-0.346076
30	0xbe711d7b	-0.23546402
31	0xbea9d071	-0.3316684
32	0x3dc0765a	0.09397574
33	0xbe4f9eab	-0.20275371
34	0x3e8dbe3c	0.276842
35	0xbbcf9b5e	-0.00633566
36	0xbebb0fa1	-0.3653536
37	0xbe74ac31	-0.23893811
38	0x3e2dbddc	0.16966957
39	0xbd13a4c1	-0.036045793
40	0xbcf05ccd	-0.029341126
41	0xbe804fba	-0.25060827
42	0x3e43fe0f	0.19139884
43	0xbeb53ad3	-0.35396442
44	0xbd860304	-0.06543544
45	0x3e723b71	0.23655488
46	0xbef83a36	-0.4848191
47	0xbe0f2de6	-0.13982353
48	0x3e5e863a	0.21730891
49	0xbe85a295	-0.26100603
50	0x3d37ef32	0.04490585
51	0x3d380232	0.04492397
52	0xbe4198b9	-0.18905915
53	0x3d58d4dc	0.052937374
54	0xbc96bcc8	-0.018400565
55	0xbdea3714	-0.114362866
56	0x3eb4427c	0.35206974
57	0x3eaac88b	0.33356127
58	0xbea3cf1a	-0.31993943
59	0x3e116690	0.1419928
60	0x3e32fb1c	0.17478603
61	0x3e4ed574	0.20198613
62	0x3d88d41f	0.06681084
63	0x3e941d09	0.28928402
64	0x3c24196c	0.010015827
65	0xbef6de3e	-0.48216432
66	0x3ee70216	0.4511878
67	0x3e30cad6	0.17264876
68	0xbe429bcf	-0.19004749
69	0xbde44fa8	-0.11148006
70	0x3e9285e3	0.28617772
71	0x3ed68ab3	0.41902694
72	0x3b741d50	0.0037248917
73	0x3d8111e6	0.06302242
74	0xbe3db562	-0.18526223
75	0xbec87ad6	-0.39156216
76	0x3ebf0fc5	0.3731672
77	0x3efef0ae	0.49793
78	0xbe3fe6cb	-0.18740384
79	0x3d8d6282	0.069035545
80	0x3e6ad8be	0.22934243
81	0x3e84e84c	0.25958478
82	0x3e1f2715	0.15542252
83	0x3de60423	0.11231258
84	0x3d1e2580	0.03860998
85	0xbebe3565	-0.37150112
86	0x3f17414a	0.59084
87	0x3e7647e9	0.24050869
88	0xbe7cae0a	-0.24675766
89	0xbc81d5ae	-0.01584896
90	0xbd813e3d	-0.06310699
91	0xbe4330aa	-0.19061533
92	0x3e524cf4	0.20537168
93	0xbe86b69d	-0.26311198
94	0xbe42fb1b	-0.19041102
95	0x3e96d069	0.2945588
96	0xbee4661b	-0.4460915
97	0xbd9702a7	-0.07373553
98	0x3e9b92f8	0.30385566
99	0x3ccd408a	0.025055189
100	0x3e971175	0.29505506
101	0x3e508201	0.20362093
102	0x3d560572	0.052251287
103	0x3e8155b2	0.25260693
104	0xbdee0c45	-0.11623434
105	0xbed9a229	-0.4250653
106	0x3ecb4a15	0.39704958
107	0x3ea1c7cb	0.31597742
108	0xbe838456	-0.25686902
109	0xbdacc566	-0.08436088
110	0x3e107370	0.14106536
111	0x3d3131b1	0.04326028
112	0x3ea5f0f3	0.32410392
113	0xbe085888	-0.13315022
114	0xbe09ac02	-0.13444522
115	0xbd352c2a	-0.04423157
116	0x3e35e6a2	0.1776376
117	0x3e1b9bbe	0.1519613
118	0x3d5ae608	0.05344203
119	0xbedfc780	-0.43706894
120	0x3b7fd69e	0.0039037834
121	0xbe193b3b	-0.14964001
122	0x3e4bdc64	0.19908291
123	0x3e284a5d	0.16434617
124	0xbe368960	-0.17825842
125	0x3e4e88c7	0.20169364
126	0xbe7f8bda	-0.24955693
127	0xbe5aca7c	-0.21366304
128	0x3f02b4d9	0.510572
129	0x3d8da90a	0.06917007
130	0xbe757035	-0.23968585
131	0xbe7deab2	-0.2479656
132	0x3c3c2172	0.011482583
133	0xbdf4dd34	-0.11956254
134	0x3dcb7618	0.09934634
135	0x3f00fd77	0.50386757
136	0xbf10d33a	-0.56572306
137	0xbe83833e	-0.25686067
138	0x3e3c0dba	0.18364611
139	0xbb02bbee	-0.001994844
140	0xbe515c62	-0.20445397
141	0xbed144ef	-0.40872905
142	0xbe1c1c47	-0.15245162
143	0xbdee41c9	-0.11633641
144	0x3d2ff508	0.04295829
145	0x3ec5b341	0.38613322
146	0xbef594ca	-0.4796508
147	0xbef43874	-0.4769932
148	0x3e634bd1	0.2219689
149	0xbc7f6ba8	-0.015589632
150	0x3e866c76	0.26254624
151	0x3d4a7fe3	0.04943837
152	0x3e9b6612	0.3035131
153	0x3d8698eb	0.065721355
154	0xbe06b69f	-0.13155602
155	0xbe28b468	-0.1647507
156	0xbd13866f	-0.036016878
157	0x3c0a17eb	0.008428554
158	0x3c766c27	0.015040434
159	0xbd10cf9b	-0.035354238
160	0xbe0bb926	-0.13644847
161	0xbe82b0ed	-0.2552561
162	0x3d56362c	0.052297756
163	0x3dd016b8	0.10160583
164	0xbe0a7a12	-0.13523129
165	0x3ca2ebb1	0.019887777
166	0xbf0d8caf	-0.5529279
167	0xbe921cea	-0.28537685
168	0x3ea37635	0.31926122
169	0xbd0f8c12	-0.03504569
170	0xbdecb9dd	-0.11558888
171	0xbe65ab04	-0.22428519
172	0x3e7bec32	0.2460182
173	0xbe694645	-0.22780712
174	0x3d3f6525	0.04672732
175	0x3e7ac319	0.24488486
176	0xbe7cf998	-0.24704587
177	0xbe33baad	-0.1755168
178	0x3d364f92	0.044509478
179	0xbe04fc87	-0.12986957
180	0x3de81be0	0.11333442
181	0x3e6a4a76	0.22879967
182	0xbdd516a6	-0.104047105
183	0x3dbae9bb	0.09126612
184	0xbde41521	-0.111368425
185	0xbeadaac6	-0.33919352
186	0x3eefdb7b	0.46847138
187	0x3edfe695	0.43730608
188	0xbe7f2b46	-0.24918851
189	0xbdd07968	-0.101794064
190	0x3ec2ae4c	0.38023603
191	0x3eb02890	0.34405947
192	0x3df29e62	0.118466154
193	0x3d8d74b2	0.069070235
194	0xbea49e32	-0.32151943
195	0xbeca5190	-0.39515352
196	0x3ef3edc1	0.4764233
197	0x3ef7f193	0.48426494
198	0xbefb7565	-0.49113002
199	0xbe31a81c	-0.17349285

rnn.weight_hh_l0 f4 [20, 20]
0	0x3e052e91	0.13006045
1	0x3cd0bc3c	0.025480382
2	0xbe07e0f0	-0.132694
3	0xbe9c481d	-0.30523768
4	0x3df72e7e	0.120694146
5	0xbdbdf2f2	-0.09274854
6	0xbf0d8c98	-0.55292654
7	0xbedda64d	-0.4329094
8	0xbecea9bd	-0.40363875
9	0x3e564157	0.20923363
10	0xbe868d55	-0.26279703
11	0x3e419b78	0.18906963
12	0xbdcb2354	-0.09918848
13	0x3ef11562	0.47086626
14	0x3dae067a	0.08497329
15	0x3c403e68	0.011733629
16	0xbd744d22	-0.059643872
17	0xbce6d204	-0.028176315
18	0xbd42bb48	-0.047541887
19	0xbd249a7a	-0.040186383
20	0xbd59df71	-0.053191606
21	0x3d908c83	0.070580505
22	0xbe651972	-0.22372988
23	0x3ddb92f0	0.107213855
24	0xbe64cf68	-0.22344744
25	0x3eb23196	0.34803456
26	0x3c4b108b	0.012394081
27	0x3d2da6b5	0.042395312
28	0xbe239b84	-0.15977293
29	0xbe5e9cfe	-0.21739575
30	0x3e9936ef	0.29924724
31	0xbf0a7719	-0.5408798
32	0xbde5bae3	-0.112172864
33	0x3cd281a2	0.02569658
34	0x3db7ebf8	0.08980554
35	0xbf00e095	-0.50342685
36	0xbe4e7f5e	-0.20165774
37	0xbe9fb019	-0.3118904
38	0xbe089950	-0.13339734
39	0x3d82d2f8	0.06387895
40	0xbd9915e5	-0.07474879
41	0xbeda142e	-0.4259352
42	0x3cd08c35	0.02545748
43	0x3e7ae0ad	0.2449977
44	0x3e9a0d04	0.30088055
45	0xbed44fa3	-0.41467008
46	0xbe2356f2	-0.15951136
47	0x3e03ee27	0.12883817
48	0x3e07f76a	0.13277975
49	0x3ea60f16	0.32433385
50	0x3e017658	0.12642801
51	0x3dc0eee0	0.09420562
52	0x3e373f0f	0.17895149
53	0xba48e1c8	-0.00076630386
54	0x3d89ecaf	0.06734597
55	0x3ba46dc0	0.005017966
56	0x3ea89f1c	0.3293389
57	0x3f02e087	0.5112385
58	0x3daa71d8	0.08322495
59	0x3e7b5d6a	0.24547353
60	0x3e1b2d10	0.15153909
61	0xbeccfef5	-0.40038267
62	0x3ed67bb1	0.41891244
63	0x3b790fc8	0.003800379
64	0x3efd7646	0.49504298
65	0xbf0714b9	-0.52765995
66	0xbd950df8	-0.07278055
67	0xbed85d1f	-0.42258546
68	0x3ded945e	0.116005644
69	0x3ed2ff6a	0.4121049
70	0xbecb1327	-0.3966305
71	0x3e95ae27	0.2923443
72	0x3ec0a327	0.37624475
73	0xbdc54146	-0.096315905
74	0x3d9a87fc	0.07545468
75	0x3f0662b5	0.52494365
76	0x3e9092e4	0.2823707
77	0x3f01e1a6	0.5073494
78	0x3dcaa16f	0.09894072
79	0xbe198d16	-0.14995226
80	0xbda8506b	-0.082184635
81	0xbe76433b	-0.24049084
82	0x3e6dca40	0.23221684
83	0xbdd210eb	-0.10257133
84	0xbd3d9f9c	-0.046294793
85	0xbeed9f81	-0.46410754
86	0xbe976bd9	-0.2957447
87	0xbef51aa7	-0.47871897
88	0x3dcac20d	0.099002935
89	0x3eab171f	0.33416077
90	0xbded5690	-0.11588776
91	0x3e1849d2	0.1487191
92	0x3f176c0a	0.5914923
93	0x3e79b44c	0.24385184
94	0x3dde04f7	0.10840791
95	0x3e8485e4	0.258834
96	0x3e6bacbd	0.23015113
97	0x3ef7bebb	0.48387703
98	0x3e80de52	0.25169617
99	0x3e35e315	0.17762406
100	0xbe82fc57	-0.25583145
101	0x3e721896	0.23642191
102	0xbeb1609c	-0.3464402
103	0x3e2d3b28	0.16917098
104	0xbdbc8c04	-0.09206393
105	0x3c51cac5	0.012804692
106	0x3ed7cbe8	0.42147756
107	0x3e23b7cb	0.1598808
108	0xbe1c16d5	-0.15243085
109	0xbe5070b5	-0.20355494
110	0x3eceaad8	0.40364718
111	0xbd9a0e74	-0.07522288
112	0xbec3cb10	-0.38240862
113	0xbd3504cb	-0.044194024
114	0xbd8c3da2	-0.06847693
115	0xbe0b328c	-0.13593501
116	0xbeb70b80	-0.3575096
117	0xbecedf15	-0.40404573
118	0xbe87baa8	-0.26509595
119	0xbda21d41	-0.07915736
120	0xbdef20ed	-0.11676202
121	0xbe2ba3b4	-0.16761667
122	0xbdbba44f	-0.09162199
123	0xbdefba57	-0.117054634
124	0xbd8ed49b	-0.06974145
125	0xbe8106d5	-0.25200525
126	0x3ed81e02	0.42210394
127	0x3efe2c7a	0.49643308
128	0x3e751ba7	0.2393633
129	0xbe243a11	-0.16037776
130	0x3e3e9251	0.18610503
131	0xbe6843c5	-0.22682102
132	0x3e1de0a3	0.15417723
133	0xbec48316	-0.3838126
134	0xbe9d9b4f	-0.30782554
135	0xbebb24ac	-0.36551416
136	0x3e4d731f	0.20063446
137	0xbd9f95f1	-0.07792271
138	0xbda03da8	-0.0782426
139	0xbe0811d5	-0.13288052
140	0xbe8b1316	-0.27163
141	0x3d20c051	0.039245907
142	0xbe11aa3c	-0.14225096
143	0x3e7e0589	0.24806799
144	0x3d852a28	0.06502181
145	0x3e303c46	0.17210492
146	0x3e938a1d	0.2881631
147	0x3e0c5783	0.13705258
148	0x3ee25cdb	0.44211468
149	0xbe1f4ff8	-0.1555785
150	0x3ec7564d	0.3893303
151	0x3d717c10	0.058956206
152	0xbe146890	-0.14493012
153	0xbeab44a1	-0.33450797
154	0xbeaaee9d	-0.33385172
155	0xbe63101c	-0.22174114
156	0xbd4e80a0	-0.050415635
157	0x3e2e122e	0.16999123
158	0xbdb93669	-0.09043581
159	0x3e878264	0.26466668
160	0xbdfb64a0	-0.12275052
161	0x3eaefd8e	0.34177822
162	0xbb082532	-0.0020774123
163	0xbe3bc806	-0.18338022
164	0xbe6110b0	-0.21979022
165	0xbe01d4cc	-0.12678832
166	0x3f20fb25	0.62883216
167	0x3ef09bc9	0.46993855
168	0x3ee62c33	0.44955596
169	0xbe2044c6	-0.15651235
170	0x3ead2f9f	0.33825395
171	0xbde7f3f0	-0.11325824
172	0x3e10f950	0.14157605
173	0xbe667054	-0.22503787
174	0xbe6d7219	-0.23188056
175	0xbd501fca	-0.050811566
176	0x3d8cb197	0.0686981
177	0x3d804f72	0.06265153
178	0x3e9d95ac	0.30778253
179	0x3da4f02f	0.08053624
180	0x3d9c17bb	0.07621714
181	0xbe1eb38a	-0.15498176
182	0xbd4910a8	-0.04908815
183	0x3e41cf14	0.1892665
184	0x3e8188ed	0.2529978
185	0xbe394bf1	-0.18095376
186	0xbe89f0e2	-0.26941592
187	0xbf05cda5	-0.52266914
188	0x3c3dd2c7	0.011585898
189	0x3ea489a2	0.32136256
190	0xbda67d15	-0.08129326
191	0x3eb82077	0.3596227
192	0x3ed76a59	0.42073324
193	0xbd74b5f3	-0.059743833
194	0x3e89c173	0.26905403
195	0x3e7720d1	0.24133612
196	0x3e339113	0.1753581
197	0x3ed6f9e8	0.41987538
198	0x3e1688ca	0.14700618
199	0x3e337cc3	0.17528062
200	0xbe853c41	-0.26022533
201	0xbe426d36	-0.18986973
202	0x3dcc035a	0.09961577
203	0xbdffc7f7	-0.12489312
204	0xbd945f5e	-0.07244752
205	0x3e59a127	0.21252881
206	0x3ee43f14	0.44579375
207	0x3dd32596	0.10309903
208	0x3db83426	0.089943215
209	0x3d49d405	0.049274463
210	0x3e8adb7c	0.27120578
211	0xbec820b2	-0.39087445
212	0x3e20801b	0.15673868
213	0xbe6e68a2	-0.23282102
214	0xbee78007	-0.45214865
215	0xbea3f31b	-0.32021412
216	0xbd3e2c31	-0.046428863
217	0x3d4cdeec	0.050017282
218	0x3d80d93f	0.062914364
219	0xbdc6fca5	-0.09716157
220	0xbe7ae726	-0.24502239
221	0xbe4c1b52	-0.19932297
222	0x3ed47293	0.41493663
223	0x3e19face	0.1503708
224	0x3e6f9cc6	0.23399648
225	0xbe8d4ffd	-0.2760009
226	0xbe4f635d	-0.20252748
227	0xbd0c8ead	-0.034315754
228	0xbd927f89	-0.07153232
229	0x3ec11e57	0.3771846
230	0x3d8c8491	0.068612225
231	0x3e140a23	0.14456992
232	0x3d2db3c8	0.04240778
233	0x3c90e5d4	0.017687716
234	0x3d1de6dd	0.038550247
235	0x3ed8abe6	0.42318648
236	0x3eb9bcdc	0.362769
237	0x3e5e60f9	0.2171668
238	0x3e78a682	0.24282268
239	0x3e06783e	0.13131806
240	0x3e0787b4	0.1323536
241	0xbde787a6	-0.1130517
242	0x3e082e9b	0.13299029
243	0x3d450fae	0.048110656
244	0xbda8e55c	-0.08246872
245	0xbdb42b9d	-0.08797381
246	0xb9a488ca	-0.00031382433
247	0xbc5c49c0	-0.013445318
248	0x3db40c40	0.08791399
249	0x3e7d6aeb	0.24747817
250	0xbe738e2e	-0.23784706
251	0x3eecc8a6	0.46246833
252	0xbc89b175	-0.01680825
253	0xbe0e1f88	-0.13879216
254	0x3e06ffe3	0.1318355
255	0x3ed4f4bc	0.41592968

rnn.bias_ih_l0 f4 [20]
0	0x3e12396d	0.14279719
1	0xbeb35d22	-0.35031992
2	0x3e778d8f	0.24175094
3	0x3e007d25	0.12547739
4	0x3e659eb3	0.2242382
5	0xbe81334b	-0.25234446
6	0xbe84ec21	-0.25961402
7	0xbe3bcff1	-0.18341042
8	0xbbfff913	-0.0078116744
9	0x3e37281b	0.17886393
10	0xbc370083	-0.011169556
11	0x3e8c1807	0.2736208
12	0x39445461	0.0001872345
13	0xbccdb06e	-0.025108542
14	0x3ea04e58	0.31309772
15	0x3e7ecc63	0.24882655
16	0x3cfdb48d	0.030969882
17	0x3e8a5bab	0.27023062
18	0x3d0a84e8	0.033818156
19	0x3cecd146	0.028908383

rnn.bias_hh_l0 f4 [20]
0	0xbc679ed2	-0.014136987
1	0xbc32c174	-0.010910381
2	0x3d325824	0.04354109
3	0x3dc1a052	0.09454407
4	0x3e441846	0.19149885
5	0xbda259ba	-0.0792727
6	0xbe470939	-0.19437112
7	0xbe53c713	-0.2068141
8	0xbdcb8338	-0.09937137
9	0x3dcab3aa	0.098975495
10	0xbe8f931c	-0.28041923
11	0x3e8e226d	0.2776064
12	0x3e5db58f	0.2165129
13	0x3dcbe23e	0.09955262
14	0x3e036022	0.1282964
15	0x3ea4502b	0.32092413
16	0x3eb58e4d	0.3546013
17	0x3e797ab7	0.24363218
18	0x3ddb692f	0.107134216
19	0xbcb29c36	-0.021803003

output.weight f4 [10, 20]
0	0x3fcae1fd	1.5850216
1	0xbea88c9e	-0.32919782
2	0x3ce5425d	0.027985746
3	0x3ee1fca9	0.44138077
4	0x3ec4ce3d	0.38438597
5	0xbee21db1	-0.44163278
6	0xc0180575	-2.375333
7	0xc008d380	-2.137909
8	0xbfc0f264	-1.5073972
9	0x3ed0e10c	0.40796697
10	0xbfc97966	-1.5740173
11	0x3e8e83b8	0.27834868
12	0x3ef83416	0.48477238
13	0x3ff04c85	1.8773352
14	0x3feaf34e	1.8355501
15	0x3fa454cb	1.2838377
16	0x3f054d59	0.5207115
17	0x3f172c71	0.5905219
18	0xbf82ddb7	-1.0223912
19	0xbfe77c22	-1.8084757
20	0xbf718693	-0.9434597
21	0xbf508350	-0.81450367
22	0x3f037708	0.513535
23	0x3fc6e26e	1.5537851
24	0x3fb8d0b4	1.4438691
25	0xbf688f8e	-0.9084405
26	0x3f965818	1.1745634
27	0x3f5698df	0.8382701
28	0x3f00204a	0.5004927
29	0x3fbf0db5	1.4926058
30	0x3f06f519	0.5271774
31	0x3ebe47bb	0.371641
32	0x3f2c8b73	0.6740028
33	0xbf5203bd	-0.82036954
34	0xbe9cf41f	-0.30655
35	0x3dfbdc88	0.122979224
36	0x3f51b4fc	0.81916785
37	0x3f556f9e	0.8337344
38	0x3ede31d3	0.43397388
39	0x3f788682	0.9708024
40	0xbeb1961f	-0.34684846
41	0x3fa8cb90	1.3187122
42	0xbf1e981b	-0.61950845
43	0xbfbbd3f5	-1.4674059
44	0xbfe9efdd	-1.8276325
45	0x3fb51f7f	1.4150237
46	0x3f72ba70	0.9481573
47	0x3f6e342f	0.93048376
48	0x3f3aec01	0.73016363
49	0xbfefc274	-1.8731217
50	0x3f8a7dcc	1.081964
51	0xbf1a5514	-0.6028607
52	0xbf7b5bf8	-0.9818721
53	0xbf3ad2bc	-0.72977805
54	0xbf66db5b	-0.9017846
55	0xbf921bed	-1.1414772
56	0xbfcde00c	-1.6083999
57	0xbfd67c43	-1.6756672
58	0x3f44cbbd	0.7687338
59	0x3e8ec33a	0.2788332
60	0x3f3d341d	0.73907644
61	0x3ee2097b	0.44147858
62	0xbfa7c35d	-1.3106495
63	0xbee666b2	-0.45000225
64	0xbe11179d	-0.14169164
65	0x3ec21f39	0.37914446
66	0xbf343815	-0.70398074
67	0xbf0d83cd	-0.5527924
68	0xbf153333	-0.5828125
69	0xbea0ad08	-0.31382012
70	0xbea31b7e	-0.31856912
71	0xbf8c04c9	-1.093896
72	0xbef1cf0b	-0.47228274
73	0x3f85d1a9	1.0454608
74	0x3efb874e	0.49126667
75	0xbddfbd24	-0.109247476
76	0xbf0af243	-0.5427591
77	0xbf2cbcc2	-0.6747552
78	0xbeffce53	-0.499621
79	0xbf85b20b	-1.0444959
80	0x3f85033e	1.0391614
81	0x3f43d5a0	0.7649784
82	0xbf90c658	-1.131053
83	0xbe1d919c	-0.15387577
84	0xbea1d67f	-0.3160896
85	0x3edeca6a	0.43513805
86	0xbf4365f2	-0.7632743
87	0xbf02ea56	-0.5113882
88	0xbf712118	-0.9419112
89	0xbf1c09e5	-0.609526
90	0xbe9ad14b	-0.30237803
91	0xbf89ac1c	-1.0755649
92	0xbeea4a7f	-0.4575996
93	0x3f7de8f9	0.99183613
94	0x3efe69b4	0.4969002
95	0xbd320128	-0.043458134
96	0xbf0e8f53	-0.55687445
97	0xbed30ac0	-0.4121914
98	0xbed87f66	-0.42284697
99	0xbf30abe5	-0.6901229
100	0x3f8c71d3	1.0972236
101	0x3eeaa657	0.45830032
102	0xbf9837ae	-1.1891992
103	0xbee46614	-0.4460913
104	0xbed9f8e0	-0.4257269
105	0x3f1b40b5	0.6064561
106	0xbeddeccf	-0.43344733
107	0xbf2b0e3a	-0.66818583
108	0xbf44564c	-0.7669418
109	0xbede70cd	-0.43445435
110	0xbe9f676c	-0.31133592
111	0xbf8eedac	-1.1166282
112	0xbefe67bb	-0.49688515
113	0x3f545f08	0.82957506
114	0x3ed5e3a2	0.41775233
115	0x3c611dde	0.013740031
116	0xbe92d429	-0.2867749
117	0xbed346f5	-0.41265073
118	0xbf1e4645	-0.6182597
119	0xbf7b78c2	-0.98231137
120	0x3f7dc125	0.9912284
121	0x3f030ba5	0.51189643
122	0xbf7fd5ac	-0.9993541
123	0xbe68c8c6	-0.22732839
124	0xbe87c843	-0.26519975
125	0x3f1d6803	0.61486834
126	0xbf6b9ed4	-0.9203923
127	0xbeb02802	-0.34405524
128	0xbf54d4e0	-0.8313732
129	0xbf27afd8	-0.6550269
130	0xbe9b2c51	-0.30307248
131	0xbfa5fa82	-1.2967074
132	0xbed7704f	-0.42077872
133	0x3f437d13	0.76362723
134	0x3eebca48	0.46052766
135	0xbd06ae8f	-0.032881316
136	0xbefacbbc	-0.48983562
137	0xbee65c43	-0.44992265
138	0xbf0bf2c5	-0.5466731
139	0xbf84ae04	-1.0365605
140	0x3f7d94a4	0.9905493
141	0x3f2a1980	0.6644516
142	0xbf91ce15	-1.1391016
143	0xbee2691a	-0.4422081
144	0xbf1dbf6f	-0.6162023
145	0x3ea5e792	0.32403237
146	0xbf468f8e	-0.775628
147	0xbf2cce48	-0.6750226
148	0xbf2464d7	-0.6421637
149	0xbe8a4d38	-0.27012038
150	0xbec8a0d9	-0.39185217
151	0xbf8226cb	-1.0168089
152	0xbeab403b	-0.3344744
153	0x3f55f146	0.8357128
154	0x3e83bef3	0.2573162
155	0x3d347c3b	0.044063788
156	0xbe8c3b9a	-0.27389222
157	0xbf18252e	-0.5943173
158	0xbea3a8c1	-0.31964687
159	0xbf843502	-1.0328677
160	0x3f5e5abb	0.86857194
161	0x3f480d03	0.78144854
162	0xbf8bea27	-1.0930833
163	0xbf036956	-0.51332605
164	0xbec6aa1d	-0.3880166
165	0x3ebd8deb	0.37022337
166	0xbf62d3d1	-0.88604456
167	0xbf3165dc	-0.6929605
168	0xbf380930	-0.7188902
169	0xbea33549	-0.3187659
170	0xbeba4757	-0.36382553
171	0xbf9a1dbe	-1.2040327
172	0xbecedeaa	-0.40404254
173	0x3f590749	0.8477674
174	0x3f036e46	0.5134014
175	0xbe1a71ab	-0.15082423
176	0xbe8d5614	-0.27604735
177	0xbf24d42d	-0.64386255
178	0xbf23676a	-0.6382967
179	0xbf4d2d08	-0.8014684
180	0x3f83a640	1.028511
181	0x3efde641	0.49589732
182	0xbf9d2391	-1.2276479
183	0xbefe93a3	-0.49722013
184	0xbed9dd4e	-0.42551655
185	0x3efa24fa	0.48856336
186	0xbf2b7b2c	-0.6698482
187	0xbf1b680d	-0.60705644
188	0xbf7b86bf	-0.9825248
189	0xbf18f99c	-0.59755874
190	0xbe8085e8	-0.25102162
191	0xbf8999ab	-1.0750021
192	0xbea19052	-0.3155542
193	0x3f47c78c	0.7803886
194	0x3ed9dd09	0.4255145
195	0x3e612b93	0.21989278
196	0xbf0c3b7b	-0.5477826
197	0xbedd3f1b	-0.43212208
198	0xbf177e06	-0.5917667
199	0xbf544ba2	-0.82927907

output.bias f4 [10]
0	0xbdbbe2fe	-0.09174155
1	0x3d044ebe	0.032301657
2	0x3ea8cc20	0.32968235
3	0xbf9013b3	-1.1256012
4	0xbfaf58c9	-1.369897
5	0xbfd6f4aa	-1.6793416
6	0xbfb771c0	-1.4331589
7	0xbfce1eb8	-1.6103125
8	0xbfba093b	-1.4534067
9	0xbfbdd236	-1.4829776
